critic.pt (torch, 7831 bytes, 5 tensors)

layer_1.weight f4 [27, 31]
000000 9e 5d e9 bc a4 5c b7 bc 4f 69 6c 3d e1 b4 1a be
       -0.028487023 -0.022383042 0.057717618 -0.15108062
000010 73 66 36 be 32 12 20 3e f8 d0 1b 3d 8a ab c3 bd
       -0.17812519 0.15631941 0.038041085 -0.09554203
000020 d3 8c 63 bd c1 17 69 bd ef b6 00 be 10 eb e8 3c
       -0.055554222 -0.05690742 -0.12569784 0.028432399
000030 e9 3f 2a bc e3 1a 9c 3c b7 cb d4 3c 9f 00 c1 bd
       -0.010391214 0.01905579 0.025976045 -0.094239466
000040 c6 ce 59 bd 3b b8 0a be 89 25 d1 bc 3e 2e 8d bc
       -0.05317571 -0.13546841 -0.025530593 -0.017233964
000050 11 33 a9 bd a2 40 b1 3d 40 25 a6 b9 71 1b d1 3d
       -0.08261693 0.08654906 -0.0003168974 0.10210312
000060 95 d2 21 3e e1 2d 8f 3d 43 6b 06 bc c2 f6 15 3e
       0.15802987 0.069911726 -0.008204284 0.14644912
000070 74 a1 00 3e ae e9 cd bd 86 7b 37 3d 36 2f f2 bc
       0.1256159 -0.100543365 0.044795536 -0.029563528
000080 c2 5d 7c 3d dc 6d 02 3e 5e e2 f4 bc 00 52 c5 3a
       0.061612852 0.1273722 -0.029893097 0.0015054345
000090 55 f9 8f bd 7d 4b 14 be 16 42 25 be 08 a6 03 3e
       -0.07029978 -0.14481921 -0.16138491 0.12856305
0000a0 3e 39 0b be 18 96 09 bc d6 31 b9 3d 57 4e a6 bd
       -0.13596055 -0.008397602 0.090427086 -0.08120411
0000b0 e8 3e 37 3d 60 42 6e 3d d9 25 14 be 9d 11 75 bc
       0.044737726 0.05816877 -0.14467563 -0.014957813
0000c0 38 a5 05 3e d4 6f af bd 4d bd c2 3c a2 d2 88 bd
       0.13051307 -0.085662514 0.023771906 -0.066808
0000d0 86 b8 e6 3d 1a 33 31 be 13 19 82 3d ff f3 70 bb
       0.11265664 -0.1730465 0.06352439 -0.0036766527
0000e0 91 04 50 bc 55 82 29 bd 3e e6 78 3d 73 18 1b be
       -0.012696401 -0.04138406 0.06076645 -0.15146045
0000f0 cb 27 12 bd e0 86 ca bd 57 d7 83 3d 3f 29 12 bc
       -0.03568248 -0.098890066 0.06437557 -0.008920967
000100 89 0e 30 bc 33 6f 20 3e a3 8d a5 3d 52 10 28 3e
       -0.010745653 0.15667419 0.08083656 0.16412476
000110 11 22 e4 bc 50 e9 7e 3c fc fc 0c be b0 d1 84 3d
       -0.027848275 0.015558556 -0.13768381 0.06485307
000120 48 14 0e 3e cc 26 1a bb 20 7c ae 3d 06 97 8e 3c
       0.13874924 -0.002352166 0.08519769 0.017405998
000130 1b 1a f1 bc 2e 4f d3 3d 90 00 9d 3d 18 43 2e be
       -0.029431393 0.10317837 0.07666123 -0.17017782
000140 87 25 57 3d d6 d4 11 3e 40 17 be 3d 14 27 11 be
       0.052526023 0.14241347 0.09281778 -0.14175063
000150 dc 49 d9 bd d6 ff 1d be e1 79 e9 3d 75 bc 0a 3e
       -0.10609791 -0.15429625 0.114002 0.13548453
000160 0f a8 1d be f6 0a 01 be a7 5b a0 bd 13 24 a7 bd
       -0.1539614 -0.12601838 -0.07829981 -0.081611775
000170 e3 69 05 be 8a a6 29 bd 12 25 7d bd 59 f9 19 3e
       -0.13028674 -0.04141859 -0.06180293 0.15036525
000180 6e f3 b9 bd c7 68 bd 3c 8f 47 e2 3d f6 42 2a be
       -0.09079634 0.02312125 0.11048805 -0.16627106
000190 74 ff bc bd 03 d8 15 3e 7c 42 f7 3b 87 5b e0 bd
       -0.09228411 0.14633183 0.0075457674 -0.109549575
0001a0 33 48 af 3b 5e b4 ed 3c 6e 7c 25 3e 18 c6 15 3e
       0.005349183 0.02901667 0.16160747 0.14626348
0001b0 e1 1d a9 3d 18 4a e8 bd 9f 07 2f 3e 0a 3b b8 bd
       0.08257652 -0.11342257 0.17092751 -0.08995636
0001c0 e3 a9 14 3e ba a4 e2 bd c6 ff 24 be 83 87 ca bd
       0.14517932 -0.11066575 -0.16113195 -0.09889128
0001d0 55 6d f8 bd c1 95 15 3e 44 42 26 be d8 61 9e bb
       -0.121302284 0.14607908 -0.16236216 -0.004833441
0001e0 f9 4c 0f 3e d4 26 98 3d c1 9c ce bd 1f 3e 86 3d
       0.13994206 0.07429281 -0.10088492 0.065548174
0001f0 0e d7 fb bd 3f c8 20 bd 3c 4d 40 be b4 92 db 3d
       -0.12296878 -0.03925347 -0.18779463 0.10721341
000200 fa e7 df 3d bd 90 72 bc 76 65 30 be 77 de 21 be
       0.10932918 -0.014805016 -0.17226204 -0.1580752
000210 19 1b b2 3c 3c 93 93 3d 4e 72 2b 3e 98 52 fe 3a
       0.021741437 0.07205817 0.16742823 0.0019403277
000220 a8 44 5c bd e1 d2 cd bd 52 93 26 be da 08 0d be
       -0.053776413 -0.100499876 -0.16267136 -0.13772908
000230 e8 8b d5 bd 8f 80 f4 3d e3 66 17 bd d5 27 f2 bc
       -0.104270756 0.11938583 -0.036963355 -0.029560009
000240 37 e9 d2 bd 7a b7 0d 3e 48 4f 0d be 09 df 94 3d
       -0.102983885 0.13839522 -0.13799775 0.07269103
000250 8f 08 67 bc 7d be 96 bd cf f2 62 3d 42 32 12 bd
       -0.014101162 -0.073605515 0.05540734 -0.03569246
000260 44 ea 0e 3e 65 0e da bd 66 fa af bd e2 e0 36 be
       0.13956553 -0.10647277 -0.085926816 -0.17859223
000270 37 fe 8e 3d 96 a2 1f be 9d 7f a1 bd 3e d6 a6 bd
       0.069820814 -0.15589365 -0.078856684 -0.08146332
000280 c7 86 1e 3e 75 8a 90 bc 3b cb 51 3d 0a e2 31 be
       0.15481101 -0.017644146 0.051219206 -0.17371383
000290 86 28 3b bd e7 3a f6 3d 34 16 7a 3d 2a 9d 79 bd
       -0.045692943 0.120229535 0.06105633 -0.0609409
0002a0 3f 13 21 3e 8e e5 fe bd bb a6 03 be 44 a5 cb bc
       0.15729998 -0.12446128 -0.12856571 -0.024859078
0002b0 9e 99 25 be 1f f5 de bd 55 b6 87 bd 9e 36 c8 3c
       -0.16171882 -0.10886597 -0.06626574 0.024440106
0002c0 06 51 c9 3d 1d da 0c 3e 68 0f 43 3e a5 06 0e bc
       0.09829907 0.13755079 0.19048846 -0.008668576
0002d0 f7 2b 7d bd c8 e2 e4 bd 44 72 23 be 69 99 b5 bd
       -0.061809506 -0.111760676 -0.15961558 -0.08867151
0002e0 c4 ad d7 3c 7e 0a 55 3d 6e e3 31 be df 75 70 bd
       0.026327975 0.05201196 -0.17371914 -0.05870616
0002f0 b4 ad 05 bd 70 f6 9e 3a 4a b5 e8 3c a6 4e ec bd
       -0.03263636 0.0012127887 0.028406758 -0.115384385
000300 95 19 e7 3d ce 19 2a bd 71 a2 89 bd 30 3a 0c be
       0.11284176 -0.041528516 -0.06720436 -0.13694072
000310 2c 5a d9 bc e6 47 cc bc 9b aa 12 3e fc 77 fc 3d
       -0.026532255 -0.024936628 0.14322893 0.12327573
000320 c6 ce ad 3d 98 bf 25 be e9 b8 36 3c 64 12 22 3b
       0.084867045 -0.16186368 0.011152484 0.00247302
000330 1b cc 4e 3c 5e bd 8c 3d 01 98 90 3d 05 a6 48 bd
       0.012621905 0.068720564 0.070602424 -0.048986454
000340 78 e4 fa bd de cb 4a 3d 9c 1b 35 be 48 01 1d bd
       -0.12250608 0.04951083 -0.17686313 -0.0383313
000350 4c be 63 bc 08 be 3e 3d a9 63 a1 bd 5c 95 06 3e
       -0.013900351 0.046567947 -0.07880337 0.13142914
000360 43 b8 9b 3d e6 ee f7 3d 9a 2b 01 be d5 75 25 bd
       0.076035045 0.12106113 -0.12614289 -0.040395577
000370 a3 58 f4 3d 0e 3d b7 bc cf ee 25 bb 53 ae 1f be
       0.119309686 -0.02236798 -0.0025319343 -0.15593843
000380 c5 6d fd bd ce 92 a9 bd 8b 08 fd bd 26 ac a7 bd
       -0.123744525 -0.08279954 -0.12355145 -0.081871316
000390 c1 75 12 3e 08 b6 e6 bd 2d 85 88 bd 8e 51 5a bd
       0.14302732 -0.112651885 -0.06666026 -0.053300433
0003a0 4b e5 42 bd 59 fc 2f 3e e8 02 2f 3e 97 3e 96 3d
       -0.047581952 0.17186107 0.17090952 0.07336157
0003b0 d5 b2 ab 3d 01 18 01 be e0 b9 2d bd c5 1f d2 bd
       0.08383719 -0.12606813 -0.042413592 -0.10259966
0003c0 6e 28 89 bd 37 e6 23 3e 23 96 71 ba 0c 3a 31 be
       -0.066971645 0.16005789 -0.00092157925 -0.173073
0003d0 04 fe ba bc 16 84 04 be b0 1b 38 3e da 8b 12 bd
       -0.022826202 -0.12941012 0.17979312 -0.035777904
0003e0 5c 12 0d bd 98 e1 8f 3a bd 43 0c be 5a 23 de 3d
       -0.034441337 0.0010977266 -0.13697715 0.108465865
0003f0 54 96 1c be e0 34 23 3e 6b c0 27 be 4b d2 80 bd
       -0.1529172 0.15938139 -0.16381995 -0.0629011

layer_1.bias f4 [27]
000000 1d e0 ba bd 85 cb 36 3e 7b fe 8f 3d f6 6d a1 3d
       -0.091247775 0.17851074 0.0703096 0.078823015
000010 bf dc 2b 3e b3 d4 10 be 15 26 ee bd e5 7e 36 bd
       0.16783427 -0.14143638 -0.11628357 -0.04455461
000020 76 19 ca bd af 12 1e 3e c1 67 05 be 48 b7 20 3d
       -0.098681375 0.15436815 -0.1302786 0.03923729
000030 35 95 17 be 5c 15 29 bd 0a 7c 17 3e cd 11 a1 bd
       -0.14803012 -0.041280136 0.14793411 -0.07864723
000040 54 21 03 bd 43 96 50 bc f4 0f 64 bd d9 83 a9 3d
       -0.032014206 -0.012731138 -0.055679277 0.08277101
000050 ef 25 19 bd 58 a7 7f bd 99 49 0e be af 84 83 3d
       -0.037389692 -0.06241545 -0.13895263 0.06421792
000060 b3 ba 9b 3d 73 05 8d 3d 87 53 54 bd
       0.076039694 0.06885805 -0.05183747

layer_2.weight f4 [20, 27]
000000 8b 05 af bc cf ec f8 bd 18 66 93 bd 3a 50 49 3e
       -0.021364948 -0.12154543 -0.07197207 0.1965951
000010 42 52 26 be 6a 06 1f be 76 22 d9 bd c6 a5 6e bc
       -0.16242316 -0.1552979 -0.10602276 -0.014565891
000020 44 f7 47 3e 02 99 90 3d 11 68 15 bb 7b 9c 41 3e
       0.19527918 0.07060434 -0.0022797624 0.18907349
000030 a7 62 8f bd 48 fe c9 3d 00 bf b7 3d 13 41 62 3c
       -0.07001238 0.098629534 0.08971977 0.01380946
000040 17 f7 fa bd f6 88 69 3d ce 68 09 bd de 91 02 3d
       -0.1225416 0.05701538 -0.033547215 0.03187739
000050 e7 aa 39 3e 4e 0f 2a 3e 20 24 63 bd e7 7e dc 3d
       0.181316 0.16607401 -0.055454373 0.10766392
000060 66 1b 85 bd 98 24 1b 3e 67 79 8b 3c 72 55 36 be
       -0.064993665 0.15150678 0.017025663 -0.17806032
000070 88 31 01 3e a1 a3 14 be ee 9f 1e be bf 22 d8 3d
       0.12616551 -0.14515544 -0.15490696 0.10553502
000080 61 ad 36 3d 9a 0b 25 3e f9 0b 1e 3e 26 a0 3e 3e
       0.04459894 0.16117707 0.15434255 0.1861578
000090 26 dc af 3c 12 b0 c9 bc 51 33 90 bd 7f e4 b0 bd
       0.02146728 -0.02462009 -0.07041038 -0.08637332
0000a0 92 7c 43 3e d4 6f 45 be 7c 81 d4 3d 9d 11 0d 3d
       0.19090489 -0.1928094 0.1037626 0.034440625
0000b0 5b c5 87 3d 21 29 dd 3d d7 8d e1 bd 0a 44 66 3d
       0.066294394 0.1079886 -0.11013382 0.05621723
0000c0 29 c8 00 be 61 8b e8 bd 95 d8 44 be b7 65 10 3e
       -0.12576355 -0.113547094 -0.19223244 0.14101301
0000d0 9d 79 0a 3c c5 2c b2 bd c9 0b 8c 3d 11 e9 19 3e
       0.008451846 -0.08699945 0.06838185 0.15030314
0000e0 9b f7 ad 3d ce 4d ae 3d 09 6a 94 bd 3d 8a aa bd
       0.084944926 0.08510934 -0.07246787 -0.08327148
0000f0 10 60 9e 3c 20 5e 6b 3d 84 8e 33 be 80 bc a4 b9
       0.019332916 0.05746281 -0.17534834 -0.0003142096
000100 68 98 03 be da 94 1e 3d 38 76 0b 3e e4 36 73 3d
       -0.12851107 0.038716175 0.13619316 0.05937852
000110 bb 61 ba 3d 28 53 13 3e ab 46 39 bc 5e 43 f7 3c
       0.09100672 0.1438719 -0.011308352 0.03018349
000120 2a 1d 2a bd 74 4a d4 3d c1 3e 4d be 04 1d c9 3d
       -0.04153172 0.10365763 -0.2004347 0.098199874
000130 c3 72 a0 bd 10 04 b8 bb 11 ce b6 3d 93 40 eb 3d
       -0.07834389 -0.0056157187 0.08926023 0.11486926
000140 9a 55 40 be 8f 74 69 bd bb d8 25 3e 2b 86 38 3e
       -0.18782654 -0.056995925 0.16195957 0.18019931
000150 52 f0 07 3d 83 20 0c 3e f2 c2 c7 3d 60 b6 0a be
       0.03318817 0.13684277 0.0975398 -0.13546133
000160 af b9 b4 bd 5f 35 f4 3d 40 6a 60 3d b9 6b 19 be
       -0.08824479 0.11924242 0.054788828 -0.14982499
000170 e7 67 35 be 56 45 cf bd aa 12 20 be 51 f1 4b be
       -0.17715417 -0.10120647 -0.1563212 -0.19916274
000180 e8 4a 3f be f5 b1 03 be 82 4b f1 bd 60 79 f6 bd
       -0.18680918 -0.12860854 -0.1178198 -0.12034869
000190 e7 f7 15 3c 23 16 b3 bd 79 27 d3 bd d4 e0 c2 3d
       0.009153343 -0.087444566 -0.10310263 0.09515539
0001a0 16 c2 1d be c2 99 07 3d 50 36 7a bd c3 0c 66 bd
       -0.15406069 0.03310562 -0.061086953 -0.056164514
0001b0 7a 99 58 3c aa 1d 09 3e e6 89 27 be 77 60 7a 3d
       0.013220185 0.13390222 -0.16361198 0.061127152
0001c0 84 59 4e 3e cf 2b 3f 3e 6e fd 03 be 5d b8 84 3d
       0.20151335 0.18669055 -0.12889645 0.06480477
0001d0 f9 73 19 3c 75 b2 4b 3e 84 22 4b bc 64 fe 05 bc
       0.009366029 0.19892295 -0.012398366 -0.008178327
0001e0 04 23 41 3a 68 a2 d5 3a ea ea 11 3e 8e 4c bc 3d
       0.00073675835 0.0016299011 0.14249769 0.09194289
0001f0 61 d3 6d 3d b1 30 01 3e f4 d8 2d be be 3c 16 be
       0.058062915 0.1261623 -0.16977292 -0.14671609
000200 f0 82 6a bd 78 05 43 3e c2 70 2e 3e e7 c3 0e 3e
       -0.057253778 0.19045055 0.17035201 0.13941918
000210 e9 7f 36 be 37 52 32 be 2b 89 ca bc 55 2e 3b bc
       -0.17822231 -0.17414175 -0.02472361 -0.011424621
000220 f6 5c d3 bd 0f 64 b3 3d d6 29 23 be 04 31 f1 bc
       -0.10320465 0.08759319 -0.15933928 -0.029442318
000230 35 3c 0a 3e fd d2 af bd df c6 de bd 76 bb 53 3d
       0.1349953 -0.08585165 -0.108777754 0.05169245
000240 a9 4e 00 3e 2d 77 c4 3d 84 9e 30 be 5b 03 03 be
       0.12530006 0.095930435 -0.17247969 -0.12794249
000250 0e 0d d6 bc a4 cf 51 3e 90 d9 b4 3d 6f 3e 99 3d
       -0.026129272 0.20489365 0.08830559 0.074826114
000260 bb 31 21 bd 46 9f c1 bd ba 11 09 3e 63 cf 00 be
       -0.039354067 -0.09454207 0.13385668 -0.12579112
000270 f0 f9 ab 3d 6a 92 13 be 92 4b 3e 3d 11 e3 de 3c
       0.08397281 -0.14411321 0.04645879 0.027207883
000280 3a 7b 02 bd 03 2e 18 be 44 ec 02 3d 1c 6d f3 3c
       -0.0318558 -0.14861302 0.0319636 0.029715113
000290 43 fb 90 3d e7 37 17 bd 3a 92 17 bd d6 c7 84 3d
       0.07079174 -0.036918547 -0.037004687 0.06483428
0002a0 af cb 88 3d 83 c5 03 be 28 85 fe bd a9 67 be bd
       0.066794746 -0.12868313 -0.12427741 -0.09297115
0002b0 ef 81 f1 3d 9d 29 9a 3c 98 37 f1 3d 53 92 16 be
       0.11792361 0.01881867 0.11778182 -0.14704256
0002c0 11 05 01 3e b9 d9 13 be 57 d1 34 3e ce 9c 84 3c
       0.12599589 -0.14438523 0.17657982 0.016188052
0002d0 39 5f b7 bc 19 56 4f 3b 17 2a 30 be 0b 65 d0 3d
       -0.022384273 0.0031637012 -0.17203556 0.101755224
0002e0 02 62 33 3e 0d e8 88 3c a1 46 06 3e 74 11 30 be
       0.17517856 0.016712213 0.1311288 -0.17194158
0002f0 95 18 b2 3c 5f 74 04 bd 56 91 3f be 01 04 ce 3d
       0.021740237 -0.032337543 -0.18707785 0.100593574
000300 c0 db a2 bd 04 59 26 be 6c b0 98 3d 21 2a f0 bd
       -0.0795207 -0.16244894 0.07455525 -0.117267855
000310 b6 3f 0e be fc 83 09 be 9a dd be 3d 76 f0 09 be
       -0.13891491 -0.13429254 0.09319611 -0.13470635
000320 d2 13 00 be 92 88 e5 3d 3b 80 12 3e c8 97 e2 bd
       -0.12507561 0.11207689 0.14306729 -0.11064106
000330 43 79 2b be b2 83 20 be c0 f6 b3 3d e4 26 07 3d
       -0.16745476 -0.15675238 0.08787298 0.032996073
000340 43 dd bf 3d bc cc f9 bd 0a 92 ae bd f1 02 33 3e
       0.09368374 -0.12197253 -0.085239485 0.17481591
000350 34 00 08 3e 5e 7e f3 bb e9 f3 22 be ba ea 3e be
       0.13281327 -0.0074308356 -0.15913357 -0.18644229
000360 e4 6f 68 bd d8 ea 89 bd 4e a1 1e be eb 11 b4 3d
       -0.056747332 -0.06734246 -0.1549122 0.0879248
000370 fa 44 22 be 74 cc 9e bd 1c 52 3d bd f0 b0 16 bd
       -0.15846625 -0.0775384 -0.046220884 -0.036789834
000380 2c 62 0d 3d bb bb 48 3d f7 3d 14 be 02 64 35 be
       0.034517452 0.04900716 -0.14476763 -0.17713931
000390 c5 f8 bf bb 9c 6c 8e bc 16 bd d8 bd f4 c7 db 3d
       -0.005858513 -0.017385773 -0.1058294 0.107314974
0003a0 99 ac 06 3e 8d 95 c6 bd 54 df 69 3c 2d 2c 71 3d
       0.13151778 -0.09696493 0.014274437 0.05888002
0003b0 e0 57 25 be b7 38 37 3d a1 88 f0 bd 08 8c 9c bd
       -0.16146803 0.044731822 -0.1174481 -0.07643896
0003c0 d9 79 de 3c 04 28 20 be fe 1b 1d 3d 48 a5 f2 bc
       0.02715771 -0.15640265 0.038356774 -0.029619828
0003d0 11 e0 4c 3d 7f 1c 1e 3e 4a 24 5a 3d a3 d8 a6 bd
       0.050018374 0.15440558 0.053257264 -0.08146789
0003e0 ea c5 1f bd 7b 58 de bc 3d 29 25 3e 55 fd 39 bc
       -0.039007105 -0.0271418 0.16129012 -0.011351903
0003f0 d4 e5 72 3d 9b 9e 33 be ca df 26 be 2b d1 10 be
       0.059301212 -0.17540972 -0.16296306 -0.14142291

layer_2.bias f4 [20]
000000 3f 06 36 3e 83 10 07 3c ea e2 bd 3b e6 79 d5 bc
       0.1777582 0.008243683 0.0057948725 -0.026059102
000010 df 4d 21 3e 0c 17 a9 bd c4 ca 03 be dd 42 1e 3e
       0.15752362 -0.08256349 -0.12870318 0.15455194
000020 2c 90 4c 3e 44 01 12 be cc a0 5d bd 92 38 2c 3d
       0.19976872 -0.14258295 -0.054108426 0.042046137
000030 9a 9d 1d be 0a 18 ee bd 1c 85 aa bd ca 57 16 3e
       -0.15392151 -0.11625679 -0.0832617 0.14681926
000040 53 84 fa bd 3c 81 96 bb 00 91 fd bd 0d 99 c3 bc
       -0.1223227 -0.0045930427 -0.12381172 -0.023876691

layer_3.weight f4 [1, 20]
000000 1a c6 e9 3d 93 eb 15 be 2d 5a 79 bc 52 8a bd bd
       0.11414738 -0.14640646 -0.0152192535 -0.09254898
000010 39 4f 59 3e d4 ec 50 3e 58 6c f3 3c 64 45 45 be
       0.21221627 0.20402843 0.029714748 -0.19264752
000020 d6 2c 9c 3d 94 9a 82 bd 61 c2 5e bd 42 9e 0c be
       0.07625739 -0.0637714 -0.054384593 -0.13732246
000030 90 48 6d bd 42 8c 21 be 75 67 2f 3e 82 e4 22 be
       -0.05793053 -0.1577616 0.1712931 -0.15907481
000040 8b 62 0b 3d ee 4b 5d 3c cd 63 8e 3c 09 e4 48 bd
       0.034029525 0.013506873 0.017381573 -0.049045596
