critic.pt (torch, 7831 bytes, 5 tensors)

layer_1.weight f4 [27, 31]
-0.1658812 0.101385824 -0.17592874 -0.022687152 -0.09158967 0.07755768 0.12048464 0.01794526
0.1444023 0.07513126 0.112300694 0.19671491 -0.085071675 0.11898603 -0.042832054 -0.083892934
-0.0075612906 0.15277839 -0.10507167 0.02120221 -0.07951763 -0.053726558 -0.07470286 -0.07530599
0.10197421 -0.061682314 0.12187849 0.18885684 -0.030029027 -0.11520485 0.08290106 0.039084405
-0.1910142 0.01584171 -0.13426259 0.13650788 0.07745403 0.1333616 0.04873614 0.16427258
-0.051438943 -0.20152253 0.055850625 0.095708154 -0.21486896 0.016355246 -0.09128491 0.19491921
-0.03520816 0.0029973476 0.215475 0.029775888 -0.07786568 0.16917673 0.1242039 -0.0413728
0.22060831 0.17955138 0.029126227 -0.06824536 0.2255768 0.26727942 0.070917696 -0.21097907
0.06290707 -0.011286774 -0.14974222 -0.04513079 0.20536076 0.11346015 0.001163438 -0.0627255
-0.022126393 -0.08058223 0.010741074 0.056924 -0.007839356 -0.021045739 -0.123853214 0.012150346
0.14900844 0.045285977 0.056467526 0.17842638 -0.14379227 0.11734514 0.1722158 -0.018583797
-0.16356426 0.07289214 -0.13333707 -0.051673852 0.16209747 -0.1320066 -0.07206217 -0.016144525
0.055669572 0.11301794 0.1423325 -0.14195792 -0.14914942 -0.081903204 0.10853708 0.13107309
-0.026724631 -0.08082928 -0.024405796 0.054563593 0.03592308 0.11368073 0.18346567 0.15836713
0.059084345 -0.07976759 0.026480101 0.1193889 0.15502979 0.1579034 0.019705504 0.07779495
0.14984186 -0.097683676 0.113737136 0.06799985 -0.044850007 -0.02443789 0.15324803 0.15216263
-0.20786992 -0.13411461 -0.033086278 -0.19600698 -0.021450251 -0.13321896 0.18161264 0.064569175
-0.12691474 0.06289749 -0.09597377 0.15144183 0.019178083 0.108501 0.12340582 0.031914838
-0.19245721 -0.011715781 0.024831839 -0.102886684 0.0555325 0.050483227 -0.10710815 0.1518225
-0.059468195 0.08630442 -0.2053046 -0.1341566 -0.012882087 0.064246446 -0.0098433755 0.03235975
-0.1614926 0.12465934 0.14259817 -0.14468502 0.08138534 0.0037887916 0.053993873 0.13458247
-0.0736015 -0.1622246 -0.17557289 0.11505452 0.031044632 -0.11508084 0.11168613 -0.07263382
-0.058994148 -0.014196658 -0.041601308 0.071337424 -0.16882232 0.030077841 0.058803014 0.12435138
-0.10308227 -0.03301447 -0.117183864 -0.06381914 0.050190464 -0.012332557 0.1672128 -0.14145675
-0.08809458 0.07014092 -0.134267 -0.089979745 -0.07409934 0.15837586 0.028773148 -0.1389031
-0.059273493 -0.10810722 -0.11959014 0.15939526 0.019447323 0.1271962 -0.06818881 -0.09985326
0.21033241 0.03867176 0.14992502 0.039419804 0.19500738 -0.13540426 0.19707166 0.12168548
0.17636903 -0.039768964 0.10466889 -0.17048454 -0.12297873 0.11681246 0.113913834 -0.049419947
-0.07364175 -0.0041165203 -0.03821746 0.084989555 0.13055481 -0.13385054 0.16482894 -0.07562822
-0.17520954 -0.17038533 -0.1105977 -0.015180707 0.12565736 0.114618585 -0.14563797 -0.15011318
0.052183494 -0.12976466 -0.10982893 -0.025087915 -0.12146806 0.07370755 -0.07997691 -0.03715141
-0.15766282 0.0004067188 -0.10968606 -0.097139634 0.08899939 0.086015254 0.10950044 -0.11346307
00000000: c3dc 29be 5fa3 cf3d aa26 34be 68da b9bc
00000010: 5d93 bbbd 90d6 9e3d a7c0 f63d f001 933c
00000020: 32de 133e 6bde 993d e8fd e53d a26f 493e
00000030: 0f3a aebd f3ae f33d aa70 2fbd 0fd0 abbd
00000040: b4c4 f7bb f071 1c3e d12f d7bd 42b0 ad3c
00000050: 24da a2bd 6110 5cbd d0fd 98bd 073a 9abd
00000060: dbd7 d03d 98a6 7cbd 6e9b f93d b063 413e
00000070: 6fff f5bc 85f0 ebbd 08c8 a93d f816 203d
00000080: 3a99 43be 79c6 813c 227c 09be b9c8 0b3e
00000090: 38a0 9e3d f18f 083e 8c9f 473d 1237 283e
000000a0: a4b1 52bd ec5b 4ebe a0c3 643d a302 c43d
000000b0: 9c06 5cbe 70fb 853c 95f3 babd e798 473e
000000c0: 6e36 10bd 266f 443b 7aa5 5c3e 90ec f33c
000000d0: 0b78 9fbd aa3c 2d3e 9d5e fe3d 8676 29bd
000000e0: 25e7 613e 51dc 373e 209a ee3c 39c4 8bbd
000000f0: 9bfd 663e d9d8 883e 4c3d 913d e60a 58be
00000100: 6cd5 803d 29ec 38bc 0656 19be 10db 38bd
00000110: 174a 523e cc5d e83d 807e 983a 3a76 80bd
00000120: 6942 b5bc 4c08 a5bd 54fb 2f3c 2429 693d
00000130: a470 00bc 1d68 acbc c1a6 fdbd 3f12 473c
00000140: ab95 183e ca7d 393d 7e4a 673d 68b5 363e
00000150: 483e 13be a652 f03d 5759 303e 0c3d 98bc
00000160: 647d 27be 7948 953d 8389 08be f6a7 53bd
00000170: e1fc 253e bd2c 07be 5595 93bd 8641 84bc
00000180: c705 643d f375 e73d 9cbf 113e 6b5d 11be
00000190: a0ba 18be debc a7bd b048 de3d 0638 063e
000001a0: 9ded dabc d289 a5bd aaee c7bc 137e 5f3d
000001b0: 1424 133d 71d1 e83d 6dde 3b3e fe2a 223e
000001c0: 6d02 723d 315d a3bd ccec d83c 2b82 f43d
000001d0: 21c0 1e3e 6eb1 213e 706d a13c f552 9f3d
000001e0: 2570 193e 610e c8bd 04ef e83d 8143 8b3d
000001f0: a4b4 37bd f831 c8bc 0ded 1c3e 85d0 1b3e
00000200: dadb 54be 5755 09be 7a85 07bd 0eb6 48be
00000210: 70b8 afbc 8d6a 08be aaf8 393e d83c 843d
00000220: f0f5 01be 66d0 803d e58d c4bd 9113 1b3e
00000230: 5b1b 9d3c c635 de3d 31bc fc3d 22b9 023d
00000240: 8113 45be 8cf3 3fbc 246c cb3c 41b6 d2bd
00000250: 0c76 633d 80c7 4e3d 855b dbbd 5c77 1b3e
00000260: ec94 73bd 5fc0 b03d 5e3b 52be 5960 09be
00000270: 640f 53bc a493 833d 1c46 21bc a88b 043d
00000280: 515e 25be 654d ff3d 4105 123e 4f28 14be
00000290: 5bad a63d 604d 783b ae28 5d3d fdcf 093e
000002a0: 62bc 96bd 351e 26be 61c9 33be b4a1 eb3d
000002b0: 5051 fe3c 81af ebbd b3bb e43d 0ac1 94bd
000002c0: d9a3 71bd 1999 68bc 2266 2abd 5b19 923d
000002d0: c2df 2cbe ce65 f63c 6edb 703d f0ab fe3d
000002e0: cc1c d3bd 2e3a 07bd 18fe efbd 9cb3 82bd
000002f0: 8494 4d3d 7e0e 4abc d539 2b3e 0ada 10be
00000300: ee6a b4bd 0ba6 8f3d 4a7d 09be 4d47 b8bd
00000310: 65c1 97bd 482d 223e aab5 eb3c 9d3c 0ebe
00000320: c3c8 72bd 5167 ddbd adeb f4bd 8338 233e
00000330: fe4f 9f3c b83f 023e 93a6 8bbd de7f ccbd
00000340: 6161 573e 4866 1e3d f285 193e a976 213d
00000350: 04b0 473e 6aa7 0abe 27cd 493e 3d36 f93d
00000360: 159a 343e c8e4 22bd a55c d63d 8093 2ebe
00000370: 46dc fbbd 5f3b ef3d a84b e93d 926c 4abd
00000380: 7cd1 96bd e0e3 86bb e989 1cbd 010f ae3d
00000390: 29b0 053e 1e10 09be ebc8 283e f8e2 9abd
000003a0: 216a 33be 7e79 2ebe 0c81 e2bd 80b8 78bc
000003b0: 53ac 003e 26bd ea3d 1f22 15be 45b7 19be
000003c0: 5cbe 553d 07e1 04be fded e0bd 2c85 cdbc
000003d0: 3fc4 f8bd fcf3 963d efca a3bd 142c 18bd
000003e0: 5d72 21be e03c d539 16a3 e0bd 25f1 c6bd
000003f0: 5045 b63d c428 b03d c441 e03d 535f e8bd

layer_1.bias f4 [27]
0.07287564 0.0751988 0.025021771 -0.12811798 -0.10954585 -0.13011363 0.13652441 -0.08648258
0.057469927 -0.13368106 -0.005173864 0.18008715 -0.029009372 0.08554327 0.038097292 0.12067042
0.121116996 0.116749026 0.19219844 -0.04189417 -0.084018745 -0.10138403 -0.13386285 -0.116514966
0.043052733 -0.059667595 -0.014783382
00000000: d33f 953d d401 9a3d 75fa cc3c 5c31 03be
00000010: 9359 e0bd 823c 05be 0ecd 0b3e c71d b1bd
00000020: 9665 6b3d b0e3 08be 8489 a9bb c468 383e
00000030: 10a5 edbc 4f31 af3d e80b 1c3d 0e22 f73d
00000040: 300c f83d 1d1a ef3d abcf 443e 3999 2bbd
00000050: 0512 acbd 6ea2 cfbd 5813 09be 669f eebd
00000060: 1058 303d 0266 74bd 0036 72bc

layer_2.weight f4 [20, 27]
0.14688377 -0.048498884 0.16008286 -0.1099321 0.10037501 -0.15863866 0.1524686 -0.094416976
0.016691476 0.17840956 -0.16985488 -0.16043071 0.04188922 -0.18855499 -0.06884417 -0.12537327
-0.17609976 0.12327419 -0.099375784 -0.104412094 0.084274784 0.106506035 -0.16654086 -0.09092605
-0.0583352 -0.06296775 0.054567695 0.06945455 -0.060941346 -0.001371481 -0.051281832 0.015181094
0.050915517 0.010683918 -0.18820393 0.17915444 0.10858591 -0.17955105 -0.14940615 0.15357797
0.05375787 0.14514947 -0.042628895 -0.09993386 0.009192597 0.16066897 -0.06512838 -0.060324587
-0.21070236 0.16813354 0.13802941 0.005828153 -0.16218498 0.1681049 -0.09682461 -0.20810913
-0.072036386 -0.09860975 0.07719222 -0.18330567 -0.15936509 0.019432843 -0.017278645 -0.08236955
0.06802738 -0.08695193 0.11337319 -0.106681176 -0.19210075 0.057923906 -0.06888786 0.13682123
-0.036128838 0.08045913 -0.16999683 0.026747173 -0.03562537 0.11691505 -0.2180256 -0.043493524
-0.1467469 0.008274481 -0.13334703 0.088732965 0.116615415 -0.12728736 0.15062559 -0.12028889
0.07277045 -0.12010136 0.085094094 0.043195065 0.09550142 0.13294385 -0.16749536 0.04468779
0.028590135 0.012018549 -0.12707992 0.03012558 -0.20959736 -0.21125102 -0.0502649 0.1371782
0.10952407 0.12354371 -0.019605914 0.060560387 0.121011004 0.16186465 -0.15899082 0.109371945
0.1858856 0.05029039 -0.15928599 -0.14915544 -0.012175709 -0.005271673 -0.072714895 -0.18163918
-0.04626578 0.10983242 -0.02052714 -0.11868068 0.048839867 -0.064983085 0.11323984 -0.14212917
-0.11203686 0.19106089 -0.09074006 -0.062777594 -0.06252062 0.026901603 -0.07635998 0.022753488
0.06713323 0.0584583 0.26521942 -0.12946428 0.119688734 0.03784068 -0.15176867 -0.04392916
-0.122701295 0.06146133 0.09932413 0.1824312 0.23177907 0.08058209 0.10916005 0.2273791
0.010658277 0.089361124 -0.060871623 0.17306027 0.24549696 0.15901741 -0.117551684 -0.012345954
0.15615858 -0.041608892 0.0788856 0.07899645 0.05938866 0.10388571 -0.067530364 -0.10567154
0.008528255 0.13123508 0.0948817 0.11013867 0.01282757 0.0036187787 -0.17266513 -0.17627418
-0.17340963 -0.08855134 -0.1544405 0.12575042 -0.18414558 0.16155286 -0.19370674 -0.0028580474
-0.046648398 -0.09169286 -0.1646866 -0.11212922 -0.13374528 -0.16817792 -0.1917219 -0.083212845
-0.12287349 -0.09106563 -0.14812052 0.08370531 -0.062319234 -0.099990174 0.17791289 -0.12847698
-0.0062625404 -0.10519145 0.122748956 -0.18980165 0.055077933 -0.067349106 -0.2145966 -0.14824098
0.03706676 0.048334107 -0.021507977 -0.1152798 0.063295856 0.1080397 0.069308385 -0.16803892
-0.10621071 -0.16906543 -0.06448418 0.0918584 -0.040490836 -0.18864326 -0.17018871 0.029792815
0.17877536 0.12762769 -0.042787224 0.1463031 0.055895522 -0.056048915 -0.15434301 -0.17167482
-0.13148499 -0.15187961 -0.024704441 -0.06247711 0.08804934 -0.017809615 0.10601808 -0.051022783
0.006646499 -0.14376158 0.0028930753 -0.062255107 0.16244993 -0.13041243 -0.110497385 0.0226316
0.07613738 0.09389342 0.09846007 0.06030048 0.13996904 -0.16963018 -0.19985764 0.07775539
00000000: b368 163e c4a6 46bd c3ec 233e 1524 e1bd
00000010: 6a91 cd3d 2c72 22be bb20 1c3e b05d c1bd
00000020: 90bc 883c ffb0 363e 70ee 2dbe f347 24be
00000030: 0894 2b3d 8f14 41be 2cfe 8cbd da61 00be
00000040: 7f53 34be 2e77 fc3d 8885 cbbd 02d6 d5bd
00000050: 4298 ac3d d61f da3d b089 2abe 7037 babd
00000060: e4f0 6ebd 3cf5 80bd 6082 5f3d 303e 8e3d
00000070: a29d 79bd 44c3 b3ba e60c 52bd 20ba 783c
00000080: ca8c 503d 9a0b 2f3c 88b8 40be 4374 373e
00000090: 4a62 de3d 3bdc 37be edfd 18be 8b43 1d3e
000000a0: 3631 5c3d 10a2 143e a39b 2ebd 20aa ccbd
000000b0: 8c9c 163c 6886 243e 0762 85bd ea16 77bd
000000c0: 5cc2 57be 332b 2c3e 9557 0d3e 17fa be3b
000000d0: d213 26be b123 2c3e fb4b c6bd 8f1a 55be
000000e0: d087 93bd e9f3 c9bd f416 9e3d 7bb4 3bbe
000000f0: 9a30 23be a031 9f3c f28b 8dbc 5eb1 a8bd
00000100: f051 8b3d da13 b2bd 3430 e83d a97b dabd
00000110: 0fb6 44be 9e41 6d3d 1415 8dbd dd1a 0c3e
00000120: d5fb 13bd c2c7 a43d a613 2ebe e31c db3c
00000130: e8eb 11bd 2871 ef3d 1a42 5fbe 4426 32bd
00000140: d244 16be b091 073c 208c 08be a1b9 b53d
00000150: 10d4 ee3d 9e57 02be 983d 1a3e 065a f6bd
00000160: ac08 953d b4f7 f5bd d045 ae3d 4fed 303d
00000170: 4096 c33d 6f22 083e e783 2bbe 8b0a 373d
00000180: dc35 ea3c 73e9 443c 3d21 02be ecc9 f63c
00000190: b1a0 56be 3052 58be 91e2 4dbd 7178 0c3e
000001a0: 284e e03d 7c04 fd3d 959c a0bc 2b0e 783d
000001b0: 9ed4 f73d d9bf 253e 7dce 22be 66fe df3d
000001c0: cb58 3e3e 4cfd 4d3d de1b 23be 34bc 18be
000001d0: a07c 47bc 00be acbb 8ceb 94bd 9fff 39be
000001e0: 3081 3dbd d2ef e03d 8828 a8bc db0e f3bd
000001f0: 500c 483d da15 85bd 4aea e73d 4f8a 11be
00000200: 9573 e5bd 77a5 433e edd5 b9bd 8a91 80bd
00000210: d00a 80bd c060 dc3c 9f62 9cbd 8665 ba3c
00000220: 267d 893d f871 6f3d d7ca 873e 4992 04be
00000230: 5e1f f53d d4fe 1a3d 3f69 1bbe 10ef 33bd
00000240: d14a fbbd e0be 7b3d 736a cb3d 3fcf 3a3e
00000250: 7e57 6d3e 3908 a53d 4e8f df3d 11d6 683e
00000260: 0ea0 2e3c f702 b73d 8654 79bd b636 313e
00000270: 8e63 7b3e 76d5 223e f0be f0bd af46 4abc
00000280: 09e8 1f3e 166e 2abd c68e a13d e4c8 a13d
00000290: 8641 733d 08c2 d43d 5c4d 8abd 526a d8bd
000002a0: 18ba 0b3c 7d62 063e 5651 c23d 6290 e13d
000002b0: ba2a 523c 0829 6d3b 21cf 30be 3881 34be
000002c0: 4b92 31be 685a b5bd a725 1ebe b8c4 003e
000002d0: a990 3cbe 1d6e 253e 0f5b 46be 144e 3bbb
000002e0: 6412 3fbd 77c9 bbbd 9ba3 28be 01a4 e5bd
000002f0: 86f4 08be d536 2cbe bf52 44be 7f6b aabd
00000300: 19a5 fbbd 9e80 babd e8ac 17be b16d ab3d
00000310: 7442 7fbd a6c7 ccbd cc2e 363e 788f 03be
00000320: ff35 cdbb 9d6e d7bd ce63 fb3d 5d5b 42be
00000330: 6699 613d 54ee 89bd 36bf 5bbe 7ccc 17be
00000340: 51d3 173d fcf9 453d 7f31 b0bc d117 ecbd
00000350: 42a1 813d eb43 dd3d 8ef1 8d3d 6512 2cbe
00000360: 0085 d9bd 7d1f 2dbe 4810 84bd 4220 bc3d
00000370: b8d9 25bd b32b 41be f345 2ebe 1010 f43c
00000380: e310 373e d5b0 023e a841 2fbd 7bd0 153e
00000390: b4f2 643d 8c93 65bd 180c 1ebe 86cb 2fbe
000003a0: 00a4 06be 5486 1bbe f860 cabc 00e8 7fbd
000003b0: 3653 b43d 78e5 91bc 0220 d93d 44fd 50bd
000003c0: e0ca d93b 3c36 13be c099 3d3b 36ff 7ebd
000003d0: 4659 263e d68a 05be 744c e2bd e865 b93c
000003e0: eaed 9b3d 324b c03d 6fa5 c93d a3fd 763d
000003f0: 0b54 0f3e 89b3 2dbe 7ba7 4cbe 383e 9f3d

layer_2.bias f4 [20]
-0.06344506 -0.12762257 -0.032539714 -0.011387374 -0.123636164 0.2238288 0.0054023573 -0.068267904
-0.08324228 0.015596947 -0.03389247 -0.026804654 -0.094521046 0.05558206 0.07315765 -0.09168485
-0.18993142 0.01653673 0.024100326 0.1392745
00000000: 7cef 81bd 7eaf 02be 5d48 05bd 1c92 3abc
00000010: f534 fdbd 6033 653e 4206 b13b 0bd0 8bbd
00000020: ee7a aabd 568a 7f3c d5d2 0abd 6f95 dbbc
00000030: 4094 c1bd 04aa 633d aed3 953d 44c5 bbbd
00000040: 627d 42be 0978 873c 0c6e c53c f99d 0e3e

layer_3.weight f4 [1, 20]
-0.029509902 -0.13884439 0.1453787 -0.004368967 -0.036383376 0.14740318 0.13590768 -0.018073617
0.19679114 -0.03450248 -0.06837 0.24152155 0.067039564 0.10329991 0.054514766 -0.0645863
0.20347896 0.0579642 -0.13278584 0.16642754
00000000: c0be f1bc 392d 0ebe 27de 143e 8d29 8fbb
00000010: bc06 15bd dcf0 163e 622b 0b3e 1f0f 94bc
00000020: 9e83 493e 7952 0dbd 9205 8cbd 6d51 773e
00000030: 0a4c 893d e78e d33d e04a 5f3d d245 84bd
00000040: ca5c 503e de6b 6d3d 03f9 07be fb6b 2a3e
