critic.pt (torch, 7831 bytes, 5 tensors)

layer_1.weight f4 [27, 31]
000000 9e 5d e9 bc a4 52 3e bc fa d5 47 3d d2 03 26 be
       -0.028487023 -0.011616383 0.04878805 -0.16212395
000010 cf e3 2a be 32 12 20 3e 36 b4 e8 3c 1f a5 ac bd
       -0.16688465 0.15631941 0.028406244 -0.08429932
000020 d3 8c 63 bd 40 7f 3f bd 1d 39 0c be b0 46 1c 3d
       -0.055554222 -0.046752214 -0.13693662 0.03815335
000030 5a 9b a3 bc c0 0d 00 3c da 6c 14 3d 82 16 aa bd
       -0.019971538 0.007815778 0.03623662 -0.08305074
000040 ca 65 2c bd 9b 87 fe bd 3a e3 6b bc 64 4e c8 bb
       -0.04208926 -0.124282084 -0.014397437 -0.0061128605
000050 35 54 92 bd 41 25 c8 3d 49 aa 31 3c 49 14 e8 3d
       -0.071449675 0.097727306 0.010843822 0.11331994
000060 ba 42 2d 3e 8d 03 a6 3d ee 0d 44 3b d0 62 21 3e
       0.16919985 0.08106146 0.002991553 0.1576035
000070 2f 16 0c 3e 9d 04 b7 bd 23 87 65 3d 36 2f f2 bc
       0.13680337 -0.08936427 0.05603708 -0.029563528
000080 93 4c 53 3d 94 63 0c 3e ac 6c a0 bc dd 7d 0f bc
       0.0515867 0.13709861 -0.019583069 -0.0087580355
000090 55 f9 8f bd 8f fc 09 be 76 ce 2f be 08 a6 03 3e
       -0.07029978 -0.1347525 -0.17168602 0.12856305
0000a0 38 9f 15 be b0 06 f7 3a a6 a8 a4 3d 10 cf 91 bd
       -0.14611518 0.0018846598 0.0803998 -0.07119572
0000b0 c0 37 61 3d 0b cd 8b 3d 20 4d 14 be d1 10 75 bc
       0.054984808 0.06826218 -0.14482546 -0.014957623
0000c0 f8 87 05 3e 67 91 af bd a6 97 c3 3c eb be 88 bd
       0.13040149 -0.08572655 0.023876023 -0.0667704
0000d0 04 63 e6 3d 16 1f 31 be 39 b0 81 3d ad d6 75 bb
       0.112493545 -0.17297015 0.0633244 -0.003751199
0000e0 f8 33 51 bc 11 28 01 bd 04 ee 78 3d f3 43 1b be
       -0.012768738 -0.03153235 0.060773864 -0.1516264
0000f0 0b 0b 12 bd e0 86 ca bd 57 d7 83 3d 20 0f 87 3a
       -0.035655063 -0.098890066 0.06437557 0.001030419
000100 e8 b5 a7 bc 42 fa 15 3e b2 1a ba 3d 52 10 28 3e
       -0.020472482 0.14646247 0.09087123 0.16412476
000110 9c c6 1b bd 25 a5 d1 3c fc fc 0c be ff 78 99 3d
       -0.038031206 0.025591442 -0.13768381 0.07493781
000120 25 c8 03 3e 84 08 fc 3b c7 04 9a 3d 12 11 f1 3b
       0.12869318 0.007691445 0.075204425 0.0073567713
000130 0a 28 22 bd d2 b6 d3 3d 7c f0 9c 3d a4 13 2e be
       -0.039588965 0.103376046 0.07663056 -0.1699968
000140 d8 3b 56 3d 3c d7 11 3e 09 1a be 3d 78 38 11 be
       0.052303165 0.14242262 0.092823096 -0.14181697
000150 dc 49 d9 bd 13 f3 1d be 90 7e e9 3d 23 b0 0a 3e
       -0.10609791 -0.15424757 0.11401093 0.13543753
000160 63 ca 1d be 9b 1d 01 be ae 62 a0 bd d3 5d a7 bd
       -0.15409236 -0.1260895 -0.07831322 -0.081721924
000170 e3 69 05 be 8a a6 29 bd 68 23 51 bd b9 cc 10 3e
       -0.13028674 -0.04141859 -0.051059157 0.14140595
000180 ed 80 d0 bd 78 99 0c 3d 8f 47 e2 3d 5b 23 34 be
       -0.10180841 0.034326047 0.11048805 -0.17591612
000190 ba 0b a6 bd 03 d8 15 3e 65 f6 90 3c 3b 4d f7 bd
       -0.081077054 0.14633183 0.017695615 -0.120752774
0001a0 da 04 77 3c b5 1e 9f 3c 50 03 1a 3e 99 46 20 3e
       0.01507684 0.019423822 0.15040326 0.15651931
0001b0 25 f6 bf 3d fe aa d1 bd 4f 73 3a 3e 6b 80 a1 bd
       0.0937312 -0.10237692 0.18208049 -0.07885822
0001c0 e2 04 20 3e 51 d8 cb bd a4 96 19 be 44 bb b3 bd
       0.15626863 -0.099533685 -0.14998871 -0.087759525
0001d0 f7 84 e1 bd 4e fc 20 3e dc de 1a be 89 47 cf 3b
       -0.11011689 0.15721247 -0.15124077 0.0063256663
0001e0 db ae 1a 3e 54 fa ae 3d 84 cb b7 bd 23 31 9d 3d
       0.15105765 0.0854384 -0.089743644 0.07675388
0001f0 0e d7 fb bd f6 c9 ee bc a9 96 4a be 24 66 c7 3d
       -0.12296878 -0.029149037 -0.19784035 0.09736279
000200 34 61 f4 3d bd 90 72 bc 56 b7 3a be 39 9b 17 be
       0.119326025 -0.014805016 -0.18234 -0.14805306
000210 19 1b b2 3c 6f 12 a8 3d e5 35 21 3e dc d2 42 3c
       0.021741437 0.08206641 0.15743215 0.011891093
000220 e6 f6 82 bd e3 50 e2 bd 73 b8 30 be eb 0c 0d be
       -0.063947484 -0.11050584 -0.17257862 -0.13774459
000230 08 8b d5 bd ef a1 f4 3d 2f d1 16 bd a8 36 f1 bc
       -0.10426909 0.11944949 -0.036820587 -0.029445007
000240 49 c6 d2 bd 48 d5 0d 3e f7 5b 0d be cf a2 94 3d
       -0.10291726 0.13850892 -0.13804613 0.07257616
000250 33 fa 66 bc 5d a6 96 bd 88 a5 3a 3d 9b 27 11 bd
       -0.014097738 -0.0735595 0.04556802 -0.03543816
000260 71 e9 0e 3e fc d7 d9 bd 66 fa af bd e2 e0 36 be
       0.13956238 -0.10636899 -0.085926816 -0.17859223
000270 3f ff a4 3d 15 cf 28 be 6b 0d b8 bd 69 e3 8f bd
       0.08056497 -0.16485246 -0.08986934 -0.07025797
000280 c7 86 1e 3e 15 8d df bc 40 b3 7f 3d 0a e2 31 be
       0.15481101 -0.027288953 0.062426805 -0.17371383
000290 a8 95 11 bd e7 48 df 3d 26 f7 90 3d ef 73 90 bd
       -0.035543114 0.10902577 0.0707839 -0.070533626
0002a0 fe 99 15 3e 70 e4 e9 bd 85 74 f0 bd e1 39 62 bc
       0.14609525 -0.11420524 -0.11740974 -0.013807745
0002b0 af 2d 1a be 9d 39 c8 bd 95 fe 61 bd 9a b5 11 3d
       -0.1505649 -0.09776614 -0.05517443 0.03557358
0002c0 0b 24 e0 3d f7 40 18 3e e1 83 4e 3e ce a1 21 3b
       0.10944375 0.14868532 0.20167495 0.0024663093
0002d0 0a 9d 4f bd 7f 07 ce bd e4 0f 18 be 58 c2 9e bd
       -0.050686873 -0.100600235 -0.14849812 -0.07751912
0002e0 6c 7b 19 3d 93 78 81 3d 6e e3 31 be 50 37 8e bd
       0.03747122 0.06321826 -0.17371914 -0.06944144
0002f0 2d df c1 bc 8c 1a 48 3c 3a 07 8d 3c a6 4e ec bd
       -0.023665989 0.0122133605 0.01721536 -0.115384385
000300 58 dc fa 3d 3c f3 57 bd 71 a2 89 bd 47 9e 16 be
       0.122490585 -0.0527222 -0.06720436 -0.14708816
000310 bf 5e 7b bc c4 fe 0d bd 8d 7e 1c 3e 98 b1 09 3e
       -0.015342413 -0.03466679 0.1528265 0.13446653
000320 96 ce 98 3d ae 28 31 be 80 a2 f3 38 cf fe 0d bc
       0.07461278 -0.17300674 0.00011617411 -0.008666708
000330 48 3b c9 3a f6 19 6c 3d 14 a4 73 3d 90 3d 76 bd
       0.001535275 0.057641946 0.05948265 -0.060117304
000340 c4 d5 08 be ca 06 1d 3d 1e 7f 40 be 06 83 4a bd
       -0.13362795 0.038336553 -0.18798491 -0.04944136
000350 6a 2f cd bc f0 42 11 3d 22 33 b8 bd b7 5f f6 3d
       -0.025047023 0.035464227 -0.08994128 0.12029975
000360 3d cc 84 3d e6 ee f7 3d 84 42 0b be 96 cd f8 bc
       0.06484268 0.12106113 -0.13599592 -0.030371469
000370 40 6e 04 3e f9 a4 05 bd cf ee 25 bb 3f 54 15 be
       0.12932682 -0.032628033 -0.0025319343 -0.14582919
000380 ba 38 09 be ce 92 a9 bd bb c9 08 be 39 c5 92 bd
       -0.13400546 -0.08279954 -0.13358204 -0.071665235
000390 ca 23 08 3e bf 52 d2 bd e0 23 67 bd 8e 31 31 bd
       0.13294902 -0.10269689 -0.056430697 -0.04326015
0003a0 92 03 1c bd 21 b9 39 3e d0 b9 38 3e 45 b0 a9 3d
       -0.038089342 0.18137027 0.18039632 0.08285574
0003b0 fa 48 bf 3d 9d 9f ee bd f8 cc 06 bd 1e ab be bd
       0.09340091 -0.116515376 -0.032910317 -0.09309982
0003c0 4c 6e 6b bd a8 a3 2d 3e ef 57 0c 3c 58 7a 27 be
       -0.057478234 0.16956961 0.008565887 -0.16355264
0003d0 05 58 5a bc 37 9a f5 bd 7e d1 41 3e 6b aa d7 bc
       -0.01332665 -0.11992305 0.18927571 -0.026326379
0003e0 5c 12 0d bd ec f2 37 3c 29 8b 16 be aa fb f2 3d
       -0.034441337 0.011227351 -0.14701523 0.11864407
0003f0 c6 b2 12 be e0 34 23 3e b2 0e 32 be 88 1e 5a bd
       -0.14326009 0.15938139 -0.17388418 -0.053251773

layer_1.bias f4 [27]
000000 e9 da a3 bd 32 42 2c 3e 3d 93 a4 3d 84 60 b8 3d
       -0.08000738 0.16822127 0.08035896 0.09002784
000010 8a 1b 36 3e 4a 5b 05 be d2 88 02 be 74 6d 0f bd
       0.17783943 -0.13023105 -0.12747505 -0.035016492
000020 50 c7 b6 bd 50 8f 29 3e f9 95 05 be 1e 09 f1 3c
       -0.089247346 0.16558576 -0.13045491 0.029423293
000030 6a 9c 17 be c9 df f5 bc 36 f4 22 3e 00 46 8d bd
       -0.14805761 -0.030013936 0.15913472 -0.06898117
000040 2a f1 b7 bc 02 28 bc bc 50 f3 88 bd db a2 92 3d
       -0.022453863 -0.022968296 -0.06687033 0.071599685
000050 76 b1 45 bd be 66 59 bd ea bb 19 be f3 7c 9a 3d
       -0.048264943 -0.0530765 -0.1501309 0.075433634
000060 9a 18 b1 3d 12 3c 6c 3d f7 34 55 bd
       0.086472705 0.057674475 -0.052052464

layer_2.weight f4 [20, 27]
000000 ec 73 26 bc 50 29 07 be 9a fc 7d bd 2d c9 54 3e
       -0.010159474 -0.13199353 -0.062008478 0.20779867
000010 70 d5 30 be 36 8d 13 be 79 34 c2 bd b0 41 cf bc
       -0.1726892 -0.14409336 -0.094826646 -0.025299877
000020 20 b1 51 3e 3b 8a a7 3d 85 2d 22 bb 04 48 4b 3e
       0.20477724 0.08180662 -0.002474637 0.1985169
000030 3b cd 8f bd 49 ef e0 3d 89 b0 ce 3d 2a d6 bf 3c
       -0.070215665 0.1098314 0.10092265 0.023417551
000040 88 5b e7 bd b1 7b 3f 3d 21 26 b7 bc 8d 6f 30 3d
       -0.11296755 0.04674882 -0.022357048 0.043075133
000050 c3 25 43 3e b9 b3 33 3e 54 4f 35 bd b6 6f f3 3d
       0.19057374 0.17549028 -0.044265106 0.118865415
000060 6e 61 9a bd 7b 98 26 3e 70 e3 89 3c af 1c 36 be
       -0.075381145 0.16269104 0.016832083 -0.1778438
000070 3a d4 0b 3e 16 3e 0a be 96 60 28 be 1b 26 ed 3d
       0.13655177 -0.13500246 -0.16443095 0.11579534
000080 86 70 5f 3d 6f 2a 25 3e d5 6f 28 3e 4a a0 34 3e
       0.05455067 0.16129468 0.1644891 0.1763927
000090 a7 34 40 3c 1d 30 c8 bc 54 d6 a3 bd 5a 62 b0 bd
       0.011731303 -0.024437005 -0.07999864 -0.08612509
0000a0 f5 a5 43 3e 78 38 45 be 3d 9f c0 3d 30 64 cb 3c
       0.19106276 -0.19259822 0.09405372 0.024828047
0000b0 cc d4 9c 3d f8 13 c9 3d 14 44 f5 bd 44 6b 67 3d
       0.07657775 0.09818262 -0.119758755 0.05649878
0000c0 c3 64 00 be 74 fd fc bd 07 57 3a be 48 20 1b 3e
       -0.12538438 -0.1235303 -0.18197261 0.15149033
0000d0 72 45 0c 3c 9c d3 b1 bd 7c 46 6a 3d e9 9b 24 3e
       0.008561479 -0.086829394 0.057196125 0.160751
0000e0 86 9a 99 3d 46 66 97 3d f0 be 7e bd 4f 72 c1 bd
       0.07500176 0.07392554 -0.06219381 -0.09445631
0000f0 00 a3 05 3c f3 a4 8b 3d ca 47 3d be 0a 5d 3c bc
       0.008156538 0.06818571 -0.18484417 -0.011496792
000100 5a 6a 03 be 93 c6 ef 3c d1 a6 0b 3e 9a 69 45 3d
       -0.12833539 0.029269492 0.13637854 0.048196413
000110 86 7a a3 3d 71 bf 13 3e 4f 10 ab bc 1b aa 25 3d
       0.07982354 0.14428498 -0.0208818 0.04044543
000120 38 de 57 bd f6 65 bd 3d ab b6 56 be 54 d0 b5 3d
       -0.05270216 0.09247963 -0.2096812 0.08877626
000130 d2 52 b7 bd f0 9a 89 bc 0a 11 cc 3d 19 63 d4 3d
       -0.089513436 -0.016797513 0.099641874 0.10370464
000140 a0 36 40 be ec 47 69 bd fa 57 30 3e e1 2e 2e 3e
       -0.18770838 -0.056953356 0.1722106 0.1701007
000150 1e e9 bf 3c 28 6a 16 3e 7e 0b dc 3d 60 b6 0a be
       0.023426589 0.14688933 0.107443795 -0.13546133
000160 22 ff 9f bd 63 04 e0 3d c2 fc 37 3d 55 6a 19 be
       -0.078123346 0.10938337 0.044918783 -0.14981969
000170 51 87 3f be ac 25 cf bd 6d 15 20 be 04 1e 56 be
       -0.18703963 -0.10114607 -0.15633173 -0.20909888
000180 c0 79 49 be c1 c2 0d be 80 92 dc bd f3 88 05 be
       -0.1967535 -0.13843824 -0.1077013 -0.13040523
000190 a0 c3 3f ba 31 45 b3 bd f1 ca d2 bd 66 5f ae 3d
       -0.0007315222 -0.087534316 -0.10292614 0.085142896
0001a0 45 4e 13 be fa 76 31 3d ae 99 91 bd c3 0c 66 bd
       -0.14385326 0.043326356 -0.0710939 -0.056164514
0001b0 2c 16 c8 3c b3 d5 fc 3d fa 55 1d be 94 21 94 3d
       0.024424635 0.123454474 -0.15364829 0.07232967
0001c0 68 d6 43 3e be a4 4a 3e 69 0d f1 bd e8 79 5d 3d
       0.19124758 0.19789407 -0.11770136 0.054071337
0001d0 dc 89 9a 3c cb 2a 57 3e 1d 53 4e bc 60 e0 a5 3a
       0.018864565 0.21012418 -0.012593058 0.001265537
0001e0 00 e1 0b 3a dc 37 52 3c 66 63 1d 3e 29 fa cf 3d
       0.0005335957 0.012830701 0.15369949 0.10155136
0001f0 72 85 8a 3d e7 5a ed 3d c6 63 22 be 93 c5 0a be
       0.06763734 0.11589604 -0.15858373 -0.13551931
000200 be 96 44 bd ff a9 4c 3e b7 e5 39 3e 0c 3c 1a 3e
       -0.04799532 0.19986723 0.18154036 0.15061969
000210 d8 22 41 be 92 de 26 be de 1e cc bc 80 d2 66 b9
       -0.18860948 -0.16295841 -0.024917062 -0.00022012927
000220 bd 8d d3 bd e9 51 b3 3d 26 b1 17 be c3 28 f2 bc
       -0.10329769 0.087558575 -0.1481367 -0.029560452
000230 2a b5 15 3e 87 e5 98 bd 24 c2 f4 bd ce 71 29 3d
       0.1461989 -0.07465654 -0.11951092 0.0413683
000240 01 c7 0b 3e 74 90 c4 3d 9d e3 26 be 5b 03 03 be
       0.13650133 0.09597865 -0.16297765 -0.12794249
000250 56 96 74 bc 24 48 5d 3e 5a a1 b4 3d ca f5 98 3d
       -0.014928421 0.2160955 0.08819838 0.074687555
000260 5f f9 21 bd eb b4 aa bd e6 88 14 3e c4 e9 0b be
       -0.03954446 -0.083352886 0.14505348 -0.13663393
000270 0d ad 96 3d 73 1d 08 be 2c 2c 6c 3d 9b ef de 3c
       0.073572256 -0.13292484 0.057659313 0.027213862
000280 4c 59 a9 bc 28 23 18 be dc 0d 03 3d 05 79 f3 3c
       -0.020672463 -0.14857161 0.03199564 0.029720793
000290 d4 ea 90 3d a0 9d 17 bd 39 fb 17 bd d6 c7 84 3d
       0.0707604 -0.037015557 -0.03710482 0.06483428
0002a0 9c ee 88 3d a4 dd 03 be f7 72 fe bd 23 56 be bd
       0.06686136 -0.12877518 -0.124242716 -0.09293773
0002b0 00 5f f1 3d ad 41 9a 3c 98 37 f1 3d 53 92 16 be
       0.11785698 0.018830145 0.11778182 -0.14704256
0002c0 42 00 01 3e 1d e7 13 be 88 d1 34 3e 92 53 84 3c
       0.12597755 -0.14443631 0.17658055 0.01615313
0002d0 71 dc b7 bc b5 a9 4b 3b f1 3b 30 be 5b 61 d0 3d
       -0.022443982 0.0031076495 -0.17210366 0.10174819
0002e0 39 63 33 3e 76 7b 89 3c c8 42 06 3e 74 11 30 be
       0.17518319 0.016782504 0.13111413 -0.17194158
0002f0 95 18 b2 3c 60 56 32 bd a7 eb 34 be c5 91 b9 3d
       0.021740237 -0.043539405 -0.17668019 0.090610065
000300 be cb b9 bd 65 e1 1b be df bf 81 3d 1e 8b 03 be
       -0.09072064 -0.152227 0.06335425 -0.12846038
000310 56 4c 03 be a2 34 13 be 3f ee a7 3d 0a cc 09 be
       -0.12822089 -0.14375547 0.08199739 -0.13456741
000320 d0 b2 09 be 73 e1 e5 3d aa 08 07 3e 6d 87 f9 bd
       -0.13447118 0.11224642 0.13186899 -0.121840335
000330 9e 5d 35 be 2a 5e 2a be c9 f4 c8 3d da a9 b2 3c
       -0.17711493 -0.16637483 0.09812314 0.021809507
000340 51 f0 a8 3d 69 57 06 be a5 cb 98 bd b0 8e 27 3e
       0.08248962 -0.13119282 -0.07460717 0.16363025
000350 7b 11 f9 3d ca d0 3f 3b de 66 2e be 37 b9 3e be
       0.12161537 0.0029268735 -0.17031428 -0.18625341
000360 3e c6 8a bd 58 4f 9f bd e2 6f 14 be d3 73 9d 3d
       -0.06776093 -0.077788055 -0.14495805 0.07688107
000370 7b c6 2c be b2 63 b5 bd e2 86 6a bd be a8 42 bd
       -0.1687259 -0.08856906 -0.05725754 -0.047524206
000380 1c 4b 34 3d fc 80 1b 3d cf 70 14 be 8a b9 2b be
       0.044016942 0.037964806 -0.14496158 -0.16769996
000390 19 9d c6 bb 30 e4 e8 bc 74 55 ef bd 5d 71 ef 3d
       -0.006061208 -0.02842912 -0.11686221 0.11691544
0003a0 d2 7a 10 3e b5 9a db bd e4 ff 59 3b f7 00 44 3d
       0.14109352 -0.107228674 0.0033264095 0.047852483
0003b0 99 ce 1b be cc cc 5d 3d e2 82 03 be 12 29 b3 bd
       -0.1521553 0.054150388 -0.12842897 -0.08748068
0003c0 e2 55 89 3c 1d 68 2b be 68 51 1c 3d da 31 27 bd
       0.016764585 -0.16738935 0.038163573 -0.040819027
0003d0 06 cb 4c 3d 2f 30 1e 3e 20 47 2c 3d 00 90 a6 bd
       0.049998306 0.15448068 0.042060018 -0.081329346
0003e0 28 a4 4d bd a2 01 1d bd a4 1c 30 3e 14 ee 36 bc
       -0.05020538 -0.038331635 0.17198426 -0.011165161
0003f0 f0 09 45 3d 9b 9e 33 be dd a9 30 be 2b d1 10 be
       0.04810518 -0.17540972 -0.17252298 -0.14142291

layer_2.bias f4 [20]
000000 ec 7d 41 3e f3 45 99 3c ab 6d b0 bb f2 1f 82 bc
       0.18895692 0.018710112 -0.005384167 -0.015884373
000010 43 c5 2c 3e 3a 28 92 bd 7d cb 03 be 1c cc 12 3e
       0.16872124 -0.07136579 -0.12870593 0.14335674
000020 e9 4f 41 3e 4d 77 1d be 3d 6f 5d bd 73 bc fc 3c
       0.1887814 -0.15377541 -0.054061163 0.030851578
000030 80 13 29 be 9b f8 ed bd 27 96 93 bd f4 9e 21 3e
       -0.16511345 -0.11619683 -0.07206374 0.15783292
000040 53 84 fa bd 10 e5 95 3b 0e 89 fd bd 99 fb 60 bc
       -0.1223227 0.0045744255 -0.12379657 -0.013731861

layer_3.weight f4 [1, 20]
000000 77 5c 00 3e 5b 8d 20 be 06 fe 83 bb 51 29 a9 bd
       0.12535273 -0.15678923 -0.0040280847 -0.082598336
000010 16 cb 64 3e 19 67 5c 3e d0 83 f3 3c 37 cf 39 be
       0.22343096 0.21523704 0.029725939 -0.18145452
000020 29 d9 85 3d ae 6e 57 bd 01 84 5f bd 60 28 01 be
       0.06535561 -0.052595787 -0.054569248 -0.12613058
000030 be 6e 3f bd 4d 93 21 be d0 df 3a 3e ae e9 2d be
       -0.04673647 -0.15778847 0.1824944 -0.16983673
000040 8b 62 0b 3d d0 1b 2f 3b a6 a4 8e 3c be e4 71 bd
       0.034029525 0.0026719458 0.017412495 -0.059056036
