critic.pt (torch, 7831 bytes, 5 tensors)

layer_1.weight f4 [27, 31]
000000 c3 dc 29 be 40 1e e4 3d 1b 64 3e be f6 e2 05 bd
       -0.1658812 0.11138582 -0.18592875 -0.03268715
000010 7c 18 a7 bd 90 d6 9e 3d c6 45 e2 3d 75 ed e4 3c
       -0.08158967 0.07755768 0.110484645 0.02794526
000020 32 de 13 3e 8a 63 85 3d 07 83 d1 3d 13 ad 53 3e
       0.1444023 0.06513126 0.102300696 0.20671491
000030 2e bf 99 bd 12 34 df 3d 6c 66 58 bd 2e 55 97 bd
       -0.07507168 0.108986035 -0.052832052 -0.073892936
000040 bc d2 1f 3b 61 af 26 3e f0 b4 c2 bd c6 9b ff 3c
       0.0024387082 0.16277839 -0.09507167 0.031202208
000050 43 5f 8e bd 9e 1a 33 bd ef 82 84 bd 26 bf 85 bd
       -0.069517635 -0.043726556 -0.06470286 -0.06530599
000060 bc 52 e5 3d d6 b0 53 bd 28 0b 07 3e 21 a1 4b 3e
       0.11197421 -0.051682316 0.1318785 0.19885685
000070 ea 13 a4 bc a4 75 d7 bd e9 42 be 3d f8 16 20 3d
       -0.020029027 -0.10520485 0.09290106 0.039084405
000080 c9 5b 39 be d2 6b bf 3b 93 b9 13 be 2a 06 16 3e
       -0.1810142 0.0058417106 -0.1442626 0.14650789
000090 38 a0 9e 3d 01 a5 fc 3d 4e 95 70 3d 12 37 28 3e
       0.07745403 0.123361595 0.058736138 0.16427258
0000a0 66 a7 7b bd 5d 99 58 be b1 dc 86 3d 84 7d d8 3d
       -0.06143894 -0.21152253 0.06585062 0.10570815
0000b0 0d 44 66 be ac 3f d0 3b b4 78 a6 bd 58 d6 51 3e
       -0.22486897 0.0063552465 -0.08128491 0.20491922
0000c0 57 81 ce bc d4 f2 54 3c eb e2 66 3e 0a ec 22 3d
       -0.025208158 0.012997348 0.225475 0.039775886
0000d0 2a fd 8a bd 1b 7a 37 3e bf 6c 09 3e c4 80 00 bd
       -0.067865685 0.17917673 0.1342039 -0.0313728
0000e0 96 24 6c 3e c2 19 42 3e d3 42 20 3d af 92 6e bd
       0.23060831 0.18955138 0.03912623 -0.058245357
0000f0 0c 3b 71 3e 91 f7 8d 3e 4c 3d 91 3d 75 cd 4d be
       0.23557681 0.2772794 0.070917696 -0.20097907
000100 16 b5 58 3d 99 61 ae bc 95 18 0f be 10 db 38 bd
       0.052907072 -0.021286773 -0.13974221 -0.04513079
000110 a6 0c 48 3e ad d8 fc 3d 80 7e 98 3a 1b f1 94 bd
       0.19536075 0.12346015 0.001163438 -0.0727255
000120 f7 96 03 bd 6b 8d 90 bd 2e e9 a9 3c 62 33 40 3d
       -0.032126393 -0.07058223 0.020741072 0.046924002
000130 d6 23 92 bc 30 f9 34 bc e0 2b e9 bd a4 74 b5 3c
       -0.017839354 -0.011045739 -0.113853216 0.022150345
000140 1c d3 22 3e 8c 73 62 3d 20 20 88 3d d9 f2 40 3e
       0.15900844 0.055285975 0.06646752 0.18842639
000150 d7 00 09 be c4 66 02 3e c8 96 3a 3e 0e a3 0c bc
       -0.13379227 0.12734514 0.18221581 -0.008583797
000160 f3 3f 1d be 5a c3 a9 3d 25 98 fc bd 34 b2 2a bd
       -0.15356426 0.082892135 -0.12333707 -0.041673854
000170 52 3a 30 3e bd 2c 07 be e8 34 7e bd 0b 2d d6 bc
       0.17209747 -0.1320066 -0.062062174 -0.026144525
000180 04 10 3b 3d d4 f0 fb 3d 9c bf 11 3e dc 9a 1b be
       0.04566957 0.12301794 0.1423325 -0.15195793
000190 2f 7d 0e be de bc a7 bd cf cd c9 3d 2b f5 f7 3d
       -0.13914941 -0.081903204 0.09853708 0.12107309
0001a0 18 02 89 bc f1 0e 91 bd 18 ed 0c bd 51 88 36 3d
       -0.016724631 -0.07082928 -0.034405798 0.044563595
0001b0 d6 19 3c 3d 52 4c fd 3d de 1b 46 3e 6f 68 2c 3e
       0.045923077 0.123680726 0.19346568 0.16836713
0001c0 18 7c 8d 3d 50 e2 8e bd 29 6c 15 3d 86 7e 04 3e
       0.06908435 -0.069767594 0.036480103 0.1293889
0001d0 92 fd 28 3e df ee 2b 3e f4 58 f3 3c d6 cd b3 3d
       0.1650298 0.16790341 0.029705502 0.087794945
0001e0 96 ad 23 3e 80 93 b3 bd e5 69 fd 3d 62 be 9f 3d
       0.15984187 -0.08768368 0.123737134 0.077999845
0001f0 a4 b4 37 bd 09 9b 6c bc 0c b0 12 3e 4a 0c 26 3e
       -0.044850007 -0.01444126 0.14324969 0.16215625
000200 6b 9e 4a be 57 55 09 be 37 a7 bd bc 20 79 3e be
       -0.19786994 -0.13411461 -0.023151023 -0.18600893
000210 70 b8 af bc 6c 5b fc bd 41 bb 2f 3e 94 b7 98 3d
       -0.021450251 -0.12322125 0.17161275 0.0745689
000220 dd 32 0c be 12 ab 58 3d 0c 13 b0 bd 02 51 25 3e
       -0.13691278 0.05289752 -0.08597383 0.16144183
000230 e0 06 ef 3c a7 b0 f2 3d 31 bc fc 3d 22 b9 02 3d
       0.029178083 0.118501 0.12340582 0.031914838
000240 81 13 45 be 18 e4 e0 ba d4 ab 0e 3d 60 3b be bd
       -0.19245721 -0.0017157821 0.034831837 -0.09288669
000250 e7 35 86 3d 42 bd 77 3d a4 e0 c6 bd cd b4 25 3e
       0.0655325 0.060483225 -0.097108155 0.16182251
000260 2a 9f 4a bd 40 3b c5 3d ed fd 47 be 59 60 09 be
       -0.049468197 0.09630442 -0.19530459 -0.1341566
000270 ca 72 bb bc 97 31 5e 3d d4 8d a2 bc 58 81 2d 3d
       -0.022881884 0.05424651 -0.01984302 0.04235968
000280 51 5e 25 be 20 e4 09 3e ae 42 1c 3e 4f 28 14 be
       -0.1614926 0.13465929 0.15259811 -0.14468502
000290 2a 28 bb 3d 96 86 cb bb 2e 33 34 3d 00 26 ff 3d
       0.0913852 -0.0062111123 0.04399412 0.1245842
0002a0 39 37 ab bd 9e 5b 30 be 61 c9 33 be b4 a1 eb 3d
       -0.08360142 -0.17222449 -0.17557289 0.11505452
0002b0 64 1e 28 3d 81 af eb bd b3 bb e4 3d 0a c1 94 bd
       0.041044608 -0.11508084 0.11168613 -0.07263382
0002c0 d9 a3 71 bd 19 99 68 bc 66 70 01 bd 5b 19 92 3d
       -0.058994148 -0.014196658 -0.031601332 0.071337424
0002d0 c2 df 2c be ce 65 f6 3c 6e db 70 3d f0 ab fe 3d
       -0.16882232 0.030077841 0.058803014 0.12435138
0002e0 cc 1c d3 bd 2e 3a 07 bd 18 fe ef bd 76 71 5c bd
       -0.10308227 -0.03301447 -0.117183864 -0.053819142
0002f0 c2 9e 24 3d c4 f2 b6 bc 46 77 35 3e 0a da 10 be
       0.040190466 -0.022332557 0.1772128 -0.14145675
000300 cf e5 c8 bd ec 20 a4 3d 4a 7d 09 be 2e c2 cc bd
       -0.098094575 0.08014092 -0.134267 -0.09997974
000310 46 3c ac bd b9 6a 2c 3e 98 d0 1e 3d 0e 7a 18 be
       -0.08409934 0.16837586 0.03877315 -0.1489031
000320 43 df 8d bd 70 ec c8 bd cc 70 e0 bd f4 75 2d 3e
       -0.069273494 -0.09810722 -0.10959014 0.16939527
000330 83 3b f1 3c 29 7d 0c 3e 64 57 6e bd fd 04 b8 bd
       0.029447323 0.1371962 -0.05818881 -0.089853264
000340 d2 9e 61 3e 0a 5c 47 3d 63 c3 23 3e 6c 6c 4a 3d
       0.22033241 0.04867176 0.15992503 0.049419805
000350 75 ed 51 3e f9 69 00 be 98 0a 54 3e 8f d8 06 3e
       0.20500739 -0.12540425 0.20707166 0.13168548
000360 86 d7 3e 3e c8 e4 22 bd a5 5c d6 3d 80 93 2e be
       0.18636903 -0.039768964 0.10466889 -0.17048454
000370 46 dc fb bd 5f 3b ef 3d a8 4b e9 3d 92 6c 4a bd
       -0.12297873 0.11681246 0.113913834 -0.049419947
000380 7c d1 96 bd e0 e3 86 bb e9 89 1c bd 01 0f ae 3d
       -0.07364175 -0.0041165203 -0.03821746 0.084989555
000390 29 b0 05 3e 1e 10 09 be eb c8 28 3e f8 e2 9a bd
       0.13055481 -0.13385054 0.16482894 -0.07562822
0003a0 21 6a 33 be 7e 79 2e be 0c 81 e2 bd 80 b8 78 bc
       -0.17520954 -0.17038533 -0.1105977 -0.015180707
0003b0 53 ac 00 3e 26 bd ea 3d 1f 22 15 be 45 b7 19 be
       0.12565736 0.114618585 -0.14563797 -0.15011318
0003c0 5c be 55 3d 07 e1 04 be fd ed e0 bd 2c 85 cd bc
       0.052183494 -0.12976466 -0.10982893 -0.025087915
0003d0 3f c4 f8 bd fc f3 96 3d ef ca a3 bd 14 2c 18 bd
       -0.12146806 0.07370755 -0.07997691 -0.03715141
0003e0 5d 72 21 be 0d 2c 1d bc ec 1d f5 bd c9 6b db bd
       -0.15766282 -0.009593022 -0.11968598 -0.10713918
0003f0 26 c0 ca 3d c4 28 b0 3d 9f bc f4 3d 7c e4 d3 bd
       0.09899931 0.086015254 0.11950039 -0.10346314

layer_1.bias f4 [27]
000000 b4 ba a9 3d b5 7c ae 3d fd 72 0f 3d d7 e7 f1 bd
       0.08287564 0.0851988 0.03502177 -0.11811798
000010 b2 de cb bd 26 fe f5 bd 7f 0a 16 3e c7 1d b1 bd
       -0.09954585 -0.120113656 0.14652441 -0.08648258
000020 ac 2d 8a 3d b0 e3 08 be 92 24 9e 3b 35 a6 42 3e
       0.067469925 -0.13368106 0.004826137 0.19008715
000030 8c b9 9b bc 30 ac c3 3d aa 01 45 3d 78 ce 05 3e
       -0.019009374 0.095543265 0.04809729 0.13067043
000040 89 43 06 3e 7f ca 01 3e 3a 92 3a 3e 77 a3 02 bd
       0.131117 0.12674902 0.18219844 -0.031894173
000050 24 97 97 bd 8d 27 bb bd 58 13 09 be 23 8d 01 be
       -0.07401875 -0.09138403 -0.13386285 -0.12651496
000060 d2 4d 59 3d 40 70 4b bd ec bd 9c bb
       0.05305273 -0.049667597 -0.0047833826

layer_2.weight f4 [20, 27]
000000 b3 68 16 3e c4 a6 46 bd c3 ec 23 3e 15 24 e1 bd
       0.14688377 -0.048498884 0.16008286 -0.1099321
000010 6a 91 cd 3d 2c 72 22 be bb 20 1c 3e b0 5d c1 bd
       0.10037501 -0.15863866 0.1524686 -0.094416976
000020 90 bc 88 3c ff b0 36 3e 70 ee 2d be f3 47 24 be
       0.016691476 0.17840956 -0.16985488 -0.16043071
000030 08 94 2b 3d 8f 14 41 be 2c fe 8c bd da 61 00 be
       0.04188922 -0.18855499 -0.06884417 -0.12537327
000040 7f 53 34 be 2e 77 fc 3d 88 85 cb bd 02 d6 d5 bd
       -0.17609976 0.12327419 -0.099375784 -0.104412094
000050 42 98 ac 3d d6 1f da 3d b0 89 2a be 70 37 ba bd
       0.084274784 0.106506035 -0.16654086 -0.09092605
000060 e4 f0 6e bd 3c f5 80 bd 60 82 5f 3d 30 3e 8e 3d
       -0.0583352 -0.06296775 0.054567695 0.06945455
000070 a2 9d 79 bd 44 c3 b3 ba e6 0c 52 bd 20 ba 78 3c
       -0.060941346 -0.001371481 -0.051281832 0.015181094
000080 ca 8c 50 3d 9a 0b 2f 3c 88 b8 40 be 43 74 37 3e
       0.050915517 0.010683918 -0.18820393 0.17915444
000090 4a 62 de 3d 3b dc 37 be ed fd 18 be 8b 43 1d 3e
       0.10858591 -0.17955105 -0.14940615 0.15357797
0000a0 36 31 5c 3d 10 a2 14 3e a3 9b 2e bd 20 aa cc bd
       0.05375787 0.14514947 -0.042628895 -0.09993386
0000b0 8c 9c 16 3c 68 86 24 3e 07 62 85 bd ea 16 77 bd
       0.009192597 0.16066897 -0.06512838 -0.060324587
0000c0 5c c2 57 be 33 2b 2c 3e 95 57 0d 3e 17 fa be 3b
       -0.21070236 0.16813354 0.13802941 0.005828153
0000d0 d2 13 26 be b1 23 2c 3e fb 4b c6 bd 8f 1a 55 be
       -0.16218498 0.1681049 -0.09682461 -0.20810913
0000e0 d0 87 93 bd e9 f3 c9 bd f4 16 9e 3d 7b b4 3b be
       -0.072036386 -0.09860975 0.07719222 -0.18330567
0000f0 9a 30 23 be a0 31 9f 3c f2 8b 8d bc 5e b1 a8 bd
       -0.15936509 0.019432843 -0.017278645 -0.08236955
000100 f0 51 8b 3d da 13 b2 bd 34 30 e8 3d a9 7b da bd
       0.06802738 -0.08695193 0.11337319 -0.106681176
000110 0f b6 44 be 9e 41 6d 3d 14 15 8d bd dd 1a 0c 3e
       -0.19210075 0.057923906 -0.06888786 0.13682123
000120 d5 fb 13 bd c2 c7 a4 3d a6 13 2e be e3 1c db 3c
       -0.036128838 0.08045913 -0.16999683 0.026747173
000130 e8 eb 11 bd 28 71 ef 3d 1a 42 5f be 44 26 32 bd
       -0.03562537 0.11691505 -0.2180256 -0.043493524
000140 d2 44 16 be b0 91 07 3c 20 8c 08 be a1 b9 b5 3d
       -0.1467469 0.008274481 -0.13334703 0.088732965
000150 10 d4 ee 3d 9e 57 02 be 98 3d 1a 3e 06 5a f6 bd
       0.116615415 -0.12728736 0.15062559 -0.12028889
000160 ac 08 95 3d b4 f7 f5 bd d0 45 ae 3d 4f ed 30 3d
       0.07277045 -0.12010136 0.085094094 0.043195065
000170 40 96 c3 3d 6f 22 08 3e e7 83 2b be 8b 0a 37 3d
       0.09550142 0.13294385 -0.16749536 0.04468779
000180 dc 35 ea 3c 73 e9 44 3c 3d 21 02 be ec c9 f6 3c
       0.028590135 0.012018549 -0.12707992 0.03012558
000190 b1 a0 56 be 30 52 58 be 91 e2 4d bd 71 78 0c 3e
       -0.20959736 -0.21125102 -0.0502649 0.1371782
0001a0 28 4e e0 3d 7c 04 fd 3d 95 9c a0 bc 2b 0e 78 3d
       0.10952407 0.12354371 -0.019605914 0.060560387
0001b0 9e d4 f7 3d d9 bf 25 3e 7d ce 22 be 66 fe df 3d
       0.121011004 0.16186465 -0.15899082 0.109371945
0001c0 cb 58 3e 3e 4c fd 4d 3d de 1b 23 be 34 bc 18 be
       0.1858856 0.05029039 -0.15928599 -0.14915544
0001d0 a0 7c 47 bc 00 be ac bb 8c eb 94 bd 9f ff 39 be
       -0.012175709 -0.005271673 -0.072714895 -0.18163918
0001e0 30 81 3d bd d2 ef e0 3d 88 28 a8 bc db 0e f3 bd
       -0.04626578 0.10983242 -0.02052714 -0.11868068
0001f0 50 0c 48 3d da 15 85 bd 4a ea e7 3d 4f 8a 11 be
       0.048839867 -0.064983085 0.11323984 -0.14212917
000200 95 73 e5 bd 77 a5 43 3e ed d5 b9 bd 8a 91 80 bd
       -0.11203686 0.19106089 -0.09074006 -0.062777594
000210 d0 0a 80 bd c0 60 dc 3c 9f 62 9c bd 86 28 06 3d
       -0.06252062 0.026901603 -0.07635998 0.03275349
000220 07 f8 9d 3d dd 33 8c 3d 8f e9 8c 3e ba cf 0e be
       0.07713323 0.0684583 0.2752194 -0.13946429
000230 91 a4 e0 3d 96 f4 43 3d 3f 69 1b be d1 e4 5c bd
       0.109688886 0.047840677 -0.15176867 -0.053929154
000240 d1 4a fb bd 51 5a 92 3d 92 ef b6 3d b0 0c 45 3e
       -0.122701295 0.07146133 0.08932413 0.19243121
000250 ef 94 77 3e 1a 83 b9 3d 2f 0a f4 3d 82 13 73 3e
       0.24177907 0.09058209 0.11916005 0.2373791
000260 8c 3b a9 3c d8 7d cb 3d c4 5e 50 bd 27 74 3b 3e
       0.020658277 0.09936112 -0.050871626 0.18306027
000270 7f d0 82 3e 76 d5 22 3e 86 9c 02 be 98 be 19 bb
       0.25549695 0.15901741 -0.12755021 -0.002345955
000280 7a 25 2a 3e d8 63 53 bd c6 8e a1 3d e4 c8 a1 3d
       0.16615859 -0.05160889 0.0788856 0.07899645
000290 86 41 73 3d 08 c2 d4 3d 5c 4d 8a bd 52 6a d8 bd
       0.05938866 0.10388571 -0.067530364 -0.10567154
0002a0 18 ba 0b 3c 7d 62 06 3e 56 51 c2 3d 62 90 e1 3d
       0.008528255 0.13123508 0.0948817 0.11013867
0002b0 ba 2a 52 3c 08 29 6d 3b 21 cf 30 be 38 81 34 be
       0.01282757 0.0036187787 -0.17266513 -0.17627418
0002c0 4b 92 31 be 68 5a b5 bd a7 25 1e be b8 c4 00 3e
       -0.17340963 -0.08855134 -0.1544405 0.12575042
0002d0 a9 90 3c be 1d 6e 25 3e 0f 5b 46 be 14 4e 3b bb
       -0.18414558 0.16155286 -0.19370674 -0.0028580474
0002e0 64 12 3f bd 77 c9 bb bd 9b a3 28 be 01 a4 e5 bd
       -0.046648398 -0.09169286 -0.1646866 -0.11212922
0002f0 86 f4 08 be d5 36 2c be bf 52 44 be 7f 6b aa bd
       -0.13374528 -0.16817792 -0.1917219 -0.083212845
000300 19 a5 fb bd 9e 80 ba bd e8 ac 17 be b1 6d ab 3d
       -0.12287349 -0.09106563 -0.14812052 0.08370531
000310 74 42 7f bd a6 c7 cc bd cc 2e 36 3e 78 8f 03 be
       -0.062319234 -0.099990174 0.17791289 -0.12847698
000320 ff 35 cd bb 9d 6e d7 bd ce 63 fb 3d 5d 5b 42 be
       -0.0062625404 -0.10519145 0.122748956 -0.18980165
000330 66 99 61 3d 54 ee 89 bd 36 bf 5b be 7c cc 17 be
       0.055077933 -0.067349106 -0.2145966 -0.14824098
000340 51 d3 17 3d fc f9 45 3d 7f 31 b0 bc d1 17 ec bd
       0.03706676 0.048334107 -0.021507977 -0.1152798
000350 42 a1 81 3d eb 43 dd 3d 8e f1 8d 3d 65 12 2c be
       0.063295856 0.1080397 0.069308385 -0.16803892
000360 00 85 d9 bd 7d 1f 2d be 48 10 84 bd 42 20 bc 3d
       -0.10621071 -0.16906543 -0.06448418 0.0918584
000370 b8 d9 25 bd b3 2b 41 be f3 45 2e be 10 10 f4 3c
       -0.040490836 -0.18864326 -0.17018871 0.029792815
000380 e3 10 37 3e d5 b0 02 3e a8 41 2f bd 7b d0 15 3e
       0.17877536 0.12762769 -0.042787224 0.1463031
000390 b4 f2 64 3d 8c 93 65 bd 18 0c 1e be 86 cb 2f be
       0.055895522 -0.056048915 -0.15434301 -0.17167482
0003a0 00 a4 06 be 54 86 1b be f8 60 ca bc 00 e8 7f bd
       -0.13148499 -0.15187961 -0.024704441 -0.06247711
0003b0 36 53 b4 3d 78 e5 91 bc 02 20 d9 3d 44 fd 50 bd
       0.08804934 -0.017809615 0.10601808 -0.051022783
0003c0 e0 ca d9 3b 3c 36 13 be c0 99 3d 3b 76 09 56 bd
       0.006646499 -0.14376158 0.0028930753 -0.052255116
0003d0 b6 96 30 3e d0 9a f6 bd c8 d1 cd bd e8 65 b9 3c
       0.17244992 -0.12041247 -0.10049778 0.0226316
0003e0 75 68 b0 3d 13 c6 d4 3d 6f a5 c9 3d b0 f9 8f 3d
       0.086136736 0.10389342 0.09846007 0.07030046
0003f0 0b 54 0f 3e 1b 76 23 be 0b 6a 42 be 08 b9 b3 3d
       0.13996904 -0.15963022 -0.18985765 0.08775526

layer_2.bias f4 [20]
000000 7c ef 81 bd 7e af 02 be 5d 48 05 bd 1c 92 3a bc
       -0.06344506 -0.12762257 -0.032539714 -0.011387374
000010 f5 34 fd bd d1 70 6f 3e 42 06 b1 3b 0b d0 8b bd
       -0.123636164 0.2338288 0.0054023573 -0.068267904
000020 ee 7a aa bd b0 b0 d1 3c 24 ba c3 bc ea a9 89 bc
       -0.08324228 0.025596946 -0.02389247 -0.016804654
000030 21 0f d6 bd 04 aa 63 3d ae d3 95 3d 44 c5 bb bd
       -0.10452104 0.05558206 0.07315765 -0.09168485
000040 62 7d 42 be 09 78 87 3c c8 ac 0b 3d 6a db 18 3e
       -0.18993142 0.01653673 0.034100324 0.1492745

layer_3.weight f4 [1, 20]
000000 c0 be f1 bc 39 2d 0e be 27 de 14 3e 8d 29 8f bb
       -0.029509902 -0.13884439 0.1453787 -0.004368967
000010 bc 06 15 bd 4c 2e 21 3e 62 2b 0b 3e 1f 0f 94 bc
       -0.036383376 0.15740317 0.13590768 -0.018073617
000020 9e 83 49 3e 3c 48 36 bd 73 80 a0 bd 6f c7 80 3e
       0.19679114 -0.04450248 -0.07837 0.25152156
000030 52 a2 69 3d e7 8e d3 3d e0 4a 5f 3d d2 45 84 bd
       0.057039566 0.10329991 0.054514766 -0.0645863
000040 ca 5c 50 3e de 6b 6d 3d 74 36 12 be 6c a9 34 3e
       0.20347896 0.0579642 -0.14278585 0.17642754
