critic.pt (torch, 7831 bytes, 5 tensors)

layer_1.weight f4 [27, 31]
-0.028487023 -0.022385776 0.066821955 -0.17996222 -0.14769149 0.15631941 0.036694117 -0.06510357
-0.055554222 -0.03840875 -0.15613066 0.04957267 -0.008498745 -0.011373421 0.048108205 -0.064392164
-0.043859124 -0.10547112 0.0042740637 0.012422903 -0.052610017 0.11650739 0.029345173 0.13206609
0.18768762 0.09970209 0.02182727 0.17632227 0.15530327 -0.07032565 0.075241454 -0.029563528
0.061478544 0.12680683 -0.02921419 -0.019141087 -0.07029978 -0.12436094 -0.18213548 0.12856305
-0.15632926 0.012233627 0.07017308 -0.08133343 0.06528687 0.05849207 -0.14430428 -0.014968627
0.12980586 -0.085714474 0.02394406 -0.06658273 0.112809025 -0.17287739 0.0632402 -0.003963649
-0.012641105 -0.031636074 0.060187496 -0.15189576 -0.03596938 -0.098890066 0.06437557 -0.0087990565
-0.010513783 0.15659617 0.10083459 0.16412476 -0.048649255 0.035405084 -0.13768381 0.085246645
0.118805595 0.017968575 0.08552956 -0.002513864 -0.02980586 0.102981396 0.07675687 -0.17034212
0.05242118 0.14254774 0.092911825 -0.14194538 -0.106128305 -0.15432392 0.11411096 0.13523465
-0.1540356 -0.1261635 -0.07779865 -0.0811968 -0.13028674 -0.04141859 -0.061916433 0.15939401
-0.11958069 0.053465076 0.11048805 -0.16774607 -0.06193647 0.14633183 0.026061416 -0.13989253
0.02643156 0.030824501 0.13126789 0.16834633 0.11232848 -0.10427087 0.20080785 -0.06028869
0.17466088 -0.08076779 -0.1312851 -0.06938978 -0.09144691 0.17564487 -0.13267317 0.025056642
0.16972288 0.10384965 -0.07076457 0.09590402 -0.12296878 -0.018844083 -0.2077706 0.08752974
0.10908941 -0.014805016 -0.17270511 -0.15825155 0.021741437 0.07168995 0.16736634 0.0025179991
-0.074224725 -0.10045344 -0.18217924 -0.13765001 -0.10417006 0.11984648 -0.03734782 -0.02928061
-0.10282123 0.1381847 -0.1380231 0.07218592 -0.014821745 -0.073535144 0.045747206 -0.036201376
0.13927706 -0.10654814 -0.085926816 -0.17859223 0.06969492 -0.14698483 -0.10752829 -0.051257305
0.15481101 -0.019076224 0.0814295 -0.17371383 -0.027150767 0.09002368 0.082093254 -0.059161708
0.12709782 -0.10240195 -0.09893837 -0.015800044 -0.13195819 -0.079328686 -0.03690946 0.05420906
0.12802134 0.1669416 0.22021613 0.020773701 -0.03223749 -0.0819898 -0.12995692 -0.059222117
0.056316517 0.082234345 -0.17371914 -0.058500692 -0.041340128 0.029659126 -0.0015495531 -0.115384385
0.1143515 -0.07148747 -0.06720436 -0.15553199 0.003424352 -0.045892674 0.14155231 0.15322895
0.08289281 -0.19127029 0.0023713196 -0.027004067 -0.01662722 0.059711464 0.04108917 -0.078459255
-0.15162449 0.020026589 -0.20608464 -0.06767446 -0.04336974 0.017124139 -0.108045146 0.101677746
0.04605008 0.12106113 -0.12583995 -0.039855327 0.118264854 -0.01733657 -0.0025319343 -0.13543734
-0.119582005 -0.08279954 -0.14483914 -0.08680395 0.123123206 -0.11268459 -0.07200781 -0.033347387
-0.02437995 0.19589257 0.19504578 0.09581382 0.105847724 -0.104474775 -0.01861655 -0.07925585
-0.04393486 0.18216142 0.021086719 -0.1509836 -1.8760562e-05 -0.10597397 0.20355815 -0.010613905
-0.034441337 0.0011972487 -0.15764552 0.12875329 -0.135278 0.15938139 -0.16358136 -0.04495447
00000000: 9e5d e9bc 6062 b7bc f3d9 883d 0448 38be
00000010: 703c 17be 3212 203e 924c 163d 0555 85bd
00000020: d38c 63bd 7e52 1dbd b7e0 1fbe b60c 4b3d
00000030: 523e 0bbc 9657 3abc 1c0d 453d 0ae0 83bd
00000040: a0a5 33bd 3e01 d8bd 720d 8c3b 6f89 4b3c
00000050: 9a7d 57bd 6d9b ee3d 4a65 f03c 553c 073e
00000060: 2f31 403e 9c30 cc3d 1acf b23c d38d 343e
00000070: d207 1f3e e506 90bd 3118 9a3d 362f f2bc
00000080: edd0 7b3d a6d9 013e 9952 efbc c5cd 9cbc
00000090: 55f9 8fbd f3b0 febd b981 3abe 08a6 033e
000000a0: c714 20be 8d6f 483c e7b6 8f3d 2492 a6bd
000000b0: 1fb5 853d 6195 6f3d 80c4 13be f93e 75bc
000000c0: d4eb 043e 128b afbd 5526 c43c 875c 88bd
000000d0: 6b08 e73d c506 31be 1484 813d 7fe1 81bb
000000e0: a31c 4fbc d494 01bd 2a87 763d 908a 1bbe
000000f0: a154 13bd e086 cabd 57d7 833d eb29 10bc
00000100: 0142 2cbc bf5a 203e 5e82 ce3d 5210 283e
00000110: 7144 47bd ec04 113d fcfc 0cbe cb95 ae3d
00000120: 5950 f33d d532 933c 1f2a af3d a4bf 24bb
00000130: 6b2b f4bc e9e7 d23d b532 9d3d 2a6e 2ebe
00000140: 97b7 563d 09f8 113e 8e48 be3d 215a 11be
00000150: cc59 d9bd 1707 1ebe 02b3 e93d f47a 0a3e
00000160: 82bb 1dbe 0131 01be e654 9fbd 824a a6bd
00000170: e369 05be 8aa6 29bd 169c 7dbd 2f38 233e
00000180: b9e6 f4bd 32fe 5a3d 8f47 e23d a0c5 2bbe
00000190: 19b1 7dbd 03d8 153e c07e d53c fd3f 0fbe
000001a0: 0087 d83c aa83 fc3c 176b 063e fb62 2c3e
000001b0: 790c e63d f78b d5bd 93a0 4d3e 46f1 76bd
000001c0: 4dda 323e 9569 a5bd 9a6f 06be 3b1c 8ebd
000001d0: 8448 bbbd 40dc 333e 7adb 07be 9643 cd3c
000001e0: d6cb 2d3e 20af d43d 04ed 90bd 5469 c43d
000001f0: 0ed7 fbbd e85e 9abc d1c1 54be cb42 b33d
00000200: 456a df3d bd90 72bc 9cd9 30be b20c 22be
00000210: 191b b23c 2ed2 923d 1562 2b3e 0405 253b
00000220: 2203 98bd 88ba cdbd 328d 3abe 20f4 0cbe
00000230: 1d57 d5bd 1272 f53d 07fa 18bd e4dd efbc
00000240: f093 d2bd 4a80 0d3e ed55 0dbe 36d6 933d
00000250: e8d6 72bc 9899 96bd 6c61 3b3d e547 14bd
00000260: a59e 0e3e e935 dabd 66fa afbd e2e0 36be
00000270: 36bc 8e3d 3183 16be cb37 dcbd 2ef3 51bd
00000280: c786 1e3e be45 9cbc 82c4 a63d 0ae2 31be
00000290: 496b debc 565e b83d 8220 a83d 8c53 72bd
000002a0: ee25 023e 1db8 d1bd 33a0 cabd 186f 81bc
000002b0: 0c20 07be 1477 a2bd 602e 17bd 520a 5e3d
000002c0: 0718 033e bdf2 2a3e 5680 613e 9c2d aa3c
000002d0: 750b 04bd 45ea a7bd 6d13 05be e492 72bd
000002e0: 26ac 663d 7b6a a83d 6ee3 31be 6c9e 6fbd
000002f0: 4454 29bd b2f7 f23c 601a cbba a64e ecbd
00000300: 1f31 ea3d 0668 92bd 71a2 89bd c743 1fbe
00000310: 186b 603b f5f9 3bbd 17f3 103e 0de8 1c3e
00000320: b5c3 a93d 5cdc 43be 2468 1b3b a237 ddbc
00000330: cf35 88bc 0294 743d 1e4d 283d 3faf a0bd
00000340: 7343 1bbe cd0e a43c da07 53be e898 8abd
00000350: 78a4 31bd ec47 8c3c c646 ddbd 6c3c d03d
00000360: 029f 3c3d e6ee f73d 30dc 00be 573f 23bd
00000370: d834 f23d 6c05 8ebc cfee 25bb 16b0 0abe
00000380: 69e7 f4bd ce92 a9bd b650 14be 45c6 b1bd
00000390: 0528 fc3d 2ec7 e6bd d578 93bd 4597 08bd
000003a0: 76b8 c7bc 1098 483e 15ba 473e 093a c43d
000003b0: b1c6 d83d dff6 d5bd bc81 98bc e450 a2bd
000003c0: 0af5 33bd 8688 3a3e 0ebe ac3c 729b 1abe
000003d0: 0060 9db7 e108 d9bd 8c71 503e f2e5 2dbc
000003e0: 5c12 0dbd 00ed 9c3a d46d 21be e7d7 033e
000003f0: 5186 0abe e034 233e df81 27be 2e22 38bd

layer_1.bias f4 [27]
-0.060814913 0.15777308 0.09032798 0.10916592 0.18772659 -0.11123102 -0.14623861 -0.020296663
-0.08154059 0.18482307 -0.1300791 0.042173587 -0.14814395 -0.010941665 0.17811057 -0.07907895
-0.03366625 -0.033032957 -0.08542378 0.092779174 -0.05925806 -0.06599316 -0.13335882 0.09468614
0.09680762 0.072715506 -0.05157503
00000000: 0f19 79bd 448f 213e e0fd b83d 6292 df3d
00000010: 663b 403e 17cd e3bd 93bf 15be 3045 a6bc
00000020: c1fe a6bd 4242 3d3e 7533 05be 36be 2c3d
00000030: 0cb3 17be ab44 33bc 9e62 363e 25f4 a1bd
00000040: 9fe5 09bd 914d 07bd aaf2 aebd 0203 be3d
00000050: 94b8 72bd 6c27 87bd 378f 08be cfea c13d
00000060: 1343 c63d deeb 943d 5740 53bd

layer_2.weight f4 [20, 27]
0.008964564 -0.14240499 -0.072200365 0.22688389 -0.18299392 -0.124987 -0.07599797 -0.03944577
0.19300658 0.100862294 -0.0025723998 0.18721615 -0.07063838 0.12887083 0.119991966 0.013476444
-0.12364986 0.036770742 -0.0040695956 0.0621335 0.19844466 0.16367139 -0.024922634 0.13790044
-0.08558126 0.18255536 0.017157778 -0.1783194 0.13671693 -0.13527362 -0.16425316 0.11606123
0.055094015 0.16090584 0.16552666 0.1766063 0.011598112 -0.024469966 -0.079934254 -0.08609712
0.19091742 -0.19241518 0.09379609 0.024886433 0.07624419 0.09837456 -0.1200634 0.057146117
-0.12582302 -0.123834185 -0.18156981 0.1514983 0.008576034 -0.08732727 0.07216047 0.1505051
0.064561285 0.088882126 -0.07236476 -0.07949537 0.023062754 0.05546896 -0.19643895 0.0034552463
-0.12857711 0.017883303 0.1361098 0.06314888 0.09477858 0.13401163 -0.031764187 0.029959358
-0.038001645 0.10742324 -0.20141613 0.07720241 -0.07424882 -0.0018487768 0.089114904 0.11984015
-0.1887261 -0.057317555 0.18239993 0.18048099 0.033404823 0.15691441 0.10764826 -0.13546133
-0.077758536 0.10893037 0.054791953 -0.14988196 -0.17681903 -0.10163535 -0.15638644 -0.19858727
-0.19717883 -0.1385832 -0.108015105 -0.1304294 0.009334743 -0.08731235 -0.10348299 0.08469386
-0.1335064 0.053676277 -0.061034445 -0.05637693 0.043519013 0.11304419 -0.16384013 0.09138481
0.18094353 0.21697067 -0.09890227 0.039939083 0.007100407 0.22914998 -0.012690306 -0.010031058
0.000112179514 0.031840462 0.17273898 0.09160954 0.05695737 0.10591884 -0.14032494 -0.11649064
-0.040117256 0.18805468 0.20085283 0.16962512 -0.19880903 -0.14312339 -0.024591755 0.018875606
-0.10355711 0.08746794 -0.12908016 -0.02952027 0.16527724 -0.055856057 -0.13432182 0.028963402
0.15552892 0.0961268 -0.17503823 -0.12788175 0.004082764 0.23513663 0.08828486 0.08326758
-0.03912157 -0.0650928 0.16408342 -0.12920043 0.061112538 -0.11361091 0.07666599 0.027186397
-0.00083604734 -0.14901704 0.031822637 0.029804584 0.070754655 -0.03716452 -0.03701547 0.064257115
0.06658202 -0.1288177 -0.12421327 -0.09330824 0.11825009 0.01869282 0.11778182 -0.14769201
0.12586182 -0.14402583 0.17643562 0.016340218 -0.022336986 0.003439698 -0.17214829 0.101625636
0.1748725 0.016541239 0.13118833 -0.17185836 0.022050887 -0.06254542 -0.1661854 0.10100844
-0.10968753 -0.14191307 0.04436599 -0.14717165 -0.11275724 -0.15144494 0.063059784 -0.13464081
-0.14330527 0.11275111 0.11294728 -0.14079162 -0.16723073 -0.15622886 0.10816563 0.0036361506
0.06354923 -0.13885884 -0.08180911 0.14440705 0.10269837 0.013136301 -0.1900624 -0.18644276
-0.081753485 -0.0882041 -0.15505609 0.062172048 -0.17893842 -0.103719726 -0.06082117 -0.06070673
0.052267022 0.022915468 -0.14501023 -0.17896211 -0.0065500042 -0.043751244 -0.13126726 0.10697584
0.1304192 -0.11715154 0.0028289538 0.032652505 -0.14399154 0.042378657 -0.14097856 -0.102289446
0.0066167256 -0.18178038 0.038415406 -0.04359543 0.049998306 0.15464072 0.03929799 -0.08091879
-0.052975487 -0.040999558 0.17330731 -0.010914482 0.04535387 -0.17540972 -0.17250901 -0.14142291
00000000: 1be0 123c 9dd2 11be c9dd 93bd 4054 683e
00000010: c262 3bbe 2ff9 ffbd d3a4 9bbd e391 21bd
00000020: 84a3 453e e490 ce3d b595 28bb 97b5 3f3e
00000030: dbaa 90bd b7f6 033e 59be f53d 4ecc 5c3c
00000040: 233c fdbd eb9c 163d 3e5a 85bb b27f 7e3d
00000050: 1435 4b3e 7999 273e 8d2a ccbc c635 0d3e
00000060: 3a45 afbd cbef 3a3e 788e 8c3c 5c99 36be
00000070: 86ff 0b3e 2b85 0abe fb31 28be 83b1 ed3d
00000080: 43aa 613d 80c4 243e d27f 293e 48d8 343e
00000090: 0206 3e3c 3d75 c8bc 92b4 a3bd b053 b0bd
000000a0: db7f 433e 7c08 45be 2a18 c03d a2de cb3c
000000b0: ea25 9c3d 9a78 c93d cde3 f5bd 0c12 6a3d
000000c0: c0d7 00be c79c fdbd 70ed 39be 5f22 1b3e
000000d0: 7e82 0c3c a4d8 b2bd dec8 933d 021e 1a3e
000000e0: b538 843d d507 b63d fa33 94bd 78ce a2bd
000000f0: 1aee bc3c 6c33 633d 4b27 49be 6a71 623b
00000100: b8a9 03be 0180 923c 5e60 0b3e 3354 813d
00000110: 461b c23d 583a 093e 2a1b 02bd 546d f53c
00000120: 9da7 1bbd b700 dc3d 0840 4ebe 4c1c 9e3d
00000130: c40f 98bd a852 f2ba e081 b63d c16e f53d
00000140: 6a41 41be d0c5 6abd 0cc7 3a3e 02d0 383e
00000150: 7fd3 083d 2cae 203e b176 dc3d 60b6 0abe
00000160: de3f 9fbd e316 df3d 876d 603d a87a 19be
00000170: 0c10 35be 3226 d0bd c423 20be 765a 4bbe
00000180: 3fe9 49be c1e8 0dbe 0637 ddbd 498f 05be
00000190: c0f0 183c d1d0 b2bd e4ee d3bd f973 ad3d
000001a0: e7b5 08be a8db 5b3d 41ff 79bd 7feb 66bd
000001b0: fe40 323d b683 e73d b5c5 27be f627 bb3d
000001c0: 4349 393e 8f2d 5e3e 468d cabd 2a97 233d
000001d0: 88aa e83b 4ba6 6a3e 00eb 4fbc 4f59 24bc
000001e0: eb41 eb38 256b 023d 7de2 303e c89d bb3d
000001f0: 224c 693d faeb d83d 57b1 0fbe a592 eebd
00000200: fe51 24bd 6891 403e 5dac 4d3e 35b2 2d3e
00000210: 9894 4bbe f08e 12be a674 c9bc 04a1 9a3c
00000220: c015 d4bd 6422 b33d 972d 04be 7ed4 f1bc
00000230: 703e 293e 52c9 64bd a98b 09be a844 ed3c
00000240: f942 1f3e 21de c43d 393d 33be 6ff3 02be
00000250: b5c8 853b a8c7 703e b1ce b43d 3188 aa3d
00000260: f03d 20bd 604f 85bd 7c05 283e 1e4d 04be
00000270: 2451 7a3d d6ac e8bd 0f03 9d3d 02b6 de3c
00000280: 302a 5bba ec97 18be 7458 023d be28 f43c
00000290: d1e7 903d d339 18bd 899d 17bd 3c99 833d
000002a0: 275c 883d cae8 03be 8763 febd 6418 bfbd
000002b0: 1a2d f23d af21 993c 9837 f13d 933c 17be
000002c0: ece1 003e 827b 13be 8aab 343e ecdb 853c
000002d0: 0efc b6bc 8e6c 613b a447 30be 1a21 d03d
000002e0: c711 333e 7e81 873c 3c56 063e a3fb 2fbe
000002f0: 10a4 b43c d017 80bd 812c 2abe 83dd ce3d
00000300: dba3 e0bd a951 11be 1db9 353d 2ab4 16be
00000310: 45ed e6bd 6214 1bbe 7d25 813d 48df 09be
00000320: 9ebe 12be 0eea e63d e750 e73d ae2b 10be
00000330: 883e 2bbe 75fa 1fbe f185 dd3d 7c4c 6e3b
00000340: 1926 823d 0331 0ebe 898b a7bd 71df 133e
00000350: 8653 d23d a439 573c b89f 42be daea 3ebe
00000360: 5f6e a7bd 5aa4 b4bd 06c7 1ebe 1ea8 7e3d
00000370: a23b 37be 026b d4bd 9f1f 79bd 9fa7 78bd
00000380: f215 563d 38b9 bb3c 907d 14be d841 37be
00000390: 6ba1 d6bb 8134 33bd ed6a 06be 2616 db3d
000003a0: 9c8c 053e 26ed efbd f865 393b a2be 053d
000003b0: 8572 13be 3e95 2d3d af5c 10be 217d d1bd
000003c0: 1ed1 d83b a324 3abe 7959 1d3d 1f91 32bd
000003d0: 06cb 4c3d 235a 1e3e eef6 203d c0b8 a5bd
000003e0: d3fc 58bd 27ef 27bd 7977 313e a8d2 32bc
000003f0: fbc4 393d 9b9e 33be 34a6 30be 2bd1 10be

layer_2.bias f4 [20]
0.2079178 0.018795466 0.009546921 -0.0058128433 0.18765256 -0.05243298 -0.12882093 0.12451302
0.17500317 -0.15647328 -0.05227739 0.01202977 -0.18380369 -0.11637861 -0.053124174 0.17479602
-0.12221109 0.024979863 -0.12378452 -0.00010609999
00000000: 67e8 543e f3f8 993c b06a 1c3c aa79 bebb
00000010: fe27 403e f7c3 56bd a2e9 03be af00 ff3d
00000020: 0834 333e 883a 20be d120 56bd 8318 453c
00000030: 0937 3cbe e957 eebd bc98 59bd bafd 323e
00000040: cf49 fabd 92a2 cc3c bd82 fdbd 0082 deb8

layer_3.weight f4 [1, 20]
0.14449768 -0.15715823 0.015215487 -0.09264243 0.24261184 0.23439999 0.029557487 -0.16273138
0.052713774 -0.050544124 -0.055996478 -0.1074468 -0.028031643 -0.15757301 0.20157541 -0.18782413
0.03414119 0.023283701 0.017430661 -0.07181984
00000000: 33f7 133e 16ee 20be 614a 793c 50bb bdbd
00000010: 3d6f 783e 8d06 703e 8b22 f23c 0ea3 26be
00000020: 66ea 573d 5b07 4fbd 905c 65bd 110d dcbd
00000030: 9ea2 e5bc d25a 21be c969 4e3e f854 40be
00000040: a2d7 0b3d 76bd be3c bfca 8e3c 4816 93bd
