critic.pt (torch, 7831 bytes, 5 tensors)

layer_1.weight f4 [27, 31]
000000 9e 5d e9 bc 48 e4 44 bc 6c 20 56 3d fb 7c 29 be
       -0.028487023 -0.012017317 0.052277014 -0.16551583
000010 84 d2 26 be 32 12 20 3e b3 45 e2 3c 56 82 a4 bd
       -0.16291243 0.15631941 0.027621126 -0.08032672
000020 d3 8c 63 bd 88 81 42 bd 64 4c 10 be 5e ee 1e 3d
       -0.055554222 -0.047486812 -0.1409164 0.038801543
000030 13 8c 9d bc 35 df 7b 3b 3f 1c 17 3d 1f 6a a2 bd
       -0.019231832 0.0038432602 0.036892172 -0.07930397
000040 30 6b 1d bd 3b c6 f6 bd 74 f0 2e bc 6a 58 25 bb
       -0.0384323 -0.12049528 -0.010677446 -0.00252297
000050 ad a6 8a bd 05 07 d0 3d d2 d4 6d 3c e5 e2 ef 3d
       -0.06770072 0.10157589 0.014516072 0.117131986
000060 85 05 31 3e 17 b7 ad 3d 17 b3 df 3b 3e 4d 25 3e
       0.17287262 0.08482187 0.006826769 0.16142747
000070 38 cb 0f 3e e1 14 af bd 9a d3 75 3d 36 2f f2 bc
       0.14042366 -0.08548904 0.060016252 -0.029563528
000080 26 21 53 3d 35 51 0c 3e d3 04 9e bc 98 8c 10 bc
       0.051545285 0.13702853 -0.01928941 -0.008822583
000090 55 f9 8f bd 42 eb 09 be ad 02 30 be 08 a6 03 3e
       -0.07029978 -0.1346865 -0.1718852 0.12856305
0000a0 f9 8c 15 be 63 27 03 3b 98 a7 a4 3d 80 81 91 bd
       -0.14604558 0.002001249 0.080397785 -0.07104778
0000b0 3a c2 61 3d 79 8d 8c 3d 7f 05 14 be 53 ad 75 bc
       0.05511687 0.06862921 -0.14455222 -0.014994937
0000c0 c5 8d 05 3e 31 91 af bd 82 8d c4 3c b9 61 88 bd
       0.13042362 -0.08572615 0.023993257 -0.06659264
0000d0 29 a8 e6 3d c9 05 31 be 95 6e 82 3d d4 ec 80 bb
       0.11262543 -0.17287363 0.06368748 -0.003934482
0000e0 45 98 4f bc 7a 8e 01 bd a6 dc 76 3d 0e 78 1b be
       -0.012670581 -0.031630017 0.06026902 -0.15182516
0000f0 45 39 14 bd e0 86 ca bd 57 d7 83 3d 0d 72 83 3a
       -0.03618743 -0.098890066 0.06437557 0.0010028497
000100 b0 aa a8 bc 9f 14 16 3e 66 ab b9 3d 52 10 28 3e
       -0.020589203 0.14656304 0.09065895 0.16412476
000110 2c da 1c bd 3b 61 cf 3c fc fc 0c be 42 79 99 3d
       -0.038294002 0.025314918 -0.13768381 0.07493831
000120 f5 13 04 3e e8 26 fd 3b 54 13 9a 3d d6 33 f9 3b
       0.12898238 0.0077255853 0.07523218 0.0076050563
000130 09 99 23 bd 1b 11 d3 3d 7e 1e 9d 3d 6e 72 2e be
       -0.039940868 0.10305997 0.076718315 -0.17035839
000140 95 b5 55 3d 12 7d 11 3e 46 db bd 3d 41 27 11 be
       0.052175123 0.14207867 0.09270339 -0.1417513
000150 cc 59 d9 bd 52 3f 1e be 34 99 e9 3d e9 74 0a 3e
       -0.106128305 -0.15453842 0.11406174 0.1352116
000160 5e f4 1d be 92 16 01 be ad 19 a0 bd d3 98 a6 bd
       -0.1542525 -0.12606266 -0.07817397 -0.08134618
000170 e3 69 05 be 8a a6 29 bd ed d0 52 bd 86 6e 14 3e
       -0.13028674 -0.04141859 -0.05146878 0.14495286
000180 d9 8d d7 bd fc 1f 1d 3d 8f 47 e2 3d 29 08 35 be
       -0.10525102 0.03836058 0.11048805 -0.17678894
000190 52 c8 9d bd 03 d8 15 3e eb 03 8b 3c 85 94 ff bd
       -0.07704224 0.14633183 0.016969642 -0.124795
0001a0 7f e8 80 3c 29 21 a5 3c 5f e1 15 3e 5c ee 20 3e
       0.015735863 0.020157414 0.14636753 0.15715927
0001b0 8f c3 c7 3d e7 1e ca bd 56 59 3e 3e 45 ce 99 bd
       0.09754097 -0.098691754 0.18588766 -0.07510046
0001c0 fb af 23 3e 9a 0f c4 bd fe 99 15 be 2e 2b ac bd
       0.159851 -0.09573288 -0.14609525 -0.08406673
0001d0 b7 98 d9 bd e2 ce 24 3e f8 f6 16 be 0b fd 26 3c
       -0.10624831 0.16094545 -0.14742649 0.010192166
0001e0 70 a7 1e 3e bf 78 b6 3d c8 bd af bd d4 79 a5 3d
       0.1549356 0.08909749 -0.0858112 0.080798775
0001f0 0e d7 fb bd 84 fe ee bc ff 73 4a be 41 be c7 3d
       -0.12296878 -0.029174097 -0.19770811 0.09753085
000200 58 c4 f3 3d bd 90 72 bc 4f b3 3a be 65 e2 17 be
       0.11902684 -0.014805016 -0.18232463 -0.14832456
000210 19 1b b2 3c 72 65 a7 3d 4b 4c 21 3e d0 6c 4b 3c
       0.021741437 0.08173646 0.1575176 0.01241608
000220 e9 0d 83 bd 49 e7 e1 bd 06 a1 30 be 34 f7 0c be
       -0.063991375 -0.11030442 -0.17248926 -0.13766176
000230 ec 68 d5 bd b9 10 f5 3d 20 3e 18 bd 0d a9 f0 bc
       -0.10420403 0.1196608 -0.037168622 -0.029377485
000240 cb c1 d2 bd d2 c3 0d 3e 68 3b 0d be 36 12 94 3d
       -0.10290869 0.13844231 -0.13792193 0.07230036
000250 6f 0c 68 bc 28 bc 96 bd 3c d1 39 3d d0 1c 13 bd
       -0.014163121 -0.07360107 0.045365557 -0.03591615
000260 1b a1 0e 3e 8a 36 da bd 66 fa af bd e2 e0 36 be
       0.13928644 -0.10654934 -0.085926816 -0.17859223
000270 08 25 a4 3d 8e 4c 25 be f4 df be bd 07 e8 87 bd
       0.08014876 -0.16142485 -0.093200594 -0.066360526
000280 c7 86 1e 3e 5d 54 e6 bc 63 d5 87 3d 0a e2 31 be
       0.15481101 -0.0281164 0.06632497 -0.17371383
000290 35 73 14 bd 40 49 d7 3d 57 3b 92 3d a6 00 8f bd
       -0.036242682 0.10512018 0.071402244 -0.069825456
0002a0 e7 9b 11 3e 3c a1 e8 bd 76 e9 e8 bd 22 86 27 bc
       0.14219628 -0.11358878 -0.11372654 -0.010224851
0002b0 90 66 16 be 81 cb c0 bd 68 d7 53 bd 09 bf 20 3d
       -0.14687562 -0.09413815 -0.0517191 0.039244685
0002c0 d9 db e7 3d d3 e9 1b 3e 0e 58 52 3e a7 0d c7 3b
       0.113212295 0.15225916 0.20541403 0.0060746255
0002d0 11 7c 40 bd 2c 5b c6 bd 27 38 14 be 27 83 97 bd
       -0.04699332 -0.096853584 -0.14474545 -0.07398062
0002e0 20 0c 29 3d 8e 7b 89 3d 6e e3 31 be b1 5c 8d bd
       0.04127133 0.06713019 -0.17371914 -0.06902445
0002f0 1f 2a de bc 2c 07 7f 3c b3 d0 59 3c a6 4e ec bd
       -0.027119694 0.015565675 0.013294387 -0.115384385
000300 ee b2 fc 3d 27 03 68 bd 71 a2 89 bd b1 ea 15 be
       0.12338816 -0.05664363 -0.06720436 -0.14640309
000310 7b fe 3a bc ce 92 10 bd 09 c7 1b 3e 0b b6 0d 3e
       -0.011413212 -0.035296254 0.15212645 0.13838975
000320 7b 97 97 3d 1e f7 34 be cd cf 62 bb f6 26 4a bc
       0.074019395 -0.17672393 -0.0034608722 -0.012338391
000330 89 72 09 bb c3 22 5e 3d b3 86 64 3d 5f db 82 bd
       -0.002097281 0.05423237 0.05579252 -0.06389498
000340 f7 7f 0c be 15 9c 0d 3d 0c 38 44 be 88 be 59 bd
       -0.1372069 0.03457268 -0.19162005 -0.05316022
000350 e2 ce eb bc f9 d1 01 3d 6d 82 bf bd 47 89 ee 3d
       -0.028785173 0.031694386 -0.093510486 0.11647277
000360 68 75 79 3d e6 ee f7 3d 6e 36 0b be 89 31 f7 bc
       0.060902983 0.12106113 -0.13594982 -0.030174987
000370 ea 32 04 3e ee d6 f9 bc cf ee 25 bb ba 2f 15 be
       0.12910047 -0.030497994 -0.0025319343 -0.14568987
000380 2b 61 07 be ce 92 a9 bd bf 3c 09 be c9 da 96 bd
       -0.1322066 -0.08279954 -0.13402079 -0.07365949
000390 41 56 08 3e 65 df d1 bd f7 be 70 bd 2b 68 31 bd
       0.13314153 -0.10247687 -0.05877587 -0.043312233
0003a0 ed 19 16 bd 6c 9a 3b 3e a1 ac 3a 3e ab f7 ab 3d
       -0.03664582 0.18320626 0.18229915 0.08396848
0003b0 a9 1a c1 3d 0b 21 ed bd 13 6e ff bc 2a a8 bb bd
       0.09428913 -0.11578568 -0.031180417 -0.09162934
0003c0 ae e4 65 bd 55 92 2e 3e 67 ac 1a 3c dc 8c 26 be
       -0.05612629 0.17048009 0.009440518 -0.16264671
0003d0 e8 3c 45 bc f5 5a f2 bd 0f a0 43 3e d6 79 c4 bc
       -0.012038447 -0.11833755 0.19104026 -0.023983877
0003e0 5c 12 0d bd 85 6f 37 3c ed 18 17 be 2d ec f2 3d
       -0.034441337 0.011196022 -0.14755602 0.11861453
0003f0 fc 4f 13 be e0 34 23 3e 1c 22 32 be 11 50 5c bd
       -0.1438598 0.15938139 -0.17395824 -0.053787295

layer_1.bias f4 [27]
000000 73 b6 9b bd ca 17 2c 3e cc 14 a4 3d 7d a5 c0 3d
       -0.07603159 0.1680595 0.08011779 0.094065644
000010 12 ea 35 3e ab 5c 01 be 88 8d 06 be 26 81 07 bd
       0.17765072 -0.12633006 -0.13139927 -0.03308215
000020 e0 4b b8 bd 08 c1 2d 3e 5c 4e 05 be f7 b7 f8 3c
       -0.08998847 0.16968167 -0.13018173 0.030361159
000030 dc 87 17 be f4 58 d7 bc a5 f6 26 3e 7e 19 8d bd
       -0.1479792 -0.026287533 0.16305025 -0.06889628
000040 6b 9b b9 bc a6 ee ba bc 2f 9c 90 bd 8c 45 9e 3d
       -0.022657117 -0.022818875 -0.0706104 0.07728109
000050 47 81 49 bd dd d8 5d bd 40 e1 18 be 0c e4 a2 3d
       -0.049195554 -0.054161895 -0.14929676 0.07953653
000060 60 01 b1 3d d4 91 64 3d 2e 4b 53 bd
       0.086428404 0.055803135 -0.05158537

layer_2.weight f4 [20, 27]
000000 45 a7 c9 bb 40 37 07 be e7 4e 7d bd 62 df 58 3e
       -0.0061539733 -0.1320467 -0.061842825 0.21178964
000010 9d c6 30 be 08 75 0f be 8e 3b ba bd 7e 66 dc bc
       -0.17263265 -0.14009488 -0.090933904 -0.02690434
000020 61 2f 51 3e 67 b0 af 3d c0 b4 13 bb 7b 10 4b 3e
       0.2042823 0.08578568 -0.0022538155 0.19830506
000030 8e 43 90 bd d6 10 e9 3d 27 d9 d6 3d 70 9a c2 3c
       -0.07044135 0.11380164 0.10490637 0.023755282
000040 d1 63 e7 bd e1 50 40 3d 6a 87 98 bc 23 c4 40 3d
       -0.11298335 0.046952132 -0.018619258 0.04706205
000050 d7 7e 42 3e 66 24 33 3e 72 3e 25 bd 87 91 fb 3d
       0.18993698 0.17494354 -0.040342756 0.122836165
000060 70 24 9a bd 40 43 2a 3e 32 18 8d 3c 94 a9 36 be
       -0.07526481 0.16627216 0.017223451 -0.17838126
000070 3a cd 0b 3e 17 8c 0a be 77 97 28 be 08 10 ed 3d
       0.13652506 -0.13530003 -0.16464029 0.11575323
000080 f1 0b 61 3d 31 eb 24 3e 52 39 29 3e 1e 3c 34 3e
       0.05494303 0.16105343 0.16525772 0.17601058
000090 89 24 3a 3c a0 b3 ca bc 03 1a a4 bd 0c ea b0 bd
       0.01136125 -0.024743855 -0.08012774 -0.08638391
0000a0 02 66 43 3e 84 2b 45 be 4d a7 bf 3d 14 8b c8 3c
       0.19081882 -0.19254881 0.09358082 0.02448038
0000b0 a9 45 9c 3d 38 7f c9 3d 80 81 f6 bd c0 0a 67 3d
       0.07630474 0.09838718 -0.12036419 0.056406736
0000c0 83 af 00 be 73 83 fd bd 31 3d 3a be 0b e6 1a 3e
       -0.12566952 -0.123785876 -0.18187405 0.15126817
0000d0 ad 43 11 3c 30 b3 b2 bd 95 7e 5f 3d 2b a8 24 3e
       0.008866233 -0.087255836 0.054564077 0.16079776
0000e0 d8 7a 99 3d 7e 07 92 3d 83 b9 7e bd de d3 c6 bd
       0.07494134 0.07130335 -0.062188637 -0.09708379
0000f0 cc 6f b7 3b b1 c9 8d 3d 3b f1 3c be 4f 32 67 bc
       0.005598044 0.06923235 -0.18451397 -0.014111116
000100 59 8c 03 be 28 ee f0 3c d8 2d 0c 3e f6 b9 3a 3d
       -0.12846507 0.029410437 0.13689363 0.045587502
000110 2d 1e 9e 3d d2 94 13 3e 60 a3 aa bc c1 96 25 3d
       0.07720599 0.14412239 -0.020829856 0.040426973
000120 34 f3 61 bd 95 08 b8 3d d3 48 56 be 8f 88 b6 3d
       -0.055163577 0.08986012 -0.20926218 0.08912765
000130 c2 87 bc bd 2c fa 9e bc a2 f2 cb 3d 25 9e cf 3d
       -0.09205581 -0.0194064 0.09958388 0.101375856
000140 7c 72 40 be 7d e0 69 bd 5a 61 30 3e 41 41 2e 3e
       -0.18793672 -0.057098854 0.17224637 0.1701708
000150 37 8b bf 3c 6c 52 16 3e 22 6e dc 3d 60 b6 0a be
       0.023381812 0.14679879 0.10763194 -0.13546133
000160 3c 92 9f bd a3 38 df 3d 6e 9c 37 3d d7 9f 19 be
       -0.07791564 0.108994745 0.044826917 -0.1500238
000170 79 69 3f be 5a c2 cf bd f0 14 20 be 12 ed 55 be
       -0.18692578 -0.101444915 -0.15632987 -0.20891216
000180 b1 c5 49 be b1 f4 0d be d0 a0 dc bd 82 9a 05 be
       -0.1970432 -0.13862874 -0.1077286 -0.13047221
000190 fc 89 59 ba d6 07 b3 bd c1 4b d3 bd 5e c9 ad 3d
       -0.00082984543 -0.08741729 -0.10317183 0.08485673
0001a0 7c 26 13 be dc b8 31 3d 67 1a 91 bd f0 f4 66 bd
       -0.1437015 0.043389186 -0.07085114 -0.056385934
0001b0 04 ce e8 3c f2 b9 fc 3d be 2a 1d be d4 47 9c 3d
       0.028418548 0.12340154 -0.15348336 0.07630888
0001c0 39 e5 43 3e e5 b9 4e 3e 8a 1a e9 bd 3f ec 56 3d
       0.1913041 0.201881 -0.11382015 0.052471396
0001d0 a0 7f 96 3c ce 3a 5b 3e b1 b6 4a bc b3 38 8a 3a
       0.018371403 0.21409151 -0.012372659 0.0010545462
0001e0 a2 b9 a1 39 f8 89 89 3c a0 74 21 3e 9d aa d0 3d
       0.0003084662 0.016789421 0.15767145 0.10188792
0001f0 30 7d 8a 3d 44 c5 ed 3d e6 92 1e be 72 b3 06 be
       0.06762159 0.11609891 -0.15485725 -0.1315439
000200 33 30 47 bd 23 1b 4c 3e d5 e6 3d 3e e6 49 1e 3e
       -0.04862995 0.19932227 0.18545087 0.15457878
000210 62 04 41 be db 36 23 be 4f eb c8 bc 5f 5b 77 3b
       -0.18849328 -0.15938894 -0.024526266 0.003774367
000220 1b 53 d3 bd 9e e4 b3 3d da 9d 13 be d4 6d ef bc
       -0.103185855 0.0878384 -0.14415684 -0.029227175
000230 82 ca 19 3e 52 f2 90 bd f0 d1 f8 bd 92 eb 25 3d
       0.15018657 -0.07077469 -0.121494174 0.04050786
000240 39 d7 0f 3e c5 bd c4 3d f2 7b 27 be 3f 06 03 be
       0.14046945 0.09606508 -0.16355875 -0.12795351
000250 c2 b7 33 bc 92 59 61 3e 9d 2d b5 3d ab 0c 98 3d
       -0.010969104 0.22006825 0.08846591 0.07424291
000260 38 78 20 bd e7 12 a3 bd 28 9b 18 3e fd dd 0c be
       -0.03917715 -0.0796259 0.14902937 -0.13756557
000270 4f de 94 3d 2a 1c 04 be 3f 64 7c 3d 60 7c e0 3c
       0.072689645 -0.12901369 0.06161904 0.027403057
000280 55 1a 8c bc 18 20 18 be e4 8b 03 3d 7f 05 f5 3c
       -0.0171024 -0.14855993 0.032115832 0.029909847
000290 54 3b 91 3d 27 54 17 bd b0 1e 17 bd 73 74 84 3d
       0.07091394 -0.03694549 -0.0368945 0.064675234
0002a0 d7 be 88 3d 51 c1 03 be 4a 34 fe bd 10 4e be bd
       0.06677025 -0.12866713 -0.12412317 -0.09292233
0002b0 58 b8 f1 3d 44 0e 9c 3c 98 37 f1 3d 5f cf 16 be
       0.11802739 0.019049771 0.11778182 -0.14727543
0002c0 4f 41 01 3e 85 9c 13 be c9 ee 34 3e 46 c9 85 3c
       0.1262257 -0.14415176 0.17669214 0.016331326
0002d0 98 be b7 bc 44 12 5d 3b 17 f8 2f be be d7 d0 3d
       -0.02242975 0.003373281 -0.17184483 0.101973996
0002e0 1d 73 33 3e 10 4f 8a 3c 0e 81 06 3e 43 1f 30 be
       0.17524381 0.016883403 0.13135168 -0.17199425
0002f0 10 a4 b4 3c 14 8f 42 bd 20 dc 34 be 78 6b b9 3d
       0.022050887 -0.04749973 -0.17662096 0.09053701
000300 65 e0 c1 bd 92 e3 1b be 7c 4e 73 3d c1 7b 07 be
       -0.09466628 -0.1522353 0.05940102 -0.13230802
000310 51 f9 00 be d8 5a 12 be c8 df 9f 3d 40 fe 09 be
       -0.12595107 -0.14292467 0.07806355 -0.13475895
000320 fd a6 09 be e5 56 e6 3d ae 03 03 3e 2e cc 00 be
       -0.13442607 0.112470426 0.12794372 -0.12577888
000330 8d 90 35 be 3f ab 2a be 8e 9c c8 3d 09 68 94 3c
       -0.17730923 -0.16666888 0.097954854 0.018116014
000340 ae dd a0 3d a6 6a 05 be 39 b6 96 bd 8e 96 23 3e
       0.07854782 -0.13028964 -0.07358975 0.15975401
000350 5c 07 f1 3d c2 0c 3a 3b d6 05 32 be be 13 3f be
       0.11768982 0.0028388952 -0.17385039 -0.18659875
000360 f1 48 8e bd e0 65 9f bd 0c 3d 14 be 9a 00 99 3d
       -0.06947506 -0.07783103 -0.14476413 0.07470818
000370 c4 a2 2c be ca 3a ba bd 13 e2 72 bd 35 e8 47 bd
       -0.16858965 -0.090932444 -0.059297632 -0.048805434
000380 1c 49 32 3d 39 d5 11 3d 42 34 14 be 05 ef 2b be
       0.043526754 0.035603736 -0.1447306 -0.16790397
000390 d2 a2 cd bb 83 3a fd bc e3 71 f3 bd 6c 23 f0 3d
       -0.006275513 -0.03091169 -0.118869565 0.11725506
0003a0 11 76 10 3e 3c 19 db bd c9 20 3d 3b 22 22 3a 3d
       0.14107539 -0.106981725 0.0028858653 0.045442708
0003b0 5d 56 1c be cf 99 5b 3d cc 66 04 be 29 bb b7 bd
       -0.1526732 0.05361348 -0.12929839 -0.08971245
0003c0 c0 8a 8a 3c 47 30 2d be 09 15 1e 3d e9 35 2d bd
       0.016911864 -0.16912948 0.03859428 -0.04228774
0003d0 06 cb 4c 3d 2f 30 1e 3e cf 45 26 3d 1e 6a a6 bd
       0.049998306 0.15448068 0.04059392 -0.08125709
0003e0 21 a7 53 bd 3c f3 22 bd 58 cb 30 3e 11 bf 35 bc
       -0.05167306 -0.039782748 0.1726507 -0.011092917
0003f0 ae 0a 3f 3d 9b 9e 33 be 24 b1 30 be 2b d1 10 be
       0.046641044 -0.17540972 -0.17255074 -0.14142291

layer_2.bias f4 [20]
000000 6e 86 45 3e 57 96 97 3c cf 96 02 bc ad ca 82 bc
       0.19289562 0.018504305 -0.007970526 -0.015965784
000010 b5 ca 30 3e f5 1c 8a bd d6 94 03 be 6a cf 0e 3e
       0.17264827 -0.06743804 -0.12849745 0.1394631
000020 7f 9e 3f 3e c1 ec 1e be 5e 71 5b bd ba e7 dc 3c
       0.18712805 -0.15520002 -0.053574912 0.026965965
000030 f7 01 2d be e5 4a ee bd 8d 89 8b bd d8 df 24 3e
       -0.16895281 -0.11635379 -0.06813345 0.16101015
000040 cf 49 fa bd fb ff 19 3c bc 6c fd bd bf 71 4c bc
       -0.12221109 0.009399409 -0.12374255 -0.012478291

layer_3.weight f4 [1, 20]
000000 d6 76 04 3e 5a 7b 20 be fb 3d 2f b9 a0 e0 a8 bd
       0.12935957 -0.15672055 -0.0001671239 -0.08245969
000010 22 ec 68 3e 8e 88 60 3e a6 d4 f3 3c b4 d8 35 be
       0.22746328 0.21927091 0.029764485 -0.17758447
000020 23 90 83 3d 8c cc 53 bd f7 e1 60 bd c1 70 fa bd
       0.06423976 -0.051708743 -0.054902997 -0.12228537
000030 d0 a5 2f bd 26 6a 21 be 4f f5 3e 3e 96 9c 31 be
       -0.04288274 -0.15763149 0.18648265 -0.17344889
000040 a2 d7 0b 3d 1d a4 fc 3b 9a 57 8f 3c 68 de 75 bd
       0.03414119 0.0077099935 0.017497826 -0.060026556
