critic.pt (torch, 7831 bytes, 5 tensors)

layer_1.weight f4 [27, 31]
0	0xbe29dcc3	-0.1658812
1	0x3df89921	0.12138582
2	0xbe48a18c	-0.19592875
3	0xbd2ed8b8	-0.042687148
4	0xbd929d9b	-0.07158967
5	0x3d9ed690	0.07755768
6	0x3df6c0a7	0.12048464
7	0x3d1b6c7d	0.03794526
8	0x3e13de32	0.1444023
9	0x3d61d152	0.055131264
10	0x3dbd0826	0.0923007
11	0x3e5dea84	0.21671492
12	0xbd85444d	-0.06507168
13	0x3dcab931	0.09898604
14	0xbd2f70aa	-0.042832054
15	0xbd82da4d	-0.06389294
16	0xbbf7c4b4	-0.0075612906
17	0x3e30ecd2	0.1727784
18	0xbdae3a0f	-0.085071675
19	0x3d28c3a5	0.041202206
20	0xbd73c8c4	-0.059517637
21	0xbd0a24dc	-0.033726558
22	0xbd60101c	-0.054702863
23	0xbd62888a	-0.055305995
24	0x3df9cd9d	0.12197421
25	0xbd2abb14	-0.041682318
26	0x3e114899	0.1418785
27	0x3e55de92	0.20885685
28	0xbc2450ca	-0.010029027
29	0xbdc2fac3	-0.09520485
30	0x3dd2bdca	0.10290106
31	0x3d2016f8	0.039084405
32	0xbe2f1e58	-0.17101419
33	0xbb884244	-0.00415829
34	0xbe1df704	-0.1542626
35	0x3e20439b	0.1565079
36	0x3d9ea038	0.07745403
37	0x3e088ff1	0.1333616
38	0x3d8cc588	0.068736136
39	0x3e283712	0.16427258
40	0xbd924e94	-0.07143894
41	0xbe62d6ce	-0.22152254
42	0x3d9b5792	0.07585062
43	0x3decf865	0.11570815
44	0xbe70817e	-0.23486897
45	0x3c85fb70	0.016355246
46	0xbd91fdd3	-0.07128491
47	0x3e4798e7	0.19491921
48	0xbc792ba4	-0.015208159
49	0x3cbc64ef	0.022997348
50	0x3e71205c	0.235475
51	0x3d4be1cc	0.049775884
52	0xbd6d0492	-0.057865687
53	0x3e41b78c	0.18917674
54	0x3e13aa30	0.1442039
55	0xbcaf1603	-0.0213728
56	0x3e766207	0.24060832
57	0x3e4c5733	0.19955139
58	0x3d493895	0.049126226
59	0xbd459ced	-0.04824536
60	0x3e7b787d	0.24557681
61	0x3e931649	0.2872794
62	0x3d913d4c	0.070917696
63	0xbe439004	-0.19097906
64	0x3d2fbf54	0.042907074
65	0xbd00268f	-0.031286772
66	0xbe04db24	-0.1297422
67	0xbd38db10	-0.04513079
68	0x3e524a17	0.20536076
69	0x3e08a9c7	0.13346015
70	0x3a987e80	0.001163438
71	0xbda96bfc	-0.082725495
72	0xbd2c8cba	-0.042126395
73	0xbd782514	-0.060582235
74	0x3cfbd4b3	0.030741071
75	0x3d173da0	0.036924005
76	0xbc0070a2	-0.007839354
77	0xba891130	-0.0010457393
78	0xbdfda6c1	-0.123853214
79	0x3d03b014	0.032150343
80	0x3e2d108c	0.16900843
81	0x3d85b4a7	0.06528597
82	0x3d9c9b01	0.07646752
83	0x3e4b304a	0.1984264
84	0xbdfd86cd	-0.12379227
85	0x3e0ca435	0.13734515
86	0x3e44d439	0.19221582
87	0x3ab99fe0	0.0014162026
88	0xbe130282	-0.14356425
89	0x3dbe3e3b	0.09289213
90	0xbde81d44	-0.11333707
91	0xbd01bc72	-0.031673856
92	0x3e3a77c3	0.18209748
93	0xbe072cbd	-0.1320066
94	0xbd553f26	-0.052062176
95	0xbd140c48	-0.036144525
96	0x3d121a42	0.035669573
97	0x3e0835db	0.13301794
98	0x3e11bf9c	0.1423325
99	0xbe115d6b	-0.14195792
100	0xbe043fbe	-0.1291494
101	0xbda7bcde	-0.081903204
102	0x3db552ee	0.08853708
103	0x3de37a4a	0.11107309
104	0xbbdc5a4c	-0.0067246314
105	0xbd792820	-0.06082928
106	0xbd35e2da	-0.044405796
107	0x3d5f7e13	0.054563593
108	0x3d650f98	0.055923074
109	0x3de8d171	0.11368073
110	0x3e50594f	0.20346569
111	0x3e36a5e0	0.17836714
112	0x3da1f6f9	0.079084344
113	0xbd74cede	-0.059767596
114	0x3d3e61eb	0.0464801
115	0x3e0ebbf7	0.1393889
116	0x3e333b03	0.1750298
117	0x3e362c50	0.17790341
118	0x3d22a23c	0.0397055
119	0x3dc848b7	0.09779494
120	0x3e2deb07	0.16984187
121	0xbd9f189f	-0.07768368
122	0x3e08f263	0.13373713
123	0x3db43943	0.08799984
124	0xbd37b4a4	-0.044850007
125	0xbb91e652	-0.004452505
126	0x3e087410	0.13325524
127	0x3e304429	0.17213501
128	0xbe406101	-0.18787004
129	0xbe095557	-0.13411461
130	0xbc5af48c	-0.013363969
131	0xbe343d63	-0.17601542
132	0xbcafb870	-0.021450251
133	0xbde7e48d	-0.113228895
134	0x3e257dea	0.16161314
135	0x3dad31fa	0.08456798
136	0xbe166e96	-0.14690623
137	0x3d2fb56e	0.042897634
138	0xbd9b9847	-0.07597404
139	0x3e2f8e72	0.17144182
140	0x3d207932	0.03917808
141	0x3e0395c4	0.128501
142	0x3dfcbc31	0.12340582
143	0x3d02b922	0.031914838
144	0xbe451381	-0.19245721
145	0x3c07ba84	0.008284215
146	0x3d37a196	0.044831835
147	0xbda9c07f	-0.08288669
148	0x3d9ab0c8	0.075532496
149	0x3d905982	0.07048322
150	0xbdb265c3	-0.08710816
151	0x3e2ff23d	0.1718225
152	0xbd21a968	-0.0394682
153	0x3dd9b621	0.106304415
154	0xbe3dc07d	-0.1853046
155	0xbe096059	-0.1341566
156	0xbcbb72ca	-0.022881884
157	0x3d5e3197	0.05424651
158	0xbca28dd4	-0.01984302
159	0x3d2d8158	0.04235968
160	0xbe255e51	-0.1614926
161	0x3e09e420	0.13465929
162	0x3e1c42ae	0.15259811
163	0xbe14284f	-0.14468502
164	0x3dbb282a	0.0913852
165	0xbbcb8696	-0.0062111123
166	0x3d34332e	0.04399412
167	0x3dff2600	0.1245842
168	0xbdab3739	-0.08360142
169	0xbe305b9e	-0.17222449
170	0xbe33c961	-0.17557289
171	0x3deba1b4	0.11505452
172	0x3d281e64	0.041044608
173	0xbdebaf81	-0.11508084
174	0x3de4bbb3	0.11168613
175	0xbd94c10a	-0.07263382
176	0xbd71a3d9	-0.058994148
177	0xbc689919	-0.014196658
178	0xbd017066	-0.031601332
179	0x3d92195b	0.071337424
180	0xbe2cdfc2	-0.16882232
181	0x3cf665ce	0.030077841
182	0x3d70db6e	0.058803014
183	0x3dfeabf0	0.12435138
184	0xbdd31ccc	-0.10308227
185	0xbd073a2e	-0.03301447
186	0xbdeffe18	-0.117183864
187	0xbd337bb4	-0.043819144
188	0x3cf75200	0.030190468
189	0xbd046f24	-0.032332554
190	0x3e3fb4b7	0.18721281
191	0xbe10da0a	-0.14145675
192	0xbdb46aee	-0.08809458
193	0x3db89bcd	0.09014092
194	0xbe097d4a	-0.134267
195	0xbde13d0f	-0.10997974
196	0xbdc0b727	-0.094099335
197	0x3e36a82a	0.17837587
198	0x3d47c65a	0.048773147
199	0xbe22b77f	-0.1589031
200	0xbd72c8c3	-0.059273493
201	0xbdb4718f	-0.08810722
202	0xbdf4ebad	-0.11959014
203	0x3e37b365	0.17939527
204	0x3d219384	0.039447322
205	0x3e16ba9a	0.1471962
206	0xbd4561a2	-0.048188813
207	0xbda38a1c	-0.07985327
208	0x3e6bdc43	0.23033242
209	0x3d7051cc	0.058671758
210	0x3e2e00d4	0.16992503
211	0x3d73622e	0.059419803
212	0x3e5c2ae6	0.2150074
213	0xbdec5911	-0.115404256
214	0x3e5e4809	0.21707167
215	0x3e111600	0.14168549
216	0x3e4914f7	0.19636904
217	0xbd22e4c8	-0.039768964
218	0x3dd65ca5	0.10466889
219	0xbe2e9380	-0.17048454
220	0xbdfbdc46	-0.12297873
221	0x3def3b5f	0.11681246
222	0x3de94ba8	0.113913834
223	0xbd4a6c92	-0.049419947
224	0xbd96d17c	-0.07364175
225	0xbb86e3e0	-0.0041165203
226	0xbd1c89e9	-0.03821746
227	0x3dae0f01	0.084989555
228	0x3e05b029	0.13055481
229	0xbe09101e	-0.13385054
230	0x3e28c8eb	0.16482894
231	0xbd9ae2f8	-0.07562822
232	0xbe336a21	-0.17520954
233	0xbe2e797e	-0.17038533
234	0xbde2810c	-0.1105977
235	0xbc78b880	-0.015180707
236	0x3e00ac53	0.12565736
237	0x3deabd26	0.114618585
238	0xbe15221f	-0.14563797
239	0xbe19b745	-0.15011318
240	0x3d55be5c	0.052183494
241	0xbe04e107	-0.12976466
242	0xbde0edfd	-0.10982893
243	0xbccd852c	-0.025087915
244	0xbdf8c43f	-0.12146806
245	0x3d96f3fc	0.07370755
246	0xbda3caef	-0.07997691
247	0xbd182c14	-0.03715141
248	0xbe21725d	-0.15766282
249	0x39d55f80	0.0004069768
250	0xbde0a30b	-0.10968598
251	0xbdefe6a9	-0.11713917
252	0x3db64545	0.08899931
253	0x3db028c4	0.086015254
254	0x3de041be	0.10950039
255	0xbde85f5d	-0.11346314

layer_1.bias f4 [27]
0	0x3dbe3595	0.09287564
1	0x3dc2f796	0.095198795
2	0x3d3868bf	0.04502177
3	0xbddd6cf6	-0.10811798
4	0xbdb763d1	-0.08954585
5	0xbdf5fe26	-0.120113656
6	0x3e2047f0	0.15652442
7	0xbdb11dc7	-0.08648258
8	0x3d6b6596	0.057469927
9	0xbe132120	-0.14368105
10	0x3c72e953	0.014826137
11	0x3e4ce3a6	0.20008716
12	0xbc139c0e	-0.009009374
13	0x3dd82711	0.10554326
14	0x3d6df76d	0.05809729
15	0x3e100be9	0.14067043
16	0x3e1080fa	0.141117
17	0x3e0c07f0	0.13674903
18	0x3e44cfab	0.19219844
19	0xbcb35b68	-0.021894172
20	0xbd831c43	-0.06401875
21	0xbda6acac	-0.08138403
22	0xbe091358	-0.13386285
23	0xbe018d23	-0.12651496
24	0x3d8121ca	0.06305273
25	0xbd227a7e	-0.0396676
26	0xbc7235fd	-0.01478338

layer_2.weight f4 [20, 27]
0	0x3e1668b3	0.14688377
1	0xbd46a6c4	-0.048498884
2	0x3e23ecc3	0.16008286
3	0xbde12415	-0.1099321
4	0x3dcd916a	0.10037501
5	0xbe22722c	-0.15863866
6	0x3e1c20bb	0.1524686
7	0xbdc15db0	-0.094416976
8	0x3c88bc90	0.016691476
9	0x3e36b0ff	0.17840956
10	0xbe2dee70	-0.16985488
11	0xbe2447f3	-0.16043071
12	0x3d2b9408	0.04188922
13	0xbe41148f	-0.18855499
14	0xbd8cfe2c	-0.06884417
15	0xbe0061da	-0.12537327
16	0xbe34537f	-0.17609976
17	0x3dfc772e	0.12327419
18	0xbdcb8588	-0.099375784
19	0xbdd5d602	-0.104412094
20	0x3dac9842	0.084274784
21	0x3dda1fd6	0.106506035
22	0xbe2a89b0	-0.16654086
23	0xbdba3770	-0.09092605
24	0xbd6ef0e4	-0.0583352
25	0xbd80f53c	-0.06296775
26	0x3d5f8260	0.054567695
27	0x3d8e3e30	0.06945455
28	0xbd799da2	-0.060941346
29	0xbab3c344	-0.001371481
30	0xbd520ce6	-0.051281832
31	0x3c78ba20	0.015181094
32	0x3d508cca	0.050915517
33	0x3c2f0b9a	0.010683918
34	0xbe40b888	-0.18820393
35	0x3e377443	0.17915444
36	0x3dde624a	0.10858591
37	0xbe37dc3b	-0.17955105
38	0xbe18fded	-0.14940615
39	0x3e1d438b	0.15357797
40	0x3d5c3136	0.05375787
41	0x3e14a210	0.14514947
42	0xbd2e9ba3	-0.042628895
43	0xbdccaa20	-0.09993386
44	0x3c169c8c	0.009192597
45	0x3e248668	0.16066897
46	0xbd856207	-0.06512838
47	0xbd7716ea	-0.060324587
48	0xbe57c25c	-0.21070236
49	0x3e2c2b33	0.16813354
50	0x3e0d5795	0.13802941
51	0x3bbefa17	0.005828153
52	0xbe2613d2	-0.16218498
53	0x3e2c23b1	0.1681049
54	0xbdc64bfb	-0.09682461
55	0xbe551a8f	-0.20810913
56	0xbd9387d0	-0.072036386
57	0xbdc9f3e9	-0.09860975
58	0x3d9e16f4	0.07719222
59	0xbe3bb47b	-0.18330567
60	0xbe23309a	-0.15936509
61	0x3c9f31a0	0.019432843
62	0xbc8d8bf2	-0.017278645
63	0xbda8b15e	-0.08236955
64	0x3d8b51f0	0.06802738
65	0xbdb213da	-0.08695193
66	0x3de83034	0.11337319
67	0xbdda7ba9	-0.106681176
68	0xbe44b60f	-0.19210075
69	0x3d6d419e	0.057923906
70	0xbd8d1514	-0.06888786
71	0x3e0c1add	0.13682123
72	0xbd13fbd5	-0.036128838
73	0x3da4c7c2	0.08045913
74	0xbe2e13a6	-0.16999683
75	0x3cdb1ce3	0.026747173
76	0xbd11ebe8	-0.03562537
77	0x3def7128	0.11691505
78	0xbe5f421a	-0.2180256
79	0xbd322644	-0.043493524
80	0xbe1644d2	-0.1467469
81	0x3c0791b0	0.008274481
82	0xbe088c20	-0.13334703
83	0x3db5b9a1	0.088732965
84	0x3deed410	0.116615415
85	0xbe02579e	-0.12728736
86	0x3e1a3d98	0.15062559
87	0xbdf65a06	-0.12028889
88	0x3d9508ac	0.07277045
89	0xbdf5f7b4	-0.12010136
90	0x3dae45d0	0.085094094
91	0x3d30ed4f	0.043195065
92	0x3dc39640	0.09550142
93	0x3e08226f	0.13294385
94	0xbe2b83e7	-0.16749536
95	0x3d370a8b	0.04468779
96	0x3cea35dc	0.028590135
97	0x3c44e973	0.012018549
98	0xbe02213d	-0.12707992
99	0x3cf6c9ec	0.03012558
100	0xbe56a0b1	-0.20959736
101	0xbe585230	-0.21125102
102	0xbd4de291	-0.0502649
103	0x3e0c7871	0.1371782
104	0x3de04e28	0.10952407
105	0x3dfd047c	0.12354371
106	0xbca09c95	-0.019605914
107	0x3d780e2b	0.060560387
108	0x3df7d49e	0.121011004
109	0x3e25bfd9	0.16186465
110	0xbe22ce7d	-0.15899082
111	0x3ddffe66	0.109371945
112	0x3e3e58cb	0.1858856
113	0x3d4dfd4c	0.05029039
114	0xbe231bde	-0.15928599
115	0xbe18bc34	-0.14915544
116	0xbc477ca0	-0.012175709
117	0xbbacbe00	-0.005271673
118	0xbd94eb8c	-0.072714895
119	0xbe39ff9f	-0.18163918
120	0xbd3d8130	-0.04626578
121	0x3de0efd2	0.10983242
122	0xbca82888	-0.02052714
123	0xbdf30edb	-0.11868068
124	0x3d480c50	0.048839867
125	0xbd8515da	-0.064983085
126	0x3de7ea4a	0.11323984
127	0xbe118a4f	-0.14212917
128	0xbde57395	-0.11203686
129	0x3e43a577	0.19106089
130	0xbdb9d5ed	-0.09074006
131	0xbd80918a	-0.062777594
132	0xbd800ad0	-0.06252062
133	0x3cdc60c0	0.026901603
134	0xbd9c629f	-0.07635998
135	0x3d2f1e48	0.042753488
136	0x3db272e8	0.08713323
137	0x3da0aebe	0.078458294
138	0x3e920847	0.2852194
139	0xbe190d2a	-0.14946428
140	0x3de0a491	0.109688886
141	0x3d6cea58	0.057840675
142	0xbe1b693f	-0.15176867
143	0xbd33ef0f	-0.043929156
144	0xbde6cff0	-0.1127013
145	0x3da6d532	0.081461325
146	0x3dcb6a73	0.09932413
147	0x3e4f4a21	0.20243122
148	0x3e80e930	0.25177908
149	0x3dcdfdfb	0.100582086
150	0x3e044288	0.12916005
151	0x3e7d50f3	0.24737911
152	0x3cfb2711	0.030658277
153	0x3db702f7	0.089361124
154	0xbd276902	-0.040871628
155	0x3e45b198	0.19306028
156	0x3e87ef37	0.26549694
157	0x3e22d576	0.15901741
158	0xbe029c86	-0.12755021
159	0x3bfacec8	0.007654045
160	0x3e3462eb	0.17615859
161	0xbd2a6e21	-0.041608933
162	0x3da18ec6	0.0788856
163	0x3da1c8e4	0.07899645
164	0x3d734186	0.05938866
165	0x3dd4c208	0.10388571
166	0xbd8a4d5c	-0.067530364
167	0xbdd86a52	-0.10567154
168	0x3c0bba18	0.008528255
169	0x3e06627d	0.13123508
170	0x3dc25156	0.0948817
171	0x3de19062	0.11013867
172	0x3c522aba	0.01282757
173	0x3b6d2908	0.0036187787
174	0xbe30cf21	-0.17266513
175	0xbe348138	-0.17627418
176	0xbe31924b	-0.17340963
177	0xbdb55a68	-0.08855134
178	0xbe1e25a7	-0.1544405
179	0x3e00c4b8	0.12575042
180	0xbe3c90a9	-0.18414558
181	0x3e256e1d	0.16155286
182	0xbe465b0f	-0.19370674
183	0xbb3b4e14	-0.0028580474
184	0xbd3f1264	-0.046648398
185	0xbdbbc977	-0.09169286
186	0xbe28a39b	-0.1646866
187	0xbde5a401	-0.11212922
188	0xbe08f486	-0.13374528
189	0xbe2c36d5	-0.16817792
190	0xbe4452bf	-0.1917219
191	0xbdaa6b7f	-0.083212845
192	0xbdfba519	-0.12287349
193	0xbdba809e	-0.09106563
194	0xbe17ace8	-0.14812052
195	0x3dab6db1	0.08370531
196	0xbd7f4274	-0.062319234
197	0xbdccc7a6	-0.099990174
198	0x3e362ecc	0.17791289
199	0xbe038f78	-0.12847698
200	0xbbcd35ff	-0.0062625404
201	0xbdd76e9d	-0.10519145
202	0x3dfb63ce	0.122748956
203	0xbe425b5d	-0.18980165
204	0x3d619966	0.055077933
205	0xbd89ee54	-0.067349106
206	0xbe5bbf36	-0.2145966
207	0xbe17cc7c	-0.14824098
208	0x3d17d351	0.03706676
209	0x3d45f9fc	0.048334107
210	0xbcb0317f	-0.021507977
211	0xbdec17d1	-0.1152798
212	0x3d81a142	0.063295856
213	0x3ddd43eb	0.1080397
214	0x3d8df18e	0.069308385
215	0xbe2c1265	-0.16803892
216	0xbdd98500	-0.10621071
217	0xbe2d1f7d	-0.16906543
218	0xbd841048	-0.06448418
219	0x3dbc2042	0.0918584
220	0xbd25d9b8	-0.040490836
221	0xbe412bb3	-0.18864326
222	0xbe2e45f3	-0.17018871
223	0x3cf41010	0.029792815
224	0x3e3710e3	0.17877536
225	0x3e02b0d5	0.12762769
226	0xbd2f41a8	-0.042787224
227	0x3e15d07b	0.1463031
228	0x3d64f2b4	0.055895522
229	0xbd65938c	-0.056048915
230	0xbe1e0c18	-0.15434301
231	0xbe2fcb86	-0.17167482
232	0xbe06a400	-0.13148499
233	0xbe1b8654	-0.15187961
234	0xbcca60f8	-0.024704441
235	0xbd7fe800	-0.06247711
236	0x3db45336	0.08804934
237	0xbc91e578	-0.017809615
238	0x3dd92002	0.10601808
239	0xbd50fd44	-0.051022783
240	0x3bd9cae0	0.006646499
241	0xbe13363c	-0.14376158
242	0x3b3d99c0	0.0028930753
243	0xbd2d13b4	-0.04225512
244	0x3e3ad427	0.18244992
245	0xbde21fef	-0.11041247
246	0xbdb956e8	-0.09049779
247	0x3d05a8b4	0.03263159
248	0x3db06875	0.086136736
249	0x3de940f4	0.11389342
250	0x3dc9a56f	0.09846007
251	0x3d76fd9f	0.060300466
252	0x3e05169b	0.12996905
253	0xbe1938aa	-0.14963022
254	0xbe4ca77c	-0.19985765
255	0x3dc833e9	0.09775526

layer_2.bias f4 [20]
0	0xbd81ef7c	-0.06344506
1	0xbe02af7e	-0.12762257
2	0xbd05485d	-0.032539714
3	0xbc3a921c	-0.011387374
4	0xbdfd34f5	-0.123636164
5	0x3e79ae42	0.2438288
6	0x3bb10642	0.0054023573
7	0xbd8bd00b	-0.068267904
8	0xbdaa7aee	-0.08324228
9	0x3c7f8a57	0.015596948
10	0xbc639d3f	-0.013892471
11	0xbbdef994	-0.0068046544
12	0xbdd60f21	-0.10452104
13	0x3d63aa04	0.05558206
14	0x3d95d3ae	0.07315765
15	0xbdbbc544	-0.09168485
16	0xbe427d62	-0.18993142
17	0x3c877809	0.01653673
18	0x3cc56e0b	0.024100324
19	0x3e2318db	0.1592745

layer_3.weight f4 [1, 20]
0	0xbcf1bec0	-0.029509902
1	0xbe0e2d39	-0.13884439
2	0x3e14de27	0.1453787
3	0xbb8f298d	-0.004368967
4	0xbd1506bc	-0.036383376
5	0x3e2b6bbd	0.16740318
6	0x3e0b2b62	0.13590768
7	0xbc940f1f	-0.018073617
8	0x3e49839e	0.19679114
9	0xbd0d527a	-0.034502484
10	0xbdb4fb53	-0.08836999
11	0x3e85e627	0.26152155
12	0x3d69a252	0.057039566
13	0x3dd38ee7	0.10329991
14	0x3d5f4ae0	0.054514766
15	0xbd8445d2	-0.0645863
16	0x3e505cca	0.20347896
17	0x3d6d6bde	0.0579642
18	0xbe07f903	-0.13278584
19	0x3e3ee6dd	0.18642755
