mean_model.pt (torch, 21583 bytes, 8 tensors)

layer_1.weight f4 [33, 30]
000000 f7 e8 bb 3c 87 67 a7 3d e3 5d 22 3e d0 77 8e 3b
       0.022938235 0.08174043 0.15856127 0.004347779
000010 5a c7 aa 3d df 0e f1 3d 4c 5a 45 bd c8 c2 79 3b
       0.083388045 0.117704146 -0.048181817 0.0038110483
000020 1e 6d a1 bb c2 2e 97 bd 9e 09 01 be c5 9f 19 3e
       -0.004926338 -0.07381965 -0.12601325 0.15002353
000030 a1 f4 2f 3e a0 d0 a3 3d 16 3a 64 3d 89 6f 96 3d
       0.17183162 0.079987764 0.055719458 0.073454924
000040 7e c3 e5 bd 54 2e 6c 3d eb 8a 8b 3d 79 30 27 be
       -0.11218928 0.05766137 0.06813606 -0.16327085
000050 90 4a c0 bd 2f 23 e8 3d 5c 67 5d 3c 54 03 32 3e
       -0.09389222 0.11334836 0.013513412 0.17384082
000060 6f 65 0a be de ab 95 bd 5c 42 8f bb 88 56 0c be
       -0.13515256 -0.07308172 -0.0043719243 -0.13704884
000070 d1 bd d2 3d f7 90 63 3d ae 22 34 bd 03 c2 0a be
       0.10290111 0.05555817 -0.043978386 -0.13550572
000080 6c fe 20 3e ac 0c 44 be 60 a8 01 3e 89 63 e1 bd
       0.15722054 -0.19145459 0.12661886 -0.11005313
000090 b4 c7 41 bd 6c 24 44 bc c2 7d e1 bd e6 33 34 be
       -0.047309592 -0.011971574 -0.110103145 -0.17597923
0000a0 4f 5f b6 bd 80 a0 d0 3d 58 1e 28 be 79 11 89 3c
       -0.089048974 0.10186863 -0.16417825 0.016731964
0000b0 f1 43 b0 3d 19 6d ec bc 0e 9c 26 bd ca a2 3f 3e
       0.08606709 -0.028860616 -0.04067617 0.18714443
0000c0 5f f3 c1 3d 03 32 20 be 20 14 83 bd fb 22 8a bd
       0.094702475 -0.15644078 -0.06400323 -0.06744953
0000d0 61 09 ea 3d 02 d7 6a 3d f6 e6 d6 bd 82 73 7e 3d
       0.1142757 0.057333954 -0.10493271 0.062121876
0000e0 6a 5e 7c 3c 11 94 33 3c 20 11 74 3d e3 9e c9 bd
       0.015403369 0.010960595 0.059586644 -0.09844758
0000f0 ed 6b a3 3d 95 6d 91 3d 31 a0 04 bd 2f 75 96 3d
       0.079795696 0.07100979 -0.032379333 0.0734657
000100 63 86 7c 3c e8 96 85 3d ac 38 1a 3d 4e 84 54 3d
       0.0154129 0.06522924 0.037651703 0.051883988
000110 0e 82 7c bd 76 99 87 3d 5d cc ee bd 07 55 0e be
       -0.061647467 0.06621067 -0.11660073 -0.13899623
000120 f3 5e e8 3c ef 58 19 be e4 22 2b be 38 07 07 be
       0.028365588 -0.14975332 -0.16712528 -0.13186347
000130 b5 87 42 3e 45 ac de 3c 13 c5 28 be 42 08 a5 3d
       0.1899708 0.027181754 -0.16481428 0.08058216
000140 99 d0 41 be c1 70 b8 3d a8 d7 33 3b e1 8e a9 3d
       -0.1892723 0.09005881 0.0027441774 0.08279205
000150 d5 6a 91 bd 37 a1 34 be f8 c8 7a bd f8 17 b8 3a
       -0.07100455 -0.17639624 -0.061226815 0.0014045229
000160 2b 33 24 3e ee 65 39 3d 6c b7 5c 3b 16 48 ad bc
       0.16035144 0.045263223 0.0033678664 -0.021152537
000170 04 45 85 3d 33 8d b5 3d f8 34 b6 bd 96 b3 e6 bd
       0.06507304 0.08864822 -0.08896822 -0.11264722
000180 97 93 95 bd d6 0d 29 3e d4 2b 25 3e d6 e8 b0 3d
       -0.07303541 0.16509184 0.1613 0.0863816
000190 87 be ef bd 56 a6 c2 bc 5c 28 06 be 86 48 69 3d
       -0.11706262 -0.023760956 -0.13101333 0.05695393
0001a0 fd 85 42 3c 02 0e a9 bd 5f 75 70 bc 42 59 3a bd
       0.011872766 -0.08254625 -0.014676421 -0.04549528
0001b0 70 8b 12 3d f4 c1 77 bd 68 4d c9 bc 74 19 70 bd
       0.03577751 -0.060487702 -0.024573043 -0.058618024
0001c0 97 0a 38 be 56 c9 1b 3e 1a 1e e7 bd dc 4d 51 3d
       -0.1797279 0.15213522 -0.11285038 0.051099643
0001d0 51 4f 22 be 5b 57 83 3d 6a f3 dc bd 17 ea 3b 3e
       -0.1585057 0.06413146 -0.10788615 0.18351017
0001e0 27 2e 93 bd 6f 02 84 bd 3e dc e3 bd 92 2c 77 3d
       -0.07186537 -0.06445777 -0.11125992 0.06034524
0001f0 e2 55 1c bc f4 e0 30 3e 53 cf f7 bd 94 c0 25 be
       -0.00954196 0.17273313 -0.12100091 -0.16186744
000200 b8 4f 95 3d 50 14 36 bd 4c 96 90 3d 2c 8d 63 bd
       0.07290596 -0.044452965 0.07059917 -0.055554554
000210 00 09 b4 39 07 c5 1a bd 4e c7 dc bd 52 3b 11 3e
       0.0003433898 -0.037785556 -0.10780202 0.14182785
000220 f2 44 32 3d 5e e2 31 be d6 98 1e 3c 57 a9 b8 bc
       0.043522783 -0.17371508 0.009679994 -0.022541685
000230 58 09 17 3e 26 34 19 3e 97 20 b0 3d 92 3e e8 3d
       0.14749658 0.149613 0.08599966 0.11340059
000240 4b 6a 36 be 6f ae d1 bd 4f 92 f3 bd 8c 4d 6e 3d
       -0.17813985 -0.10238349 -0.118931405 0.058179423
000250 44 85 68 3d 58 a6 e6 bd 95 f8 24 3e 5f 72 61 bd
       0.056767717 -0.11262196 0.16110452 -0.055040713
000260 5c 42 2b be 87 c4 25 be 26 89 17 bd 92 e5 40 bb
       -0.16724533 -0.1618825 -0.03699603 -0.002943371
000270 c7 5c 21 be 13 bc 35 3e 8c 5f 27 3e ec 49 87 bd
       -0.15758048 0.17747526 0.16345042 -0.06605896
000280 af 3e 0d be dc c3 12 3d 6a 35 d6 bd 17 5b 43 be
       -0.13793443 0.035831317 -0.10459407 -0.19077717
000290 44 64 05 bd 2d 03 eb 3d 1a 1f 21 bd 43 23 ba 3d
       -0.032566324 0.11475215 -0.0393363 0.09088757
0002a0 0c f2 9a 3d 71 fe db 3d 46 76 b8 3d 64 33 06 3e
       0.07565698 0.1074189 0.09006934 0.13105541
0002b0 05 1c 35 3d 0c d1 da bd 2c a5 d6 3d 96 73 81 3d
       0.044216175 -0.10684404 0.10480723 0.063208744
0002c0 31 6a aa bc 68 20 20 be 75 d0 17 3e ff a8 c0 3d
       -0.02080259 -0.15637362 0.14825614 0.094072334
0002d0 e2 cc f3 bd ac d6 e1 bb 6d 15 09 be 96 54 73 bd
       -0.11904313 -0.006892046 -0.1338708 -0.05940684
0002e0 8e 1d 67 3b 34 8d b2 bd 21 45 f6 3d 29 0c 44 3e
       0.0035265419 -0.087183386 0.12024904 0.19145264
0002f0 3e 0e b4 bd 31 42 9c 3d 14 f0 ce bd 77 68 00 be
       -0.08791779 0.076298125 -0.10104385 -0.1253985
000300 67 d8 39 3e 3c a7 9c bc 90 75 0f 3e c9 3d e6 3d
       0.18148957 -0.019122712 0.1400969 0.11242253
000310 d8 66 19 bd 2c ed 00 be 2a 98 71 bd 85 54 8f bd
       -0.037451595 -0.12590474 -0.058983006 -0.06998543
000320 21 96 0c 3e b6 d2 a1 3b 96 b8 35 3d 63 75 70 3d
       0.13729145 0.004938449 0.044365488 0.0587057
000330 20 7e 28 be 3a ac b7 3d 68 3e 41 be 21 78 0b 3e
       -0.16454363 0.089683965 -0.18871462 0.13620044
000340 b9 5e 9f bc 87 64 23 3e 27 90 00 be ad b4 ce bd
       -0.019454347 0.15956317 -0.1255499 -0.10093055
000350 92 e6 99 3d 3e 18 52 3d 26 9b b2 3c 1e 19 0d 3c
       0.07514681 0.05129265 0.021802496 0.008611945
000360 c8 7e 05 bc 93 9a 2e be 26 1e f3 bd 98 ee 8f 3d
       -0.008147903 -0.17051153 -0.11870985 0.0702793
000370 32 5c 88 3d a3 2a 28 be e5 a0 80 bd 9b a8 fd 3d
       0.0665821 -0.16422515 -0.06280688 0.123856746
000380 26 63 f3 bd 81 41 b8 bd e4 34 08 be 34 86 06 be
       -0.118841454 -0.08996869 -0.13301426 -0.13137132
000390 ec db 97 bd a9 e2 a6 bd df ef db bd 05 ae 9c bd
       -0.07414994 -0.08148701 -0.10739111 -0.07650379
0003a0 ce 4e 32 3e eb e0 f0 bd 83 19 85 3d d3 f0 52 3d
       0.17412874 -0.1176165 0.064990066 0.0514992
0003b0 4a 49 3a bd fc 6a 0d be ce 60 05 3e 01 9c 0e be
       -0.04548005 -0.13810343 0.1302521 -0.13926698
0003c0 c9 b2 02 3e 70 2c 75 3d 64 da de bd dc 6f 10 3e
       0.12763514 0.059856832 -0.108814985 0.14105171
0003d0 f9 ec a1 3d c9 61 04 3d fe 00 10 be d8 0c 2b 3e
       0.07906527 0.032319818 -0.14062878 0.16704118
0003e0 99 2d 26 be d9 1d 11 3e 56 0b 5d bd 6e 44 b2 bd
       -0.16228332 0.14171542 -0.05396589 -0.08704458
0003f0 6b c9 e9 3d 98 c5 a8 ba e6 97 3a be 35 32 18 be
       0.114153706 -0.001287627 -0.18222007 -0.14862902

layer_1.bias f4 [33]
000000 28 25 29 3d 04 9c 10 be f3 f1 19 3c 00 d2 c6 ba
       0.0412952 -0.14122015 0.009396064 -0.0015168786
000010 13 d5 0d be 25 a2 bf 3d dc 42 c5 bd 3b 6a 0e 3e
       -0.13850813 0.093570985 -0.09631893 0.13907711
000020 57 56 25 3e db db 6b 3d 6d a1 fe bd d8 8e b4 3d
       0.16146217 0.057582717 -0.12433133 0.08816308
000030 5e 6c 0f 3e 28 a6 27 3d ed f1 01 be 1d b2 2a 3e
       0.14006183 0.040929943 -0.12689944 0.16669507
000040 92 c5 04 3d f5 af 14 be 90 ea 5b ba 5a e6 04 be
       0.03241498 -0.14520247 -0.00083891395 -0.12978497
000050 cf 20 04 be a7 53 12 bd 2a cf 20 3e 2a ec 24 3e
       -0.1290314 -0.03572431 0.15704027 0.16105714
000060 2f 97 04 3d d1 ca 1c be e7 a9 fe 3b 2c 70 2f 3e
       0.032370742 -0.15311743 0.007771719 0.17132634
000070 17 fe 19 3e 7a d4 0c be fd 84 2a be 31 26 1f 3d
       0.15038334 -0.13752928 -0.16652294 0.03885478
000080 f9 c6 35 bc
       -0.011094802

layer_2.weight f4 [34, 33]
000000 99 40 19 bd 9a 15 ca 3d a0 bf 0b 3c 98 dc d9 bd
       -0.03741512 0.098674014 0.008529574 -0.10637778
000010 58 14 77 3d 18 df b0 3c a7 4d cc 3d 57 da 24 bd
       0.060322136 0.021590754 0.099757485 -0.040247288
000020 fd 07 a3 3d e2 96 28 3e c4 7e 1f 3e 40 a2 0a bd
       0.07960508 0.16463807 0.15575701 -0.03384614
000030 89 81 f1 bd 0b 6e 85 bd c8 de 20 be 7c a9 a5 bd
       -0.11792285 -0.0651513 -0.15709984 -0.08088967
000040 cc 0b 5c 3d fc d1 8d 3d 9c a3 2c 3d 06 1c a9 3d
       0.053722188 0.06924817 0.042148218 0.08257298
000050 63 38 7b bd 19 08 26 3e 5e 01 01 be 3d 1e 31 be
       -0.06133307 0.16214027 -0.12598178 -0.17296691
000060 02 84 57 bd da 40 68 bd 86 7a dc 3d c4 68 1e 3e
       -0.052616127 -0.056702472 0.10765557 0.15469652
000070 55 89 bc bd 2f 6c a3 3d 45 72 dd 3c 7f 5b f0 3d
       -0.092058815 0.07979619 0.027032027 0.117362015
000080 f2 cc 4e bd a2 2a 1e be 6e e4 c2 bb 99 76 14 3e
       -0.05048842 -0.1544595 -0.005947641 0.14498366
000090 57 07 23 3e f6 5a 79 bd ce 0c f9 bd 1f ef cd 3d
       0.15920769 -0.060877763 -0.121606454 0.10055374
0000a0 e3 ad 1b 3e 07 a4 ac 3d f3 f8 a6 bd 9b 82 2a bd
       0.15203051 0.08429723 -0.08152952 -0.04162846
0000b0 63 9d a0 bd af 5b 96 3d ad 96 f1 bd ee 6c dc bd
       -0.07842519 0.07341706 -0.11796317 -0.10762964
0000c0 9d 7e a1 3d 53 96 0e bd b6 5b 4d bd 93 aa b5 bd
       0.07885478 -0.03481133 -0.05013629 -0.08870425
0000d0 d2 94 3d bd 03 a3 bd 3d 2a 5f f1 bb 35 e8 1c be
       -0.046284504 0.09259608 -0.007366081 -0.15322955
0000e0 46 62 b4 bc 1b 86 3b 3e ac e5 0e be 89 c6 fd bd
       -0.022019517 0.18312876 -0.139548 -0.12391383
0000f0 68 86 c9 3a 48 d3 78 bd 93 a4 4a bc 99 65 07 be
       0.0015375139 -0.06074837 -0.012368339 -0.1322235
000100 44 fa 17 be 70 79 3b bb cf 44 d5 bc 60 c9 ac 3d
       -0.14841563 -0.0028606318 -0.026033787 0.08436847
000110 be a3 9f bd 75 3b b7 bd c8 41 b7 3d 98 8e 8c bd
       -0.07794903 -0.089468874 0.08948094 -0.06863135
000120 52 c4 74 bd 87 5e 36 be 34 08 24 3e 4a d5 2a 3c
       -0.05975754 -0.17809497 0.16018754 0.010426829
000130 2b fa 1b 3e 68 8a af 3a 0e 7c 54 bc dd fb fd bd
       0.1523215 0.0013392689 -0.01296903 -0.12401555
000140 e9 ff 01 3c 8c ad 8a bd d5 6d 15 be 40 71 f4 bd
       0.007934549 -0.06771383 -0.14592679 -0.11935663
000150 1e d1 77 3d 71 6f df bd d7 66 12 3e b0 2b 04 bd
       0.060502164 -0.10909928 0.14297043 -0.032268226
000160 80 ac ed 3c c8 76 2f 3d 36 82 ea bd 7f 0c b7 bc
       0.029012918 0.042837888 -0.11450617 -0.022344826
000170 85 db 96 3d 3a 5b 8f bd 6a ec 29 3d 94 b3 d0 bd
       0.07366089 -0.06999822 0.041485228 -0.10190502
000180 38 60 f4 ba e4 41 07 be 76 49 15 be cb cd fb bc
       -0.0018644398 -0.13208729 -0.14578804 -0.030737778
000190 e5 9c 0d be 3f 94 f9 3d 23 2a d0 3d e1 c4 8c bb
       -0.13829382 0.12186479 0.10164287 -0.0042959307
0001a0 0c c0 3e bd e1 03 af bd 89 67 24 be f0 17 a1 3d
       -0.04656987 -0.08545662 -0.1605512 0.07865894
0001b0 21 9c ad bb ca 32 55 3d 28 ea 23 bd a0 f8 b7 ba
       -0.005298153 0.05205039 -0.04001823 -0.0014035888
0001c0 13 8b fe 3c a0 19 18 3e a3 2d c5 bd 10 65 da bb
       0.031072175 0.14853525 -0.09627845 -0.0066648796
0001d0 54 e2 c1 3d 71 9d 10 3e 2a 3e 7c bd 64 87 85 3d
       0.09466997 0.14122559 -0.06158272 0.06519964
0001e0 8a 82 b3 3c 67 d2 96 3d 1f 92 e6 bc fc 1e 6c bd
       0.021912832 0.0736435 -0.028145848 -0.057646737
0001f0 f5 1b 93 3d 41 87 24 bd f2 8a d5 3d ed f4 fd bd
       0.07183067 -0.04016805 0.10426892 -0.124002315
000200 e0 54 e1 3a 68 16 4d bd c0 7a ac bc c2 d8 9d 3d
       0.0017191432 -0.050070196 -0.021054626 0.07707359
000210 d0 e2 12 3e 3c 35 38 3d 64 2e 55 bd 17 b3 0e 3c
       0.14344335 0.044972643 -0.052046195 0.0087096905
000220 c8 8d 30 3e e2 1d 16 3e 01 bd 5d bc c3 cd 2b be
       0.17241585 0.14659837 -0.013533832 -0.1677771
000230 ee 10 1f bd 04 d3 5d 3d 6c be 0d be a1 3c ad 3d
       -0.038834505 0.05415632 -0.13842171 0.0845883
000240 b7 dc 27 be d6 d3 f1 3c 5a cc 1e 3e 01 63 c9 bd
       -0.1639279 0.029519957 0.15507641 -0.098333366
000250 9c 6a b1 bc 52 e5 78 3d 8b 3c b3 bd 63 e7 cd bd
       -0.02165728 0.060765572 -0.08751782 -0.10053899
000260 e7 42 15 be 60 5e 94 3b 4c 6b b2 bd a0 42 03 3e
       -0.14576302 0.004527852 -0.087118715 0.12818384
000270 5e 43 1d 3e 1e b5 ad 3b 08 51 32 bd c2 f4 4e 3d
       0.1535773 0.005301132 -0.04353431 0.050526388
000280 8a c4 0c be f9 7f 25 3e 24 14 0f 3e 9f 05 1b be
       -0.13746849 0.16162099 0.13972527 -0.15138863
000290 b5 21 d8 bd 4b 8a d1 3d 56 0e 0c 3c df 68 c9 bd
       -0.10553304 0.102314554 0.00854834 -0.09834456
0002a0 2e a9 75 3d de 21 1b be 8b 5d a3 3d 01 16 f1 3d
       0.059975795 -0.15149638 0.07976826 0.11771775
0002b0 b9 de ed bd 7a b5 84 bd a1 df 93 3d 6b 74 74 3d
       -0.116147466 -0.064799264 0.07220388 0.059681337
0002c0 c4 db 24 be 30 35 1f 3e 7b 9d 3d bc a6 b2 40 bd
       -0.16099459 0.15547633 -0.011573191 -0.047045372
0002d0 12 69 43 3d 9e 33 1e be b2 1a 42 bd e7 73 ea bd
       0.047707625 -0.15449378 -0.04738874 -0.11447888
0002e0 b5 4e 5e bc ea e9 f7 bc e1 e2 22 3e fa 6b 8a 3b
       -0.01356857 -0.030262906 0.1590686 0.0042242976
0002f0 dd 8c d3 3d a5 79 0b be c5 c0 66 3d bc 85 3d 3c
       0.10329602 -0.13620622 0.056336183 0.011567529
000300 6b 49 dd bd 69 d0 33 3d 50 c7 8a bd 1c 82 65 3d
       -0.10805019 0.043899927 -0.06776297 0.056032285
000310 e1 cd 18 bd 04 a8 17 bd 9e 49 57 bd 83 88 33 be
       -0.037305716 -0.037025467 -0.05256044 -0.17532544
000320 72 ee 68 3d 0e b1 06 3e 12 15 50 bd 64 34 1a be
       0.056868024 0.13153479 -0.050801344 -0.15059048
000330 26 fc 13 3d fe 03 8b 3c 5c 64 02 be 5d 5c 83 bd
       0.03612914 0.016969677 -0.12733597 -0.06414101
000340 7e c9 aa bc 7c ad 11 3d 01 f9 2d 3d 96 5c a4 3c
       -0.020848032 0.03556584 0.042473797 0.02006368
000350 f4 79 01 3e f6 d5 2a be 2f 06 74 bd ea 2d b2 3d
       0.12644178 -0.16683182 -0.05957621 0.08700164
000360 11 1a 87 3d b6 a8 a4 bc c0 d8 d4 3c db 6c 17 bd
       0.06596769 -0.020099979 0.02598226 -0.036969047
000370 f6 51 0d 3e ef ec ec 3d 51 27 9a 3d 6e 06 84 bd
       0.13800797 0.11568629 0.0752703 -0.06446539
000380 13 af fa bd 8b 6d b0 bd f0 1b ff bb 08 69 ef 3d
       -0.12240424 -0.08614644 -0.007785313 0.11689955
000390 35 ad 00 3e cc de 94 3d 05 0a 83 bc 26 1f b5 bc
       0.12566073 0.07269058 -0.015995989 -0.02210958
0003a0 04 c2 cc 3d 45 c1 05 3e f3 df 16 bd 14 7e a3 bc
       0.09997943 0.13062008 -0.03683467 -0.01995758
0003b0 4d 92 ec 3d a7 24 f7 3d fa d6 23 bd 33 fb 06 3e
       0.11551342 0.12067538 -0.03999994 0.13181762
0003c0 1e 68 65 bd 68 51 b2 bd 3b 44 0c 3e 09 c9 10 3e
       -0.056007497 -0.08706933 0.13697903 0.14139189
0003d0 87 c9 0f 3e 4f cd af bd 75 67 03 3d 46 ad 0b 3e
       0.1404172 -0.085840814 0.032081086 0.13640317
0003e0 b4 57 81 3d c2 2f 13 3d 13 7b fd bd 6b e2 a7 3d
       0.06315556 0.035934217 -0.1237699 0.08197483
0003f0 8b 95 b5 3d 99 41 88 3c e9 80 aa bd 96 d5 18 be
       0.08866414 0.016632842 -0.08325369 -0.14925227

layer_2.bias f4 [34]
000000 fc 13 07 3e 79 17 9d 3d e0 7a fe 39 d5 42 1b 3e
       0.13191217 0.07670493 0.00048538204 0.15162213
000010 8e 09 d0 3d fc 29 97 3d 47 a0 cd 3d 16 9a 0a 3e
       0.101580724 0.07381055 0.10040336 0.13535342
000020 81 c7 21 3d af bf f7 3d 45 a8 32 3e cc 11 47 3b
       0.039496902 0.120971076 0.17447002 0.0030375598
000030 24 0f cb bd cd 4a 96 bd a7 98 05 3e e8 68 e7 3c
       -0.09914997 -0.07338486 0.13046513 0.028248265
000040 30 b1 0a 3e 04 03 87 3d af 56 ee bc 58 54 18 3e
       0.13544154 0.06592372 -0.029094068 0.14875925
000050 59 4e bb bd ee 4c 1e 3d ee f7 9d bd e7 9c a1 3d
       -0.09145803 0.038647585 -0.077133045 0.07891255
000060 4a 41 38 bd 50 37 f0 bc 2f fa 09 3e 8c 39 4a bd
       -0.04498414 -0.02932325 0.13474344 -0.049371287
000070 b4 d0 fe bd f6 8e 4b bd ea 03 97 3d 23 53 3e 3d
       -0.12442151 -0.049696885 0.073737934 0.046466004
000080 ca a6 ec 3c 87 80 1a 3e
       0.028888125 0.15088092

layer_3.weight f4 [36, 34]
000000 fc 14 f0 bc 6b b8 ca bc e9 39 45 bd 46 d3 b0 3c
       -0.029306881 -0.02474614 -0.04815093 0.021585118
000010 da e7 f4 3d 15 48 0c 3e 07 df 08 3e e2 b2 49 bd
       0.11958285 0.13699372 0.13366328 -0.04924286
000020 07 84 d8 3d 34 29 27 bd a0 6f bc bd ed 30 22 3e
       0.10572057 -0.04081078 -0.09200978 0.15838976
000030 e7 d4 93 bd c5 ab fe bd a9 e3 ee 3d 82 5d 10 3c
       -0.07218342 -0.12435106 0.116645165 0.0088113565
000040 55 a3 04 3e 20 4e 88 3d 6a 7b a6 bd 3c 68 0c be
       0.12952931 0.06655526 -0.08129008 -0.13711637
000050 ec 39 12 be 94 7f b1 bd 21 cc 0e 3e 1c 50 28 3e
       -0.14279908 -0.08666912 0.13945056 0.1643681
000060 68 60 95 bd 87 74 2f 3c 0a 57 17 3d cf f4 bd 3c
       -0.07293779 0.010708935 0.03694824 0.023188023
000070 ac 13 ba 3d 31 5e 8c bd 42 c0 9b bd 69 22 36 3e
       0.09085783 -0.06853903 -0.0760503 0.17786564
000080 f8 8a e6 bb a2 99 a8 bc 04 f1 47 3d 62 de db 3c
       -0.0070356093 -0.02058107 0.048813835 0.026839439
000090 b7 44 c9 3d 8c d0 e1 3c bc 15 3a 3c 03 d9 7e bd
       0.098275594 0.027565263 0.011357721 -0.062218677
0000a0 e2 36 de 3d 41 01 16 bd 8d 91 10 be ea 8e 86 3d
       0.10850312 -0.03662229 -0.14118023 0.065702274
0000b0 22 8f 09 3e 74 c7 89 3d 2b eb 38 3d e4 44 db bc
       0.13433507 0.06727496 0.04514615 -0.026766248
0000c0 b8 00 32 bd 71 55 23 be f4 f1 91 3c 17 14 12 bd
       -0.043457717 -0.15950562 0.017815568 -0.03566369
0000d0 ac 94 dc bd 06 12 19 3e 09 2a fb 3d e6 28 0d be
       -0.107705444 0.14948282 0.12263877 -0.13785133
0000e0 d9 e9 9c 3d 1c 96 21 3d 1b 4d 95 3d 5e 15 0f be
       0.076617904 0.039449796 0.07290097 -0.13972995
0000f0 60 d8 e2 39 5b be f9 3d ef 52 24 be f5 cb aa 3d
       0.0004326729 0.121945105 -0.16047262 0.08339683
000100 15 5b 31 3e 4c ed ad 3d e9 bb a3 bd 48 34 0e 3e
       0.17319901 0.084925264 -0.079948254 0.13887131
000110 a5 bb eb 3d 1c 2e 02 be 5a 14 e7 3d 5c ca a7 3d
       0.115104 -0.12712902 0.11283179 0.08192894
000120 45 19 7c 3d cc 6a 06 3e 9e 6c 02 be e3 85 3b 3d
       0.061547536 0.13126677 -0.12736747 0.04578198
000130 76 64 1e be 80 46 88 3d 0d 1e 50 3d 74 d8 fd 3d
       -0.1546801 0.06654072 0.05080991 0.12394801
000140 cc 67 97 3d c8 15 57 3b de 73 86 3d ee df c6 bd
       0.073928446 0.003281938 0.06565069 -0.0971068
000150 70 97 7e ba 2d 22 33 bd 15 7f d5 bc 24 89 b4 3d
       -0.0009711897 -0.043733764 -0.026061574 0.0881522
000160 34 88 d2 bc 14 5e 85 bc b3 e8 6f bd 37 0b f5 3d
       -0.025699712 -0.016280212 -0.05857153 0.1196503
000170 03 92 84 bd b4 82 ec 3d 27 aa 40 3c 4f d3 1c be
       -0.06473162 0.11548367 0.0117593175 -0.15314983
000180 2e 7b 0e 3e 7b cd 7b 3d 5e 61 11 3e 3d d3 b9 bd
       0.13914177 0.06147526 0.14197299 -0.09073494
000190 de 1e 07 be 43 cd cd 3d a7 a8 1b be 37 09 e3 bd
       -0.13195369 0.10048916 -0.15201055 -0.11085742
0001a0 62 b7 da 3c 0f 1d e6 bd de d9 89 bc 00 0c da bc
       0.026698772 -0.11236011 -0.01682752 -0.02661705
0001b0 86 e9 23 bd 90 73 1e bd 3c 6d ba 3d 15 8a 29 be
       -0.040017627 -0.038684428 0.09102866 -0.1655658
0001c0 87 4f 17 be 9c a4 f3 3d 34 ba 2c be 2c 3c 13 3e
       -0.14776431 0.11896631 -0.16867906 0.14378422
0001d0 d8 79 6d 3c f3 9a 22 be 99 aa 93 3d 9d 19 0a 3e
       0.014494382 -0.15879421 0.07210273 0.13486333
0001e0 e0 da 4f 3d 44 ca 75 bc 6a 80 a1 bd 69 97 39 be
       0.050745845 -0.015001837 -0.07885821 -0.18124165
0001f0 34 9e 0b 3e cf 0f 99 3d 0b 80 1b bd 72 33 02 3e
       0.13634568 0.074737184 -0.03796391 0.12714937
000200 ba 26 06 3d 12 eb d6 3d 4c bf a4 3d da aa 61 bd
       0.032751776 0.10494055 0.080442995 -0.055094577
000210 25 f7 00 3e be b7 50 bc 9f 14 f9 3d ac 92 11 3e
       0.12594278 -0.01273912 0.12162136 0.14216107
000220 3d 3d 0c be 27 72 80 bd f9 f1 1f bc 1d be 10 bd
       -0.13695236 -0.06271773 -0.009762281 -0.035337556
000230 1b 3c a5 bd be ad 7a bc e6 eb 8d bd 9e 1f 0e be
       -0.08068105 -0.015300212 -0.0692976 -0.13879248
000240 7c 8f a7 3d dd e0 40 bd 16 aa 20 be a8 2c ac bd
       0.08181664 -0.047089446 -0.15689883 -0.08406955
000250 8a dc 3c bd 2b c7 92 bb 81 4a eb 3c aa 12 c4 bd
       -0.04610876 -0.004479309 0.02872205 -0.095738724
000260 41 b9 fd 3d 98 27 a6 3b d8 8f 6e 3d 80 84 29 be
       0.1238885 0.005070638 0.05824265 -0.16554451
000270 a4 04 10 3e c6 04 1b 3c a6 15 a6 3d 38 ee df 3d
       0.1406427 0.009461587 0.08109598 0.109341085
000280 8e 49 1a be a4 e2 23 3d c8 43 6d bd 94 ee 35 bd
       -0.15067121 0.040011063 -0.05792597 -0.04441698
000290 1d 06 07 be 33 49 96 3d e1 01 0c be c6 bd f2 3d
       -0.13185926 0.073381804 -0.13672592 0.11852603
0002a0 50 16 1d be ec 04 7f bd 89 ff d9 3d 7c d6 d1 3c
       -0.15340543 -0.062260553 0.106444426 0.02561497
0002b0 d6 d8 24 3d 9a 80 0e 3d 75 00 e7 3d 7f 9a da bc
       0.040245853 0.034790613 0.11279384 -0.026684998
0002c0 56 01 82 3d b1 3e 1b be 42 34 b2 3d fa a1 02 be
       0.06347911 -0.15160634 0.08701374 -0.12757102
0002d0 8e da 04 3d ce fd a0 bd 9f f3 03 3e e0 8b 04 be
       0.032434992 -0.078609094 0.12885903 -0.12943983
0002e0 42 88 2d 3e af cd 21 3e 53 fc 11 3e fa eb df 3d
       0.1694651 0.15801118 0.1425641 0.10933681
0002f0 1b ba 00 be 91 22 20 bd 63 e4 fa bb 55 ca 5a 3d
       -0.12570994 -0.039095465 -0.0076566203 0.053415615
000300 3f 2c 26 bd ba b7 13 be 77 2b 61 ba 45 32 3b bd
       -0.04056954 -0.14425555 -0.00085895456 -0.045702238
000310 28 1f 3c bd 4f 15 83 3d 46 e5 52 3b 14 c4 00 3c
       -0.04592815 0.06400549 0.0032180115 0.007859249
000320 ba bf d9 3b c5 87 f3 3d fe 64 f0 bb 4d c8 1e 3c
       0.00664517 0.1189113 -0.007336258 0.00969131
000330 90 1c 85 3c b5 eb 17 be 94 2f 2f be 68 a8 f1 3c
       0.016248971 -0.14836009 -0.17107993 0.029499248
000340 92 b5 c1 bc 28 da 10 3e 03 20 c6 3d f9 72 a1 bd
       -0.02364615 0.1414572 0.096740745 -0.078832574
000350 50 9e c5 bb 2c 81 06 be 3b 82 bd 3d b1 a7 57 3d
       -0.006030835 -0.13135213 0.09253355 0.052650157
000360 68 5a 09 be de 97 2c bd 29 0c c3 bd 31 79 1a bd
       -0.13413393 -0.04213702 -0.09523804 -0.037713233
000370 69 d0 08 3e 3d 0d a8 bd 02 4f 0e 3d 86 bc 1a 3e
       0.13360752 -0.0820565 0.034743316 0.15110978
000380 ae 70 74 3d 71 85 f6 bd be 95 37 3d d6 a7 0e bd
       0.059677772 -0.12037171 0.04482054 -0.03482803
000390 85 e8 30 3e 25 18 21 3e 31 64 1e 3e bb ec cc 3d
       0.17276199 0.15731867 0.15467907 0.1000609
0003a0 b6 b6 e7 3d e4 ef 96 3d 7c 48 ec 3d 5e b4 06 be
       0.11314146 0.07369974 0.11537263 -0.13154742
0003b0 9c c2 14 3e 48 c7 fd 3d 7e 6a 95 3d a6 1c 06 be
       0.14527363 0.123915255 0.072957024 -0.13096866
0003c0 15 25 e3 3d 1b a5 c8 3d e8 72 73 bc 43 06 2c bc
       0.11091057 0.09797116 -0.014858939 -0.01049954
0003d0 88 98 e8 bc 74 25 27 3d 04 e3 d3 bd 8b e5 1b 3e
       -0.028393045 0.040807202 -0.10346034 0.15224282
0003e0 d9 68 20 be 4b 3c db 3d ee d1 bf bd 22 b8 e4 3d
       -0.15664996 0.10704859 -0.09366213 0.11167933
0003f0 a5 c2 de bd 3f bf ba 3c 9c 8c 86 bd 69 41 a2 bd
       -0.10876969 0.022796271 -0.06569788 -0.07922632

layer_3.bias f4 [36]
000000 30 51 7d ba ad 76 f7 3c f1 f3 84 3d 91 b3 31 3e
       -0.0009663282 0.030207956 0.06491841 0.17353655
000010 bb 93 4e 3c 25 0e 82 bd 75 03 28 3e d8 aa 20 be
       0.012608464 -0.06350354 0.16407569 -0.15690172
000020 c7 a2 df 3d a6 43 09 3e d8 d0 7c bd c3 76 50 3d
       0.10919719 0.13404712 -0.061722606 0.05089451
000030 a6 27 09 be 93 13 31 3c 6f c9 02 3e 01 bc d5 3d
       -0.13394031 0.0108078895 0.12772153 0.104362495
000040 02 92 11 be cb c7 29 be a4 bb 1b be d0 5f 0d 3e
       -0.14215854 -0.16580121 -0.15208298 0.13806081
000050 e6 d6 70 bd 37 15 ad bc 2c 44 1b 3e 26 a1 62 3d
       -0.058798693 -0.02112828 0.15162724 0.055329464
000060 9e 08 a2 3d 9e 95 2e 3e 81 ee 20 3e 1d 19 af 3d
       0.079118 0.17049262 0.15715982 0.08549712
000070 f8 88 86 3c 31 f9 1e 3e a6 a4 e3 3d b5 71 c6 bd
       0.016422734 0.15524746 0.111153886 -0.09689657
000080 ff 71 ed bd 75 c0 12 3e 70 ca e2 3d a4 9d 6d bd
       -0.11594009 0.14331229 0.11073768 -0.058011666

action.weight f4 [36, 36]
000000 c7 3a cf bd 6c 73 da 3d 0a 17 f8 bd d8 c5 d1 bd
       -0.10118633 0.10666546 -0.12113769 -0.10242814
000010 10 01 17 3d 83 81 05 3e 0b fa 15 bd f1 7b f7 bd
       0.036866248 0.13037686 -0.036615413 -0.12084187
000020 0a b2 60 bd 7a 1f 1e 3e b0 de 25 be b8 b8 e5 bd
       -0.05485729 0.15441695 -0.1619823 -0.11216873
000030 7e e9 e8 3d 2d 80 43 bc c3 f2 ff 3d 4c 64 08 3d
       0.1137266 -0.011932415 0.12497475 0.033298776
000040 eb 02 16 be aa 6f 28 3e bd d4 a5 3d 72 8f 43 3d
       -0.1464955 0.16448846 0.08097217 0.047744222
000050 00 71 88 3d df ae eb 3d eb 9d 01 bd 6f 76 08 be
       0.06662178 0.115079634 -0.031644743 -0.13326429
000060 70 f0 a6 bc 72 d2 0c 3e b0 58 47 bc bf 2d 82 bd
       -0.020378321 0.13752154 -0.012167141 -0.063563816
000070 50 c4 2d 3d a7 16 21 3d ca d5 08 be 16 fb bc 3d
       0.042423546 0.039328244 -0.13362804 0.09227578
000080 cd 37 05 be 4e 1e 18 be 87 bf 12 be 48 7f 49 3d
       -0.13009568 -0.1485531 -0.14330874 0.04919365
000090 60 8f 0e 3d 1c e8 1f 3e 0c 3e 22 be 25 cc b3 bd
       0.0348047 0.15615886 -0.15843982 -0.08779172
0000a0 e0 71 20 be d2 93 55 bb 0f 63 29 be 69 54 d9 bd
       -0.1566844 -0.0032589328 -0.16541694 -0.10611803
0000b0 62 82 2d bd de f7 81 3d 87 aa 01 3e d7 a4 d3 3c
       -0.04236067 0.06346105 0.12662707 0.025835438
0000c0 8d 34 85 3d cd 40 f1 bd fa d4 c9 3d fd d5 31 bc
       0.06504164 -0.11779938 0.09855075 -0.010854241
0000d0 a0 50 b0 bd a6 e6 03 3d db 62 73 3c 0e 1d c4 3d
       -0.08609128 0.032202385 0.014855112 0.09575854
0000e0 b8 49 8b bd 66 b6 92 3d 76 53 cd bd 8c 68 07 3e
       -0.0680117 0.07163696 -0.100256845 0.13223475
0000f0 af a7 3f 3d 93 9b 09 be 14 e0 52 bd fe 33 8e 3d
       0.046790775 -0.13438253 -0.05148323 0.069435105
000100 c5 31 77 3c df 25 93 bd 33 76 cc bd 2b 67 be 3b
       0.01508755 -0.07184958 -0.09983482 0.0058106384
000110 9e 48 03 3e 81 4d e9 3d a4 99 cc bd 89 e4 23 bd
       0.1282067 0.11391736 -0.09990242 -0.04001287
000120 59 ce 16 3e bd 11 ba bd 2e 76 77 bd 27 e9 e2 3d
       0.14727153 -0.090854146 -0.06041544 0.110796265
000130 af ad 16 3e 39 11 91 bd 3b 3f 92 bc 18 c4 14 3b
       0.14714693 -0.07083363 -0.017852416 0.0022699889
000140 ec 1e 41 3d 66 e5 58 bd 40 16 e1 3c f6 63 06 3d
       0.04714863 -0.052953146 0.02747643 0.032810174
000150 55 a1 0c 3e b9 b6 22 3e e4 80 12 3e a4 4f 1d 3e
       0.13733418 0.15890016 0.1430698 0.15362412
000160 3b 9c ae 3d 86 90 1a bd 9d 85 01 3e b0 ea 03 3e
       0.08525892 -0.037735485 0.12648626 0.12882495
000170 20 9e c1 3c bb 98 00 3e 1d 9f 65 3d b7 32 06 3e
       0.02363497 0.12558262 0.056059945 0.13105284
000180 90 d5 8f bd c1 11 d0 3d a7 45 af bd e3 44 26 3e
       -0.07023156 0.10159636 -0.08558207 0.16237216
000190 53 d6 fb bd 8a 80 5c 3d 5e 0f eb bd c0 61 db 3d
       -0.122967385 0.053833522 -0.114775404 0.10712004
0001a0 3f b7 f5 bd 01 85 e8 3c 5a e5 f1 3d 12 93 56 3d
       -0.11997842 0.028383734 0.118113235 0.05238635
0001b0 00 58 ea bd e9 c0 af bd b1 5c 44 bc c9 02 15 bd
       -0.11442566 -0.085817166 -0.01198499 -0.03637961
0001c0 70 5c 13 bd d9 05 97 bd 88 7a 1e be 07 fe da 3d
       -0.035976827 -0.07374162 -0.1547643 0.10692983
0001d0 f6 98 df bd 96 db 93 bc 13 30 ff bd 42 74 1f be
       -0.10917847 -0.018049043 -0.12460341 -0.15571693
0001e0 e0 94 65 bd 5d e0 b8 bc 70 7d fb 3d 87 ea be bd
       -0.05605018 -0.022567922 0.12279785 -0.09322076
0001f0 d0 8f e2 3d 6b a2 3c bd ed ca 96 bd 44 ec af bd
       0.11062586 -0.04605333 -0.07362924 -0.08589986
000200 26 dc 4a bd 98 d6 1a be 0f ea 8e 3c 38 16 79 bd
       -0.049526356 -0.15120924 0.017445592 -0.060812205
000210 8c 5a 3a 3d e6 74 08 be 68 b6 a0 3d 9e ee 2b be
       0.04549651 -0.13325843 0.07847291 -0.16790244
000220 a4 b3 b6 bd 92 94 8f 3c 73 cb 5e 3d b8 a3 bf bd
       -0.089209825 0.017526899 0.054393243 -0.09357399
000230 ca 2d 15 bc a2 c6 00 3e 0e 5e 30 bd 07 f8 47 bc
       -0.009105155 0.12575772 -0.043058448 -0.01220513
000240 8f b2 05 3e c6 08 f1 3b 8e 06 c7 3c c7 2e 20 3e
       0.13056396 0.007355782 0.024295118 0.15642844
000250 6c 62 20 be 84 99 25 3e 95 3d 8c 3d 6e 76 09 bd
       -0.15662545 0.16171843 0.06847683 -0.03356021
000260 fc 58 27 bd b7 18 f4 bd 20 ea dc bc a3 a2 22 3e
       -0.040856346 -0.119187765 -0.026967108 0.15882353
000270 89 0b 88 bb a5 2b 12 be 0e 01 33 3e 4d f5 fb bd
       -0.0041517657 -0.14274462 0.17480871 -0.12302647
000280 ab 84 87 3d 00 e6 16 3b 83 3b a4 3d c0 9b ce 3d
       0.06617101 0.0023025274 0.080191635 0.10088301
000290 42 d5 07 3e 34 57 45 bd 4d 82 9e 3d a6 61 09 bd
       0.13264945 -0.048178867 0.07739697 -0.03354039
0002a0 58 b7 e8 3d eb 56 d8 bd 1c 0d a4 3d e8 41 4b bd
       0.11363095 -0.10563453 0.08010313 -0.0496234
0002b0 0e 5e 06 be 0a f0 07 3e 34 03 15 be e0 93 c9 3c
       -0.13121817 0.13275161 -0.14552003 0.024606645
0002c0 9d 56 a4 bd 27 13 97 bd bc db d8 3d a8 44 23 bd
       -0.08024333 -0.073767 0.10588786 -0.039860398
0002d0 68 37 15 3e 81 6a 21 be fe 1c f6 bd 0b 95 27 bc
       0.14571917 -0.15763284 -0.120172486 -0.010228406
0002e0 b0 ae 48 bd 00 b2 e1 3d 70 e9 a6 bb 87 4a df bc
       -0.04899472 0.11020279 -0.005093746 -0.027257217
0002f0 79 72 dd bd 03 66 8d bc 06 3a c9 3d 0c b8 d4 bd
       -0.108128496 -0.017260557 0.0982552 -0.10386667
000300 d1 cc 11 3e 25 60 92 bd 97 c1 87 bd 17 db 06 bc
       0.14238288 -0.07147244 -0.06628721 -0.008230946
000310 db 7c e0 3d 5b a4 ec 3d 77 f1 25 3e 43 8b 12 3e
       0.10961314 0.11554786 0.16205393 0.14310937
000320 f8 86 0a be 5c 58 08 bc b0 7c 46 bd 8d 34 88 bd
       -0.13528049 -0.008321848 -0.048458755 -0.06650648
000330 40 db 4e 3d 4c dc 84 bd d2 94 5d bd a9 9f 13 be
       0.05050206 -0.06487331 -0.054097004 -0.14416374
000340 63 cb 0e 3e 5d 89 8f bd 57 e7 b7 bd f6 79 ba bc
       0.13944773 -0.07008622 -0.089796714 -0.022763234
000350 79 3b 18 be c2 35 0a be e3 a1 05 be e9 91 ee 3a
       -0.14866437 -0.1349707 -0.13050036 0.0018201444
000360 aa 5d e4 3c 0c 27 06 be b8 66 76 3d 73 d5 21 be
       0.027876694 -0.13100833 0.060156554 -0.1580408
000370 30 08 c2 bd ba d1 f1 bd b1 b0 24 be 95 2a c7 3d
       -0.09474218 -0.1180758 -0.16083027 0.09724919
000380 74 0c 1b 3e 88 06 16 be 14 98 27 3e 82 5f 44 3d
       0.15141469 -0.14650929 0.16366607 0.047942646
000390 98 55 0c 3e 3d 36 cf bd 43 e3 be 3d e4 7b 9f bd
       0.13704526 -0.10117767 0.093206905 -0.07787302
0003a0 50 40 bc bd 2b f9 1f be f8 c8 d3 3b 2c 83 31 be
       -0.09191954 -0.15622394 0.0064631663 -0.17335194
0003b0 3b 41 00 3e 92 a0 33 be fb 4e fb 3d d9 f6 0e 3e
       0.12524883 -0.17541721 0.12270924 0.13961352
0003c0 77 aa 0f be 7a ca 28 3d 87 02 20 be 59 f9 fa 3d
       -0.14029871 0.04120872 -0.15625964 0.122545905
0003d0 d8 81 70 3b 8c eb 0a 3e e3 0a 9a bd 80 62 3b 3c
       0.0036698487 0.13566417 -0.07521608 0.011437058
0003e0 38 d0 01 3c cc 2d f0 bd 3d 23 05 3e 87 db 41 bc
       0.007923178 -0.11727485 0.13001724 -0.011832125
0003f0 57 1d 7d 3c c4 3f 02 3e 06 5b eb bb d9 71 9d bd
       0.01544889 0.12719637 -0.0071824817 -0.0768773

action.bias f4 [36]
000000 ec 05 59 bd b6 c2 e6 bd ec 6c 44 bd 63 53 f7 bd
       -0.052984163 -0.11267607 -0.04795544 -0.12076452
000010 23 64 f4 3d b7 a3 37 bc 70 b4 8a 3d 5d c7 a5 3d
       0.11933162 -0.011208466 0.06772697 0.08094666
000020 e4 6b 0a 3e 14 0f 23 3e f6 dd bd 3d 3e 17 18 3e
       0.1351772 0.1592372 0.09270851 0.14852616
000030 d2 da 10 3e 21 cf e0 3d 38 bd 1a be 57 7a 04 be
       0.14145973 0.10977007 -0.15111244 -0.12937294
000040 73 c4 ac 3d f0 9e 16 3e b2 17 2a bd 1d 01 05 be
       0.08435907 0.14709067 -0.041526504 -0.12988706
000050 bb 51 ce 3c 7a 6e 66 3d 5c ea 3a 3d e2 0f 2a bd
       0.025185456 0.056257702 0.04563366 -0.041519053
000060 7d d0 93 bb d8 f4 00 3d bd f3 c9 bd 24 7e 57 3d
       -0.0045109377 0.0314835 -0.098609425 0.05261053
000070 df 5a f4 3d be b2 ac bc 69 ee 36 bd 00 51 8f 3d
       0.11931395 -0.021081325 -0.04466096 0.069978714
000080 fc df 3a 3b 27 1c d8 3c c6 e4 f2 bc 4e db 0c 3c
       0.0028514853 0.026380612 -0.029650103 0.008597208
