mean_model.pt (torch, 21583 bytes, 8 tensors)

layer_1.weight f4 [33, 30]
0.05696945 0.068018496 -0.16842903 -0.06326369 0.12057211 0.024010092 0.091548726 -0.12820828
-0.18057968 0.11701869 -0.023295816 -0.015549101 0.0031999229 -0.09690639 -0.09228314 -0.10738248
0.055743597 -0.046695516 -0.07961366 -0.018758561 -0.08641006 -0.07756346 -0.14532754 -0.012911727
0.19316903 0.046492167 0.015241836 -0.07662048 -0.10778035 -0.13073228 -0.08339662 -0.12792139
0.007308446 0.17153874 0.090027615 0.02284889 -0.042866886 0.16027124 0.05630882 -0.17954642
0.05327096 -0.031616647 -0.114189595 0.078808516 -0.14344876 0.11472663 0.16285832 0.10294338
-0.10923389 -0.109014235 0.02811993 0.13377291 -0.059844084 -0.081813306 -0.1450549 -0.0967979
-0.0008327151 0.011905562 -0.13663872 -0.11387527 -0.1390247 -0.060609333 -0.05260755 0.06578987
-0.038343884 -0.11291639 0.050103024 -0.11981613 -0.070981234 -0.11601101 -0.027617855 -0.12786104
0.044580515 0.062237382 0.016484808 0.1691514 -0.039088383 -0.105615094 0.023915254 0.06097029
-0.07521935 -0.035017896 0.1609766 0.18521899 0.17147492 0.07859784 -0.0058463756 -0.12814295
0.14798322 0.15255731 -0.101004414 -0.0071519 0.01048041 0.017511342 -0.047585696 0.15688735
0.16831124 -0.11993418 -0.12772956 -0.0318793 0.046678804 0.016000133 0.17283344 0.1843927
-0.108182736 0.15918934 -0.10944316 -0.13619427 0.12474357 -0.0016731536 -0.07462154 -0.012245764
-0.00017576851 -0.09082305 0.026065493 0.17053565 0.1157695 0.072261706 0.14040457 0.1315855
-0.17311645 -0.0016690753 -0.000507243 -0.14433636 0.1413015 0.14855853 0.14516154 -0.07115474
-0.05568856 0.1578625 0.15696035 -0.10648069 0.1143137 -0.15831862 -0.14611918 0.05503434
0.17162262 -0.13928492 -0.14216726 -0.16200116 -0.16557622 0.080168314 -0.08654373 0.03563089
-0.17158578 -0.22716908 0.020599604 -0.05555543 0.13911682 0.19664322 -0.17741823 -0.08339552
0.1451226 -0.086343676 -0.026701985 -0.14657712 -0.10700934 0.1318962 -0.16706237 -0.025530048
0.03647226 0.0669578 0.14638026 0.0032440135 -0.13197513 -0.11766427 -0.15032654 -0.07203963
-0.1672303 -0.03155239 -0.16161437 -0.14798847 0.02828095 -0.06829376 -0.10887379 -0.14604159
0.19305468 0.19236122 -0.07370751 -0.06614379 0.021638319 0.13247238 -0.14487752 0.057402916
-0.07022424 -0.11505288 -0.13728946 0.20504405 0.15179047 0.049671486 -0.16057599 -0.03200236
-0.11432208 -0.029331937 -0.16678958 -0.08311905 0.04594457 0.14889184 -0.01957243 -0.10998462
-0.16681615 -0.09533202 -0.089377396 -0.14652619 0.22283024 -0.14055414 0.09099732 -0.021849407
0.20080441 0.15911181 0.15312728 0.14113483 -0.10824093 -0.12168037 0.13480541 0.14071944
-0.0661107 0.13903281 -0.033364713 -0.047731783 -0.07196871 0.079091206 -0.15237896 -0.1240955
-0.24117741 -0.109155096 0.21428467 -0.13904002 0.11964088 0.07247708 0.0031505488 -0.060923137
0.0875673 -0.13109034 0.029744124 0.15173833 -0.060405917 -0.05522132 -0.15348622 0.05248145
0.029726833 0.10021157 0.117273994 -0.018451314 0.102493934 -0.0028292537 0.024714436 -0.024787135
-0.086276636 -0.18409549 0.19374764 -0.16045034 0.066956036 -0.14348325 -0.0036411108 -0.16300736
00000000: cc58 693d 484d 8b3d a978 2cbe 6590 81bd
00000010: 83ee f63d d0b0 c43c e67d bb3d 0849 03be
00000020: e1e9 38be 7fa7 ef3d ded6 bebc a8c1 7ebc
00000030: ccb5 513b db76 c6bd f1fe bcbd 58eb dbbd
00000040: 6653 643d cc43 3fbd 7d0c a3bd 8eab 99bc
00000050: c2f7 b0bd 97d9 9ebd bed0 14be b58b 53bc
00000060: 1ace 453e 926e 3e3d e5b8 793c 33eb 9cbd
00000070: f2bb dcbd afde 05be d9cb aabd d3fd 02be
00000080: b07b ef3b daa7 2f3e 6660 b83d 982d bb3c
00000090: 3095 2fbd 251e 243e 14a4 663d 04db 37be
000000a0: a632 5a3d 7580 01bd 3cdc e9bd 5c66 a13d
000000b0: 3be4 12be ccf5 ea3d 55c4 263e fbd3 d23d
000000c0: 05b6 dfbd db42 dfbd c45b e63c c4fb 083e
000000d0: 121f 75bd bc8d a7bd 4689 14be fa3d c6bd
000000e0: 904a 5aba 8c0f 433c 05eb 0bbe 7037 e9bd
000000f0: 7e5c 0ebe 7e41 78bd 047b 57bd d7bc 863d
00000100: 7a0e 1dbd b540 e7bd d438 4d3d 2962 f5bd
00000110: 9c5e 91bd 2e97 edbd d73e e2bc 01ee 02be
00000120: 0f9a 363d a0ec 7e3d 260b 873c 0636 2d3e
00000130: 241b 20bd ba4c d8bd ece9 c33c fcbb 793d
00000140: 9a0c 9abd ed6e 0fbd 0dd7 243e 0caa 3d3e
00000150: 1f97 2f3e e8f7 a03d f492 bfbb e837 03be
00000160: ea88 173e fc37 1c3e 67db cebd 7c5a eabb
00000170: 07b6 2b3c f273 8f3c 38e9 42bd 14a7 203e
00000180: c859 2c3e 0da0 f5bd 8acb 02be de93 02bd
00000190: 4632 3f3d b612 833c 40fb 303e 71d1 3c3e
000001a0: e98e ddbd 8802 233e bc23 e0bd 8376 0bbe
000001b0: 8f79 ff3d b84d dbba 2ed3 98bd 75a2 48bc
000001c0: 804e 38b9 6f01 babd 4d87 d53c e6a0 2e3e
000001d0: 8f18 ed3d f2fd 933d 37c6 0f3e 59be 063e
000001e0: 7045 31be e0c4 daba 80f8 04ba e9cc 13be
000001f0: 57b1 103e ba1f 183e 3aa5 143e 94b9 91bd
00000200: b019 64bd b5a6 213e 37ba 203e 8c12 dabd
00000210: 4d1d ea3d 471e 22be 44a0 15be b06b 613d
00000220: d7bd 2f3e b5a0 0ebe 4b94 11be a2e3 25be
00000230: d08c 29be 492f a43d d73d b1bd b2f1 113d
00000240: 2fb4 2fbe 039f 68be 80c0 a83c 178e 63bd
00000250: a474 0e3e d75c 493e 20ad 35be 45cb aabd
00000260: 059b 143e f4d4 b0bd 1fbe dabc 5018 16be
00000270: b627 dbbd cc0f 073e 6612 2bbe 6424 d1bc
00000280: f063 153d 2c21 893d b5e4 153e 8499 543b
00000290: 7d24 07be f7f9 f0bd 33ef 19be 8389 93bd
000002a0: 6b3e 2bbe 143d 01bd 3d7e 25be 4a8a 17be
000002b0: 73ad e73c 99dd 8bbd 39f9 debd ed8b 15be
000002c0: 20b0 453e 57fa 443e f7f3 96bd 6576 87bd
000002d0: d842 b13c d7a6 073e c65a 14be 521f 6b3d
000002e0: bad1 8fbd d8a0 ebbd 9c95 0cbe 11f7 513e
000002f0: f66e 1b3e 5474 4b3d 086e 24be e814 03bd
00000300: b221 eabd 8849 f0bc e3ca 2abe 523a aabd
00000310: 6030 3c3d 1a77 183e 5c56 a0bc 9e3f e1bd
00000320: dad1 2abe 6f3d c3bd 7f0b b7bd f60a 16be
00000330: 9c2d 643e 6ded 0fbe ce5c ba3d 87fd b2bc
00000340: ac9f 4d3e 35ee 223e 66cd 1c3e a685 103e
00000350: 6cad ddbd 8f33 f9bd 6e0a 0a3e c218 103e
00000360: 0c65 87bd 9e5e 0e3e 70a9 08bd 6782 43bd
00000370: 5564 93bd 92fa a13d 3b09 1cbe c825 febd
00000380: 36f7 76be b58c dfbd 716d 5b3e 8260 0ebe
00000390: 4706 f53d dd6e 943d 7079 4e3b 8a8a 79bd
000003a0: 7c56 b33d 8c3c 06be f3a9 f33c 4b61 1b3e
000003b0: 326c 77bd c02f 62bd 7e2b 1dbe caf6 563d
000003c0: b085 f33c b93b cd3d 592d f03d 3627 97bc
000003d0: 57e8 d13d 006b 39bb ee75 ca3c 640e cbbc
000003e0: ceb1 b0bd 8783 3cbe c865 463e 184d 24be
000003f0: 3f20 893d 46ed 12be b49f 6ebb 67eb 26be

layer_1.bias f4 [33]
0.07946031 -0.076038904 0.059630208 0.1342602 0.07362624 -0.16953415 -0.10701612 0.11245615
-0.1594748 0.13027221 0.13885228 0.13345297 0.109261826 -0.0065490473 0.13566512 0.09758445
0.056092843 0.22122549 -0.09111641 -0.16397145 0.09820644 0.152473 -0.09798456 -0.018441154
0.1119907 -0.15148725 -0.21082081 -0.07763526 -0.13944429 -0.05496829 -0.055510215 -0.058977444
0.07956222
00000000: 16bc a23d 49ba 9bbd ce3e 743d 827b 093e
00000010: 5bc9 963d 5c9a 2dbe 442b dbbd 694f e63d
00000020: 5d4d 23be 1466 053e 4b2f 0e3e e5a7 083e
00000030: aac4 df3d 6499 d6bb cceb 0a3e 5bda c73d
00000040: 9cc1 653d ef88 623e 3e9b babd 22e8 27be
00000050: 7520 c93d e221 1c3e 21ac c8bd e711 97bc
00000060: 615b e53d 791f 1bbe 69e1 57be 3cff 9ebd
00000070: 7cca 0ebe 6e26 61bd ae5e 63bd 5592 71bd
00000080: 84f1 a23d

layer_2.weight f4 [34, 33]
0.11261105 0.056279633 -0.02093396 0.077093996 0.031811994 0.15663128 0.08822306 -0.0027241837
-0.11000206 0.23451617 0.087634765 0.043456756 -0.12820485 -0.037591226 -0.15247092 0.008529549
0.17972472 -0.042678304 0.15382853 0.08964073 -0.0044215126 -0.045015726 -0.15666719 -0.115130685
0.05211489 -0.054146897 0.17891279 0.036947493 -0.013443062 -0.030971922 0.053227514 -0.0021397956
0.08995243 0.09256812 -0.053325184 0.08914017 -0.04888364 0.0058763046 0.13439485 -0.036948495
0.09641078 -0.11314243 0.08319707 0.23157738 -0.05811608 -0.0570613 -0.08230481 0.19023795
0.13997301 0.1761113 -0.016735652 0.14679459 0.08565418 0.053484946 -0.012277969 -0.18086684
0.15978102 -0.019042492 -0.051845573 -0.18273269 0.08158203 0.17778547 0.13514313 -0.10748059
0.11251282 -0.049213 -0.050639823 -0.1064087 0.1646613 0.076164514 -0.014924677 0.116431475
0.13950463 -0.03557097 -0.05737929 -0.06627061 -0.09228658 0.10099651 -0.120077245 0.16934675
0.023140442 -0.17799023 0.020443378 -0.19326426 0.057373628 -0.08471456 -0.016437374 -0.1498349
0.07970588 0.14149542 0.117063686 0.16515665 0.06743996 0.002715581 -0.11354504 0.022987427
0.04729645 0.15092772 -0.10292753 0.1186767 0.020828921 -0.058603458 -0.22682407 0.2268154
0.07457996 -0.052344643 -0.07104584 -0.0948085 0.111263104 0.08884942 0.11805355 -0.073927924
0.084389605 0.042073965 -0.016973251 0.077718936 0.04881496 0.0495229 -0.05844047 0.061463222
-0.018725313 0.04005321 -0.04960192 0.05784557 -0.05776394 0.12800175 0.02282729 0.07096877
-0.03869623 0.15268382 0.15370426 -0.16169019 0.16001341 -0.13186975 0.12215349 0.07872224
0.10984983 -0.052529775 0.04876344 -0.18607734 -0.017683849 -0.08232715 -0.055339023 0.05907062
-0.14082883 0.1122126 -0.050818015 0.13698773 -0.09571196 0.10232963 -0.13604447 -0.10238153
-0.107419536 0.0647111 0.1380316 0.0051532774 -0.1714409 -0.054683477 -0.12463804 0.04372891
0.100680344 0.12999325 -0.022588499 0.12942211 0.09598427 0.042586874 -0.047502242 -0.19589356
0.062805235 -0.16502438 0.06569481 -0.08927601 0.08242288 0.07030846 -0.14532682 -0.10539447
-0.1966471 -0.14138883 0.12202912 0.052219257 -0.023161657 0.034743175 -0.074370466 0.020721737
0.16294156 -0.13845608 0.012016993 0.059524156 -0.060236275 0.0010822918 0.055868797 0.15327124
0.16265814 -0.07752146 0.054697268 -0.13212763 -0.03804933 0.070432484 -0.022354037 -0.054136597
-0.0677869 0.14476672 -0.16770324 0.110637516 -0.151276 -0.031243384 0.058905616 0.026832104
0.011194557 -0.048203498 0.025151119 -0.021220043 -0.07060058 -0.0746655 0.03072524 -0.02592218
-0.14539218 -0.022353336 0.108248085 0.083412945 0.09134397 0.011175528 -0.07100731 0.09463492
-0.08987289 -0.013075292 -0.120737515 0.089547455 0.05641167 0.0074526966 0.052389324 0.012500381
0.10674606 -0.18622857 0.1084474 -0.09754932 0.073713884 -0.118975975 -0.0867541 -0.18371752
0.16402584 0.118073426 0.002582579 -0.21830304 -0.13603337 -0.21171099 0.03516165 -0.12540993
-0.05535236 -0.042405885 0.025979154 0.0567241 -0.08366481 -0.11557255 -0.029971354 0.048199706
00000000: 9fa0 e63d 7985 663d b27d abbc 75e3 9d3d
00000010: 4b4d 023d f363 203e 4bae b43d 3888 32bb
00000020: c348 e1bd 0225 703e db79 b33d b6ff 313d
00000030: 2248 03be 42f9 19bd 5621 1cbe 86bf 0b3c
00000040: c209 383e 72cf 2ebd 3a85 1d3e 8f95 b73d
00000050: 56e2 90bb 6962 38bd 5d6d 20be a3c9 ebbd
00000060: 6c76 553d 23c9 5dbd ea34 373e 4156 173d
00000070: 4a40 5cbc d4b8 fdbc 1805 5a3d d03b 0cbb
00000080: fb38 b83d 5b94 bd3d 826b 5abd 1f8f b63d
00000090: 363a 48bd 048e c03b ce9e 093e 4e57 17bd
000000a0: 0473 c53d 38b7 e7bd 3a63 aa3d 9f22 6d3e
000000b0: 200b 6ebd 1cb9 69bd 6d8f a8bd bdcd 423e
000000c0: 1655 0f3e 8556 343e 3519 89bc 5251 163e
000000d0: 756b af3d 0813 5b3d 8929 49bc 2835 39be
000000e0: a39d 233e 00ff 9bbc 065c 54bd 471e 3bbe
000000f0: 7b14 a73d 650d 363e f662 0a3e c91e dcbd
00000100: 1f6d e63d 9293 49bd b46b 4fbd ceec d9bd
00000110: f99c 283e 24fc 9b3d a286 74bc a073 ee3d
00000120: 4dda 0e3e deb2 11bd 8c06 6bbd e3b8 87bd
00000130: bf00 bdbd 42d7 ce3d 0feb f5bd 3c69 2d3e
00000140: 0691 bd3c 1243 36be df78 a73c 11e7 45be
00000150: 9c00 6b3d d47e adbd aca7 86bc 526e 19be
00000160: d63c a33d 2de4 103e 16bf ef3d d31e 293e
00000170: f61d 8a3d e4f7 313b 4d8a e8bd 2150 bc3c
00000180: ecb9 413d cc8c 1a3e abcb d2bd c50c f33d
00000190: 6aa1 aa3c 2e0a 70bd 9244 68be 4c42 683e
000001a0: 61bd 983d 5667 56bd 7b80 91bd f52a c2bd
000001b0: e9dd e33d aff6 b53d 0fc6 f13d 8667 97bd
000001c0: 75d4 ac3d c055 2c3d 7d0b 8bbc 1b2b 9f3d
000001d0: 32f2 473d 86d8 4a3d 465f 6fbd dcc0 7b3d
000001e0: d465 99bc d60e 243d 622b 4bbd 7aef 6c3d
000001f0: e299 6cbd e412 033e 4c00 bb3c 1358 913d
00000200: f07f 1ebd 2659 1c3e a664 1d3e 1d92 25be
00000210: 8eda 233e dd08 07be 9c2b fa3d 2039 a13d
00000220: f3f8 e03d 7629 57bd 2cbc 473d 0f8b 3ebe
00000230: b8dd 90bc 239b a8bd 2cab 62bd 09f4 713d
00000240: 6f35 10be b8cf e53d 8d26 50bd 8346 0c3e
00000250: a204 c4bd 3292 d13d 3e4f 0bbe 68ad d1bd
00000260: c6fe dbbd 4187 843d 2858 0d3e d3dc a83b
00000270: 348e 2fbe c8fb 5fbd 3b42 ffbd 161d 333d
00000280: 7f31 ce3d f31c 053e 840b b9bc 3b87 043e
00000290: 6793 c43d 936f 2e3d b691 42bd 5298 48be
000002a0: 08a0 803d 27fc 28be 008b 863d 57d6 b6bd
000002b0: 54cd a83d e2fd 8f3d 8ed0 14be 0ed9 d7bd
000002c0: db5d 49be 3cc8 10be 67ea f93d dce3 553d
000002d0: 84bd bdbc dc4e 0e3d 8b4f 98bd a2c0 a93c
000002e0: 27da 263e 6ec7 0dbe ece2 443c 9acf 733d
000002f0: 50ba 76bd b0db 8d3a aed6 643d 23f3 1c3e
00000300: db8f 263e 92c3 9ebd 3e0a 603d 774c 07be
00000310: 9dd9 1bbd e83e 903d d01f b7bc 56be 5dbd
00000320: dcd3 8abd ba3d 143e 66ba 2bbe ec95 e23d
00000330: 19e8 1abe 20f2 ffbc 0447 713d 00cf db3c
00000340: 6069 373c 0871 45bd b809 ce3c a8d5 adbc
00000350: 0997 90bd 3aea 98bd 80b3 fb3c c05a d4bc
00000360: b0e1 14be 581e b7bc 2cb1 dd3d 68d4 aa3d
00000370: 8c12 bb3d 9019 373c 486c 91bd f4cf c13d
00000380: 470f b8bd c039 56bc 3b45 f7bd a864 b73d
00000390: ec0f 673d c035 f43b 3096 563d 66ce 4c3c
000003a0: ae9d da3d b4b2 3ebe ac19 de3d f0c7 c7bd
000003b0: 4ef7 963d ada9 f3bd 22ac b1bd 7220 3cbe
000003c0: 64f6 273e 7bd0 f13d 7c40 293b d58a 5fbe
000003d0: 554c 0bbe c4ca 58be aa05 103d 766b 00be
000003e0: 28b9 62bd cbb1 2dbd 3cd2 d43c 8857 683d
000003f0: 7558 abbd 4db1 ecbd 7c86 f5bc 0e6d 453d

layer_2.bias f4 [34]
-0.00032178033 -0.09229607 -0.01161915 0.17543618 -0.13247213 0.078599796 -0.13620938 -0.12014348
0.08120192 0.18671389 0.03705173 -0.15887663 0.14955506 -0.17526661 -0.012628841 0.105055206
-0.19603768 0.063703835 0.19790734 -0.108658455 0.072445124 0.16659768 0.037256323 0.1397025
0.04881966 0.15206058 0.17686632 0.038311787 -0.099405915 -0.08199965 -0.08244906 -0.1761836
-0.15775566 -0.14518358
00000000: a0b4 a8b9 b905 bdbd 3f5e 3ebc 8ba5 333e
00000010: c6a6 07be eef8 a03d 797a 0bbe c90d f6bd
00000020: 314d a63d ed31 3f3e 8ec3 173d 8eb0 22be
00000030: f624 193e 1779 33be 33e9 4ebc 2f27 d73d
00000040: 1abe 48be 2877 823d 39a8 4a3e 5388 debd
00000050: 1c5e 943d 9598 2a3e 169a 183d 2c0e 0f3e
00000060: 20f7 473d c5b5 1b3e 721c 353e d2ec 1c3d
00000070: 5495 cbbd 6fef a7bd 0edb a8bd 7969 34be
00000080: b38a 21be 01ab 14be

layer_3.weight f4 [36, 34]
-0.09324213 0.035510518 -0.08779237 -0.14450698 0.012307442 0.00048248563 0.1033722 -0.16762201
0.041872233 0.16247034 0.031978093 -0.07305885 0.002030529 0.079014674 0.032927323 0.07878116
0.02837489 -0.06105446 -0.13719006 -0.10363612 -0.06506544 0.11171869 0.18935937 0.059161335
-0.122867495 0.088038765 0.098671064 -0.12511344 -0.09065046 -0.12243263 0.006766671 0.16633025
0.15046582 -0.09495969 -0.16044818 0.04588727 -0.15362571 -0.033320744 -0.038207732 0.0823332
0.031042188 -0.14640221 0.095738836 -0.14342132 0.015105322 -0.1365168 -0.09911585 -0.17893325
-0.17217039 0.14759365 -0.008946985 0.03308136 -0.070614785 -0.18587725 -0.15468982 0.059481397
0.07775359 -0.13101335 -0.10075454 -0.19950709 -0.14219292 0.010010255 -0.16174103 -0.16945621
0.13240118 -0.06198337 -0.12314831 0.12471984 -0.08364406 -0.08791314 0.07311429 -0.08145728
0.1127842 0.056662973 -0.06882057 -0.020489905 -0.10791186 0.035017498 0.013479462 -0.07111954
-0.15485786 0.13783593 0.00217645 0.011533124 0.039825913 0.04203109 -0.067959994 0.12659124
0.09468828 -0.006730063 0.010840967 -0.19549756 -0.036767527 -0.052932337 -0.09961417 -0.07836491
-0.15599023 0.016502213 -0.13115804 -0.078551106 0.055432238 0.05205406 -0.08428555 -0.13687426
0.12755096 0.014704542 0.0053053964 -0.0037850887 0.13459529 0.06398874 0.08538247 0.14162046
0.1586518 0.03944472 0.12856363 0.13160892 -0.0844056 -0.031814102 0.082768746 -0.098795705
0.13650075 0.021192623 0.09745424 -0.13780233 0.11639466 -0.027840516 0.13069321 0.10117272
-0.042229995 0.06848493 -0.111811705 0.15344463 -0.027342513 -0.14989609 0.19065413 -0.120624796
-0.080612294 -0.0070824195 0.16545914 0.12770486 -0.018949702 -0.0398018 -0.012409344 -0.072709456
0.007961357 -0.17702058 -0.05644457 -0.056442928 -0.061955012 0.06069317 0.08445338 -0.15480912
0.1288074 -0.14518188 0.1405791 0.10504975 0.08010472 -0.13277283 -0.026036372 -0.040540926
-0.15938225 -0.04405211 -0.114722565 -0.0866978 0.13430344 -0.11430242 0.13423882 -0.12511219
0.18661979 -0.15443324 -0.07615576 -0.13992463 -0.060252894 -0.011712369 -0.09988598 0.16694659
-0.052221216 0.004752815 0.04934023 0.09978507 -0.05048871 -0.011128301 0.0069109937 -0.1939584
-0.04726585 0.04185292 0.082258195 0.10853855 -0.12089714 0.10120284 -0.12878324 -0.0042107007
0.14882964 -0.11015984 -0.03089788 0.14431922 0.12269421 -0.14441805 0.033143822 0.0110612735
-0.09579857 0.10694772 -0.020107858 0.17941202 -0.18088922 0.13784243 -0.013782028 0.046301655
-0.15610845 0.09768735 0.100915566 0.12129461 -0.15422869 -0.21508937 -0.12149153 -0.03402028
0.05376462 -0.09224779 -0.09802197 0.0757439 0.18842086 -0.14263245 -0.18837254 -0.03420581
-0.16411902 -0.11298972 -0.046829883 -0.13189963 -0.20329598 -0.20307666 0.04422027 -0.17102459
-0.140555 -0.08143438 -0.0010917485 -0.036325432 -0.065245 -0.06117723 0.102708854 -0.06869048
0.08648073 -0.11173867 -0.02116385 -0.14441267 0.1698833 0.11188344 0.08890172 0.07471036
0.03126301 0.09410201 -0.1027548 -0.13879338 0.11871351 0.12110266 -0.022276267 -0.08153858
00000000: bbf5 bebd 7a73 113d 7ccc b3bd a3f9 13be
00000010: 27a5 493c 20f6 fc39 ceb4 d33d 1ba5 2bbe
00000020: 3882 2b3d a05e 263e 76fb 023d e19f 95bd
00000030: a012 053b 72d2 a13d cdde 063d 0458 a13d
00000040: 7572 e83c 3e14 7abd 8d7b 0cbe 2d3f d4bd
00000050: 0841 85bd c5cc e43d 6ce7 413e 2853 723d
00000060: f4a1 fbbd ab4d b43d 0e14 ca3d bd1d 00be
00000070: f3a6 b9bd f5bd fabd f3ba dd3b 7a52 2a3e
00000080: b613 1a3e 3a7a c2bd 874c 24be 4af4 3b3d
00000090: 0f50 1dbe 557b 08bd b67f 1cbd 4f9e a83d
000000a0: 304c fe3c 76ea 15be b912 c43d 0add 12be
000000b0: 507c 773c 0fcb 0bbe 40fd cabd 473a 37be
000000c0: 6f4d 30be ca22 173e 6096 12bc 5280 073d
000000d0: 7c9e 90bd 9b56 3ebe 0267 1ebe c4a2 733d
000000e0: 463d 9f3d 5d28 06be 6558 cebd 964b 4cbe
000000f0: 059b 11be 0d02 243c 719f 25be ee85 2dbe
00000100: 2d94 073e 46e2 7dbd 2e35 fcbd 1e6d ff3d
00000110: 944d abbd ce0b b4bd f2bc 953d 13d3 a6bd
00000120: 67fb e63d 6f17 683d cdf1 8cbd 72da a7bc
00000130: e500 ddbd 826e 0f3d f6d8 5c3c 1fa7 91bd
00000140: 0f93 1ebe dd24 0d3e c6a2 0e3b 6ef5 3c3c
00000150: 7f20 233d cb28 2c3d 9c2e 8bbd 22a1 013e
00000160: eeeb c13d dc87 dcbb 509e 313c 8330 48be
00000170: 8c99 16bd 94cf 58bd 8402 ccbd c87d a0bd
00000180: e7bb 1fbe a62f 873c 4b4e 06be 67df a0bd
00000190: ea0c 633d a336 553d e79d acbd c428 0cbe
000001a0: b89c 023e 52eb 703c e4d8 ad3b 400f 78bb
000001b0: 59d3 093e 870c 833d 01dd ae3d f404 113e
000001c0: 9e75 223e c990 213d 2fa6 033e 7dc4 063e
000001d0: d8dc acbd 814f 02bd a982 a93d 6755 cabd
000001e0: dac6 0b3e 279c ad3c 1796 c73d 0e1c 0dbe
000001f0: 5360 ee3d cb11 e4bc 71d4 053e a533 cf3d
00000200: 5cf9 2cbd d441 8c3d 89fd e4bd 9720 1d3e
00000210: 68fd dfbc 5c7e 19be d63a 433e 220a f7bd
00000220: 0f18 a5bd a413 e8bb 1f6e 293e 10c5 023e
00000230: 683c 9bbc 3607 23bd 9050 4bbc b2e8 94bd
00000240: 5a70 023c e244 35be 6c32 67bd b330 67bd
00000250: 8ac4 7dbd 6799 783d e5f5 ac3d 4886 1ebe
00000260: 16e6 033e 8faa 14be f8f3 0f3e 5324 d73d
00000270: f20d a43d 9af5 07be 3b4a d5bc 3e0e 26bd
00000280: 1a35 23be fc6f 34bd aaf3 eabd 9e8e b1bd
00000290: d786 093e 6317 eabd e775 093e 691d 00be
000002a0: 4219 3f3e bf23 1ebe 8df7 9bbd 6748 0fbe
000002b0: bdcb 76bd 3ce5 3fbc 0591 ccbd 0cf4 2a3e
000002c0: eae5 55bd 80bd 9b3b fb18 4a3d 1d5c cc3d
000002d0: 40cd 4ebd 7a53 36bc 9e75 e23b 089d 46be
000002e0: d699 41bd f86d 2b3d fc76 a83d 7649 de3d
000002f0: eb98 f7bd 6f43 cf3d c1df 03be ebf9 89bb
00000300: cc66 183e 7b9b e1bd 8d1d fdbc 6bc8 133e
00000310: 1a47 fb3d 53e2 13be d1c1 073d 583a 353c
00000320: 0a32 c4bd 6807 db3d 3cb9 a4bc c9b7 373e
00000330: 063b 39be 9126 0d3e 04ce 61bc cea6 3d3d
00000340: e5da 1fbe 4e10 c83d d2ac ce3d 4f69 f83d
00000350: 20ee 1dbe 6340 5cbe 8dd0 f8bd d958 0bbd
00000360: 4a38 5c3d 69ec bcbd bebf c8bd 9e1f 9b3d
00000370: 66f1 403e 3e0e 12be bbe4 40be 641b 0cbd
00000380: d10e 28be 2867 e7bd b1d0 3fbd b210 07be
00000390: d22c 50be 54f3 4fbe 5020 353d 1221 2fbe
000003a0: a6ed 0fbe 11c7 a6bd 0019 8fba fac9 14bd
000003b0: 2c9f 85bd fa94 7abd 0559 d23d 98ad 8cbd
000003c0: cf1c b13d 3ed7 e4bd cf5f adbc eae0 13be
000003d0: e3f5 2d3e 2523 e53d 1b12 b63d bf01 993d
000003e0: a40d 003d 8eb8 c03d 1c71 d2bd da1f 0ebe
000003f0: 1220 f33d ac04 f83d b87c b6bc b3fd a6bd

layer_3.bias f4 [36]
0.13275829 -0.008562099 0.06895689 -0.038502365 0.06758807 -0.14512914 0.051899694 -0.07645789
0.059857182 -0.15708174 -0.16268219 -0.026924122 0.14613874 0.111050226 0.08779986 -0.047692563
0.043160655 -0.095838904 0.11908538 -0.099117845 0.11018619 -0.19227152 -0.16855524 -0.1507053
-0.14662279 0.16192369 -0.012093299 0.23422569 -0.032355152 -0.04765691 -0.060704853 0.052292615
-0.16194546 -0.023003958 0.016238647 0.058718964
00000000: caf1 073e 0c48 0cbc 4539 8d3d a8b4 1dbd
00000010: 9d6b 8a3d bc9c 14be c694 543d f495 9cbd
00000020: ce2c 753d 09da 20be 2996 26be fa8f dcbc
00000030: 65a5 153e 4d6e e33d 6ad0 b33d 4759 43bd
00000040: 3ac9 303d 3047 c4bd 09e3 f33d 4cfe cabd
00000050: 4ca9 e13d d3e2 44be bf99 2cbe 7d52 1abe
00000060: 4924 16be 53cf 253e f922 46bc dcd8 6f3e
00000070: d686 04bd e433 43bd a7a5 78bd c830 563d
00000080: 08d5 25be cc72 bcbc e906 853c 4c83 703d

action.weight f4 [36, 36]
-0.16066235 0.028077055 0.098761804 0.0065140408 0.024291836 0.007815211 -0.055799484 0.17881945
-0.08947002 -0.16797715 0.0045573115 -0.029288655 0.12083421 0.057759106 0.10652359 0.1457753
0.06359672 -0.165716 0.123388536 0.11069566 0.068839215 0.07974139 -0.06970044 0.16175504
-0.066271424 0.081375964 -0.03836798 -0.17702731 -0.10748191 0.0112164775 -6.4703636e-05 -0.05748684
0.051896155 -0.0021911063 -0.0146273095 0.116082184 0.13121833 0.0757184 -0.09300648 -0.16311416
0.102486864 -0.10913851 0.08113276 0.024076365 -0.017619219 -0.15624507 0.08260529 0.12578742
0.016208585 -0.040805317 0.092923194 -0.020705843 -0.14095274 -0.038394924 0.008529791 -0.08034475
0.12572877 0.030382741 0.06298739 0.033620074 -0.15317433 0.032006733 -0.08418945 0.022261199
0.0033722143 -0.10805882 0.14997718 0.10777523 -0.020783292 0.05209014 -0.08589931 -0.12556164
-0.025704967 -0.056846984 0.06822148 -0.056857646 0.011282526 -0.07321841 0.030644631 -0.044623755
0.042187545 0.069168456 0.05993314 -0.05999303 -0.026545249 -0.021031043 0.054408975 -0.053562902
-0.040032316 -0.020803453 -0.18809162 0.018371716 0.10165348 -0.062980406 0.14933743 0.13895418
-0.026729226 -0.08780191 0.10851838 0.08498132 -0.04760959 0.07582842 -0.066555835 -0.044826906
0.11792404 -0.010628672 0.1706521 -0.11346575 0.10720292 -0.01930239 -0.093124345 0.05808946
-0.08288362 -0.10742514 -0.0685037 0.06791105 0.17118008 -0.053114053 0.12627102 0.15288445
0.16310689 0.09625131 0.088154934 -0.01836393 -0.099151514 -0.046039723 0.043432996 0.15783764
0.10714991 0.099688455 -0.15446433 -0.09213698 0.08031966 0.052986674 0.21127813 0.13805287
-0.09723385 -0.09042916 0.08289709 0.029640539 0.13814782 -0.03934449 -0.066820964 -0.0019798363
0.036138773 0.13869844 0.029088968 0.057674065 0.087265216 -0.00017603813 -0.14507717 -0.1406288
-0.10425087 -0.11931301 -0.07649112 0.053927854 -0.1259582 0.09477259 0.060307376 0.14471923
-0.098086804 -0.11789087 0.06604429 -0.0019225702 0.05888696 0.015404498 -0.08484127 0.060831502
0.04789108 -0.10895361 -0.0333891 -0.20459305 -0.19411148 -0.0080543775 -0.1746693 -0.22231461
-0.08942189 0.013172768 -0.14712332 0.030504402 -0.0014830437 0.10442462 -0.101395085 0.13861617
-0.010014687 0.020949552 0.07307929 -0.07972673 -0.051765576 -0.15589853 -0.017095193 -0.038161736
0.16221057 0.005228406 -0.078338474 -0.02822479 -0.13434424 0.12201493 -0.004511336 -0.045394488
0.092284106 0.009146284 -0.1262675 -0.12601143 -0.07203307 0.11738186 -0.15049337 0.013560145
0.10422855 -0.07363957 -0.13269407 -0.16009328 -0.05090519 0.10290648 0.10722897 0.021994129
-0.13918874 -0.00751148 0.026725743 0.10445336 0.050539378 0.0036188657 -0.10539467 0.124404326
-0.008079625 0.052502416 0.047308043 -0.07289672 0.0823789 0.13266641 -0.13631774 0.042116873
0.06782177 -0.1005158 0.11290504 -0.05932209 0.098889016 0.05104326 0.064951465 -0.029166654
0.08153695 -0.04477552 0.17737797 -0.0026772982 -0.015692674 0.15421884 0.00911518 -0.00913923
-0.12635097 0.12142368 0.07111088 -0.034135945 0.0554166 0.06773926 0.095542796 0.12588882
00000000: ac84 24be da01 e63c a143 ca3d bc73 d53b
00000010: acff c63c 5f0b 003c 008e 64bd 721c 373e
00000020: 0f3c b7bd 3402 2cbe 8055 953b c3ee efbc
00000030: ed77 f73d d094 6c3d 0a29 da3d 1f46 153e
00000040: ff3e 823d 75b1 29be 21b3 fc3d 68b4 e23d
00000050: 93fb 8c3d 744f a33d 1bbf 8ebd 1da3 253e
00000060: 50b9 87bd 71a8 a63d be27 1dbd a646 35be
00000070: 7a1f dcbd 51c5 373c 80b1 87b8 5277 6bbd
00000080: 1091 543d aa98 0fbb 62a7 6fbc 7fbc ed3d
00000090: 195e 063e 4012 9b3d 2e7a bebd 6607 27be
000000a0: a2e4 d13d 0384 dfbd ef28 a63d cc3b c53c
000000b0: 2e56 90bc b5fe 1fbe f62c a93d 6bce 003e
000000c0: dec7 843c 7a23 27bd 844e be3d 4d9f a9bc
000000d0: ea55 10be ff43 1dbd 89c0 0b3c ca8b a4bd
000000e0: 0bbf 003e 3ae5 f83c 88ff 803d 34b5 093d
000000f0: bbd9 1cbe 7e19 033d 856b acbd 1e5d b63c
00000100: 5e00 5d3b f14d ddbd 9e93 193e 43b9 dc3d
00000110: b941 aabc 785c 553d faeb afbd 3b93 00be
00000120: 3993 d2bc 62d8 68bd b4b7 8b3d 90e3 68bd
00000130: 58da 383c 89f3 95bd 730a fb3c 66c7 36bd
00000140: d9cc 2c3d 31a8 8d3d 747c 753d 40bb 75bd
00000150: 6c75 d9bc 4b49 acbc f2db 5e3d c664 5bbd
00000160: edf8 23bd 016c aabc 179b 40be 4880 963c
00000170: b32f d03d dffb 80bd e9eb 183e 014a 0e3e
00000180: 40f7 dabc 7dd1 b3bd e23e de3d b00a ae3d
00000190: 4602 43bd ee4b 9b3d 6d4e 88bd 6b9c 37bd
000001a0: 2982 f13d e223 2ebc 6dbf 2e3e bb60 e8bd
000001b0: 348d db3d 0c20 9ebc fab7 bebd 37ef 6d3d
000001c0: e3be a9bd b601 dcbd ab4b 8cbd f314 8b3d
000001d0: d549 2f3e 1f8e 59bd 314d 013e be8d 1c3e
000001e0: 7e05 273e 681f c53d 938a b43d f46f 96bc
000001f0: f30f cbbd 2694 3cbd cce6 313d 31a0 213e
00000200: 6971 db3d 7629 cc3d e62b 1ebe 50b2 bcbd
00000210: a27e a43d 8e08 593d 4b59 583e bb5d 0d3e
00000220: 8a22 c7bd ec32 b9bd f3c5 a93d b7d0 f23c
00000230: 9f76 0d3e b027 21bd 6ed9 88bd 24c0 01bb
00000240: 4006 143d f706 0e3e fd4b ee3c a43b 6c3d
00000250: 1bb8 b23d e096 38b9 1c8f 14be ff00 10be
00000260: 7b81 d5bd 615a f4bd 60a7 9cbd 74e3 5c3d
00000270: 30fb 00be 2218 c23d de04 773d 4731 143e
00000280: bce1 c8bd c570 f1bd 3b42 873d c0fe fbba
00000290: 7433 713d 2663 7c3c 43c1 adbd 742a 793d
000002a0: 7029 443d 1223 dfbd 02c3 08bd d780 51be
000002b0: 29c5 46be 82f6 03bc 82dc 32be 71a6 63be
000002c0: d322 b7bd 98d2 573c 7fa7 16be 5ee4 f93c
000002d0: b062 c2ba 93dc d53d 3aa8 cfbd 66f1 0d3e
000002e0: a414 24bc 659e ab3c 98aa 953d c547 a3bd
000002f0: 2408 54bd dda3 1fbe 380b 8cbc 7b4f 1cbd
00000300: 871a 263e 0c53 ab3b ec6f a0bd ad37 e7bc
00000310: 8991 09be f7e2 f93d d4d3 93bb 92ef 39bd
00000320: 73ff bc3d 4cda 153c 444c 01be 2409 01be
00000330: 1386 93bd e765 f03d ef1a 1abe 5f2b 5e3c
00000340: c775 d53d 58d0 96bd f4e0 07be 7eef 23be
00000350: f681 50bd a2c0 d23d dd9a db3d 082d b43c
00000360: 7e87 0ebe dc22 f6bb f2ef da3c a5eb d53d
00000370: 6102 4f3d 7e2a 6d3b 29d9 d7bd b2c7 fe3d
00000380: 6760 04bc c60c 573d 14c6 413d e04a 95bd
00000390: 45b6 a83d b4d9 073e e196 0bbe be82 2c3d
000003a0: 24e6 8a3d 3adb cdbd c23a e73d b8fb 72bd
000003b0: 5386 ca3d bd12 513d 4605 853d e8ee eebc
000003c0: d8fc a63d 8966 37bd 92a2 353e 9c75 2fbb
000003d0: ec8d 80bc 8beb 1d3e d657 153c b5bc 15bc
000003e0: 2662 01be faac f83d 95a2 913d 22d2 0bbd
000003f0: 84fc 623d e2ba 8a3d f1ab c33d 00e9 003e

action.bias f4 [36]
-0.043788172 0.026554273 0.06777926 -0.017708944 -0.2057685 -0.13163662 0.021469658 0.024448432
0.003872322 -0.06840702 0.16900402 -0.08772391 -0.07008138 -0.22556184 -0.01914277 0.16656363
0.21072024 -0.14341688 -0.059022605 -0.1278652 0.045542438 -0.14941208 0.023950897 -0.1166802
-0.01321397 -0.031654075 0.13876541 0.05364337 -0.09619035 0.018744858 -0.124707215 0.0018904787
-0.14963047 -0.13870326 0.120677985 0.0036604102
00000000: 3a5b 33bd 5988 d93c dacf 8a3d 5912 91bc
00000010: fab4 52be c0cb 06be 23e1 af3c 1448 c83c
00000020: c8c6 7d3b fb18 8cbd 640f 2d3e 98a8 b3bd
00000030: d486 8fbd aff9 66be 4cd1 9cbc a88f 2a3e
00000040: 0cc7 573e e0db 12be b0c1 71bd 18ef 02be
00000050: b58a 3a3d 7bff 18be ac34 c43c 07f6 eebd
00000060: 687f 58bc b4a7 01bd 8518 0e3e 26b9 5b3d
00000070: 72ff c4bd d18e 993c 7f66 ffbd f0c9 f73a
00000080: bb38 19be 3a08 0ebe 0526 f73d 7ee3 6f3b
