mean_model.pt (torch, 21583 bytes, 8 tensors)

layer_1.weight f4 [33, 30]
00000000: f7e8 bb3c adeb a73d 6e33 373e 703a 883b
00000010: 1138 ab3d df0e f13d 00b4 e7bc 1433 c53c
00000020: 1e6d a1bb 3fe7 95bd c84e 01be 89cd 2d3e
00000030: d233 303e 0f84 a33d e01a 9b3d 402d 5b3d
00000040: a5ce e5bd 1545 6b3d b48b 8b3d cc81 3cbe
00000050: 5066 c1bd db95 c03d 1413 5b3c 0b27 323e
00000060: 0bf1 ebbd 0ad7 95bd 5823 c3bc f62d 21be
00000070: 4f4d d23d aec6 653d ae22 34bd 1b59 1fbe
00000080: 61fc 203e 0511 44be 0bcc 013e 8963 e1bd
00000090: 0a84 dbbc e0d5 41bc c27d e1bd d766 1fbe
000000a0: 92a6 dfbd ee7a d03d 37b8 13be ca76 873c
000000b0: 3a58 873d 8205 08bc 26ba a5bc 5811 403e
000000c0: cf2c eb3d 77f7 0bbe aa77 83bd d057 41bd
000000d0: b19d 093e 920a 6a3d 3c20 aebd 6ea1 a83d
000000e0: 8490 7f3c 0f73 003d 051a a33d 11b8 9fbd
000000f0: ed6b a33d 4e77 913d 41dd 06bd 81f8 bf3d
00000100: f00b 743c e896 853d f908 1b3d 78d9 503d
00000110: 0e82 7cbd 87c0 873d dc9a edbd ba5d 23be
00000120: c475 eb3c a8d3 18be a17a 2bbe caf1 06be
00000130: 7d0e 423e 99c8 413d 8eda 28be a355 ce3d
00000140: 3a82 56be 5026 e13d 4c57 343b e441 813d
00000150: 91af 92bd 2093 20be 82ab 29bd 968c ad3c
00000160: a8d0 233e 8f2a 383d 6cb7 5c3b d266 abbc
00000170: 5225 ad3d e175 df3d 35c8 8dbd 96b3 e6bd
00000180: 6314 96bd 03a9 283e d42b 253e b709 b03d
00000190: 2682 efbd e68a c5bc 334a 05be 4c24 6a3d
000001a0: 3da1 413c 1a5e a9bd 4536 af3b adc9 86bd
000001b0: f003 123d 00eb 78bd 9315 cabc a86c 71bd
000001c0: 46ee 23be 9f13 303e 1acd e6bd a6f1 513d
000001d0: cdcd 0dbe 1145 823d 4815 02be a137 3c3e
000001e0: 272e 93bd f4f5 83bd f93a babd 689a 743d
000001f0: b6a1 efbc f4e0 303e 9737 cfbd f0e9 39be
00000200: b84f 953d af99 cbbc 92c0 b83d feae 64bd
00000210: 00f0 1639 fa59 93bc 6407 debd 6853 113e
00000220: c4f7 313d 1565 1dbe 0685 f53c 9e43 30bd
00000230: 0c8c 023e 1280 193e 513f b13d 1887 e83d
00000240: 071f 36be 8a03 d2bd b0a1 e0bd 0f94 a03d
00000250: f7b9 9d3d 5306 bdbd 95f8 243e 9f03 99bd
00000260: 5d84 2bbe 4be8 39be 4a3f 8ebc 92e5 40bb
00000270: f038 21be deda 493e 8c5f 273e 267f 85bd
00000280: 517c 21be 6ee8 123d 9a9f d5bd b271 57be
00000290: c865 48bc eef5 093e 28e1 9fbc edb1 e23d
000002a0: 8bed c23d b1fb da3d 497b e13d fa4d e43d
000002b0: cd2b 353d 76e1 dabd b1be d53d bbd3 803d
000002c0: b041 26bd 14f1 1fbe 7a3f 2c3e cdc9 e93d
000002d0: e2cc f3bd 06bd dbbc df57 e8bd 34d3 20bd
000002e0: 6e4b 853b 348d b2bd d90c f63d 74b3 443e
000002f0: 3e0e b4bd aeb1 663d 5660 d0bd d1a0 00be
00000300: 51b1 3a3e 9afe a1bc 1900 103e 3df8 073e
00000310: 6b8a 18bd 1e71 00be d1a8 73bd 3904 91bd
00000320: 9d24 0c3e c6df a83b d38a 343d 9a65 703d
00000330: 4421 14be 176f e03d 7888 2cbe 9032 203e
00000340: 6c7c 9ebc 5971 383e 2790 00be 6310 d0bd
00000350: 3a14 623d 4aa6 fd3c 38b9 293d 1e19 0d3c
00000360: 14de e5bc bead 1abe 261e f3bd 82ed 4d3d
00000370: 48ea 3f3d 9987 27be a8a9 80bd 3740 d53d
00000380: 9d26 cabd 50d2 b8bd cf9c 08be bde4 f8bd
00000390: 41ba 97bd fb03 a7bd 4c4a c7bd 329c 9cbd
000003a0: 88a5 323e 77ec 0cbe d386 843d efe9 533d
000003b0: c218 3dbd 6432 0dbe b3d9 043e f467 23be
000003c0: c9b2 023e 00f5 223d 9bb0 debd 3e22 103e
000003d0: 4f3b a13d c961 043d 83ba 24be bfcf 2a3e
000003e0: 992d 26be f3e3 f83d f2a1 5bbd 25c6 dcbd
000003f0: 88a5 093e d07c 4bba 13db 3abe 0490 2cbe
0.022938235 0.081992485 0.17890713 0.004157357 0.08360303 0.117704146 -0.028284073 0.024072208
-0.004926338 -0.07319497 -0.12627709 0.16972937 0.17207268 0.079841726 0.075734854 0.05350995
-0.11221055 0.05743893 0.06813756 -0.18408889 -0.09443343 0.09403583 0.013371248 0.17397706
-0.11520585 -0.07316406 -0.023820564 -0.15740189 0.10268652 0.05609768 -0.043978386 -0.15561335
0.15721275 -0.19147117 0.12675492 -0.11005313 -0.02679636 -0.011830777 -0.110103145 -0.15566574
-0.10920443 0.10179697 -0.14425741 0.016536135 0.06608625 -0.008302094 -0.020230364 0.18756616
0.11483156 -0.13668619 -0.064193085 -0.047202885 0.13439061 0.057138987 -0.08502242 0.08233915
0.01559842 0.03135973 0.07963947 -0.0779878 0.079795696 0.07102834 -0.032925848 0.0937357
0.014895424 0.06522924 0.037850354 0.050988644 -0.061647467 0.066285186 -0.11601803 -0.15953723
0.028742678 -0.1492449 -0.16745998 -0.13178173 0.1895084 0.047310445 -0.16489622 0.10074928
-0.20948115 0.10993636 0.0027517853 0.06311396 -0.07162393 -0.15681124 -0.04142333 0.0211852
0.15997565 0.044962462 0.0033678664 -0.020923052 0.08454384 0.109111555 -0.06922952 -0.11264722
-0.07328107 0.16470723 0.1613 0.08595603 -0.11694746 -0.024114083 -0.13016586 0.05716352
0.011818227 -0.082699016 0.0053470456 -0.06581435 0.035648286 -0.06077099 -0.02466849 -0.058941513
-0.16008863 0.17194985 -0.11269589 0.051255845 -0.13848038 0.063608296 -0.1270343 0.18380596
-0.07186537 -0.06443396 -0.090932794 0.059717566 -0.029251914 0.17273313 -0.10118025 -0.18155646
0.07290596 -0.024853555 0.09021105 -0.055830948 0.00014394522 -0.01798724 -0.108412534 0.14191973
0.04344918 -0.15370591 0.029970657 -0.043033235 0.12748736 0.14990261 0.08654655 0.11353892
-0.17785273 -0.10254581 -0.109683394 0.0784074 0.077014856 -0.09229722 0.16110452 -0.07471394
-0.16749711 -0.18155019 -0.017364163 -0.002943371 -0.15744376 0.19712397 0.16345042 -0.06518392
-0.15770079 0.035866193 -0.10430832 -0.21039465 -0.012231298 0.13472721 -0.019516543 0.11069093
0.09517964 0.106925376 0.11009843 0.11147685 0.044231225 -0.106875345 0.10436762 0.062903844
-0.04058999 -0.15619308 0.1682109 0.114154436 -0.11904313 -0.026823532 -0.11344885 -0.03926392
0.00406783 -0.087183386 0.12014169 0.19209081 -0.08791779 0.056321792 -0.101746246 -0.12561347
0.18231703 -0.019774724 0.14062537 0.13278289 -0.03724138 -0.12543151 -0.059487168 -0.070808835
0.13685842 0.005153629 0.044077706 0.058690645 -0.14465815 0.10958689 -0.16848934 0.15644288
-0.019346438 0.18011989 -0.1255499 -0.101593755 0.05519507 0.030963082 0.041436404 0.008611945
-0.028059997 -0.1510534 -0.11870985 0.050275333 0.046854287 -0.1636032 -0.06282359 0.10412639
-0.09870646 -0.09024489 -0.13341068 -0.12153003 -0.07408572 -0.08155056 -0.09730968 -0.076469794
0.17445958 -0.13762079 0.06471028 0.05173677 -0.04616619 -0.13788754 0.1297367 -0.15957624
0.12763514 0.03978443 -0.108735286 0.14075562 0.0787264 0.032319818 -0.16086774 0.16680811
-0.16228332 0.12152853 -0.05362124 -0.107799806 0.13442051 -0.0007762434 -0.18247633 -0.16851813

layer_1.bias f4 [33]
00000000: bdd3 293d 3beb f7bd 7731 0f3c fa1e b3bc
00000010: a7f9 21be 30d2 e73d 51fe c3bd a87c 223e
00000020: e8f7 243e 96ee 6b3d f9f2 d4bd 26e2 b43d
00000030: 994e 0f3e 6439 273d 2c26 02be bc03 2b3e
00000040: 22ac 033d c975 15be 2889 98ba ad65 e0bd
00000050: 44a7 03be ec19 10bd 0835 213e 8859 103e
00000060: d8ce 4e3c 1006 08be 3136 e23c 4a1a 2f3e
00000070: ae49 1a3e 041b 0dbe 41d2 3ebe 21e0 203d
00000080: 1246 35bc
0.041461695 -0.121054135 0.008739821 -0.021865357 -0.15817891 0.11319387 -0.095699914 0.15867865
0.16110194 0.05760058 -0.10397906 0.08832197 0.13994826 0.040826216 -0.12709874 0.16700643
0.03214658 -0.14595713 -0.0011637555 -0.10956893 -0.12856776 -0.03518097 0.15742886 0.14096653
0.012622558 -0.13283563 0.027613731 0.17099872 0.15067169 -0.13779837 -0.18634893 0.039276246
-0.011064069

layer_2.weight f4 [34, 33]
00000000: 13ce 18bd dccd c93d a4d7 0e3c 934f d9bd
00000010: ed15 a43d 5eff af3c cff2 f53d 5244 25bd
00000020: add4 a23d 9d17 293e f21f 343e 32c2 5dbd
00000030: fad3 f1bd a0af adbd 7ee2 20be 834b a5bd
00000040: 6dcd 5b3d 24db 8d3d 4cd6 2c3d 1b86 7e3d
00000050: 7fbd 27bd 0c11 263e e2ea 00be 373b 31be
00000060: c1f2 57bd 2ee0 9ebd cd2c b33d 09a9 1e3e
00000070: 83f1 bcbd 5945 a33d 6be1 d93c e508 f13d
00000080: 2451 f8bc 1f90 32be 7c93 cbbb b76c 143e
00000090: 034d 0e3e a699 28bd d372 d0bd e224 a53d
000000a0: f159 1b3e 03a2 ac3d 82da d0bd 67bc b2bc
000000b0: 6e69 72bd cc08 bf3d 8367 0dbe 5aaa dcbd
000000c0: 05cd a03d aa20 0fbd fb7d f6bc 1d07 b6bd
000000d0: 1725 d7bc fb99 bc3d 7119 f0bb e3ea 1cbe
000000e0: c89d 2cbd c454 3b3e c8f7 23be d035 d5bd
000000f0: ec7f 97bc 6af0 26bd a303 50bc 66c2 07be
00000100: 0a45 18be 7ee1 bbbc a032 d4bc 236f ad3d
00000110: 88dc c7bd 4aea b7bd 9831 cb3d 8572 8cbd
00000120: 2655 73bd 33e2 4abe 623d 243e 426c 2d3c
00000130: 07c3 1c3e 400e 8c3a d3cf 54bc 9919 13be
00000140: 387d e33c 5b6d 8abd 9223 15be 317e 04be
00000150: c437 7a3d fa01 04be 3833 083e f2e9 55bd
00000160: 31ef f03c 7cfa 2e3d e349 eabd fe10 05bd
00000170: ff8e 5c3d 3109 8fbd 35e8 293d e8e9 cfbd
00000180: f846 c8ba d51b 07be 4cef 14be 860e 00bd
00000190: 4a21 0ebe b55a f93d 3e52 a53d 3f20 9bbb
000001a0: b955 41bd 8ea1 87bd 9b7c 39be 6222 a03d
000001b0: 1611 6b3c 51e3 543d 8b83 24bd b822 eeba
000001c0: a424 fd3c e91d 2c3e 7319 c6bd d03b ddbc
000001d0: fb2e e93d b068 103e f2d5 7cbd 2e58 ad3d
000001e0: 3cce 2a3d edde 953d 5616 eebc 397d 1abd
000001f0: 61ee bb3d 2609 25bd 5f74 d43d e6dd ffbd
00000200: acfd b13c 29b7 f7bc 90ea b2bc a447 9c3d
00000210: d583 fd3d 52a8 373d 20a2 93bd 0cd5 0f3c
00000220: 5cd0 303e 2ec9 013e e262 07bd fffb 2bbe
00000230: c66a 70bd ca73 0c3d d5a1 0dbe 3eed ac3d
00000240: fe48 3cbe 594a 1f3c f4f6 1e3e 2037 f2bd
00000250: 9dac afbc 4677 283d e3ec b2bd da23 f8bd
00000260: 94ce 00be 22de 9e3b eb23 dbbd 90b3 dd3d
00000270: 398b 1d3e 05c3 6ebc 92ad 31bd a709 fc3c
00000280: 0af6 20be cdb1 103e 6d62 0f3e f78a 2fbe
00000290: c177 d7bd 7ad9 d13d 4d25 053c 6dd3 9fbd
000002a0: 3c95 743d 779e 06be b6d2 cb3d c08e 0d3e
000002b0: 184d c6bd b404 38bd d9cd 933d be8e a33d
000002c0: d0f6 24be f70d 1f3e 5f8c 0f3c b7ca 40bd
000002d0: e909 8b3d f3d8 09be e003 43bd 0fe1 c0bd
000002e0: 4cb4 d03b aff0 f4bc 46fb 223e 1cbe c63c
000002f0: 7c31 fc3d afb2 0bbe 1230 123d 88d1 003d
00000300: dad0 b3bd 906e 823d a80a 44bd 0c22 643d
00000310: 5a17 8dbc b836 8cbc 0b03 94bd 02ea 47be
00000320: b03c 163d e5f9 1a3e 6883 50bd c06b 2ebe
00000330: cead 833c ae13 893c c1bc 16be f18a acbd
00000340: ac8b a9bc 85a4 123d fee2 ba3c 00b5 41b9
00000350: 5bf7 d93d 7e09 3fbe 2572 a3bd 1bc6 893d
00000360: 1c80 3c3d c1ca a3bc 0a2f d33c ea82 69bd
00000370: 6d94 f23d 10d9 c43d dc50 623d be00 84bd
00000380: 23a2 d1bd 26f9 d8bd 13c0 e0bc d1c8 c53d
00000390: d82b d83d a853 593d 7e91 11bd 2cc9 0fbb
000003a0: 9b62 cd3d 4ccb 053e beef 14bd 13e3 a0bc
000003b0: 802c ec3d 4483 ce3d 65c7 73bd 51f5 063e
000003c0: 987f 64bd dcaa dbbd 444a 0c3e e2bb 103e
000003d0: ddb5 f63d 6ad3 afbd b6db 023d 015e ef3d
000003e0: 8f96 813d b8ee 643d 76ec d4bd 18ec 7e3d
000003f0: 6683 de3d 84bc 153d d0e6 81bd 23fb 18be
-0.037305903 0.09853718 0.008718405 -0.10610881 0.080119945 0.021484073 0.12009203 -0.04034836
0.07950721 0.16512914 0.17590311 -0.054140277 -0.118080094 -0.084807634 -0.157114 -0.08071043
0.053662706 0.069265634 0.042196557 0.06213961 -0.040952202 0.1621744 -0.125896 -0.17307745
-0.052721743 -0.07757603 0.087487794 0.1549417 -0.09225752 0.079722114 0.026596745 0.117692746
-0.030312128 -0.1743779 -0.00621265 0.14494596 0.13896565 -0.041162156 -0.10178151 0.080636755
0.15171029 0.08429339 -0.10197927 -0.021818353 -0.059182577 0.0932785 -0.13809018 -0.107746795
0.07851604 -0.03494326 -0.030089369 -0.088880755 -0.026262803 0.09209057 -0.0073272516 -0.15323977
-0.04214266 0.18294054 -0.1601249 -0.104106545 -0.018493615 -0.04075662 -0.01269618 -0.13257751
-0.14870086 -0.022934671 -0.025903046 0.08468463 -0.0975886 -0.08980234 0.09921569 -0.0685778
-0.059407376 -0.1981285 0.1603904 0.010584893 0.15308772 0.0010685399 -0.012989002 -0.14365233
0.02776967 -0.06759139 -0.1456435 -0.12938763 0.06108834 -0.12891379 0.13300788 -0.05222506
0.02941093 0.04271935 -0.11439874 -0.03248691 0.05384731 -0.06984175 0.041481216 -0.10152036
-0.0015279939 -0.13194211 -0.1454441 -0.03126385 -0.13879886 0.12175504 0.08072327 -0.0047340686
-0.047200892 -0.06622611 -0.1811394 0.07819058 0.014347335 0.0519746 -0.04016451 -0.0018168306
0.03090126 0.16808285 -0.09672823 -0.02700606 0.11385914 0.14102435 -0.06172747 0.084640846
0.041700587 0.0731791 -0.029063385 -0.037717078 0.091763265 -0.040291928 0.103737585 -0.12493496
0.021727405 -0.030238705 -0.021840364 0.07630852 0.123786606 0.044838257 -0.07208657 0.008778822
0.17266983 0.126744 -0.033053286 -0.16795348 -0.058695577 0.034290113 -0.13831265 0.08443688
-0.1838722 0.009722316 0.15523893 -0.118269205 -0.021444613 0.041129373 -0.08736589 -0.12116213
-0.12578803 0.0048482576 -0.1070021 0.108252645 0.1538514 -0.0145728635 -0.04337842 0.030766321
-0.15718856 0.14130326 0.1400239 -0.17142855 -0.10520888 0.102465585 0.008126569 -0.07803998
0.059712633 -0.13146387 0.09952299 0.13823986 -0.09682673 -0.04492636 0.07216997 0.0798621
-0.16109776 0.15532671 0.008761494 -0.047068324 0.067889996 -0.13461666 -0.047611117 -0.094179265
0.0063691493 -0.029899923 0.15916166 0.024260573 0.12314126 -0.13642381 0.035690375 0.031449825
-0.0878007 0.063687444 -0.047861725 0.055696532 -0.017223049 -0.017115936 -0.07227143 -0.1952286
0.03667897 0.1513439 -0.05090657 -0.17033291 0.016074087 0.016733017 -0.14720441 -0.084249385
-0.020696484 0.03580143 0.022813316 -0.00018473342 0.106428824 -0.18655965 -0.07980756 0.06727239
0.046020612 -0.019994142 0.025779266 -0.057009615 0.11844716 0.09611714 0.055252895 -0.06445454
-0.10236003 -0.10594396 -0.027435338 0.09657443 0.105552375 0.053058296 -0.035539143 -0.0021939976
0.10028573 0.13065833 -0.03636145 -0.019639527 0.11531925 0.10083631 -0.05951633 0.13179518
-0.055785745 -0.10725948 0.13700205 0.14134172 0.120464064 -0.08585246 0.031947814 0.11687852
0.06327545 0.055891722 -0.10396664 0.062236875 0.10864906 0.036556736 -0.06342852 -0.14939551

layer_2.bias f4 [34]
00000000: a118 073e d9b0 9c3d 00ac 173a a492 1a3e
00000010: d23f a73d 96e8 bf3d 0b2c a53d 4770 0a3e
00000020: 226a 723d 5918 f73d 385e 323e d298 e0bb
00000030: 08ab cabd 12c3 5abd 5255 e23d 1ee8 423d
00000040: 94ba 0a3e 8f30 873d 12ad 20bd 9b05 043e
00000050: 5451 babd 42f8 6e3d eef7 9dbd 8e3e 703d
00000060: a751 3abd b0f0 49bd 0dda e93d 4df4 49bd
00000070: d6ef febd 20a8 4bbd eff0 963d e7cc d83c
00000080: 0c7a e93c adcf 2e3e
0.13192989 0.076509185 0.0005785823 0.15095001 0.0816647 0.09370534 0.08065041 0.13519393
0.059183247 0.12065191 0.17418754 -0.006854155 -0.09895903 -0.05340869 0.1105143 0.047584645
0.13547736 0.06601059 -0.039227553 0.12892763 -0.09097543 0.058342226 -0.077133045 0.058653407
-0.045488026 -0.049301803 0.11418543 -0.04930525 -0.12448089 -0.049720883 0.07370173 0.026464893
0.02850058 0.1707141

layer_3.weight f4 [36, 34]
00000000: e8c5 eebc a47e c9bc 5ea4 8bbd 649e b43c
00000010: 4be0 f53d 4d97 0c3e e0ee e93d 5236 48bd
00000020: ce87 b03d ec2a 78bd f92e e4bd 0f16 183e
00000030: 9dd6 92bd 0b40 febd 51c1 c63d 3b3f 32bc
00000040: ebf9 043e 569f 3f3d 5429 a6bd 9195 20be
00000050: a481 26be fe62 b1bd 21cc 0e3e 9482 143e
00000060: 2a85 94bd 9b2d 0ebc 4838 8e3c cff4 bd3c
00000070: 081f 923d 05a7 8dbd c0d3 9abd 3839 363e
00000080: 85bb d8bb 66dd a5bc 2a53 f13c 84d2 dd3c
00000090: 2d1c a13d d20f 073c fee0 04bc 86d2 a6bd
000000a0: 6beb b63d f691 65bd ae76 24be 9f28 3e3d
000000b0: ed7b eb3d bb4c a03d 9d72 853d 121a dbbc
000000c0: 12be 80bd 7861 37be 1842 e7ba 20f0 61bd
000000d0: c29d c7bd 9554 053e 6df9 d23d bc35 21be
000000e0: d9e9 9c3d bcb5 243d 2f5b 953d eae9 22be
000000f0: 7022 9bbc b5b6 f83d df2c 38be 3dd6 823d
00000100: 565d 1d3e 534d af3d 8d6d cbbd 156a f43d
00000110: c5d9 c23d a4c3 16be 1367 e73d 4ed9 7d3d
00000120: 40c5 7c3d 72f6 053e 3651 02be 2e28 d33c
00000130: 680c 33be 0e3b 3e3d c8c6 fb3c 8f5f e83d
00000140: e430 5d3d dc1b 8abc 3ac0 393d 058a f0bd
00000150: 149f aebc be83 33bd 6726 7ebc 534c b43d
00000160: 0a8e 3bbd 5ef9 85bc b3e8 6fbd 7df4 f33d
00000170: 53d9 83bd a9d6 c23d 93a7 06bc 849e 1cbe
00000180: c4fb 0d3e 10b3 2b3d 6b0c fa3d 28ff e1bd
00000190: 0773 1bbe bd3c a53d 147b 1bbe 4ded e1bd
000001a0: 78b3 3f3d 81e3 e5bd 9e54 85bc c21c d7bc
000001b0: d0c0 23bd 84c3 1dbd 1cdd 913d 7e5d 29be
000001c0: 8903 17be 58d2 033e bbdd 2cbe 6da4 273e
000001d0: e2c5 a6bb cb11 22be 67ec 943d 3256 0a3e
000001e0: c50f 243d 3a1e 72bc dd64 a1bd d625 39be
000001f0: 349e 0b3e aa6e 9a3d 5064 92bc 9b33 dc3d
00000200: 5eb8 063d ad78 d63d ca02 a53d 8892 60bd
00000210: f719 013e 6ecc 4bbc f2a7 f93d 7bbe 113e
00000220: 3d3d 0cbe 2772 80bd f9f1 1fbc 1dbe 10bd
00000230: 1b3c a5bd bead 7abc e6eb 8dbd 9e1f 0ebe
00000240: 7c8f a73d dde0 40bd 16aa 20be a82c acbd
00000250: 8adc 3cbd 2bc7 92bb 814a eb3c aa12 c4bd
00000260: 41b9 fd3d 9827 a63b d88f 6e3d 8084 29be
00000270: a404 103e c604 1b3c a615 a63d 38ee df3d
00000280: 8e49 1abe a4e2 233d c843 6dbd 94ee 35bd
00000290: 1d06 07be 3349 963d e101 0cbe c6bd f23d
000002a0: 5016 1dbe ec04 7fbd c8f8 d93d 455b cf3c
000002b0: d49c f63c a4c1 0e3d 445c e73d eaa9 3dbd
000002c0: a748 823d 7941 1bbe d086 c63d ac05 17be
000002d0: f76f 053d 065d 8cbd 87f8 f33d 99f4 0ebe
000002e0: 260b 193e de8e 0d3e 4e23 123e e772 df3d
000002f0: f9c1 00be 842e 1fbd bce8 fbbb f070 5a3d
00000300: 3f2c 26bd 0c2a 28be 809b 40ba 56c1 3abd
00000310: 1ee2 3bbd 4f15 833d 0690 d9bb 72c8 023c
00000320: e827 dc3b 6c62 df3d e0ad edbb 8050 203c
00000330: f0d4 863c e22b 18be a6ea 2ebe cd86 f33c
00000340: 8edf c0bc d0ec 103e 543f 9d3d 0feb a0bd
00000350: b224 b9bb a96b 06be 64e3 bd3d 66aa 7e3d
00000360: 297f e9bd 6ec1 2abd c033 c3bd 2189 1abd
00000370: 97b3 083e 1e6a 7dbd fdfb 383d 37de 1a3e
00000380: db13 a43d b99c f6bd be95 373d 94c2 60bd
00000390: d08d 1c3e f356 213e 019d 1e3e 9ced cb3d
000003a0: 73a0 e83d 05c9 983d af85 ec3d bdc0 06be
000003b0: 7e19 153e 1145 fe3d 9f37 953d a61c 06be
000003c0: 1525 e33d 736a c83d b244 74bc 616d 2ebc
000003d0: 55ac e9bc c688 263d 7689 d4bd 8ac5 1b3e
000003e0: 1b98 20be e0f6 db3d 62db bfbd 22b8 e43d
000003f0: a5c2 debd 5cf9 b83c ceee 85bd 316d a2bd
-0.029147103 -0.02459652 -0.0681846 0.022048183 0.12005671 0.13729592 0.11422515 -0.04887993
0.08619653 -0.06058781 -0.11141772 0.14852165 -0.071698405 -0.12414559 0.09704841 -0.010879333
0.12985961 0.046782814 -0.081133515 -0.15682055 -0.16260391 -0.086614594 0.13945056 0.14502937
-0.072519615 -0.008677865 0.017360821 0.023188023 0.07134825 -0.06916622 -0.07559919 0.17795265
-0.006614151 -0.020247173 0.029458601 0.02707792 0.07866702 0.008243518 -0.008110283 -0.08145623
0.08931621 -0.056047402 -0.16060898 0.046425458 0.11498246 0.07827135 0.065160014 -0.02674583
-0.06286253 -0.17908275 -0.0017643599 -0.05516064 -0.09746887 0.13020547 0.103014804 -0.15743154
0.076617904 0.040212378 0.072927825 -0.15909544 -0.01893732 0.121442236 -0.17985867 0.06388519
0.15367636 0.0855967 -0.099330045 0.11934296 0.095141925 -0.14723068 0.11298957 0.061974816
0.06171155 0.13082293 -0.12726292 0.025775995 -0.17485201 0.046443038 0.030734435 0.11346351
0.054001704 -0.016858988 0.045349337 -0.11745075 -0.021316089 -0.04382681 -0.0155120855 0.0880362
-0.045789756 -0.01635426 -0.05857153 0.11911867 -0.06437936 0.095135994 -0.008218664 -0.15294844
0.13865572 0.041918814 0.122094 -0.11034995 -0.15180598 0.080682255 -0.1518367 -0.1103159
0.046802014 -0.112250336 -0.0162757 -0.02625883 -0.039978802 -0.038516536 0.071222514 -0.1653957
-0.14747442 0.12873209 -0.16881458 0.16371317 -0.0050895074 -0.158271 0.07271653 0.13509443
0.0400541 -0.014777714 -0.07880566 -0.1808084 0.13634568 0.07540639 -0.017870098 0.107520305
0.03289067 0.10472236 0.080571726 -0.054827243 0.12607561 -0.012438877 0.12190236 0.14232819
-0.13695236 -0.06271773 -0.009762281 -0.035337556 -0.08068105 -0.015300212 -0.0692976 -0.13879248
0.08181664 -0.047089446 -0.15689883 -0.08406955 -0.04610876 -0.004479309 0.02872205 -0.095738724
0.1238885 0.005070638 0.05824265 -0.16554451 0.1406427 0.009461587 0.08109598 0.109341085
-0.15067121 0.040011063 -0.05792597 -0.04441698 -0.13185926 0.073381804 -0.13672592 0.11852603
-0.15340543 -0.062260553 0.106431544 0.025312075 0.030104078 0.03485264 0.11296895 -0.04630462
0.063615136 -0.15161695 0.09693682 -0.14748257 0.03257748 -0.0685368 0.11912637 -0.13960494
0.14945659 0.13824031 0.1427128 0.10910588 -0.12573995 -0.03886272 -0.007687656 0.05333036
-0.04056954 -0.1642229 -0.000734739 -0.045594536 -0.04586994 0.06400549 -0.0066394834 0.00798236
0.0067186244 0.10907444 -0.0072533935 0.009784818 0.016458958 -0.1486049 -0.17081699 0.029727364
-0.0235441 0.14152837 0.076780945 -0.07857334 -0.0056501264 -0.13127007 0.09271887 0.062174223
-0.11401207 -0.041688375 -0.09531355 -0.037728433 0.13349758 -0.06186878 0.04516219 0.1512383
0.080116 -0.12041611 0.04482054 -0.054873064 0.15288472 0.15755825 0.1548958 0.0995743
0.11358728 0.074602164 0.115489356 -0.13159461 0.14560506 0.12415517 0.072859995 -0.13096866
0.11091057 0.097859286 -0.014908956 -0.010646195 -0.028524557 0.04065778 -0.10377781 0.15212074
-0.15683024 0.10740447 -0.09368016 0.11167933 -0.10876969 0.022579841 -0.06539689 -0.07930983

layer_3.bias f4 [36]
00000000: 80a1 1aba 4549 323c eb84 373d a7ff 313e
00000010: bb93 4e3c 50cd 81bd d922 283e ddc5 20be
00000020: 49b5 de3d eea6 093e d8d0 7cbd c0bf 8f3d
00000030: efcd 09be 7e40 1abc 7afd 163e 7719 d53d
00000040: 0292 11be cbc7 29be 1ae9 1bbe e988 213e
00000050: e6d6 70bd 181f afbc ce8a 1b3e 8e3e 623d
00000060: 76d2 733d 3972 2e3e 5575 0c3e 17ba b03d
00000070: f0b2 143d acf7 323e 05bf e23d b571 c6bd
00000080: fa2f edbd b1c6 123e 3d36 063e a49d 6dbd
-0.0005898699 0.010881727 0.044804495 0.1738268 0.012608464 -0.063379884 0.16419543 -0.15700479
0.10874421 0.13442585 -0.061722606 0.07018995 -0.13457464 -0.00941479 0.14745131 0.10405248
-0.14215854 -0.16580121 -0.1522564 0.15774883 -0.058798693 -0.021377131 0.15189669 0.055235438
0.059526883 0.1703576 0.13716634 0.08629244 0.03630346 0.17477292 0.1107159 -0.09689657
-0.115814164 0.14333607 0.13106628 -0.058011666

action.weight f4 [36, 36]
00000000: a8f2 a6bd 3f6e db3d 6438 f7bd fd30 d1bd
00000010: 1001 173d 145a 053e ec8c 14bd 090e f7bd
00000020: 2633 5fbd 6e91 1e3e b0de 25be 224d e5bd
00000030: d9d9 e83d 8ff5 38bc 813c 003e 50db 093d
00000040: eb02 16be aa6f 283e a05c ce3d 0477 453d
00000050: 0071 883d b4a4 eb3d ae55 00bd f5c3 07be
00000060: 785a a8bc 0d67 0d3e a755 42bc 7ded 81bd
00000070: 6288 2e3d 714e 223d eb54 08be 16fb bc3d
00000080: 86ec 04be 5275 17be 0343 12be 487f 493d
00000090: 3ed9 5e3d 1724 343e 8ef7 0dbe e644 8bbd
000000a0: e071 20be a364 883c 6216 15be ad16 dabd
000000b0: 54ec b7bc 1673 aa3d 87aa 013e 4bd6 3a3d
000000c0: 31ce 853d 3c91 0dbe cf6e f23d f1f8 143c
000000d0: a050 b0bd a6e6 033d 5013 0e3d b7a1 ec3d
000000e0: b849 8bbd b8bb 913d 6dab a4bd 5fd9 1b3e
000000f0: 0282 883d 078b eabd 6cb2 01bd c87a b73d
00000100: 3bce 0f3d 8a4a 55bd 6752 a3bd 2b67 be3b
00000110: 3d16 033e f626 e93d b137 a4bd 89e4 23bd
00000120: fed2 2b3e 5e47 91bd aca9 25bd 97fd 053e
00000130: afad 163e 6e4e b9bd 8ce9 0b3b bd43 173b
00000140: 8f79 893d f4f0 06bd 4016 e13c 374d 583d
00000150: a295 0c3e 4508 373e 4e03 273e fbb9 313e
00000160: 3b9c ae3d 8690 1abd c54f 163e c05f 183e
00000170: 209e c13c 9e61 003e 36ce 9b3d 31a6 1a3e
00000180: 4112 8fbd 3ef4 f83d 765f 86bd ddf7 3a3e
00000190: 7d3c 12be 8921 973d f500 c2bd c061 db3d
000001a0: 0a83 f5bd e0fa 453d 5e59 0d3e 1293 563d
000001b0: 6482 c2bd f9b6 afbd d05f 48bc 552b 16bd
000001c0: 705c 13bd afde 97bd 89b1 1ebe 141d da3d
000001d0: c8e6 dfbd 08fe 94bc 1330 ffbd b1aa 1fbe
000001e0: ab92 66bd 3e27 2fbd 0b0d fb3d 9366 bfbd
000001f0: d08f e23d 6ba2 3cbd 93ca 96bd e246 b0bd
00000200: 26dc 4abd e4a4 1abe 9aa8 8c3c 98c3 79bd
00000210: 638d 853d d290 08be ab59 a03d fa02 18be
00000220: 5f1c b7bd 606a 8e3c bac5 973d b8a3 bfbd
00000230: b6e2 14bc 7e9d 003e 7c0e 31bd 07f8 47bc
00000240: e2fc e23d a3fc 003c c463 9e3b fd55 0c3e
00000250: 6c62 20be 464f 113e b0f9 483d 4a55 0bbd
00000260: 511f 77bd c912 0ebe 20ea dcbc 5dbb 0e3e
00000270: 6374 8bbb 3f25 fbbd 2b19 1f3e fc22 12be
00000280: ab84 873d 00e6 163b 38cf 783d 8faa a63d
00000290: 42d5 073e 891a 46bd ba88 6d3d d660 07bd
000002a0: f5ba e83d 8748 00be 7640 783d 7950 8ebd
000002b0: 5503 e3bd 1d1a e83d e42f 29be e093 c93c
000002c0: 50d5 a4bd 07d0 bebd 6afc b03d a844 23bd
000002d0: 2cda 143e 71be 35be a45f 0fbe b84b f5bc
000002e0: b0ae 48bd dfa8 e13d b816 ccbc 3d90 ddbc
000002f0: e81a 03be 4c19 18bd 063a c93d 294b fdbd
00000300: ed6a 113e 6cd1 bbbd 4a72 b0bd 88e7 e6bc
00000310: db7c e03d 5ba4 ec3d 3de5 253e 117a fc3d
00000320: f886 0abe 019d 0dbc c0f7 8bbd a3e8 b0bd
00000330: 643e f93c 64c2 adbd b96e 97bd 05b8 13be
00000340: f5af f43d 561a b8bd 390e e1bd f679 babc
00000350: 5849 18be c792 1ebe ecff 19be e991 ee3a
00000360: 240f 423d 3398 e4bd 30fa a23d 3910 0ebe
00000370: 3008 c2bd 7dc3 0dbe aadb 10be c399 c73d
00000380: 7acd 2e3e 972f 02be 1498 273e 2dd6 893d
00000390: 2670 0c3e 8cd8 a6bd 657c e63d 4c1b 70bd
000003a0: 5040 bcbd 2bf9 1fbe a4cf 5dbc 92b2 1dbe
000003b0: 3b41 003e 0183 33be ed78 113e edbc 223e
000003c0: af5d f7bd 82c0 773d 3349 0cbe d1d1 f93d
000003d0: 02a2 7c3b 10c3 1e3e a865 64bd 8062 3b3c
000003e0: 868c fb3b 9825 c8bd 59ed 183e 87db 41bc
000003f0: 6e16 97bb 8225 db3d b2c8 e1bc fb8a 9ebd
-0.08151752 0.10714387 -0.120713025 -0.10214422 0.036866248 0.13022643 -0.036267206 -0.12063224
-0.05449214 0.15485165 -0.1619823 -0.111963525 0.11369676 -0.0112890145 0.1252308 0.03365642
-0.1464955 0.16448846 0.100762606 0.048209205 0.06662178 0.11506024 -0.03133171 -0.13258345
-0.020550951 0.13808842 -0.011861241 -0.063441254 0.042610534 0.03962559 -0.13313644 0.09227578
-0.12980852 -0.14790848 -0.14283375 0.04919365 0.054406397 0.17591892 -0.13863966 -0.06800251
-0.1566844 0.01664955 -0.1455932 -0.10648856 -0.022451557 0.08322732 0.12662707 0.045614522
0.065334685 -0.13824934 0.11837541 0.009092555 -0.08609128 0.032202385 0.034686387 0.11554282
-0.0680117 0.07115883 -0.080405094 0.15219639 0.06665422 -0.114522986 -0.031664297 0.089589655
0.035108786 -0.05207304 -0.079747014 0.0058106384 0.12801452 0.11384384 -0.08018435 -0.04001287
0.16779706 -0.0709369 -0.040445015 0.13085018 0.14714693 -0.090481624 0.0021348922 0.0023081147
0.067126386 -0.032944635 0.02747643 0.052808013 0.13728955 0.17874248 0.16309854 0.17356102
0.08525892 -0.037735485 0.14678867 0.14880276 0.02363497 0.12537238 0.07607691 0.1510246
-0.069859035 0.121559605 -0.065611765 0.18258615 -0.14280887 0.07379443 -0.09472839 0.10712004
-0.11987884 0.048334956 0.13803622 0.05238635 -0.09497526 -0.08579821 -0.012229875 -0.03666242
-0.035976827 -0.074155204 -0.15497412 0.106500775 -0.1093269 -0.018187538 -0.12460341 -0.15592457
-0.056292217 -0.042762034 0.12258347 -0.09345736 0.11062586 -0.04605333 -0.07362857 -0.0860727
-0.049526356 -0.15101963 0.01717024 -0.06097755 0.06521108 -0.13336495 0.07829603 -0.14844885
-0.08940958 0.017384708 0.0741076 -0.09357399 -0.009087255 0.12560079 -0.043226704 -0.01220513
0.1108339 0.007872733 0.0048336703 0.13704677 -0.15662545 0.14190397 0.049066246 -0.034016885
-0.0603326 -0.13874353 -0.026967108 0.13938661 -0.0042558177 -0.122629635 0.15536945 -0.14271158
0.06617101 0.0023025274 0.060744494 0.08138 0.13264945 -0.04836515 0.05799172 -0.033051334
0.11363784 -0.12527667 0.06060835 -0.06948943 -0.1108462 0.11333106 -0.16522175 0.024606645
-0.08048499 -0.09317022 0.08641894 -0.039860398 0.14536351 -0.17748429 -0.14001328 -0.029943332
-0.04899472 0.11018538 -0.024913177 -0.027046317 -0.12803233 -0.0371335 0.0982552 -0.12367851
0.14200945 -0.091708034 -0.08615549 -0.028186575 0.10961314 0.11554786 0.16200729 0.1232797
-0.13528049 -0.00864339 -0.06834364 -0.08638122 0.030425258 -0.08484343 -0.073941655 -0.14425667
0.11947624 -0.08989398 -0.10989041 -0.022763234 -0.14871728 -0.15485679 -0.15039033 0.0018201444
0.04737772 -0.11161842 0.07957876 -0.13873376 -0.09474218 -0.13844104 -0.14146295 0.097461246
0.1707057 -0.12713467 0.16366607 0.06730304 0.13714656 -0.08146772 0.11254195 -0.058619782
-0.09191954 -0.15622394 -0.013538275 -0.1540015 0.12524883 -0.17530443 0.14206286 0.15892382
-0.120784156 0.060486324 -0.13699798 0.121982224 0.0038548713 0.15504098 -0.05576101 0.011437058
0.007676664 -0.097727954 0.14934291 -0.011832125 -0.004610828 0.107005134 -0.02756152 -0.07741352

action.bias f4 [36]
00000000: 1c62 57bd 3c2a bebd de3e e5bc 2fb8 f7bd
00000010: 1f86 cc3d ae66 febc 6d4a b23d cc00 783d
00000020: 704d 0a3e aaf6 223e 5778 bc3d 21ac 183e
00000030: 9fd4 243e 11bf e03d fcb4 1abe c14f 04be
00000040: b5eb ad3d b73f 2b3e dc58 7dbd 2bc0 e1bd
00000050: ffe8 cf3c ca6f 673d 4519 3b3d b915 29bd
00000060: 2a79 88bb 6255 023d 21db a0bd 66ae 583d
00000070: fb84 ca3d a10a afbc d9b3 84bd 43d7 8e3d
00000080: 4542 b83c d5e4 d13c ebc2 efbc d401 0c3c
-0.0525838 -0.09285399 -0.027984079 -0.12095677 0.09986519 -0.03105482 0.08705602 0.060547635
0.13506103 0.15914407 0.092026405 0.14909412 0.16096734 0.10973943 -0.15108103 -0.12921049
0.08492223 0.16723524 -0.06185232 -0.11022981 0.025379656 0.056503095 0.045678396 -0.041280482
-0.0041648345 0.03181971 -0.078542955 0.052900694 0.09888645 -0.021367373 -0.06479616 0.06974652
0.022492537 0.02562181 -0.029267749 0.008545358
