mean_model.pt (torch, 21583 bytes, 8 tensors)

layer_1.weight f4 [33, 30]
00000000: cc58 693d 29c8 9f3d 383b 22be 460b 96bd
00000010: a273 e23d d0b0 c43c c7f8 cf3d 7986 0dbe
00000020: e1e9 38be 3011 023e b4d6 59bc 3ed5 b5bb
00000030: 2ed3 debb fafb b1bd d279 d1bd 3966 f0bd
00000040: 94a4 863d 094e 16bd 5e87 b7bd 1397 ebbc
00000050: a372 c5bd b65e 8abd 2f0e 1fbe 60b1 bbbc
00000060: a990 3b3e d078 153d b6c3 ab3b 1466 b1bd
00000070: 1141 c8bd 7d42 f7bd d9cb aabd 443b 0dbe
00000080: c064 30bb 4be5 393e 85e5 a33d 982d bb3c
00000090: 6e9f 06bd 965b 2e3e 14a4 663d 7518 42be
000000a0: e43c 313d 3776 2abd 1d57 febd 3de1 b53d
000000b0: caa6 08be eb7a d63d e486 1c3e 1a59 be3d
000000c0: 243b cbbd bcbd f3bd 3f70 943c a67c fd3d
000000d0: 6a0a 8fbd 9d08 bcbd b7c6 1ebe fa3d c6bd
000000e0: b37b 31bc 10c4 f93a 7628 16be 51b2 fdbd
000000f0: 7e5c 0ebe bc4b 4fbd 4285 2ebd b837 9b3d
00000100: 6f31 e8bc b540 e7bd 1243 243d 48e7 e0bd
00000110: 9c5e 91bd 4d1c d9bd 2e15 1abd 2161 f1bd
00000120: 4da4 0d3d def6 553d 867e d43b 7773 373e
00000130: c44a eebc 9bc7 ecbd cefc 633c 3ac6 503d
00000140: b991 85bd 55f2 ccbc 9c99 1a3e 9b6c 333e
00000150: 90d4 393e 077d 8c3d 1e1b 883b eff4 f1bd
00000160: 5bc6 213e 8bfa 113e 67db cebd 2482 8cbc
00000170: 80df fb39 775f e13c fbde 6bbd 14a7 203e
00000180: 571c 223e 2c25 e1bd 8acb 02be a089 2bbd
00000190: 0828 683d 3cfe d43c cfbd 263e e20e 473e
000001a0: 0814 c9bd 17c5 183e 9d9e f4bd f4b3 15be
000001b0: aefe ea3d c140 3fbc 4d58 84bd bf3c b6bc
000001c0: 43b8 26bc 507c cebd c89b 833c 7563 243e
000001d0: ae9d d83d 2206 7f3d c688 053e d101 f93d
000001e0: 7045 31be a62f 3fbc 8187 1b3c 788f 09be
000001f0: c8ee 1a3e ba1f 183e c967 0a3e 7534 a6bd
00000200: b019 64bd 26e4 2b3e c67c 163e 6d8d eebd
00000210: 6ca2 d53d b85b 2cbe d362 0bbe ee75 383d
00000220: 48fb 393e 4463 04be bcd1 1bbe a2e3 25be
00000230: 40ca 33be 2aaa b83d f6c2 9cbd 74e7 3a3d
00000240: be76 25be 9261 5ebe 05ac fa3c 5498 3abd
00000250: 15b2 183e 489a 533e 20ad 35be 2646 bfbd
00000260: 76d8 1e3e 135a 9cbd d254 16bd 5018 16be
00000270: 97a2 efbd b7a4 f93d 6612 2bbe c071 7ebc
00000280: b259 3e3d 954c 693d 44a7 0b3e 6bfd 583c
00000290: 19ce f9bd f7f9 f0bd 33ef 19be 8389 93bd
000002a0: 6b3e 2bbe 143d 01bd 3d7e 25be 4a8a 17be
000002b0: 73ad e73c 99dd 8bbd 39f9 debd ed8b 15be
000002c0: af72 3b3e e6bc 3a3e f7f3 96bd 46f1 9bbd
000002d0: d842 b13c cdd2 fa3d 3798 1ebe 9029 423d
000002e0: 9b4c a4bd d8a0 ebbd 0dd3 16be 8234 5c3e
000002f0: f66e 1b3e 927e 223d 79ab 2ebe 4a3e b4bc
00000300: 939c febd 045e 9ebc 728d 20be 33b5 bebd
00000310: 9e3a 133d 8bb4 223e aed5 1cbc 7fba f5bd
00000320: 4b0f 35be 8ec2 aebd 6086 cbbd 85cd 0bbe
00000330: 2bf0 593e de2a 1abe afd7 ce3d 0524 42bc
00000340: 1ddd 573e c4b0 183e 66cd 1c3e 3548 063e
00000350: 8b32 c9bd 38d7 06be fb99 ff3d c218 103e
00000360: 56d4 65bd 2d21 043e 70a9 08bd 2978 6cbd
00000370: e8d2 7dbd 7375 b63d cacb 11be e7aa e9bd
00000380: c5b9 6cbe 9607 f4bd 0030 513e 1123 04be
00000390: 94c0 043e f7e7 7f3d 5c71 e0bb c894 50bd
000003a0: 9bdb 9e3d fd79 10be 6ebe a13c da23 113e
000003b0: 6f76 4ebd c192 85bd 0dee 12be 8cec 7f3d
000003c0: b085 f33c d8c0 b83d 1d54 023e 6177 0abc
000003d0: 766d bd3d 006b 39bb ba30 0e3d f47c 0ebd
000003e0: ceb1 b0bd 1646 32be 39a3 503e a70f 1abe
000003f0: bc4a 693d d5af 08be f67e 5fbc 67eb 26be
0.05696945 0.078018494 -0.15842903 -0.07326369 0.110572115 0.024010092 0.101548724 -0.13820828
-0.18057968 0.12701869 -0.013295818 -0.005549102 -0.006800077 -0.08690639 -0.102283135 -0.117382474
0.065743595 -0.036695514 -0.08961366 -0.028758561 -0.09641006 -0.06756346 -0.15532754 -0.022911727
0.18316902 0.03649217 0.0052418364 -0.08662048 -0.097780354 -0.120732285 -0.08339662 -0.1379214
-0.002691552 0.18153875 0.08002762 0.02284889 -0.032866888 0.17027125 0.05630882 -0.18954642
0.04327096 -0.041616645 -0.12418959 0.088808514 -0.13344875 0.104726635 0.15285832 0.092943385
-0.099233896 -0.11901423 0.01811993 0.123772904 -0.06984408 -0.0918133 -0.15505491 -0.0967979
-0.010832715 0.0019055624 -0.14663872 -0.12387527 -0.1390247 -0.050609335 -0.042607553 0.07578987
-0.028343884 -0.11291639 0.040103026 -0.109816134 -0.070981234 -0.10601101 -0.037617855 -0.11786104
0.034580518 0.052237384 0.0064848093 0.1791514 -0.029088385 -0.11561509 0.013915254 0.050970294
-0.06521935 -0.025017897 0.1509766 0.17521898 0.18147492 0.068597846 0.0041536232 -0.118142955
0.15798323 0.14255731 -0.101004414 -0.0171519 0.0004804097 0.027511341 -0.057585698 0.15688735
0.15831123 -0.10993418 -0.12772956 -0.041879296 0.0566788 0.026000135 0.16283344 0.19439271
-0.09818274 0.14918934 -0.119443156 -0.14619428 0.114743575 -0.011673153 -0.064621545 -0.022245763
-0.010175767 -0.100823045 0.016065493 0.16053565 0.1057695 0.062261708 0.13040456 0.121585496
-0.17311645 -0.011669075 0.009492756 -0.13433635 0.1513015 0.14855853 0.13516153 -0.08115474
-0.05568856 0.1678625 0.14696035 -0.116480686 0.1043137 -0.16831863 -0.13611917 0.04503434
0.18162262 -0.12928492 -0.15216726 -0.16200116 -0.17557621 0.09016831 -0.07654373 0.045630887
-0.16158578 -0.21716908 0.030599603 -0.045555428 0.14911683 0.20664322 -0.17741823 -0.09339552
0.15512261 -0.07634368 -0.036701985 -0.14657712 -0.117009334 0.1218962 -0.16706237 -0.01553005
0.04647226 0.0569578 0.13638026 0.013244013 -0.12197513 -0.11766427 -0.15032654 -0.07203963
-0.1672303 -0.03155239 -0.16161437 -0.14798847 0.02828095 -0.06829376 -0.10887379 -0.14604159
0.18305467 0.18236122 -0.07370751 -0.07614379 0.021638319 0.12247238 -0.15487753 0.04740292
-0.08022424 -0.11505288 -0.14728947 0.21504405 0.15179047 0.039671488 -0.17057599 -0.022002358
-0.12432208 -0.01933194 -0.15678957 -0.09311905 0.035944574 0.15889184 -0.00957243 -0.11998462
-0.17681615 -0.08533202 -0.09937739 -0.13652618 0.21283023 -0.15055415 0.10099732 -0.011849408
0.21080442 0.1491118 0.15312728 0.13113482 -0.098240934 -0.13168037 0.12480541 0.14071944
-0.056110702 0.1290328 -0.033364713 -0.05773178 -0.061968714 0.089091204 -0.14237896 -0.1140955
-0.2311774 -0.119155094 0.20428467 -0.12904002 0.12964088 0.06247708 -0.006849451 -0.05092314
0.0775673 -0.14109035 0.019744124 0.14173833 -0.050405916 -0.06522132 -0.14348622 0.062481448
0.029726833 0.09021157 0.12727399 -0.008451314 0.09249394 -0.0028292537 0.034714438 -0.034787133
-0.086276636 -0.17409548 0.20374765 -0.15045033 0.056956038 -0.13348325 -0.01364111 -0.16300736

layer_1.bias f4 [33]
00000000: 3541 8e3d 2a35 b0bd 489a 8e3d 227c fe3d
00000010: 3c44 ab3d cdd7 37be 63b0 c6bd 88d4 d13d
00000020: ce8a 2dbe 4751 f63d daf1 033e e8d4 fc3d
00000030: c949 cb3d de91 87bc 3d29 153e 3c55 dc3d
00000040: d9cb 3c3d 7e4b 583e 1f16 cfbd b1aa 1dbe
00000050: 94a5 b43d 71e4 113e 0227 ddbd c44c 0abc
00000060: 80e0 d03d ea5c 25be da1e 62be 5b84 8abd
00000070: ed07 19be 180e 85bd 382a 86bd 0c44 8dbd
00000080: a376 8e3d
0.06946031 -0.0860389 0.069630206 0.1242602 0.08362624 -0.17953415 -0.09701612 0.10245615
-0.16947481 0.12027221 0.12885228 0.12345296 0.09926183 -0.016549047 0.14566512 0.10758445
0.04609284 0.21122548 -0.10111641 -0.15397145 0.08820644 0.142473 -0.10798456 -0.008441154
0.1019907 -0.16148725 -0.22082081 -0.06763526 -0.1494443 -0.06496829 -0.06551021 -0.068977445
0.06956222

layer_2.weight f4 [34, 33]
00000000: be25 d23d b68f 3d3d 3869 fdbc 9468 893d
00000010: 12af b23c 8226 163e 6a33 a03d 1679 50bc
00000020: a4c3 f5bd 91e7 653e fafe 9e3d f409 093d
00000030: 9385 0dbe 04ef 42bd c75e 26be 48cb 973c
00000040: 51cc 2d3e 34c5 57bd abc2 273e ae1a a33d
00000050: 3648 6cbc 2b58 61bd ceaa 2abe c24e d7bd
00000060: aa80 2c3d 60d3 34bd 79f7 2c3e fdc0 dc3c
00000070: aa0b c0bc 2cd2 27bd 560f 313d fee5 46bc
00000080: 1abe a33d 7a19 a93d c075 31bd 3e14 a23d
00000090: f82f 71bd 1020 87bb 3fdc 133e 114d 40bd
000000a0: 23f8 b03d 1932 fcbd 59e8 953d 2ee5 623e
000000b0: 7180 8bbd 5ac3 40bd 8c14 94bd 4c90 383e
000000c0: a517 053e f693 3e3e ba04 dbbc e113 0c3e
000000d0: 94f0 9a3d 451d 323d fc49 15bb b7f7 2ebe
000000e0: 3260 193e 85ea edbc 4466 2bbd d6e0 30be
000000f0: 9a99 923d f4cf 2b3e 8525 003e e8a3 c7bd
00000100: 00e8 fa3d 5489 72bd 7661 78bd af67 eebd
00000110: 6ada 323e 0577 b03d 305f a1bb c6f8 d93d
00000120: be17 193e 367a d1bc ca10 42bd c433 9cbd
00000130: a07b d1bd 2352 e33d 2e70 e1bd cb2b 233e
00000140: 46be 073d 8380 40be 6464 f93c a0a9 3bbe
00000150: da0a 423d f303 99bd 9cf0 d2bb c3ab 23be
00000160: f5c1 8e3d 9e21 1b3e 3544 db3d 62e1 1e3e
00000170: d798 9e3d 0155 503c 6c0f d4bd d31d 073d
00000180: aeaf 6a3d 5b4f 103e ca50 bebd e491 de3d
00000190: c86b 313c 6c14 47bd 2107 5ebe db04 5e3e
000001a0: 4238 ad3d 9471 2dbd 5cfb a5bd 14b0 adbd
000001b0: ca58 f83d ce7b a13d 2e4b dd3d a5ec 82bd
000001c0: 564f c13d fe5f 033d 02f7 dcbc fca5 b33d
000001d0: 70fc 1e3d 48ce 733d 842a 8cbd 1acb 523d
000001e0: 9df4 0ebc 9804 4d3d 2421 74bd b8f9 433d
000001f0: 20a4 43bd e6aa f13d e875 063d 64ba 793d
00000200: 5c14 ebbc 9796 263e 3527 133e 8ecf 2fbe
00000210: ff17 2e3e dd08 07be bbb0 e53d 3fbe 8c3d
00000220: 127e cc3d 7629 57bd 6ac6 1e3d 9e4d 34be
00000230: b8dd 90bc 4220 94bd 77d0 85bd 47fe 483d
00000240: fef7 05be d754 d13d 501c 79bd 8346 0c3e
00000250: 837f d8bd 5117 bd3d af8c 15be 8732 bdbd
00000260: a779 f0bd 4187 843d 2858 0d3e d3dc a83b
00000270: 348e 2fbe c8fb 5fbd 5ac7 eabd 5327 0a3d
00000280: 9eb6 b93d 05bf f53d 847b 05bd acc4 0e3e
00000290: 6793 c43d 5665 573d f49b 19bd c3d5 52be
000002a0: e91a 953d b6be 1ebe 4020 643d 765b a2bd
000002b0: 3548 bd3d c378 a43d 1d93 0abe 2d5e c3bd
000002c0: 6a20 3fbe cb8a 06be a432 073e 1aee 2c3d
000002d0: 84d4 07bd 9e44 373d aad4 83bd 27ac fb3c
000002e0: b69c 1c3e fd89 03be fb5c b43c ae62 8e3d
000002f0: 09d8 8fbd 8092 353c 38e6 863d 9430 273e
00000300: 4ccd 303e b148 8abd 7c14 373d 0d1e fabd
00000310: b5c7 e5bc c9b9 a43d d01f b7bc 56be 5dbd
00000320: dcd3 8abd ba3d 143e 66ba 2bbe ec95 e23d
00000330: 19e8 1abe 20f2 ffbc 0447 713d 00cf db3c
00000340: 6069 373c 0871 45bd b809 ce3c a8d5 adbc
00000350: 0997 90bd 3aea 98bd 80b3 fb3c c05a d4bc
00000360: b0e1 14be 581e b7bc 2cb1 dd3d 68d4 aa3d
00000370: 8c12 bb3d 9019 373c 486c 91bd f4cf c13d
00000380: 470f b8bd c039 56bc 3b45 f7bd a864 b73d
00000390: ec0f 673d c035 f43b 3096 563d 66ce 4c3c
000003a0: ae9d da3d b4b2 3ebe ac19 de3d f0c7 c7bd
000003b0: 4ef7 963d ada9 f3bd 22ac b1bd 7220 3cbe
000003c0: 64f6 273e 7bd0 f13d 7c40 293b d58a 5fbe
000003d0: 554c 0bbe c4ca 58be aa05 103d 766b 00be
000003e0: 28b9 62bd cbb1 2dbd 3cd2 d43c 8857 683d
000003f0: 7558 abbd 4db1 ecbd 7c86 f5bc 0e6d 453d
0.10261105 0.04627963 -0.030933961 0.067094 0.021811996 0.14663127 0.078223065 -0.012724182
-0.12000206 0.22451617 0.07763477 0.033456758 -0.13820486 -0.047591224 -0.16247092 0.01852955
0.16972472 -0.052678302 0.16382854 0.07964073 -0.014421513 -0.055015724 -0.1666672 -0.10513069
0.04211489 -0.044146895 0.16891278 0.026947493 -0.023443062 -0.04097192 0.043227516 -0.012139795
0.07995243 0.082568124 -0.043325186 0.07914017 -0.058883637 -0.004123695 0.14439486 -0.046948496
0.08641078 -0.12314243 0.073197074 0.22157738 -0.06811608 -0.0470613 -0.072304815 0.18023795
0.12997301 0.1861113 -0.026735652 0.13679458 0.07565418 0.043484945 -0.0022779694 -0.17086683
0.14978102 -0.029042492 -0.041845575 -0.17273268 0.071582034 0.16778547 0.12514313 -0.097480595
0.12251282 -0.059212998 -0.06063982 -0.1164087 0.17466131 0.08616451 -0.0049246773 0.10643153
0.14950463 -0.02557097 -0.047379293 -0.07627061 -0.10228658 0.11099651 -0.11007725 0.15934674
0.033140443 -0.18799023 0.030443378 -0.18326426 0.04737363 -0.074714564 -0.0064373743 -0.1598349
0.06970588 0.15149543 0.10706369 0.15515664 0.07743996 0.012715579 -0.10354504 0.032987427
0.057296447 0.14092772 -0.09292753 0.1086767 0.01082892 -0.04860346 -0.21682407 0.2168154
0.08457996 -0.042344645 -0.081045836 -0.0848085 0.1212631 0.07884942 0.10805355 -0.063927926
0.0943896 0.032073967 -0.026973251 0.087718934 0.038814962 0.059522897 -0.06844047 0.051463224
-0.008725313 0.05005321 -0.059601918 0.047845572 -0.047763944 0.118001744 0.032827288 0.06096877
-0.028696232 0.16268383 0.14370425 -0.1716902 0.17001341 -0.13186975 0.11215349 0.06872224
0.099849835 -0.052529775 0.03876344 -0.17607734 -0.017683849 -0.07232715 -0.06533902 0.049070623
-0.13082883 0.1022126 -0.060818017 0.13698773 -0.10571196 0.09232963 -0.14604448 -0.09238153
-0.11741953 0.0647111 0.1380316 0.0051532774 -0.1714409 -0.054683477 -0.114638045 0.03372891
0.090680346 0.11999325 -0.032588497 0.13942212 0.09598427 0.052586876 -0.037502244 -0.20589356
0.07280523 -0.15502438 0.05569482 -0.07927601 0.09242288 0.08030846 -0.13532682 -0.09539447
-0.18664709 -0.13138883 0.13202912 0.04221926 -0.033161655 0.044743173 -0.06437047 0.030721737
0.15294155 -0.12845607 0.022016993 0.069524154 -0.07023627 0.011082292 0.065868795 0.16327125
0.17265815 -0.06752146 0.04469727 -0.12212763 -0.02804933 0.08043248 -0.022354037 -0.054136597
-0.0677869 0.14476672 -0.16770324 0.110637516 -0.151276 -0.031243384 0.058905616 0.026832104
0.011194557 -0.048203498 0.025151119 -0.021220043 -0.07060058 -0.0746655 0.03072524 -0.02592218
-0.14539218 -0.022353336 0.108248085 0.083412945 0.09134397 0.011175528 -0.07100731 0.09463492
-0.08987289 -0.013075292 -0.120737515 0.089547455 0.05641167 0.0074526966 0.052389324 0.012500381
0.10674606 -0.18622857 0.1084474 -0.09754932 0.073713884 -0.118975975 -0.0867541 -0.18371752
0.16402584 0.118073426 0.002582579 -0.21830304 -0.13603337 -0.21171099 0.03516165 -0.12540993
-0.05535236 -0.042405885 0.025979154 0.0567241 -0.08366481 -0.11557255 -0.029971354 0.048199706

layer_2.bias f4 [34]
00000000: af1c 29bc 9a80 d1bd b039 d4ba 1a68 293e
00000010: 37e4 11be cf73 b53d 797a 0bbe c90d f6bd
00000020: 50d2 913d 7cf4 343e 50b9 403d 8eb0 22be
00000030: 85e7 0e3e 1779 33be a448 2cbb 4eac c23d
00000040: 1abe 48be 8ef8 5b3d c86a 403e 720d cabd
00000050: 76c6 7f3d 245b 203e d88f 413d bbd0 043e
00000060: 5e01 1f3d 5478 113e e359 3f3e 94e2 453d
00000070: 3510 e0bd 6fef a7bd 2d60 94bd 082c 2abe
00000080: b38a 21be 01ab 14be
-0.01032178 -0.10229607 -0.0016191509 0.16543618 -0.14247213 0.08859979 -0.13620938 -0.12014348
0.07120192 0.17671388 0.047051728 -0.15887663 0.13955505 -0.17526661 -0.0026288414 0.09505521
-0.19603768 0.053703837 0.18790734 -0.09865846 0.062445126 0.15659767 0.04725632 0.1297025
0.038819663 0.14206058 0.18686633 0.048311785 -0.10940591 -0.08199965 -0.072449066 -0.16618359
-0.15775566 -0.14518358

layer_3.weight f4 [36, 34]
00000000: da7a aabd 6efb d03c 5d47 c8bd 32bc 09be
00000010: 7438 173b babe 2b3c ceb4 d33d 1ba5 2bbe
00000020: fa77 543d 119c 303e 660b b43c e19f 95bd
00000030: b11b 453c 72d2 a13d 16d2 bb3c e5d2 b53d
00000040: 7572 e83c 7c1e 51bd 1c3e 02be 4cc4 bfbd
00000050: 4e8c 61bd a647 f93d dd24 4c3e 75a4 8d3d
00000060: 1327 e7bd 8cc8 c83d ef8e de3d 98c0 ebbd
00000070: 122c a5bd f5bd fabd 3ee6 53bb 0915 203e
00000080: b613 1a3e 3a7a c2bd 874c 24be 4af4 3b3d
00000090: 0f50 1dbe 557b 08bd b67f 1cbd 4f9e a83d
000000a0: 304c fe3c 76ea 15be b912 c43d 0add 12be
000000b0: 507c 773c 0fcb 0bbe 40fd cabd 473a 37be
000000c0: 6f4d 30be ca22 173e 6096 12bc 5280 073d
000000d0: 7c9e 90bd 9b56 3ebe 0267 1ebe c4a2 733d
000000e0: 463d 9f3d 5d28 06be 6558 cebd 964b 4cbe
000000f0: 059b 11be 0d02 243c 719f 25be ee85 2dbe
00000100: 2d94 073e 46e2 7dbd 2e35 fcbd 1e6d ff3d
00000110: 944d abbd ce0b b4bd f2bc 953d 13d3 a6bd
00000120: 67fb e63d 6f17 683d cdf1 8cbd 72da a7bc
00000130: e500 ddbd 826e 0f3d f6d8 5c3c 1fa7 91bd
00000140: 0f93 1ebe dd24 0d3e c6a2 0e3b 6ef5 3c3c
00000150: 7f20 233d cb28 2c3d 9c2e 8bbd 22a1 013e
00000160: eeeb c13d dc87 dcbb 509e 313c 8330 48be
00000170: 8c99 16bd 94cf 58bd 8402 ccbd c87d a0bd
00000180: e7bb 1fbe a62f 873c 4b4e 06be 67df a0bd
00000190: ea0c 633d a336 553d 0623 98bd 53eb 01be
000001a0: 29da 0c3e 2e61 ca3c 7bc3 7a3c 72a6 cb3b
000001b0: 59d3 093e 870c 833d e257 c33d 6542 1b3e
000001c0: 2d38 183e c990 213d a0e3 0d3e 7dc4 063e
000001d0: b957 c1bd 4445 2bbd a982 a93d 86da b5bd
000001e0: 6989 013e 4461 373c f810 dc3d 9dde 02be
000001f0: 72e5 d93d 4626 92bc 002e f73d c4b8 ba3d
00000200: 9a03 04bd b5bc a03d a882 d0bd 9720 1d3e
00000210: e311 8ebc cdbb 23be d63a 433e 220a f7bd
00000220: 2e9d 90bd e034 3f3b 90ab 333e 8102 0d3e
00000230: c7a1 12bc f8fc 4bbd 9050 4bbc b2e8 94bd
00000240: b223 933c 7207 2bbe aa3c 3ebd b330 67bd
00000250: c8ce 54bd 6799 783d c670 c13d d748 14be
00000260: 16e6 033e 1e6d 0abe 6931 1a3e 72a9 c23d
00000270: d388 b83d 5370 fbbd b65e 83bc 0104 4fbd
00000280: a9f7 18be 3a7a 0bbd c978 d6bd 7f09 c6bd
00000290: 48c4 133e 6317 eabd 58b3 133e da5a 0abe
000002a0: 4219 3f3e bf23 1ebe 8df7 9bbd 6748 0fbe
000002b0: bdcb 76bd 3ce5 3fbc 0591 ccbd 0cf4 2a3e
000002c0: eae5 55bd 80bd 9b3b fb18 4a3d 1d5c cc3d
000002d0: 40cd 4ebd 7a53 36bc 9e75 e23b 089d 46be
000002e0: d699 41bd f86d 2b3d fc76 a83d 7649 de3d
000002f0: eb98 f7bd 6f43 cf3d c1df 03be ebf9 89bb
00000300: cc66 183e 7b9b e1bd 8d1d fdbc 6bc8 133e
00000310: 1a47 fb3d 53e2 13be d1c1 073d 583a 353c
00000320: 0a32 c4bd 6807 db3d 3cb9 a4bc c9b7 373e
00000330: 063b 39be 9126 0d3e 04ce 61bc cea6 3d3d
00000340: e5da 1fbe 4e10 c83d d2ac ce3d 4f69 f83d
00000350: 20ee 1dbe 6340 5cbe 8dd0 f8bd d958 0bbd
00000360: 4a38 5c3d 69ec bcbd bebf c8bd 9e1f 9b3d
00000370: 66f1 403e 3e0e 12be bbe4 40be 641b 0cbd
00000380: d10e 28be 2867 e7bd b1d0 3fbd b210 07be
00000390: d22c 50be 54f3 4fbe 5020 353d 1221 2fbe
000003a0: a6ed 0fbe 11c7 a6bd 0019 8fba fac9 14bd
000003b0: 2c9f 85bd fa94 7abd 0559 d23d 98ad 8cbd
000003c0: cf1c b13d 3ed7 e4bd cf5f adbc eae0 13be
000003d0: e3f5 2d3e 2523 e53d 1b12 b63d bf01 993d
000003e0: a40d 003d 8eb8 c03d 1c71 d2bd da1f 0ebe
000003f0: 1220 f33d ac04 f83d b87c b6bc b3fd a6bd
-0.08324213 0.025510516 -0.097792365 -0.13450697 0.002307442 0.0104824845 0.1033722 -0.16762201
0.05187223 0.17247035 0.021978091 -0.07305885 0.012030528 0.079014674 0.022927325 0.088781156
0.02837489 -0.051054463 -0.12719005 -0.093636125 -0.055065446 0.12171869 0.19935937 0.06916133
-0.1128675 0.09803876 0.10867106 -0.11511344 -0.08065046 -0.12243263 -0.003233328 0.15633024
0.15046582 -0.09495969 -0.16044818 0.04588727 -0.15362571 -0.033320744 -0.038207732 0.0823332
0.031042188 -0.14640221 0.095738836 -0.14342132 0.015105322 -0.1365168 -0.09911585 -0.17893325
-0.17217039 0.14759365 -0.008946985 0.03308136 -0.070614785 -0.18587725 -0.15468982 0.059481397
0.07775359 -0.13101335 -0.10075454 -0.19950709 -0.14219292 0.010010255 -0.16174103 -0.16945621
0.13240118 -0.06198337 -0.12314831 0.12471984 -0.08364406 -0.08791314 0.07311429 -0.08145728
0.1127842 0.056662973 -0.06882057 -0.020489905 -0.10791186 0.035017498 0.013479462 -0.07111954
-0.15485786 0.13783593 0.00217645 0.011533124 0.039825913 0.04203109 -0.067959994 0.12659124
0.09468828 -0.006730063 0.010840967 -0.19549756 -0.036767527 -0.052932337 -0.09961417 -0.07836491
-0.15599023 0.016502213 -0.13115804 -0.078551106 0.055432238 0.05205406 -0.07428555 -0.12687425
0.13755096 0.024704542 0.015305395 0.00621491 0.13459529 0.06398874 0.09538247 0.15162046
0.1486518 0.03944472 0.13856363 0.13160892 -0.0944056 -0.041814104 0.082768746 -0.08879571
0.12650074 0.0111926235 0.10745424 -0.12780233 0.10639466 -0.017840516 0.12069321 0.091172725
-0.032229997 0.07848493 -0.10181171 0.15344463 -0.017342513 -0.15989609 0.19065413 -0.120624796
-0.0706123 0.0029175803 0.17545915 0.13770486 -0.008949704 -0.049801797 -0.012409344 -0.072709456
0.017961357 -0.16702059 -0.046444573 -0.056442928 -0.051955014 0.06069317 0.09445338 -0.14480911
0.1288074 -0.13518187 0.15057911 0.095049754 0.09010472 -0.122772835 -0.016036373 -0.050540928
-0.14938225 -0.03405211 -0.10472257 -0.0966978 0.14430344 -0.11430242 0.14423883 -0.1351122
0.18661979 -0.15443324 -0.07615576 -0.13992463 -0.060252894 -0.011712369 -0.09988598 0.16694659
-0.052221216 0.004752815 0.04934023 0.09978507 -0.05048871 -0.011128301 0.0069109937 -0.1939584
-0.04726585 0.04185292 0.082258195 0.10853855 -0.12089714 0.10120284 -0.12878324 -0.0042107007
0.14882964 -0.11015984 -0.03089788 0.14431922 0.12269421 -0.14441805 0.033143822 0.0110612735
-0.09579857 0.10694772 -0.020107858 0.17941202 -0.18088922 0.13784243 -0.013782028 0.046301655
-0.15610845 0.09768735 0.100915566 0.12129461 -0.15422869 -0.21508937 -0.12149153 -0.03402028
0.05376462 -0.09224779 -0.09802197 0.0757439 0.18842086 -0.14263245 -0.18837254 -0.03420581
-0.16411902 -0.11298972 -0.046829883 -0.13189963 -0.20329598 -0.20307666 0.04422027 -0.17102459
-0.140555 -0.08143438 -0.0010917485 -0.036325432 -0.065245 -0.06117723 0.102708854 -0.06869048
0.08648073 -0.11173867 -0.02116385 -0.14441267 0.1698833 0.11188344 0.08890172 0.07471036
0.03126301 0.09410201 -0.1027548 -0.13879338 0.11871351 0.12110266 -0.022276267 -0.08153858

layer_3.bias f4 [36]
00000000: 3b2f 123e 0c48 0cbc 4539 8d3d ca7d e9bc
00000010: 7ee6 9e3d bc9c 14be c694 543d f495 9cbd
00000020: ce2c 753d 09da 20be 2996 26be fa8f dcbc
00000030: f467 0b3e 4d6e e33d 4b4b c83d 4759 43bd
00000040: 78d3 073d 11c2 d8bd f52e 043e 4cfe cabd
00000050: 6b2e cd3d d3e2 44be bf99 2cbe 7d52 1abe
00000060: 4924 16be c40c 303e f922 46bc 6b9b 653e
00000070: d686 04bd e433 43bd b5cd 90bd 063b 2d3d
00000080: 08d5 25be cc72 bcbc e906 853c 898d 473d
0.1427583 -0.008562099 0.06895689 -0.028502364 0.07758807 -0.14512914 0.051899694 -0.07645789
0.059857182 -0.15708174 -0.16268219 -0.026924122 0.13613874 0.111050226 0.09779986 -0.047692563
0.033160657 -0.1058389 0.12908538 -0.099117845 0.10018619 -0.19227152 -0.16855524 -0.1507053
-0.14662279 0.1719237 -0.012093299 0.22422569 -0.032355152 -0.04765691 -0.070704855 0.042292617
-0.16194546 -0.023003958 0.016238647 0.048718963

action.weight f4 [36, 36]
00000000: 3b47 1abe da01 e63c a143 ca3d 7448 873c
00000010: 4e28 6a3c 5f0b 003c 008e 64bd 721c 373e
00000020: 0f3c b7bd 3402 2cbe 8055 953b c3ee efbc
00000030: 67f9 053e d094 6c3d eba3 ee3d 1f46 153e
00000040: e0b9 963d e6ee 33be 0197 083e 68b4 e23d
00000050: 7476 a13d 744f a33d 1bbf 8ebd 1da3 253e
00000060: 50b9 87bd 5223 bb3d be27 1dbd 3509 2bbe
00000070: 7a1f dcbd 51c5 373c a7c7 223c 9081 42bd
00000080: 1091 543d aa98 0fbb 62a7 6fbc b01b 013e
00000090: 5141 f83d 4012 9b3d 2e7a bebd d744 31be
000000a0: c169 bd3d 0384 dfbd ef28 a63d cc3b c53c
000000b0: 2e56 90bc b5fe 1fbe f62c a93d 6bce 003e
000000c0: 6471 cb3b 7a23 27bd a3d3 a93d 4d9f a9bc
000000d0: 5b93 1abe 7a9c e8bc 00b4 c0ba ca8b a4bd
000000e0: 3503 ed3d 3ae5 f83c 88ff 803d 34b5 093d
000000f0: bbd9 1cbe 7847 b43c 856b acbd 32e3 483c
00000100: 5e00 5d3b f14d ddbd 2d56 0f3e 623e c83d
00000110: b941 aabc 785c 553d faeb afbd acd0 0abe
00000120: 5f3f 12bd 62d8 68bd b4b7 8b3d a9ec 88bd
00000130: b158 ae3c 89f3 95bd 730a fb3c 66c7 36bd
00000140: d9cc 2c3d 31a8 8d3d 747c 753d 40bb 75bd
00000150: e789 87bc 4b49 acbc 30e6 353d c664 5bbd
00000160: 5506 f6bc f700 31bc a65d 36be 4880 963c
00000170: 94aa e43d dffb 80bd e9eb 183e 014a 0e3e
00000180: 40f7 dabc 9c56 9fbd e23e de3d 9185 c23d
00000190: 4602 43bd ee4b 9b3d 17a7 67bd a8a6 0ebd
000001a0: 2982 f13d e223 2ebc 6dbf 2e3e dae5 d3bd
000001b0: 1508 f03d 0c20 9ebc fab7 bebd 7d72 8b3d
000001c0: c439 bebd b601 dcbd ab4b 8cbd f314 8b3d
000001d0: d549 2f3e 1f8e 59bd 314d 013e be8d 1c3e
000001e0: ef42 313e 681f c53d 7405 c93d f46f 96bc
000001f0: 1295 b6bd e889 65bd 8edc 5a3d 31a0 213e
00000200: 4aec ef3d 7629 cc3d e62b 1ebe 50b2 bcbd
00000210: a27e a43d 28ff 803d 4b59 583e 2c9b 173e
00000220: 8a22 c7bd ec32 b9bd d440 be3d 1e5e 223d
00000230: 9f76 0d3e b027 21bd 6ed9 88bd 1347 44bc
00000240: 02fc 3c3d f706 0e3e fd4b ee3c b398 8a3d
00000250: fc32 c73d e096 38b9 1c8f 14be ff00 10be
00000260: 7b81 d5bd 615a f4bd 60a7 9cbd 74e3 5c3d
00000270: 7f7b edbd 2218 c23d 50fd 8f3d 4731 143e
00000280: db66 b4bd e4f5 dcbd 1cbd 9b3d c0fe fbba
00000290: 9b14 8d3d 2663 7c3c 43c1 adbd 742a 793d
000002a0: 7029 443d 31a8 cabd 02c3 08bd 6643 47be
000002b0: 29c5 46be 82f6 03bc 119f 28be 0069 59be
000002c0: d322 b7bd 98d2 573c 7fa7 16be daf8 a73c
000002d0: 6023 3cbc 93dc d53d 3aa8 cfbd f5b3 033e
000002e0: d7f5 a3bc 659e ab3c 98aa 953d c547 a3bd
000002f0: 2408 54bd dda3 1fbe 380b 8cbc 7b4f 1cbd
00000300: 16dd 1b3e 0c53 ab3b cdea b4bd ad37 e7bc
00000310: face 13be 1668 e53d 40da b33b 92ef 39bd
00000320: 9284 a83d 4cda 153c 444c 01be 2409 01be
00000330: 1386 93bd 06eb db3d ef1a 1abe 5851 693b
00000340: c775 d53d 58d0 96bd 651e 12be ef2c 2ebe
00000350: f681 50bd a2c0 d23d dd9a db3d 460c 033d
00000360: efc4 18be dc22 f6bb f2ef da3c c470 c13d
00000370: 9e0c 263d 7e2a 6d3b 29d9 d7bd b2c7 fe3d
00000380: 6760 04bc c60c 573d 14c6 413d e04a 95bd
00000390: 643b 943d b4d9 073e 52d4 15be be82 2c3d
000003a0: 86d6 6c3d 5960 b9bd e1bf d23d b8fb 72bd
000003b0: 720b b63d bd12 513d 4605 853d e8ee eebc
000003c0: d8fc a63d 4c5c 60bd 92a2 353e 70b4 4fbc
000003d0: ec8d 80bc 8beb 1d3e 50f3 67ba dfc9 9cbc
000003e0: 2662 01be faac f83d 95a2 913d e4c7 34bd
000003f0: 23f9 853d e2ba 8a3d f1ab c33d 1f57 ed3d
-0.15066235 0.028077055 0.098761804 0.01651404 0.014291836 0.007815211 -0.055799484 0.17881945
-0.08947002 -0.16797715 0.0045573115 -0.029288655 0.1308342 0.057759106 0.116523586 0.1457753
0.073596716 -0.17571601 0.13338853 0.11069566 0.07883921 0.07974139 -0.06970044 0.16175504
-0.066271424 0.09137596 -0.03836798 -0.16702731 -0.10748191 0.0112164775 0.009935296 -0.04748684
0.051896155 -0.0021911063 -0.0146273095 0.12608218 0.12121833 0.0757184 -0.09300648 -0.17311417
0.092486866 -0.10913851 0.08113276 0.024076365 -0.017619219 -0.15624507 0.08260529 0.12578742
0.0062085856 -0.040805317 0.082923196 -0.020705843 -0.15095274 -0.028394926 -0.0014702082 -0.08034475
0.11572877 0.030382741 0.06298739 0.033620074 -0.15317433 0.022006735 -0.08418945 0.012261199
0.0033722143 -0.10805882 0.13997717 0.097775236 -0.020783292 0.05209014 -0.08589931 -0.13556165
-0.035704967 -0.056846984 0.06822148 -0.06685764 0.021282526 -0.07321841 0.030644631 -0.044623755
0.042187545 0.069168456 0.05993314 -0.05999303 -0.01654525 -0.021031043 0.044408977 -0.053562902
-0.030032316 -0.010803453 -0.17809162 0.018371716 0.11165348 -0.062980406 0.14933743 0.13895418
-0.026729226 -0.07780191 0.10851838 0.09498132 -0.04760959 0.07582842 -0.056555834 -0.034826905
0.11792404 -0.010628672 0.1706521 -0.10346575 0.117202915 -0.01930239 -0.093124345 0.06808946
-0.09288362 -0.10742514 -0.0685037 0.06791105 0.17118008 -0.053114053 0.12627102 0.15288445
0.1731069 0.09625131 0.09815493 -0.01836393 -0.08915152 -0.05603972 0.053432994 0.15783764
0.117149904 0.099688455 -0.15446433 -0.09213698 0.08031966 0.06298667 0.21127813 0.14805287
-0.09723385 -0.09042916 0.09289709 0.03964054 0.13814782 -0.03934449 -0.066820964 -0.011979836
0.04613877 0.13869844 0.029088968 0.06767406 0.097265214 -0.00017603813 -0.14507717 -0.1406288
-0.10425087 -0.11931301 -0.07649112 0.053927854 -0.11595821 0.09477259 0.070307374 0.14471923
-0.088086806 -0.107890874 0.07604429 -0.0019225702 0.06888696 0.015404498 -0.08484127 0.060831502
0.04789108 -0.09895361 -0.0333891 -0.19459304 -0.19411148 -0.0080543775 -0.16466929 -0.2123146
-0.08942189 0.013172768 -0.14712332 0.020504404 -0.011483043 0.10442462 -0.101395085 0.12861617
-0.020014687 0.020949552 0.07307929 -0.07972673 -0.051765576 -0.15589853 -0.017095193 -0.038161736
0.15221056 0.005228406 -0.08833847 -0.02822479 -0.14434424 0.112014934 0.005488664 -0.045394488
0.08228411 0.009146284 -0.1262675 -0.12601143 -0.07203307 0.107381865 -0.15049337 0.0035601463
0.10422855 -0.07363957 -0.14269407 -0.17009328 -0.05090519 0.10290648 0.10722897 0.031994127
-0.14918874 -0.00751148 0.026725743 0.094453365 0.040539376 0.0036188657 -0.10539467 0.124404326
-0.008079625 0.052502416 0.047308043 -0.07289672 0.0723789 0.13266641 -0.14631775 0.042116873
0.057821773 -0.0905158 0.10290504 -0.05932209 0.08888902 0.05104326 0.064951465 -0.029166654
0.08153695 -0.05477552 0.17737797 -0.012677297 -0.015692674 0.15421884 -0.0008848207 -0.019139228
-0.12635097 0.12142368 0.07111088 -0.044135943 0.0654166 0.06773926 0.095542796 0.11588883

action.bias f4 [36]
00000000: 7865 0abd d49c 873c bb4a 9f3d 509b fcbb
00000010: 8977 48be 3109 11be 3ceb 3b3c cd19 0d3d
00000020: aeca c8bb 343c 6fbd f3d1 223e b72d 9fbd
00000030: b501 a4bd 3ebc 5cbe d1bc eebc 3752 203e
00000040: 7d04 623e 6f9e 08be b95b 8dbd 4e63 f1bd
00000050: f394 113d ec3c 23be 1810 0b3d 74b8 01be
00000060: 7aa1 52bb 769d 2abd f655 183e 64c3 323d
00000070: 9184 b0bd 9746 0f3c b0f0 09be cddd 04bc
00000080: 4afb 0ebe c9ca 03be 73d0 053e 57bc cfbb
-0.033788174 0.016554274 0.077779256 -0.0077089444 -0.19576849 -0.14163662 0.011469658 0.034448434
-0.006127677 -0.058407024 0.15900402 -0.07772391 -0.08008138 -0.21556184 -0.029142769 0.15656362
0.22072025 -0.13341688 -0.0690226 -0.11786519 0.03554244 -0.15941209 0.033950895 -0.1266802
-0.0032139705 -0.041654073 0.14876541 0.04364337 -0.08619035 0.008744857 -0.13470721 -0.008109522
-0.13963047 -0.12870325 0.13067798 -0.0063395905
