mean_model.pt (torch, 12823 bytes, 6 tensors)

layer_1.weight f4 [33, 30]
000000 56 5a 6f bd 3e 7c e0 3c 66 61 96 bd 2d 26 ac be
       -0.05843576 0.027402993 -0.07342796 -0.33622876
000010 0d 78 e1 bd aa 2c 0a 3e 18 7c 30 be 7d ed a4 3e
       -0.11009226 0.134936 -0.17234838 0.3221244
000020 e4 d3 ad bd 97 67 f8 3d 18 9c 04 be ae 7a bd 3e
       -0.084876806 0.12129133 -0.1295017 0.3700766
000030 89 28 81 3d a9 48 c2 bd f0 13 91 3e 88 c1 2f 3d
       0.063065596 -0.09486515 0.28335524 0.042909175
000040 ab e8 bc 3d f2 cf 39 3e 13 b1 99 3e fc ca 18 3d
       0.092240654 0.18145731 0.3001791 0.037302956
000050 39 38 72 3d 68 08 31 bd 60 21 0d 3e ca 4e c1 3d
       0.05913565 -0.043220907 0.13782263 0.09438856
000060 ae 34 0b bf 52 52 b4 be ed f2 db 3e d2 54 70 3e
       -0.5437726 -0.35219055 0.42958775 0.23469856
000070 78 ac a8 3e 54 8b c6 bd 4c 53 1c be be 83 e0 bc
       0.32944083 -0.096945435 -0.1526615 -0.02740657
000080 a6 90 96 3e b4 99 bb 3d 97 ff ea bd c2 42 d5 3d
       0.29407233 0.09160176 -0.11474531 0.10413124
000090 f6 a3 9e bd ec 30 82 bd 3a 93 b8 3d ce 1b 60 be
       -0.07746117 -0.06356987 0.09012456 -0.21885607
0000a0 fa 12 94 3d ea 61 dd bd 2c 6f df bd 1f 38 a8 3d
       0.07230182 -0.10809691 -0.10909876 0.08213829
0000b0 8a 0a 84 be 0a a0 1e be be bc bb bd 39 9d 00 3d
       -0.2578929 -0.15490738 -0.09166859 0.03139994
0000c0 89 5f 92 3d 05 ff 89 3d f0 88 e2 bd 47 ee da 3d
       0.07147128 0.06738094 -0.11061275 0.10689979
0000d0 41 5d 3d be 49 81 74 be 46 37 f2 3d ae eb 09 3e
       -0.18492605 -0.23877443 0.11826949 0.13468811
0000e0 75 76 2d bd 54 55 6b be 9d 65 00 bd 93 9e b9 3d
       -0.042349298 -0.22981769 -0.031346906 0.09063449
0000f0 6e 50 f5 bd b4 1b 72 bd 03 6c 5f 3e ee 2b 04 3e
       -0.11978231 -0.05910845 0.21818547 0.12907383
000100 00 5a 1b bd db 8d ab 3a 42 49 dc 3d ae 66 81 3e
       -0.037927628 0.0013088541 0.1075616 0.2527365
000110 89 70 98 bd 73 88 41 3e d4 67 be 3c d4 1f 73 bd
       -0.074433394 0.18899707 0.023242868 -0.059356526
000120 4d fd 98 3e bd 7d 61 3e 94 52 91 be d2 77 d8 3d
       0.29880753 0.22020622 -0.28383315 0.10569729
000130 47 5a 16 bd c9 63 16 3e 56 a4 79 3e 50 05 be bd
       -0.03670719 0.14686503 0.24379095 -0.09278357
000140 31 e1 93 3d 4a 2e 21 3e 33 07 a5 3e 92 95 8d 3e
       0.07220686 0.15740314 0.32232055 0.27653176
000150 d4 df 4f 3d 28 b8 19 3e 2d 34 99 3e a9 6a 84 3e
       0.05075057 0.15011656 0.2992262 0.25862625
000160 b2 7d 83 3e 3b 1b 8e 3e d0 8b 2a be df 0b 21 3e
       0.25681835 0.2775515 -0.16654897 0.15727185
000170 5f 58 f7 bd 7a d3 d3 3d a1 02 f1 bb 41 9e bd bd
       -0.12077402 0.1034307 -0.0073550497 -0.092587
000180 91 25 2d 3e 04 8e 71 3e 67 60 f8 bd 27 f2 d1 3e
       0.16908862 0.23589331 -0.12127762 0.4100506
000190 13 3b e2 3d a2 9a 96 3e 20 ba 25 3a 3c 80 b4 3d
       0.11046424 0.2941485 0.0006321985 0.08813521
0001a0 f8 b7 46 3d eb 87 8d 3e 14 f6 f8 3d 79 35 c8 3e
       0.04851529 0.2764276 0.12156311 0.39103296
0001b0 d3 0b 4a 3d 2d 96 a0 3e 58 50 5f 3e 4b 5e 89 3e
       0.049327683 0.31364575 0.21807992 0.26829752
0001c0 4f 3d e7 3e 4c 1e ad 3e 21 cb c5 bd 27 30 09 be
       0.45163962 0.33812177 -0.096578844 -0.13397275
0001d0 a2 d4 cb 3e 94 3e c5 3e 25 86 7d 3e 7a 60 80 3e
       0.39810663 0.38524306 0.24758203 0.25073606
0001e0 44 97 87 3d e6 40 10 be b4 f1 bf 3e ec 9a df bc
       0.066206485 -0.14087257 0.37489092 -0.027295552
0001f0 9d dd 31 3e 72 41 7f bd e4 a7 8d 3e 85 53 10 3e
       0.17369695 -0.062318273 0.27667153 0.1409436
000200 f8 6c d5 3b 20 c6 25 3e 97 e0 60 3d b4 cd ca bc
       0.006513234 0.1618886 0.054901686 -0.02475629
000210 5a 8a 90 bd 16 44 12 3e 3f 10 80 be a1 bf f4 bc
       -0.070576385 0.14283785 -0.25012395 -0.029876532
000220 55 ca cd 3d 78 19 a4 3c 90 ff 31 3b 40 0b 91 3e
       0.100483574 0.020031676 0.0027160384 0.28328896
000230 77 1e af 3d 8c 9e 36 3d 39 e3 a3 3e 8a 3c 8d 3e
       0.085507326 0.044584796 0.32009295 0.2758525
000240 86 ad b5 3d f7 d2 b8 bc 7d b5 7e 3d 7f 64 c1 3d
       0.088709876 -0.022561533 0.0621848 0.09442996
000250 f2 14 8c 3e 40 66 ad 3e b1 75 0d 3e af 42 33 be
       0.2735973 0.33867073 0.13814427 -0.17505907
000260 de 83 d4 3e c8 1b b0 bd d8 b1 0d be f0 b0 d0 bd
       0.41506857 -0.08599049 -0.13837373 -0.10189998
000270 42 af aa 3e 71 9d ce 3d 5a 97 d3 3d e5 dc b5 3e
       0.33336836 0.10088623 0.103316024 0.35520092
000280 61 43 75 3d 3a dc e2 3d 22 8b c5 3e ea 1a 7c 3e
       0.05987871 0.11077161 0.38582712 0.24619642
000290 bc b5 4c be 39 ae 90 be e9 da 1d be b1 ef e9 3c
       -0.19991201 -0.2825792 -0.15415539 0.028556677
0002a0 ff 5f 90 bb c0 f9 7e 3e 58 55 76 3e 89 bd 86 bd
       -0.004405975 0.2489996 0.24055994 -0.0657912
0002b0 46 5a 98 be 16 f5 c0 be 5f 95 f6 3d ca 76 52 be
       -0.29756373 -0.37686986 0.12040209 -0.20553127
0002c0 f0 2b cf 3d 18 79 bc 3b a4 6b c1 bd 20 ba 92 3b
       0.10115802 0.00575174 -0.09444359 0.0044777542
0002d0 cc 0d 0a bd 1c c1 a9 bd da 20 1d 3e 17 b8 26 be
       -0.033704564 -0.08288786 0.15344563 -0.16281162
0002e0 ec 8d ac 3b 5e 95 3e bd 56 03 6d 3d 2d 51 e1 3c
       0.005265942 -0.046529166 0.05786451 0.027504528
0002f0 09 22 61 3d 54 f0 89 3d 79 67 a2 3e e2 86 87 bd
       0.0549641 0.06735292 0.31719568 -0.06617524
000300 9a 95 bd 3c f1 7e 31 3d 18 b8 f9 bd c2 1a 00 be
       0.023142625 0.04333395 -0.12193316 -0.12510207
000310 0c e4 9e bd ac 02 40 be 7a d2 ff 3b de 8e 6f be
       -0.0775834 -0.18751019 0.007807073 -0.23394343
000320 a5 30 0d 3e 26 4b c5 bd 31 12 a2 bd ac 77 4d be
       0.13788088 -0.09633474 -0.07913626 -0.20065182
000330 1a d8 55 3d 1b a8 06 be a9 ef 51 3d fc 04 81 bd
       0.052208044 -0.13150065 0.05125395 -0.06299779
000340 38 57 7f be 30 0f 1c bd 48 6f b1 bd 90 50 e8 bd
       -0.24935615 -0.03810042 -0.08663803 -0.11343491
000350 8a 17 3b 3e 1c ff 13 be 88 13 ba 3d 7a a0 f5 bd
       0.18270698 -0.14452785 0.090857565 -0.11993499
000360 c3 17 0b be d8 c2 92 3c 20 e4 68 3d bd 76 92 be
       -0.13583283 0.017915174 0.056858182 -0.28606215
000370 56 f4 69 3e f3 db 76 bd c9 d0 8f 3d 57 02 77 bb
       0.22847113 -0.060268354 0.070222445 -0.0037690604
000380 5b 59 d8 bd 5a 9b 86 3d 79 f9 34 bd 74 b9 1a be
       -0.10563918 0.065726 -0.04418323 -0.15109807
000390 33 62 c5 bd 4a f5 ee 3d 76 23 2a bd 8a ce 91 3d
       -0.09637871 0.11667879 -0.041537724 0.07119472
0003a0 1c 6d 85 bd 92 33 19 be b2 67 d0 3d 6e b6 12 bc
       -0.065149516 -0.14961079 0.10176028 -0.008954627
0003b0 ae d3 95 bd 7e 17 33 3b e3 93 11 3d 99 22 62 3d
       -0.07315765 0.0027327235 0.035541426 0.055208776
0003c0 47 ff 7c bc 3b a8 86 3e 37 e5 3b 3d cf 12 5a bc
       -0.015441722 0.26300225 0.045872893 -0.013310148
0003d0 d5 2d dc 3d 77 5f 0e 3e 38 d7 80 bd cc 0c 89 3e
       0.10750929 0.13903604 -0.0629105 0.26767576
0003e0 b4 b0 ea bd f4 fa 92 3e 53 c6 79 be 80 86 f8 3e
       -0.11459485 0.28707087 -0.24392061 0.48540115
0003f0 55 c2 aa 3d a7 91 5a bc 2e ea 67 3e 5b a0 80 3e
       0.08337847 -0.01334039 0.22647926 0.25122342

layer_1.bias f4 [33]
000000 45 67 96 3e ab eb 3f be e3 d6 e6 bd f8 04 87 3d
       0.29375663 -0.18742244 -0.11271455 0.065927446
000010 8e 06 bf 3d 87 ae 92 be ca 6b a6 3d 28 96 46 be
       0.09327422 -0.2864878 0.08126028 -0.19393218
000020 e4 82 98 3e a8 a6 86 be 41 de 65 be 8e d2 78 be
       0.29787362 -0.26299024 -0.22448064 -0.2429907
000030 fe 16 5f 3e 30 68 b2 3d ea 29 8e bd 92 5a 4d 3e
       0.21786115 0.087112784 -0.06941588 0.20054081
000040 d5 d4 20 3e c8 a7 44 be 3d 2d 9c be 84 4b df bd
       0.15706189 -0.19204628 -0.30503264 -0.10903075
000050 b4 02 c2 3d 26 fd 0c 3e 52 d9 14 be 4b 8b 95 bb
       0.09473172 0.13768443 -0.14536026 -0.004563724
000060 23 e3 21 bc 3b b8 67 be 4f d3 b4 bd 62 d2 4b 3e
       -0.009880814 -0.22628872 -0.088293664 0.19904473
000070 5f 88 12 3e 16 d6 6b 3e da de 82 3c 5a 9a ad bc
       0.14309834 0.23030886 0.015975405 -0.021191765
000080 b9 06 a2 bd
       -0.079114385

layer_2.weight f4 [34, 33]
000000 a6 55 de 3d 79 b3 ee bc a5 b5 96 3d 19 1f 58 be
       0.1085618 -0.029138314 0.07358865 -0.21105613
000010 07 f7 82 3c 3c 0e 87 bd 60 35 67 3e 0b a9 2e be
       0.015986932 -0.06594512 0.22578955 -0.17056672
000020 ce d3 49 be d9 53 ae 3d c3 11 a7 3d 46 31 c5 3d
       -0.19709703 0.085120864 0.08157685 0.09628539
000030 40 b1 99 bd 90 86 1e bd a9 ac 13 3d b9 93 42 be
       -0.07504511 -0.038702548 0.036053333 -0.19001664
000040 a4 e0 8d 3c bc 01 00 3e b1 c8 9d 3d 73 6d 0a be
       0.017319031 0.12500662 0.077042945 -0.13518314
000050 1f 5e c1 3c cf b4 58 be 30 3c c1 bd 5e e9 0e be
       0.02360445 -0.21162723 -0.09435308 -0.1395621
000060 34 b1 ac bd a5 5f 77 3b b5 7f bc bd 1c d8 7d bd
       -0.08432236 0.0037746218 -0.09204046 -0.061973676
000070 44 66 80 bd d1 5d d3 3c 14 67 31 bd 0e 82 0b be
       -0.062695056 0.025801571 -0.043311194 -0.1362383
000080 6c 5f 1c 3d 3d e2 d1 bd b0 5e 45 3e 75 02 23 3e
       0.03817694 -0.1024823 0.19274402 0.15918906
000090 a5 8d 82 bd 38 b6 82 bb 13 6c eb 3d 0b 08 27 3e
       -0.06374673 -0.0039890073 0.11495223 0.16311662
0000a0 5d 16 84 be a8 68 38 be 21 ae f0 bd 56 5f 6f be
       -0.25798312 -0.18008673 -0.117519625 -0.23376212
0000b0 ad 39 6b be 25 c8 11 be c2 63 6a 3d 79 62 e6 b9
       -0.2297122 -0.14236505 0.057224043 -0.00043942386
0000c0 7c cf 26 bc 5e b5 83 be f9 ce 50 3e 1a 92 05 be
       -0.010181304 -0.2572431 0.20391454 -0.13044015
0000d0 f1 fe f8 3d 87 77 44 be 9d ce d0 3d e1 f1 86 bd
       0.12158001 -0.19186221 0.10195658 -0.065891035
0000e0 95 80 3c bd 27 56 8b be 4b 6c 12 3e f7 fb e1 3d
       -0.046021063 -0.27214167 0.14299123 0.110343866
0000f0 d6 f8 68 3d 18 40 12 be 5f 8d 79 be 6b 67 1b be
       0.056877933 -0.14282262 -0.24370335 -0.1517617
000100 0c b5 1b bd bc 35 1d 3d 9a 37 87 be a9 db dc bd
       -0.038014457 0.038381323 -0.26409608 -0.10784084
000110 8f 71 37 bd 0e 90 32 be b5 2f fd bc ca bc 61 3d
       -0.044786032 -0.17437765 -0.030906538 0.055111684
000120 4a eb 52 bc 56 ff a5 bd d0 e1 6b be f0 eb ab 3d
       -0.01287348 -0.08105342 -0.2303536 0.08394611
000130 f9 74 9c 3b c6 8d 0f be 1e 21 be bd 06 24 18 bd
       0.0047746864 -0.14018926 -0.0928366 -0.03714373
000140 ce 8d 87 bc 4e 85 85 3d 2e c2 f0 3b b9 9f a1 bd
       -0.01654711 0.065195665 0.007347367 -0.07891793
000150 0a c3 0b 3d 54 b4 60 3e 19 36 86 be 03 7e 21 3e
       0.03412155 0.2194379 -0.26213148 0.15770726
000160 c7 e6 b4 3d 2c f5 81 3d 7a b5 a0 3d 22 cf 18 3e
       0.0883308 0.06345591 0.07847114 0.14922765
000170 28 12 82 be 51 58 44 be da 59 37 be b5 28 3f bd
       -0.25404477 -0.19174315 -0.1790537 -0.04666968
000180 0b 6f cc 3b 2c c7 16 be 7d ef f3 3c 3b ce e9 3d
       0.0062388233 -0.14724416 0.029777283 0.114162885
000190 60 e5 5f bd 7f 2b 64 3d af 00 94 3d 8e 35 06 be
       -0.05466211 0.055705544 0.07226693 -0.13106367
0001a0 fb 98 3c be 58 21 c2 bd 94 f0 73 3d 53 a9 3b be
       -0.18417732 -0.09479016 0.059555605 -0.18326311
0001b0 1a 88 14 bd 9e 5f ce 3d 2c 5b 30 3e c2 c2 ea bd
       -0.03626261 0.10076831 0.1722228 -0.11462928
0001c0 97 0b 5d be 03 3c 77 bc 1b 61 e4 3c 79 14 02 be
       -0.21586452 -0.0150899915 0.027878335 -0.12703122
0001d0 b0 05 14 3a 51 42 7f 3d 70 fc 02 be de 6a 3a bc
       0.00056465995 0.062319104 -0.1279161 -0.011378018
0001e0 0c 51 4d be e6 de 1c be c0 11 22 be 18 84 70 3d
       -0.20050448 -0.15319404 -0.15827084 0.058719724
0001f0 e2 39 8c bd 95 f3 cf 3d 39 cc d5 3c 4f bb 8b 3c
       -0.06846978 0.101538815 0.026098358 0.01705709
000200 cd ac ab bd ce 48 99 bd bc af 5a 3d c8 f5 f4 3c
       -0.083825685 -0.074845895 0.05339025 0.029902354
000210 6d f8 ff bd 84 eb d6 3c 8f 6d 6e 3e 52 c5 24 3d
       -0.12498555 0.02623535 0.23283981 0.04022724
000220 bf 72 d3 3d 7c 32 23 3e 96 9e dc 3c 37 e4 15 3e
       0.103246205 0.15937227 0.026931088 0.14637838
000230 6d 0d 53 3d 6b 66 39 3d 9a c9 db 3d 85 d2 0c 3d
       0.051526476 0.04526369 0.10731812 0.034380455
000240 b0 6c 15 bd f9 54 0e 3e a9 a8 96 bd 2b 4f 35 3e
       -0.036480606 0.13899602 -0.07356388 0.17705981
000250 fb 18 d0 3c 69 98 f1 3d 2a 30 4a 3e c6 74 a4 3b
       0.025402537 0.11796648 0.19744936 0.0050188033
000260 8f 9e 93 3d a9 2c 8d 3e 03 f1 2b be c0 fc 43 3d
       0.07207977 0.27573135 -0.16791157 0.047848463
000270 95 5b 20 bc d1 26 f0 3d fc b9 d8 3b c2 20 f7 3d
       -0.00978746 0.11726154 0.006613968 0.12066795
000280 92 7c 6a 3e 6d fc 18 3e 1c 75 c0 bd 34 d3 0e 3e
       0.22899082 0.14940043 -0.09397337 0.13947755
000290 dd b7 ef 3d c9 35 d1 bc 83 96 47 3d 3d 20 d6 bd
       0.11704991 -0.025538342 0.048727524 -0.10455368
0002a0 7c 38 be 3c 0b 74 9b bd dc c3 1a be ed e9 34 3d
       0.023220293 -0.07590493 -0.15113777 0.0441684
0002b0 d2 49 b8 bd c6 ad 2f be f5 55 49 3d a7 2c 0e bc
       -0.08998455 -0.17156133 0.04915424 -0.008677638
0002c0 1d 7d 71 bd a0 66 06 bc c2 a2 41 3d 5c 97 fa bc
       -0.058957208 -0.008203179 0.04727436 -0.030589752
0002d0 dc 29 83 bc 28 5a 49 bd 40 a1 39 be 0b 7a 08 be
       -0.016011171 -0.049158245 -0.18127918 -0.13327806
0002e0 28 8d 97 bd d7 f6 4d 3b f0 1c ff 3d 88 d0 84 3d
       -0.0739997 0.0031427646 0.12456691 0.06485087
0002f0 47 73 0e be 5c f9 6e 3d e6 a0 0a be aa 10 28 bd
       -0.13911162 0.058343276 -0.1353794 -0.041031517
000300 85 c4 a9 3c e8 5c 14 be c0 8d 92 3d a1 c8 bf 3d
       0.02072359 -0.14488566 0.07155943 0.09364439
000310 06 07 97 bd 3b 75 bc bd 13 69 c3 be 7c 11 e2 bd
       -0.073743865 -0.092020474 -0.38166103 -0.11038491
000320 ee 98 b6 3c 1e 81 c0 bd ee 5b f0 3d 75 28 85 3e
       0.02228972 -0.09399627 0.11736284 0.2600743
000330 aa 84 38 3d b4 a8 96 bc 0c 08 db bb 6e bc 9b 3c
       0.045048393 -0.01839099 -0.006684309 0.019010749
000340 d7 24 87 3d 79 a1 75 3d 0d b7 89 bd c4 d2 20 be
       0.065988235 0.059968445 -0.06724367 -0.157054
000350 8e 73 e7 bc c0 48 33 36 4d 7b 5d 3d ff b3 1f 3c
       -0.028253343 2.6715425e-06 0.054072667 0.009747504
000360 52 72 d1 3d f0 6e 3f 3e b4 02 9b be 13 02 64 3e
       0.10226883 0.18694663 -0.302755 0.22266416
000370 3b fa 32 3e 3b 5a 04 be 4e cb 08 3e 28 2a 56 3d
       0.17478268 -0.12925045 0.13358805 0.052286297
000380 7d bf e6 3b 6d d2 bd bd a9 76 df 3d 43 f7 a2 3d
       0.00704187 -0.09268651 0.109113045 0.07957318
000390 be c7 c7 bc 80 46 84 3e 20 2b fa bc 7a 5e 20 3c
       -0.024387237 0.25835037 -0.030538142 0.00978815
0003a0 7d bb 24 bd 10 ac 33 3d 06 34 16 be 8f 42 62 3d
       -0.040217865 0.043865263 -0.14668283 0.055239256
0003b0 74 47 f1 bb 5a c6 1b be 9b 75 99 3d 77 be e9 bd
       -0.007363254 -0.15212384 0.074931346 -0.114132814
0003c0 02 72 bf bd 79 f6 e8 bd 94 d7 1c 3e 03 a8 c1 bc
       -0.09347917 -0.11375136 0.15316612 -0.023639685
0003d0 24 af 2a be 0f 81 e5 3d 7c 54 4b bd 6c 38 81 bd
       -0.16668373 0.112062566 -0.049641117 -0.0630959
0003e0 7f 09 bb 3d b1 7c d1 bd 8a 76 ec bd 72 12 a0 3c
       0.091326706 -0.10228861 -0.11546047 0.019540045
0003f0 5b 9b 43 bc c2 16 16 be f6 c7 ad 3d 4c 1c e3 3d
       -0.011938895 -0.14657119 0.08485405 0.110893816

layer_2.bias f4 [34]
000000 1f 32 69 bd 30 26 f4 3d 93 3a b8 bd 1d b4 37 be
       -0.056932565 0.11921346 -0.08995547 -0.17939802
000010 36 78 12 3e 3e b5 15 be 76 ef 99 3d 53 45 14 be
       0.1430367 -0.1461992 0.07516377 -0.1447957
000020 f0 0a 3a be 10 d7 23 3c e0 9e 74 be 43 88 f6 bd
       -0.18168235 0.010000005 -0.23888731 -0.120377086
000030 5a 94 d9 3d f4 b1 c9 bd cc 65 8f 3e 31 a9 a5 3c
       0.10623999 -0.09848395 0.28007352 0.020222278
000040 f2 80 32 be 95 0e a6 3d 6b a9 0d be b0 43 a1 bd
       -0.17432001 0.0810825 -0.13834159 -0.078742385
000050 63 0d 06 be 58 59 6b bb c8 a6 39 bd d8 e6 be bc
       -0.13091044 -0.0035911407 -0.04532507 -0.023303434
000060 ab ab 18 3e 50 5f 9e 3e 89 ec 57 3e dc 4c 07 3e
       0.14909236 0.30932093 0.21086325 0.13212913
000070 17 93 f6 3e dd bd 3b 3d 8c 8d 73 3e 96 6c 3a be
       0.48159096 0.045835365 0.23784465 -0.18205485
000080 bc e3 41 bd 12 c3 1e be
       -0.047336325 -0.15504101

layer_3.weight f4 [15, 34]
000000 90 a5 2e 3c 2a 05 45 be 32 1e 0f 3e 2a b7 4b bd
       0.01065959 -0.19240251 0.13976362 -0.049735226
000010 24 59 97 be ca de 8b bd 44 eb e8 be 49 c7 cd 3d
       -0.29560196 -0.06829603 -0.45491993 0.10047776
000020 69 75 b8 bd 52 0e 80 bb d6 8a 3c 3e 45 4f fa 3d
       -0.09006769 -0.003907957 0.18412337 0.12222151
000030 60 b3 cc be 63 50 2d be 47 3e 47 bd 92 1a db bd
       -0.39980602 -0.16925196 -0.048643377 -0.10698427
000040 f9 c8 0e bc 16 2a ca bd 81 c3 a5 be 7d 87 65 b9
       -0.008714908 -0.098713085 -0.3237572 -0.00021889615
000050 64 2e 9e bd 80 8f 28 3f 27 19 41 be eb 83 bd be
       -0.07723692 0.65843964 -0.18857251 -0.37014708
000060 1a 93 a2 be a9 04 95 be 62 4b 5e bc 1c 47 d5 bd
       -0.31752855 -0.29105118 -0.013567777 -0.10413954
000070 47 36 23 3f 28 3b 01 3d 55 f3 94 be e3 f0 ad bd
       0.63754696 0.031550556 -0.29091898 -0.08493211
000080 aa 01 25 3e 78 61 34 be 5f 22 cb bd 56 79 60 3d
       0.16113916 -0.17615306 -0.09918665 0.054803215
000090 a4 c5 10 bd f0 44 3a 3c 2b f7 03 bc 81 27 a0 bd
       -0.035344735 0.011368975 -0.008054535 -0.07820035
0000a0 bd 83 01 3e 5f 05 75 bd 11 75 6a 3d 15 18 56 3d
       0.1264791 -0.059819575 0.05724055 0.05226906
0000b0 64 1a 33 be 79 f3 17 3d 47 64 7d bd 47 0b 69 3c
       -0.17490536 0.037097428 -0.06186321 0.01422388
0000c0 6f 6f 37 3e 8c a0 da bd 85 2f 01 be de bf 01 be
       0.17913602 -0.10675153 -0.12615784 -0.12670848
0000d0 cc 8e 7d bc ce 8c ee 3d 55 0c f2 bc 54 b3 1f be
       -0.01547594 0.1164795 -0.029546896 -0.15595752
0000e0 f3 78 01 be 88 ab 44 3e db 52 91 bd 33 a7 e1 3d
       -0.12643795 0.19206059 -0.070958816 0.11018219
0000f0 50 4c 76 3e 4d b4 60 bd 65 8d 9b 3d a6 b4 0a 3d
       0.24052548 -0.05485945 0.07595328 0.033863686
000100 cb bd 9d 3d a3 80 96 3d d6 60 a4 bb 33 95 8a bd
       0.07702216 0.07348754 -0.0050164266 -0.06766739
000110 9d cc 81 3c 79 21 41 3e 6f 00 cb 3b 94 63 0e be
       0.015844638 0.18860425 0.00619512 -0.13905174
000120 85 ee 85 be 97 37 35 bd eb 5c 99 be ad 61 84 bd
       -0.26158538 -0.044242468 -0.29953703 -0.06463943
000130 26 96 f5 bd 95 19 05 be d7 97 7f bc 28 f6 ae 3d
       -0.11991529 -0.1299804 -0.015600166 0.08543044
000140 d2 26 2b be 3c b1 0b 3d 0e 09 b9 be a2 23 fb bd
       -0.16714028 0.03410457 -0.3613972 -0.12262656
000150 2d 17 be 3d 39 e3 61 be 72 2f 2a be 42 ba e1 bd
       0.09281764 -0.22059335 -0.16619661 -0.11021854
000160 a8 49 d8 3d 39 a1 84 be f7 45 04 3c 40 69 9c bc
       0.10560924 -0.25904253 0.008073322 -0.019093156
000170 59 af dd be 5f 26 98 be a7 52 8e be ad 93 43 be
       -0.43297842 -0.29716775 -0.27797434 -0.19099303
000180 2a ee 16 be f4 a9 63 be b9 5f d4 be 8d 24 49 3d
       -0.1473929 -0.222328 -0.4147928 0.049107123
000190 80 95 2b 3e 55 b5 c8 3d 10 fd db bd f8 4b 48 3e
       0.16756248 0.09800211 -0.10741627 0.1956023
0001a0 c9 e6 cc 3d 92 5c 86 bb 8c 81 c6 3d 8f 04 01 3e
       0.10004956 -0.0041003907 0.09692678 0.12599395
0001b0 c5 55 fa bd b1 f8 08 be d7 7a 84 bb c5 c1 c1 bd
       -0.122233905 -0.13376118 -0.004042964 -0.09460787
0001c0 92 19 7e bd 8d e0 75 bc 4c 5f a3 3d e7 97 be 3d
       -0.062036105 -0.01500715 0.07977161 0.09306317
0001d0 65 7e ce bd 97 d5 ee 3d 8e 34 61 3e 6c ef 60 3e
       -0.100827016 0.11661833 0.21992704 0.21966332
0001e0 92 16 51 3d 13 13 ab be 5a ce a0 bd 2a 8d ab 3e
       0.051046915 -0.3341299 -0.078518584 0.33506137
0001f0 05 d5 2e 3d 14 75 2e 3d cc a4 07 3e a7 e1 2c bd
       0.04268362 0.042592123 0.13246459 -0.042207386
000200 3a ac 9c 3d 46 ab e6 3c 08 12 3a 3e 2c 01 23 3d
       0.07650037 0.028157841 0.18170941 0.03979604
000210 56 47 06 be 92 69 d2 3d 90 a9 8d 3b b9 da 78 3d
       -0.1311315 0.10274042 0.004323192 0.060755465
000220 29 92 84 3c 51 f0 4b 3c aa 45 51 3d 2c a1 f0 bc
       0.016182976 0.012447433 0.051091827 -0.029373728
000230 52 ca 59 bc a2 c4 21 be 00 fe 20 be 8f a8 df 3c
       -0.013292866 -0.15797666 -0.15721893 0.027302055
000240 31 84 fa 3d 70 72 5d 3e 11 00 09 bc 17 fd 13 3e
       0.12232245 0.21625686 -0.008361832 0.14452015
000250 06 ca 12 be a9 dd 06 3d cb c7 65 bd e0 db d7 bd
       -0.14334878 0.032926235 -0.05609874 -0.10539985
000260 f9 cf 22 3e cc ea 29 be bf 8a 1e be be 99 c4 3d
       0.15899648 -0.16593474 -0.15482615 0.095996365
000270 5e 82 24 bc 81 b2 1b be e6 c0 2d 3c c2 ad 84 be
       -0.010040848 -0.15204813 0.010605073 -0.25913817
000280 ce a7 7d be 88 24 13 3b 30 c7 5a be dd 1f 29 be
       -0.24771044 0.0022452194 -0.21365047 -0.16516061
000290 56 9c 7f bd ca f0 66 3e 2a ab 4e be dc 9b 41 3d
       -0.062404953 0.22552791 -0.20182481 0.04726778
0002a0 16 b7 c6 3c f1 2e e0 3d 5a 56 1b 3e ac d3 df bd
       0.024257224 0.10946453 0.1516966 -0.10929045
0002b0 50 94 0b be 5b a6 fe 3d 8c bc 16 bd f4 bb c0 3d
       -0.13630795 0.124340735 -0.036800906 0.09410849
0002c0 e8 2a 53 bd 1e f9 d0 3d dd 2f a8 bc c1 d7 d3 3d
       -0.05155459 0.10203765 -0.020530635 0.10343886
0002d0 67 b9 4c bd d3 fb 22 3e 38 61 a6 bb 40 95 ec 3d
       -0.0499815 0.15916376 -0.0050775073 0.11551905
0002e0 d8 33 2e 3c 06 de ad 3d c8 65 93 bd 47 e5 6d bc
       0.010632478 0.08489613 -0.071971476 -0.014519996
0002f0 0f 5b a2 bd 3c f1 ad 3d e1 c9 30 3d 31 f4 34 be
       -0.07927524 0.084932774 0.043161277 -0.17671277
000300 89 d7 b2 3d 1c 73 10 3d 8b ba 50 bd 4a 72 08 bd
       0.08732516 0.035266027 -0.05095915 -0.03331212
000310 06 3b 06 3d a6 c6 b5 bc 78 7f e6 be 81 e2 05 be
       0.032771133 -0.02218945 -0.45019126 -0.13074686
000320 a4 90 26 bb a0 be ee bd 43 70 92 bd 3d 63 fc bc
       -0.0025415802 -0.116574526 -0.071503185 -0.03080904
000330 17 4b a5 bd 56 c1 34 be 62 d4 03 bd c4 a8 dc 3d
       -0.08070963 -0.17651877 -0.032184966 0.10774377
000340 f6 bc 78 3e 27 c2 c8 bd 19 01 ee 3d 6a a4 2e be
       0.24290833 -0.098026566 0.11621303 -0.17054906
000350 76 18 24 3d 16 e7 bf bc 5e 67 73 bd 0d cc 39 be
       0.04006239 -0.02342562 -0.05942475 -0.18144245
000360 70 f8 8d ba 9d 84 cb bd fe 11 b1 3e 92 d0 f3 bd
       -0.0010831486 -0.09937403 0.3458404 -0.11905016
000370 8f a5 a2 bd f0 30 78 be 6d 59 af 3d 5a f3 c4 3c
       -0.07941734 -0.24237418 0.085619785 0.02404182
000380 ec 1c 14 3e 4d 47 e4 3e ca 64 15 be bb 00 bf 3e
       0.14464158 0.44585648 -0.14589229 0.37305245
000390 9a 4d 85 3e 2c 16 ba 3e 6e f5 b9 3e 97 10 c8 3d
       0.26035768 0.3634504 0.3632006 0.09768789
0003a0 bf fd f1 3e 1c 04 ed bd eb 41 62 3e dd d8 23 3d
       0.47263905 -0.115730494 0.22095458 0.04000174
0003b0 c5 04 cd 3c 93 47 dc bd df bd 3c be ae 39 0a be
       0.025026688 -0.10755839 -0.18431805 -0.13498566
0003c0 db ab 85 3d e2 05 18 bc 5b 13 c4 bd e9 11 a7 bd
       0.065269195 -0.009278746 -0.09574004 -0.08157713
0003d0 75 2e bc 3b 50 ba 3a bd 54 f7 02 bd a1 81 9b 3e
       0.005742843 -0.045587838 -0.03197415 0.30372337
0003e0 2e b6 04 3d 9f 26 25 3d 87 85 f6 3c ec 82 b9 bd
       0.032400303 0.040320035 0.030092968 -0.090581745
0003f0 3f e8 20 bc b9 47 9c bc 4e 73 70 3d 0c 4a 8a 3d
       -0.009820997 -0.019077169 0.058703713 0.067524046

layer_3.bias f4 [15]
000000 c4 e1 b4 be dd a7 7a 3e 45 c2 7f be 9f cf 03 3e
       -0.35328496 0.24478097 -0.24976452 0.1287217
000010 23 83 53 3d a8 e9 32 be 5c e1 55 3e 5f 5e 88 bd
       0.051638734 -0.17471945 0.20886749 -0.06658625
000020 ff 08 6e 3d 6f 43 6b be 30 b6 88 be 85 45 78 bd
       0.058114048 -0.22974943 -0.26701498 -0.060613174
000030 19 7e 53 3d 51 14 a9 3c f3 8f 03 be
       0.051633928 0.02063957 -0.12847881
