mean_model.pt (torch, 12823 bytes, 6 tensors)

layer_1.weight f4 [33, 30]
00000000: d885 8c3d 4868 cbbd aed9 2a3e 600f 2d3d
00000010: 8947 0cbd a476 763d 137f 763d a0ee 6ebe
00000020: a513 a8bd fa22 fc3b df35 2c3e c201 12be
00000030: 67dc 98bd 9f14 4c3e 70ae ec3d e4f5 fb3d
00000040: 9cde 763d 73e6 43be 2097 38bd 2262 1abd
00000050: 9aff 68bd e7df 4abd 8542 a6bc 7bbe de3c
00000060: 8d38 cc3c 59b8 d2bd 88c2 87bd 09e3 32be
00000070: 3668 0ebe c109 8abd 0078 0d3e 90a4 0dbe
00000080: 4659 45bd 1774 233e fe91 33be f2f9 83bd
00000090: 318c dc3d 578f 3abe 2914 b7bd 874f 143e
000000a0: c899 283e a4d9 ffbd fff5 ee3b a6f9 813d
000000b0: 6e0b 5c3d 3858 e6bd 4506 22bd ed97 2bbe
000000c0: 0920 ee3c bf5b 173e 6031 583d 5832 c2bc
000000d0: e43b 97bd a34e 593d a41e 00bc 620b fbbd
000000e0: 6c77 213d 7722 abbd 1f9a 433e c609 45be
000000f0: a810 303e a806 b8bc 22dd 5d3c 8c4a 303e
00000100: 0a59 f8ba d0e2 5ebd 7bba 06bc d8ed 43bd
00000110: 30fb 86bd 1660 06bd 7a78 4f3d c1c0 863c
00000120: 12dc 56be e792 e53d d34a 113e 0d75 18be
00000130: 7606 e93d 8ea0 40bd 901b 06be 93d3 26bd
00000140: 77bd ac3d c73a be3d 0ed8 98bc 07ee 123e
00000150: 344e 20be b4aa 10be d59a 14be d960 013e
00000160: 87ac c7bd bb75 9bbd d21c 96bd c3b7 63bd
00000170: c565 873d c385 a3bd 48a7 d83d 18b8 9dbc
00000180: dae9 5cbe a3cc 193e 18b6 9a3c dc40 4dbd
00000190: 58eb 21be 496f 133e 4358 093e 42ba 983d
000001a0: cddd a63b 8880 4cbe 0e37 a6bc 9934 0a3d
000001b0: a819 efbd c291 f0bd c799 bcbd 6a9b bdbc
000001c0: 7cb6 2f3c 6183 8f3d 74fe 053e 5635 24be
000001d0: e9c5 e4bd 876e 9f3d 4bc1 83bd 4a4c 0ebc
000001e0: 58ed 143e 12d6 d6bd 585d f73d a42d a83d
000001f0: 2ce0 f93d 38af a63d d9ca 313e 6d40 debb
00000200: 18cc 43bd 6a37 b23d ee22 21bc f003 4cbc
00000210: f661 ae3c 11f5 233d 6684 293b 4be6 2fbd
00000220: 3cb0 59bd 12e0 593e 58cd a33c 393d a83c
00000230: ad9e e13d 6fd5 2e3c 80e6 0f3c b19e e33d
00000240: c8f9 2abe dc5c ceba 4ade 4b3e 6a2a e93d
00000250: 65bc cdbd b634 16bd ce73 93bd 5cec b0bd
00000260: 4619 0abb ffca 1a3e 3b56 68bd e81d 203e
00000270: 5d96 ba3d 126c cdbd e056 9a3c 8535 75bd
00000280: 27be b53c 20ec 933d f380 3ebe 89dd 0cbe
00000290: f6a1 643d 828c 85bc 5b98 2dbd 4dfc 41be
000002a0: 1a5a 23be c8bd cbbc 1173 9bbd 90cb 0dbe
000002b0: 6df2 1b3e 4c9d 5639 b2dd 9b3d 7064 1c3e
000002c0: 8fb2 56bd c806 04be cafc 863d ccdf c7bd
000002d0: 0092 aeba c846 423e bd3d 6ebe 4c5d c3bd
000002e0: 2db6 813e 4c3b b73d 2b08 5a3e 7dc3 f13d
000002f0: c079 e23b 73e5 163e 2342 09bd 26f8 2f3e
00000300: 6c1b 203d 29d0 18be 6b4c 6f3d f728 3ebe
00000310: 34b4 f4bd 5f43 c53c bbf3 3b3e 3a19 193d
00000320: 6227 bf3d 450b a93c 72a5 cd3c 8dec 143e
00000330: a24d 443e 249b 053c 2370 dcbb d81e c6bb
00000340: 1849 32bd 4dd7 e5bd 5488 15bd 152f 33be
00000350: 088a 9b3d 35c4 393e 4ab1 7e3d 8000 c43a
00000360: 794c 283d 765f e2bb 5218 033e 6bc2 0a3e
00000370: f449 9d3d 9a28 113e c58c 303d eb00 d03d
00000380: 8f03 0fbe cb67 b53d e517 d7bc 93fc 063e
00000390: 42d9 87bd 8d70 05be d5ae 0bbe 3a98 1f3d
000003a0: 13fe 68bd 69c9 96bc 19e3 ea3d 2436 d7bd
000003b0: 641e d2bc 54f9 ee3c d6b7 31bd a6eb 41bd
000003c0: 0a59 1e3e a37e 67bd 2cd2 b2bc 46e7 9b3d
000003d0: 41c3 d8bc 5846 903d 4ee3 1d3e d417 c63b
000003e0: f8e9 e23d 21e3 19be 9456 06be 7a3c 02bd
000003f0: 6e73 2cbd a5ba 31be 062f f5bd fe5a dbbd
0.06861466 -0.099319994 0.166846 0.04225099 -0.03424791 0.06017174 0.06017978 -0.23333216
-0.08206872 0.007694599 0.16817425 -0.14258483 -0.074639134 0.19929741 0.11556709 0.12302759
0.06027089 -0.19130878 -0.045066 -0.037691243 -0.056884386 -0.049529936 -0.02029539 0.027190438
0.02492931 -0.10289068 -0.06628901 -0.1746942 -0.13906941 -0.06740142 0.13815308 -0.13832307
-0.04818084 0.15962254 -0.1753616 -0.06444158 0.10768927 -0.18218742 -0.08939392 0.14483462
0.16464913 -0.124926835 0.0072925086 0.06346445 0.053721838 -0.11247295 -0.03955676 -0.16757174
0.02906801 0.14781092 0.052781463 -0.023705646 -0.0738447 0.05305351 -0.007819805 -0.122580305
0.03942053 -0.08356183 0.19101761 -0.1924201 0.17193854 -0.022464111 0.013541492 0.17215937
-0.0018947434 -0.054415524 -0.008223171 -0.047834247 -0.06590879 -0.03280648 0.050652005 0.016449334
-0.20982388 0.1120966 0.141887 -0.14888401 0.113781855 -0.047028117 -0.13096452 -0.040729117
0.08434575 0.09288555 -0.01865771 0.14348613 -0.15654832 -0.14127618 -0.14512189 0.126346
-0.09749704 -0.07590815 -0.07329716 -0.05559517 0.06611208 -0.079844974 0.10578781 -0.019252822
-0.21573582 0.15019469 0.018885657 -0.050110683 -0.15812433 0.1439792 0.13412575 0.07457401
0.0050923587 -0.19970906 -0.020289924 0.033741567 -0.116748154 -0.11746551 -0.09209018 -0.023145396
0.01072466 0.070074804 0.13085347 -0.16035971 -0.11170561 0.07784753 -0.06433352 -0.008685181
0.14543664 -0.104900494 0.12078351 0.0821183 0.122009605 0.08138889 0.17362536 -0.0067825825
-0.04780206 0.08701976 -0.009834988 -0.012452111 0.021286946 0.040028635 0.002586627 -0.042944234
-0.053146586 0.21276882 0.019995376 0.020537006 0.11016593 0.010671004 0.008782983 0.11114252
-0.16696846 -0.0015744227 0.19909015 0.11385043 -0.10045699 -0.036671363 -0.07199822 -0.08638832
-0.0021072193 0.151165 -0.05672286 0.15636408 0.09110711 -0.100303784 0.018840253 -0.059865493
0.022185398 0.07222772 -0.18603878 -0.13756384 0.05581852 -0.01630235 -0.042381626 -0.18943901
-0.1595234 -0.024870768 -0.075903066 -0.13847184 0.15229197 0.00020467228 0.076106444 0.15272689
-0.05241638 -0.12893212 0.065911844 -0.09759483 -0.0013318658 0.18972313 -0.23265739 -0.09539279
0.25334302 0.08946857 0.21292178 0.118048646 0.0069114864 0.14735965 -0.03351034 0.17184505
0.03908865 -0.14923157 0.058422487 -0.18570314 -0.119484335 0.024079977 0.18354695 0.037377574
0.093336836 0.020635257 0.025103305 0.14543362 0.1917024 0.008154664 -0.006727235 -0.0060461573
-0.04352674 -0.11222706 -0.036506966 -0.17498429 0.07594687 0.18141253 0.062180795 0.0014953762
0.041088555 -0.0069083525 0.12802246 0.13550727 0.07680121 0.14175645 0.043103 0.10156425
-0.13966201 0.088576876 -0.026256511 0.13182287 -0.066332355 -0.13031216 -0.13640912 0.038963534
-0.05688293 -0.018406587 0.11469097 -0.105083734 -0.025649257 0.029171623 -0.04338821 -0.047343872
0.15463653 -0.056517255 -0.021828733 0.07612471 -0.026460292 0.07044667 0.15418741 0.006045321
0.11079782 -0.15028049 -0.13118964 -0.031795956 -0.04210227 -0.17356355 -0.1197186 -0.10710715

layer_1.bias f4 [33]
00000000: 40d4 babd 801b 06be 94f4 d6bd 2ad1 01be
00000010: 92ec b1bd 67b2 de3b 5d14 0e3e 8c43 df3c
00000020: 9eaf ab3d fbf9 0b3e 2f23 c1bd 5c21 bf3c
00000030: ba01 26be 53bd 2a3e e7c7 8c3c 7c03 50be
00000040: d96d 34be 786a d53b 11cf b6bd fdae 08be
00000050: 7ef5 a1bd b813 a4bc 3d7b a63d 8f83 3a3c
00000060: 7485 01be 73bf cd3d d75f 23be 112a 3cbd
00000070: 492d 583d f797 e1bd f784 dc3d 3ac0 103d
00000080: 3c32 e9bc
-0.09122515 -0.13096428 -0.10495868 -0.12677446 -0.086877 0.0067961696 0.13874955 0.027253889
0.08383106 0.13669579 -0.09430539 0.023331337 -0.16211596 0.16673784 0.017185165 -0.20313829
-0.17620029 0.006512936 -0.089262135 -0.13348003 -0.07908152 -0.020028934 0.081289746 0.011383905
-0.12648565 0.10046282 -0.15954529 -0.045938555 0.052777562 -0.11015313 0.107675485 0.03533957
-0.028466336

layer_2.weight f4 [34, 33]
00000000: 866e d8bc a3ce 00bd ceee 29bc 7357 abbd
00000010: 53a3 5ebc 6c4e aabc 98f6 82bd 508b d13d
00000020: afee 74bd 285b 92bc f4b4 d53d 8bf4 93bd
00000030: 11ea ae3d c53b 8d3d 8fd2 a83d 0876 12be
00000040: c285 cf3d 8587 c03b a6bd 91bd dff1 383e
00000050: 4c9e 99bd ee59 043d 66f7 b73d ecd9 5a3d
00000060: 7b9b 1a3e 776b 163e cad3 0fbe 427c 2d3e
00000070: 7af9 1a3e 63a8 9b3c 82e5 c9bd 5093 c6bd
00000080: 1ddb f1bd 2080 263a 144f 2b3d f060 fb3d
00000090: 117e dd3c 2e4d 64bd c660 60bd ac60 24be
000000a0: a650 44be fb0a a4bd dcb2 243d 9f55 693d
000000b0: 2fb9 acbd 5300 7c3d 0e2b 99bd f9c3 a83d
000000c0: a2f7 17be 2dc4 863d aa53 1b3e c4e0 843d
000000d0: 2229 85bb 4538 323e 515d b93d 1ab8 eabc
000000e0: d154 0dbe 00fa 8f3d df83 17be 5023 72bc
000000f0: f382 343e 2299 1e3c 8b84 92bd 20ae 39be
00000100: 983e c4bd 1871 043e ffd3 adbd 3099 41bc
00000110: b469 6dbd 4f9a b13d 98ce 58be fe65 c1bd
00000120: dd4f c8bd a1b3 dabd d677 97bd 856e cbbc
00000130: c084 7e3d 4af2 193e 489d 433e 9968 66be
00000140: 62e2 4e3c 3cdb 72ba 7129 c5bd fc5b 7bbd
00000150: 5066 893c 020d 513d e1c1 ebbc f620 29bd
00000160: 561b 4abd 1a95 d5bd ddee 273e 1a4d 8f3d
00000170: 981d 9dbc 182d 19be 7965 13be ae99 83bc
00000180: 0403 1bbe c346 50be d4cd 3ebd 7348 373c
00000190: dc23 413d 98e6 40bd 8256 6abd f4eb d03d
000001a0: 6413 4f3d 475e 46be 22fe fb3c fca2 39be
000001b0: d416 49be 7cf6 8fbd 3b0c cdbd d70a f7bd
000001c0: 6381 2cbe 6d8f cfbd 78d7 c43d 1833 92bd
000001d0: d5fb d63d 4f6c c6bd e573 a8bc c54f eebd
000001e0: 73e1 3abd f671 033e 2ccc 1bbd ac04 bf3d
000001f0: 9e17 c3bb c023 e03c 517d af3d 80a9 50bd
00000200: 6b3c 37be 8047 b8ba 7126 abbd eef5 2fbd
00000210: dda1 6cbd 226e 21be 603a 1a3c 6840 a4bc
00000220: 1e06 02be c088 c0bc 8658 473d 622b f4bd
00000230: 3f71 6a3d 185a a4bc 278e e3bd 518b e23d
00000240: 0a5b 23bc f566 233d 90be a9bd e088 ee3d
00000250: 926a 85bd b3b6 22be cc9f 9c3d d229 2cbd
00000260: 541c c3bd 6a9b 9dbd 7a2e 443d d881 efbd
00000270: 999b 06be 9a2a ac3c 54a6 853d 59f9 31be
00000280: 3eb8 a63d 25e6 30bc abc9 4fbc c22e 2abe
00000290: 7c03 0cbd 9815 14be 9fc0 12bd 3402 343e
000002a0: 99c3 463d 4734 67bd 237d 0e3e 2606 e03d
000002b0: e615 debd b924 0d3e 6d49 2f3d f18d f4bd
000002c0: 6690 133e 97bd 543d b99d 4e3d 0eb0 96bc
000002d0: 97f0 9e3c 6c9d 233d d054 873d 8e80 8d3d
000002e0: f10a 4dbd 644f 52bb a260 393d 6f4e f63d
000002f0: 47a0 de3c 0d31 6e3d 0918 06be 6520 15bd
00000300: f498 063e f9c6 f5bd 957e fc3d 45f2 f03d
00000310: 8610 69bd a813 313a 8777 d0bd f478 e2bd
00000320: 9e0a 7ebc 3f64 cabd 2f9b 4e3d bf1c 973d
00000330: f19a 38be b4dd 933d df93 dbbd ac8e ccbd
00000340: 8894 263e 6fb2 cf3d 3783 7b3d 1fcf c23d
00000350: 1756 da3d 1dd6 2a3e fe3c 47bd c3ac 9c3d
00000360: cc7a 24bd 3c21 28bc 2e10 4bbe cf04 223e
00000370: d37c 9cbd 8154 1cbe e98b 16be 4659 d93d
00000380: fecf 21be f3e5 25bd 48af de3d e40b f1bd
00000390: 3197 df3d 2090 fe3b 0244 b4bc d9e1 f33d
000003a0: 3f5f 503e 150d 353e 21a8 d83d 640a f93d
000003b0: 9fff 88bd bdde 003e 929c 283c 7b7f efbc
000003c0: 8151 593e 6be7 453e 7eb3 193e 3f94 0c3e
000003d0: b6f3 ec3d 666c edbc 1e1d 8ebd 50b2 4bbd
000003e0: ec3f 5abd 450c cb3d 157d 533e da52 f6bb
000003f0: 5e22 b3bd 4884 333e a83f 6bbc f334 4b3d
-0.02641989 -0.031447064 -0.010371877 -0.08366289 -0.013588744 -0.020789348 -0.0639469 0.1023165
-0.05979794 -0.017865732 0.10434905 -0.07224377 0.085407384 0.06896166 0.08243286 -0.14302838
0.10132934 0.00587553 -0.07116251 0.18061016 -0.07500896 0.032312326 0.089827344 0.053430483
0.15098374 0.14689432 -0.14045635 0.16941932 0.1513423 0.019001191 -0.09858228 -0.096960664
-0.11809371 0.00063514896 0.04182346 0.12274349 0.027037652 -0.055737667 -0.05477979 -0.16052502
-0.1917139 -0.08009907 0.040209636 0.05696642 -0.084337585 0.061523747 -0.07478915 0.08240504
-0.14840558 0.06580386 0.15168634 0.06488183 -0.0040637413 0.17404278 0.09051002 -0.02865224
-0.13801886 0.070301056 -0.14796399 -0.014778927 0.17628078 0.009680064 -0.07154187 -0.1813283
-0.09582251 0.12933767 -0.08487701 -0.011816308 -0.057962134 0.0867201 -0.2117256 -0.094432816
-0.09780858 -0.10678793 -0.07395904 -0.024832973 0.06213832 0.15033832 0.19102967 -0.22500838
0.012627216 -0.0009264236 -0.09627045 -0.06136702 0.01677242 0.051037796 -0.028778972 -0.0412912
-0.049342476 -0.104288295 0.16399713 0.06997128 -0.01917915 -0.14958608 -0.14394177 -0.016064491
-0.15137869 -0.20339493 -0.04658301 0.011186707 0.04715334 -0.04709491 -0.057211407 0.102012545
0.0505556 -0.19371901 0.030760828 -0.1812858 -0.19637614 -0.07029435 -0.100120984 -0.120626144
-0.16846232 -0.10134778 0.0961141 -0.071386516 0.10497252 -0.09688627 -0.020563075 -0.116363086
-0.04562516 0.12836441 -0.03803651 0.09327063 -0.005953743 0.027360797 0.08568824 -0.050942898
-0.17894141 -0.0014059395 -0.083569415 -0.042959146 -0.057771552 -0.15764669 0.009413332 -0.020050243
-0.12697646 -0.023502707 0.048668407 -0.11922337 0.057236906 -0.020062491 -0.11111098 0.11061729
-0.009970436 0.03989311 -0.082883 0.116472006 -0.06514467 -0.15890007 0.07647666 -0.04203207
-0.095268875 -0.076956585 0.047895886 -0.116946876 -0.13145293 0.021016408 0.06525865 -0.17380275
0.0814061 -0.010797058 -0.012682359 -0.16619399 -0.03418301 -0.14461362 -0.03582823 0.17578965
0.04852638 -0.05644634 0.13914923 0.10938673 -0.108440205 0.1378354 0.042794634 -0.11941136
0.14410552 0.05193862 0.050443385 -0.018394496 0.019401832 0.03994505 0.066079736 0.069092855
-0.050059263 -0.0032090778 0.04525817 0.12026679 0.027176036 0.058152247 -0.13095106 -0.036407847
0.13144284 -0.12000842 0.12328831 0.11764959 -0.056900524 0.0006754943 -0.10179048 -0.11058226
-0.015505461 -0.09882402 0.050440963 0.0737853 -0.18027855 0.07220021 -0.107215635 -0.0998815
0.16267598 0.101414554 0.061404433 0.095121615 0.106609516 0.1668324 -0.04864215 0.07650139
-0.04015617 -0.01026183 -0.19830391 0.15822147 -0.07640996 -0.1526661 -0.14701809 0.10612731
-0.15801999 -0.0405025 0.10873276 -0.11769846 0.10917509 0.007768646 -0.022005085 0.119083114
0.20348834 0.17680772 0.10578943 0.12160185 -0.06689381 0.12584968 0.0102912355 -0.029235592
0.21222498 0.1932656 0.15009877 0.13728426 0.11569922 -0.028982352 -0.069391474 -0.0497306
-0.053283617 0.099144496 0.20653184 -0.007517201 -0.087467894 0.1753093 -0.014358439 0.049611043

layer_2.bias f4 [34]
00000000: c1ef 803d 7e70 ecbd 310c 08bd 0291 ed3c
00000010: fbf0 00bd 4bbd a13d 3951 173d 9911 143e
00000020: 9cab 9c3d b418 b03d 4060 11be 675a 5d3e
00000030: 8913 e5bd 586e e33d d3d5 8fbd 2ba5 3e3c
00000040: e4e7 083e a688 773d d482 0ebd 038f 2ebe
00000050: cf77 9ebd cdb8 893c a684 853c 305c 7f3c
00000060: 7065 c33d 74bd 28be e4ae a13d 5fcc e0bd
00000070: b1f3 e2bd bf73 1cbe 2bec 88bd 439a adbd
00000080: d67d 043e f390 0f3e
0.062957294 -0.11544894 -0.03321475 0.02899981 -0.031479817 0.07897433 0.036942694 0.14459838
0.076499194 0.08598462 -0.14196873 0.21616517 -0.11185367 0.11105031 -0.070232056 0.011636059
0.13369709 0.060433052 -0.034792736 -0.17046742 -0.077376954 0.016811753 0.016298603 0.015585944
0.09540832 -0.1647852 0.07894686 -0.10976481 -0.11081637 -0.15278529 -0.066856705 -0.08476689
0.12938628 0.14020137

layer_3.weight f4 [15, 34]
00000000: 1c08 cfbd 1879 c0bc f9b0 c73c b623 3b3e
00000010: fac4 ac3d 3527 96bd 522d fa3d 7dc8 e9bd
00000020: 19d2 6dbc c5c0 42bc 604c b6bb a3b5 ee3d
00000030: 179a 1fbe 8588 603c 242b 3fbe 95b7 59be
00000040: 47b2 97bd a1c8 3d3d 409e 4abe 5e12 b13d
00000050: 7182 633d 9bdc d63d bb84 8f3d 7ac7 a5bd
00000060: 7b18 d6bd c531 eebb 6e83 213e 7e44 f0bd
00000070: f237 a53d 5239 d03d 2b06 99bd fd66 cb3d
00000080: 0ddb 26be 0ffc ef3c c986 acbd 7acd fa3c
00000090: d76c 863d 1f6f a4bd ca2a 1ebd 2874 963d
000000a0: aec9 793d 4675 d4bc 3e9d dcbd d476 7d3d
000000b0: 9685 dbbd 8350 0a3e e47e 01be 10ff 153e
000000c0: 85d0 e6bd 986a 7f3d 6ee3 053e bd86 0a3e
000000d0: 6cb2 fbbd 070d 053e e348 573e 0e00 e53d
000000e0: 05bb 053e d818 72bd acfe 0d3e de38 0bbb
000000f0: 38e4 0e3e 6631 ccbb ff31 1c3e c65b 183e
00000100: af2f c53d ffdb 0b3e 10f2 4f3d 587b 463e
00000110: 9dd6 3abe c35f 08bc 6c96 2f3e db48 0dbd
00000120: 15fa 1ebe b240 75bc 2b29 1bbe 21bd e2bd
00000130: 35ca 483e eb2a 533d d3da 113e e5b3 603d
00000140: aae9 2fbb 8cd0 19be c6eb 1d3e 0a8c bd3b
00000150: 38bc a33d e7f3 be3c e70a 0abe 60d0 963d
00000160: e996 f1bd c5fe 57bd b1ff 5fbd de7b e83d
00000170: 24a4 31bc fdb3 d23d 7221 bf3c 4b84 e9bd
00000180: d482 673d e7cb 513d 5d9f 77bd 45cf a83d
00000190: 68be e9bc 95b7 f93d 82ca cbbd 932b acbb
000001a0: dd40 e4bd e60f 5cbd 8c41 2f3e a7fc 053e
000001b0: 0e18 603d c400 083e 7681 ff3c 16a9 0b3e
000001c0: a11f 2bbe dd3c 3abd 4b3e 8a3c 00d9 04be
000001d0: c59c 953d 4d13 0abd f58d 113e 3285 2d3e
000001e0: bea4 1c3b ba77 9c3b 26b4 bc3d 472d 123e
000001f0: 5228 2f3c a032 93bc b10e 543d a8b3 fe3c
00000200: 20b4 9dbd ed28 c13c 93f6 1c3e 00c9 d83c
00000210: b7d7 80bd 04a1 25be 77b1 d13d 4d6b d9bd
00000220: 0110 503d 3672 ccbd 8af8 0b3c 0223 4f3e
00000230: cfbf 3fbd 08b2 383d c6fe c13b 3a2d c83d
00000240: 78b8 05be d938 0b3e e6c1 c03d 1c25 2d3e
00000250: 9784 213e 41fb 4bbd ad06 0d3e 5fd2 1ebe
00000260: 166b 25be c919 c43d b64c d1bd d6fd 46be
00000270: a237 09bd a9a3 e43c 7acb 533c 9253 f23d
00000280: 3010 f6bd 10ff 723d cc58 153c c3c4 25bc
00000290: 5c49 603d 6906 523e a523 fcbd 7e01 f5bd
000002a0: 14b4 8eba 2816 35be 8f87 eebd 295b e4bd
000002b0: 8590 0bbd 7859 583d 049e a33b 5f30 3bbe
000002c0: f60f 02be 9f40 a9bd 7fab 983c ccc0 39bd
000002d0: a7a7 133e 2342 f4bd dc9d dabc 8879 463d
000002e0: e1b6 f1bd 9f7c 0abd 58e7 c0bd 1340 da3c
000002f0: 3689 19be 47db d1bd e206 793b 6059 49be
00000300: c026 d63d 0015 78bb feab e0bc ca85 1abd
00000310: ccac 6bbe 0222 85bd 7a99 0bbe da7f 593d
00000320: 28d0 5ebe 5d9e eabc ebad 8a3d 282d 22be
00000330: 9e1c 503e 6662 483e 3868 ec3c 1784 08be
00000340: 7cc6 b6bd 3cca 0d3e ed80 e33c 66bb 2e3e
00000350: 7bfb 14be 7a74 82bd e940 a4bd d29c 323e
00000360: 477d b73d 134c 7b3d 9f1b 263d 2a9f 3a3e
00000370: bb1e bebd e0dc 4c3d 420a 0cbe 085a 1c3e
00000380: b836 cf3d d70c dbbd 410e 7f3d 765d f93d
00000390: fe4b 07bc 1112 7d3d 3803 93bd 8ac7 203e
000003a0: e0dc 33bd ff05 793d 712e 573e 8ca9 8d3d
000003b0: 5f3f 2a3e fec9 0c3e 3ee9 f5bd fc9c b73c
000003c0: 54b1 ebbd fe03 2b3d 545a 923d 664c fa3d
000003d0: 16bf b0bb dfca 173d 1dfe 7fbd 2242 afbd
000003e0: fea0 14be d7fc 623c 874f 07be 280f 053e
000003f0: 0eac e3bd 8d53 c43d 0bbd 153d d593 aa3d
-0.101089686 -0.023495242 0.02437638 0.18275341 0.08436008 -0.07331697 0.122156754 -0.11415193
-0.014515423 -0.01188678 -0.005563304 0.11655738 -0.15586124 0.013704424 -0.186688 -0.21261437
-0.074070506 0.046333913 -0.1978693 0.086460814 0.05554432 0.10491296 0.07007738 -0.08094688
-0.10453888 -0.0072691166 0.15772793 -0.11731814 0.08067311 0.10167183 -0.074718796 0.09931753
-0.16294499 0.029294996 -0.08424146 0.030615557 0.06563728 -0.08029007 -0.038615026 0.07346374
0.060983352 -0.025934827 -0.10772179 0.0618809 -0.10718839 0.13507275 -0.12646061 0.1464808
-0.11270241 0.062357515 0.13075039 0.13527961 -0.12289891 0.12993251 0.21023898 0.11181651
0.13059624 -0.059105724 0.13866681 -0.0021243612 0.13954246 -0.0062314747 0.15253447 0.14878759
0.096282355 0.1365814 0.05076796 0.1938299 -0.18245931 -0.008323613 0.17147225 -0.03449331
-0.15525086 -0.014969038 -0.15152423 -0.1107123 0.19608386 0.0515546 0.14243631 0.05485906
-0.0026842155 -0.1502096 0.15421972 0.005784516 0.07994884 0.023309661 -0.13480721 0.07363963
-0.11796362 -0.0527332 -0.054687206 0.11351751 -0.010842357 0.10288236 0.023331378 -0.11402186
0.05652125 0.051219847 -0.060454715 0.082426585 -0.028533176 0.121932186 -0.09950735 -0.005254218
-0.11145184 -0.0537261 0.17114848 0.1308466 0.05471044 0.13281542 0.031189661 0.1363872
-0.16711284 -0.0454682 0.016875407 -0.12973404 0.07305292 -0.033709813 0.14214309 0.16945341
0.0023901905 0.0047750147 0.09214048 0.14275084 0.010690765 -0.017968476 0.051771823 0.031091526
-0.07700372 0.023579085 0.15328436 0.026463032 -0.06291144 -0.16174704 0.10238927 -0.10616169
0.050796513 -0.099827215 0.008543143 0.20228198 -0.046813782 0.04509166 0.005920264 0.09774251
-0.1305865 0.13595904 0.09411983 0.16908687 0.15773235 -0.04980016 0.13772078 -0.15509938
-0.16154131 0.09575231 -0.102197096 -0.19432768 -0.03350032 0.02791007 0.012926931 0.11832346
-0.12014806 0.059325278 0.009115409 -0.010117712 0.05475746 0.20510258 -0.12311486 -0.11963175
-0.0010887408 -0.17684233 -0.116469495 -0.111502 -0.03407337 0.0528197 0.004993202 -0.18280171
-0.12701401 -0.082642786 0.018636463 -0.04534988 0.14419423 -0.11926677 -0.026686601 0.048455745
-0.118024595 -0.033810254 -0.09419125 0.026641881 -0.14993748 -0.10246902 0.0037998487 -0.19663
0.1045661 -0.0037854314 -0.027425762 -0.037725247 -0.23015136 -0.06500627 -0.13632765 0.053100444
-0.21759093 -0.028639967 0.067714535 -0.15837538 0.20323417 0.19568786 0.02885829 -0.13331638
-0.08924577 0.13846678 0.027771438 0.17063674 -0.14549057 -0.063698724 -0.08020193 0.17442635
0.08959442 0.061351847 0.040553685 0.18224779 -0.09283205 0.05001533 -0.13675788 0.15268719
0.10117859 -0.106958084 0.062269453 0.121760294 -0.008257864 0.061784808 -0.07178348 0.15701118
-0.043911815 0.060796734 0.2101381 0.06917104 0.16625737 0.13748929 -0.12007378 0.022413723
-0.11508432 0.041751854 0.07146135 0.12221603 -0.005393873 0.037058707 -0.0624982 -0.08557536
-0.14514539 0.013854227 -0.13213931 0.12994063 -0.11116801 0.095862485 0.03655724 0.08328978

layer_3.bias f4 [15]
00000000: 0693 36be 62bb ffbc 866f 8d3d 7636 2fbc
00000010: 69c9 2d3d 9bc5 89bd 2dff 4a3d d25d 3c3d
00000020: 5361 fc3d 5e04 98bd 1d41 cd3d 06ff 2f3e
00000030: 7274 45bd 8d3b 173e 1b1c 9b3d
-0.17829522 -0.03121728 0.06906037 -0.010694137 0.042428408 -0.067271434 0.04955976 0.04598791
0.123232506 -0.07422708 0.10022185 0.17187127 -0.048206754 0.1476881 0.0757372
