mean_model.pt (torch, 12823 bytes, 6 tensors)

layer_1.weight f4 [33, 30]
000000 56 5a 6f bd de 21 5d 3d 9b cd c0 bd ae 2a b9 be
       -0.05843576 0.053987376 -0.09414216 -0.36165375
000010 05 87 0a be aa 2c 0a 3e f2 00 14 be 09 77 a3 3e
       -0.13528068 0.134936 -0.14453486 0.31926754
000020 e4 d3 ad bd ad e0 13 3e b9 41 1e be a7 25 c9 3e
       -0.084876806 0.14441176 -0.15454759 0.3928654
000030 ad ae b8 3d c6 c6 8b bd 8f c5 9e 3e 09 3f a9 3c
       0.09017692 -0.068250224 0.310101 0.02065994
000040 4e 95 a7 3d 1c 84 4f 3e 13 b1 99 3e fd 86 e5 3c
       0.081827745 0.2026524 0.3001791 0.028018469
000050 34 f2 7c 3d 44 f0 72 bd 69 25 03 3e 81 3b b2 3d
       0.06175442 -0.059311166 0.1280724 0.08702756
000060 d3 35 0a bf 43 ec b8 be a7 8e d7 3e e0 0d 62 3e
       -0.5398838 -0.36117753 0.42101023 0.22075605
000070 e1 9d a4 3e 33 49 d8 bd 4c 53 1c be be 83 e0 bc
       0.32151702 -0.10560837 -0.1526615 -0.02740657
000080 a6 90 96 3e b4 99 bb 3d 97 ff ea bd c2 42 d5 3d
       0.29407233 0.09160176 -0.11474531 0.10413124
000090 f6 a3 9e bd ec 30 82 bd 3a 93 b8 3d ce 1b 60 be
       -0.07746117 -0.06356987 0.09012456 -0.21885607
0000a0 fa 12 94 3d ea 61 dd bd 2c 6f df bd 1f 38 a8 3d
       0.07230182 -0.10809691 -0.10909876 0.08213829
0000b0 8a 0a 84 be 0a a0 1e be be bc bb bd 39 9d 00 3d
       -0.2578929 -0.15490738 -0.09166859 0.03139994
0000c0 89 5f 92 3d 05 ff 89 3d f0 88 e2 bd 47 ee da 3d
       0.07147128 0.06738094 -0.11061275 0.10689979
0000d0 41 5d 3d be 49 81 74 be 46 37 f2 3d ae eb 09 3e
       -0.18492605 -0.23877443 0.11826949 0.13468811
0000e0 75 76 2d bd 54 55 6b be 9d 65 00 bd 93 9e b9 3d
       -0.042349298 -0.22981769 -0.031346906 0.09063449
0000f0 6e 50 f5 bd 07 7d 8f bd 80 b6 67 3e fe 96 12 3e
       -0.11978231 -0.07006269 0.22628212 0.14315411
000100 b1 0e 7e bd db 8d ab 3a 1b 51 c7 3d 8d b4 7e 3e
       -0.06202573 0.0013088541 0.097322665 0.24873562
000110 89 70 98 bd 9b 96 35 3e 83 5b 02 3d cb a4 95 bd
       -0.074433394 0.17733233 0.031825554 -0.073068224
000120 7d d6 92 3e ae 97 6b 3e 21 65 97 be 74 6e ac 3d
       0.28679267 0.2300708 -0.29569343 0.08419505
000130 83 08 5c bd 0e 60 32 3e 56 a4 79 3e ff 11 a1 bd
       -0.053719055 0.17419454 0.24379095 -0.078647606
000140 cd 35 90 3d 07 bc 0c 3e 3e 79 9f 3e be 79 89 3e
       0.07041512 0.13743602 0.31147188 0.26850694
000150 71 37 59 3d 20 17 13 3e a1 4c 91 3e 6a 27 77 3e
       0.05303139 0.1436429 0.28378776 0.24136129
000160 5f ac 7a 3e 51 e1 83 3e d0 8b 2a be e8 d7 38 3e
       0.24479817 0.2575784 -0.16654897 0.18051112
000170 6e de 10 be d6 c8 a8 3d 74 1a 03 bd 41 9e bd bd
       -0.1414735 0.082414314 -0.03200765 -0.092587
000180 42 59 45 3e 97 b4 6f 3e 67 60 f8 bd 93 2f dc 3e
       0.1927233 0.23408733 -0.12127762 0.43005046
000190 55 42 b4 3d 2d 46 a0 3e ca 6b c0 3c 2c f1 e5 3d
       0.08801714 0.3130354 0.023488898 0.112276405
0001a0 cc 73 91 3d 40 87 82 3e a4 46 0d 3e 28 92 d3 3e
       0.071021646 0.25493813 0.13796479 0.41322446
0001b0 d3 0b 4a 3d b1 fa 9d 3e 5c 8f 62 3e a9 97 7f 3e
       0.049327683 0.30855325 0.22125 0.24960198
0001c0 88 75 e1 3e 63 38 a8 3e 85 70 c5 bd 7f 83 11 be
       0.44034982 0.3285552 -0.09640602 -0.14210318
0001d0 89 bc c4 3e 4e 69 bd 3e a3 e8 72 3e ec 3b 73 3e
       0.3842509 0.36994404 0.23721556 0.23753327
0001e0 44 97 87 3d bb 5c 18 be 8c 6a c4 3e c4 d0 8e bc
       0.066206485 -0.14879124 0.3836254 -0.017433532
0001f0 4e 1e 17 3e 72 41 7f bd dd 6d 89 3e 96 25 0b 3e
       0.14757654 -0.062318273 0.26841632 0.13588557
000200 f8 6c d5 3b 64 71 1b 3e 18 41 81 3d 31 3b 14 bd
       0.006513234 0.15179974 0.06311244 -0.03618926
000210 d4 b4 a2 bd 6c 1b 20 3e d8 b9 84 be 55 33 52 bd
       -0.079446465 0.1563546 -0.25923038 -0.051318485
000220 a0 d2 98 3d 77 bb aa 3c 90 ff 31 3b 57 06 8f 3e
       0.074620485 0.020841343 0.0027160384 0.27934524
000230 4f 44 ab 3d a3 2a eb 3c 56 ee 9d 3e 44 19 88 3e
       0.08362638 0.028706854 0.30845898 0.26581776
000240 ea 98 bc 3d e8 14 f5 bc dc 7a 42 3d c1 71 a0 3d
       0.092088535 -0.029917195 0.04748045 0.07834197
000250 43 e1 85 3e 14 89 a6 3e b1 75 0d 3e 23 b4 46 be
       0.26148424 0.32526457 0.13814427 -0.19404654
000260 8e e3 dd 3e a3 9e 89 bd 60 dc 0a be f0 b0 d0 bd
       0.43337673 -0.06719711 -0.13560629 -0.10189998
000270 43 1a a1 3e ae d4 d3 3d 5a 97 d3 3d 09 23 ad 3e
       0.3146535 0.103433 0.103316024 0.33815792
000280 f7 a3 a0 3d 96 11 bb 3d 3c f4 bb 3e 50 b1 89 3e
       0.07843774 0.091342136 0.36709774 0.2689309
000290 6d bc 5f be c3 08 8b be 5f 50 16 be 9f fb 6d 3d
       -0.21849222 -0.27155122 -0.14679097 0.058101293
0002a0 ff 5f 90 bb 83 36 84 3e 75 38 64 3e 49 c2 a1 bd
       -0.004405975 0.2582284 0.22287162 -0.07898385
0002b0 46 5a 98 be 99 ff c9 be a7 41 ee 3d ca 76 52 be
       -0.29756373 -0.39452818 0.11633616 -0.20553127
0002c0 f0 2b cf 3d a8 77 ea 3c a4 6b c1 bd b6 0a ee bb
       0.10115802 0.02862151 -0.09444359 -0.0072644604
0002d0 cc 0d 0a bd 1c c1 a9 bd da 20 1d 3e 17 b8 26 be
       -0.033704564 -0.08288786 0.15344563 -0.16281162
0002e0 ec 8d ac 3b 5e 95 3e bd 56 03 6d 3d 2d 51 e1 3c
       0.005265942 -0.046529166 0.05786451 0.027504528
0002f0 09 22 61 3d 54 f0 89 3d 79 67 a2 3e e2 86 87 bd
       0.0549641 0.06735292 0.31719568 -0.06617524
000300 9a 95 bd 3c f1 7e 31 3d 18 b8 f9 bd c2 1a 00 be
       0.023142625 0.04333395 -0.12193316 -0.12510207
000310 0c e4 9e bd ac 02 40 be 7a d2 ff 3b de 8e 6f be
       -0.0775834 -0.18751019 0.007807073 -0.23394343
000320 a5 30 0d 3e 26 4b c5 bd 31 12 a2 bd ac 77 4d be
       0.13788088 -0.09633474 -0.07913626 -0.20065182
000330 1a d8 55 3d 1b a8 06 be a9 ef 51 3d fc 04 81 bd
       0.052208044 -0.13150065 0.05125395 -0.06299779
000340 38 57 7f be 30 0f 1c bd 48 6f b1 bd 90 50 e8 bd
       -0.24935615 -0.03810042 -0.08663803 -0.11343491
000350 8a 17 3b 3e 1c ff 13 be 88 13 ba 3d 7a a0 f5 bd
       0.18270698 -0.14452785 0.090857565 -0.11993499
000360 c3 17 0b be d8 c2 92 3c 20 e4 68 3d bd 76 92 be
       -0.13583283 0.017915174 0.056858182 -0.28606215
000370 56 f4 69 3e f3 db 76 bd c9 d0 8f 3d 57 02 77 bb
       0.22847113 -0.060268354 0.070222445 -0.0037690604
000380 5b 59 d8 bd 5a 9b 86 3d 79 f9 34 bd 74 b9 1a be
       -0.10563918 0.065726 -0.04418323 -0.15109807
000390 33 62 c5 bd 4a f5 ee 3d 76 23 2a bd 8a ce 91 3d
       -0.09637871 0.11667879 -0.041537724 0.07119472
0003a0 1c 6d 85 bd 92 33 19 be b2 67 d0 3d 6e b6 12 bc
       -0.065149516 -0.14961079 0.10176028 -0.008954627
0003b0 ae d3 95 bd 7e 17 33 3b e3 93 11 3d 99 22 62 3d
       -0.07315765 0.0027327235 0.035541426 0.055208776
0003c0 47 ff 7c bc d9 a2 93 3e 98 c6 c8 3c c4 2a 16 bd
       -0.015441722 0.2883518 0.02450876 -0.03666188
0003d0 46 94 a7 3d 77 5f 0e 3e 92 fc 15 bd 25 a6 88 3e
       0.08182578 0.13903604 -0.036617823 0.26689258
0003e0 b4 b0 ea bd d8 43 9e 3e 34 63 89 be 0f 94 01 3f
       -0.11459485 0.30911136 -0.26833498 0.50616544
0003f0 76 01 df 3d 22 82 3b 3c be d4 80 3e 08 c0 6a 3e
       0.108889505 0.0114446 0.2516231 0.22924817

layer_1.bias f4 [33]
000000 f7 f8 a3 3e ab eb 3f be be 2d f7 bd 4b 48 b7 3d
       0.32025883 -0.18742244 -0.120692715 0.08949336
000010 b7 d8 af 3d ae 38 9c be 18 3a d3 3d 28 96 46 be
       0.08586257 -0.30511993 0.10313815 -0.19393218
000020 06 9d a5 3e a8 a6 86 be 41 de 65 be 8e d2 78 be
       0.32346362 -0.26299024 -0.22448064 -0.2429907
000030 78 d9 77 3e 62 d6 e0 3d fd 2c 2f bd ba 15 66 3e
       0.24204051 0.1097839 -0.042767514 0.22469226
000040 ed fe 38 3e a0 ac 28 be 3d 2d 9c be 84 4b df bd
       0.18065996 -0.16472101 -0.30503264 -0.10903075
000050 f5 12 f4 3d 1d 60 22 3e 52 d9 14 be 13 c4 80 3c
       0.11917678 0.15856977 -0.14536026 0.015718495
000060 f9 df 53 3c 3b b8 67 be 4f d3 b4 bd e0 37 64 3e
       0.012931817 -0.22628872 -0.088293664 0.2228694
000070 c5 39 2a 3e 5e 78 82 3e 27 37 c1 bb 5a 9a ad bc
       0.166236 0.25482458 -0.0058964672 -0.021191765
000080 c5 5e 5e bd
       -0.054289598

layer_2.weight f4 [34, 33]
000000 a6 55 de 3d 79 b3 ee bc a5 b5 96 3d 19 1f 58 be
       0.1085618 -0.029138314 0.07358865 -0.21105613
000010 07 f7 82 3c 3c 0e 87 bd 60 35 67 3e 0b a9 2e be
       0.015986932 -0.06594512 0.22578955 -0.17056672
000020 ce d3 49 be d9 53 ae 3d c3 11 a7 3d 46 31 c5 3d
       -0.19709703 0.085120864 0.08157685 0.09628539
000030 40 b1 99 bd 90 86 1e bd a9 ac 13 3d b9 93 42 be
       -0.07504511 -0.038702548 0.036053333 -0.19001664
000040 a4 e0 8d 3c bc 01 00 3e b1 c8 9d 3d 73 6d 0a be
       0.017319031 0.12500662 0.077042945 -0.13518314
000050 1f 5e c1 3c cf b4 58 be 30 3c c1 bd 5e e9 0e be
       0.02360445 -0.21162723 -0.09435308 -0.1395621
000060 34 b1 ac bd a5 5f 77 3b b5 7f bc bd 1c d8 7d bd
       -0.08432236 0.0037746218 -0.09204046 -0.061973676
000070 44 66 80 bd d1 5d d3 3c 14 67 31 bd 0e 82 0b be
       -0.062695056 0.025801571 -0.043311194 -0.1362383
000080 6c 5f 1c 3d 3d e2 d1 bd b0 5e 45 3e 75 02 23 3e
       0.03817694 -0.1024823 0.19274402 0.15918906
000090 a5 8d 82 bd 38 b6 82 bb 13 6c eb 3d 0b 08 27 3e
       -0.06374673 -0.0039890073 0.11495223 0.16311662
0000a0 5d 16 84 be a8 68 38 be 21 ae f0 bd 56 5f 6f be
       -0.25798312 -0.18008673 -0.117519625 -0.23376212
0000b0 ad 39 6b be 25 c8 11 be c2 63 6a 3d 79 62 e6 b9
       -0.2297122 -0.14236505 0.057224043 -0.00043942386
0000c0 7c cf 26 bc 5e b5 83 be f9 ce 50 3e 1a 92 05 be
       -0.010181304 -0.2572431 0.20391454 -0.13044015
0000d0 f1 fe f8 3d 87 77 44 be 9d ce d0 3d e1 f1 86 bd
       0.12158001 -0.19186221 0.10195658 -0.065891035
0000e0 95 80 3c bd 27 56 8b be 4b 6c 12 3e f7 fb e1 3d
       -0.046021063 -0.27214167 0.14299123 0.110343866
0000f0 d6 f8 68 3d 18 40 12 be 5f 8d 79 be 6b 67 1b be
       0.056877933 -0.14282262 -0.24370335 -0.1517617
000100 0c b5 1b bd bc 35 1d 3d 9a 37 87 be a9 db dc bd
       -0.038014457 0.038381323 -0.26409608 -0.10784084
000110 8f 71 37 bd 0e 90 32 be b5 2f fd bc ca bc 61 3d
       -0.044786032 -0.17437765 -0.030906538 0.055111684
000120 4a eb 52 bc 56 ff a5 bd d0 e1 6b be f0 eb ab 3d
       -0.01287348 -0.08105342 -0.2303536 0.08394611
000130 f9 74 9c 3b c6 8d 0f be 1e 21 be bd 06 24 18 bd
       0.0047746864 -0.14018926 -0.0928366 -0.03714373
000140 ce 8d 87 bc 4e 85 85 3d 2e c2 f0 3b b9 9f a1 bd
       -0.01654711 0.065195665 0.007347367 -0.07891793
000150 0a c3 0b 3d 54 b4 60 3e 19 36 86 be 03 7e 21 3e
       0.03412155 0.2194379 -0.26213148 0.15770726
000160 c7 e6 b4 3d 2c f5 81 3d 7a b5 a0 3d 22 cf 18 3e
       0.0883308 0.06345591 0.07847114 0.14922765
000170 28 12 82 be 51 58 44 be da 59 37 be b5 28 3f bd
       -0.25404477 -0.19174315 -0.1790537 -0.04666968
000180 0b 6f cc 3b 2c c7 16 be 7d ef f3 3c 3b ce e9 3d
       0.0062388233 -0.14724416 0.029777283 0.114162885
000190 60 e5 5f bd 7f 2b 64 3d af 00 94 3d 8e 35 06 be
       -0.05466211 0.055705544 0.07226693 -0.13106367
0001a0 fb 98 3c be 58 21 c2 bd 94 f0 73 3d 53 a9 3b be
       -0.18417732 -0.09479016 0.059555605 -0.18326311
0001b0 1a 88 14 bd 9e 5f ce 3d 2c 5b 30 3e c2 c2 ea bd
       -0.03626261 0.10076831 0.1722228 -0.11462928
0001c0 97 0b 5d be 03 3c 77 bc 1b 61 e4 3c 79 14 02 be
       -0.21586452 -0.0150899915 0.027878335 -0.12703122
0001d0 b0 05 14 3a 51 42 7f 3d 70 fc 02 be de 6a 3a bc
       0.00056465995 0.062319104 -0.1279161 -0.011378018
0001e0 0c 51 4d be e6 de 1c be c0 11 22 be 18 84 70 3d
       -0.20050448 -0.15319404 -0.15827084 0.058719724
0001f0 e2 39 8c bd 95 f3 cf 3d 39 cc d5 3c 4f bb 8b 3c
       -0.06846978 0.101538815 0.026098358 0.01705709
000200 cd ac ab bd ce 48 99 bd bc af 5a 3d c8 f5 f4 3c
       -0.083825685 -0.074845895 0.05339025 0.029902354
000210 d1 1f de bd 84 eb d6 3c dc 59 5e 3e f3 97 e2 3c
       -0.10845912 0.02623535 0.21713966 0.027660346
000220 43 96 b4 3d 8b e1 36 3e 62 d4 47 3d 37 e4 15 3e
       0.08817723 0.17859475 0.04878653 0.14637838
000230 92 f6 8c 3d 6b 66 39 3d 9a c9 db 3d 85 d2 0c 3d
       0.06882967 0.04526369 0.10731812 0.034380455
000240 71 f2 c7 bc 3f 95 25 3e 15 be 94 bd 81 3a 44 3e
       -0.024407597 0.16170214 -0.07262818 0.19162942
000250 a0 78 26 bb 9e 02 0f 3e 2a 30 4a 3e c6 74 a4 3b
       -0.0025401488 0.13965842 0.19744936 0.0050188033
000260 42 88 b5 3d 7d 54 83 3e 03 f1 2b be 3a a6 57 3d
       0.0886388 0.25650397 -0.16791157 0.05264876
000270 20 b4 02 bd d1 26 f0 3d fc b9 d8 3b 4c e8 0c 3e
       -0.03191006 0.11726154 0.006613968 0.13760489
000280 89 e7 7c 3e b2 42 29 3e 2f e7 93 bd 34 d3 0e 3e
       0.24697699 0.16529348 -0.07221829 0.13947755
000290 62 29 09 3e c9 35 d1 bc 83 96 47 3d 3d 20 d6 bd
       0.13394693 -0.025538342 0.048727524 -0.10455368
0002a0 7c 38 be 3c 0b 74 9b bd dc c3 1a be ed e9 34 3d
       0.023220293 -0.07590493 -0.15113777 0.0441684
0002b0 d2 49 b8 bd c6 ad 2f be f5 55 49 3d a7 2c 0e bc
       -0.08998455 -0.17156133 0.04915424 -0.008677638
0002c0 1d 7d 71 bd a0 66 06 bc c2 a2 41 3d 5c 97 fa bc
       -0.058957208 -0.008203179 0.04727436 -0.030589752
0002d0 dc 29 83 bc 28 5a 49 bd 40 a1 39 be 0b 7a 08 be
       -0.016011171 -0.049158245 -0.18127918 -0.13327806
0002e0 28 8d 97 bd d7 f6 4d 3b f0 1c ff 3d 88 d0 84 3d
       -0.0739997 0.0031427646 0.12456691 0.06485087
0002f0 47 73 0e be 5c f9 6e 3d e6 a0 0a be aa 10 28 bd
       -0.13911162 0.058343276 -0.1353794 -0.041031517
000300 85 c4 a9 3c e8 5c 14 be c0 8d 92 3d a1 c8 bf 3d
       0.02072359 -0.14488566 0.07155943 0.09364439
000310 06 07 97 bd 3b 75 bc bd 13 69 c3 be 7c 11 e2 bd
       -0.073743865 -0.092020474 -0.38166103 -0.11038491
000320 ee 98 b6 3c 1e 81 c0 bd ee 5b f0 3d 75 28 85 3e
       0.02228972 -0.09399627 0.11736284 0.2600743
000330 aa 84 38 3d b4 a8 96 bc 0c 08 db bb 6e bc 9b 3c
       0.045048393 -0.01839099 -0.006684309 0.019010749
000340 d7 24 87 3d 79 a1 75 3d 0d b7 89 bd c4 d2 20 be
       0.065988235 0.059968445 -0.06724367 -0.157054
000350 8e 73 e7 bc c0 48 33 36 4d 7b 5d 3d ff b3 1f 3c
       -0.028253343 2.6715425e-06 0.054072667 0.009747504
000360 52 72 d1 3d f0 6e 3f 3e b4 02 9b be 13 02 64 3e
       0.10226883 0.18694663 -0.302755 0.22266416
000370 3b fa 32 3e 3b 5a 04 be 4e cb 08 3e 28 2a 56 3d
       0.17478268 -0.12925045 0.13358805 0.052286297
000380 7d bf e6 3b 6d d2 bd bd a9 76 df 3d 43 f7 a2 3d
       0.00704187 -0.09268651 0.109113045 0.07957318
000390 be c7 c7 bc 80 46 84 3e 20 2b fa bc 7a 5e 20 3c
       -0.024387237 0.25835037 -0.030538142 0.00978815
0003a0 7d bb 24 bd 10 ac 33 3d 06 34 16 be 8f 42 62 3d
       -0.040217865 0.043865263 -0.14668283 0.055239256
0003b0 74 47 f1 bb 5a c6 1b be 9b 75 99 3d 77 be e9 bd
       -0.007363254 -0.15212384 0.074931346 -0.114132814
0003c0 02 72 bf bd 79 f6 e8 bd 94 d7 1c 3e 03 a8 c1 bc
       -0.09347917 -0.11375136 0.15316612 -0.023639685
0003d0 24 af 2a be 0f 81 e5 3d 7c 54 4b bd 6c 38 81 bd
       -0.16668373 0.112062566 -0.049641117 -0.0630959
0003e0 7f 09 bb 3d b1 7c d1 bd 8a 76 ec bd 72 12 a0 3c
       0.091326706 -0.10228861 -0.11546047 0.019540045
0003f0 5b 9b 43 bc c2 16 16 be f6 c7 ad 3d 4c 1c e3 3d
       -0.011938895 -0.14657119 0.08485405 0.110893816

layer_2.bias f4 [34]
000000 1f 32 69 bd 30 26 f4 3d 93 3a b8 bd 1d b4 37 be
       -0.056932565 0.11921346 -0.08995547 -0.17939802
000010 19 4a 27 3e 3e b5 15 be 76 ef 99 3d 53 45 14 be
       0.1633686 -0.1461992 0.07516377 -0.1447957
000020 f0 0a 3a be 10 d7 23 3c e0 9e 74 be 43 88 f6 bd
       -0.18168235 0.010000005 -0.23888731 -0.120377086
000030 3f 31 03 3e f4 b1 c9 bd 85 6b 9b 3e 31 a9 a5 3c
       0.12811755 -0.09848395 0.30355468 0.020222278
000040 f2 80 32 be 95 0e a6 3d aa e5 e2 bd b0 43 a1 bd
       -0.17432001 0.0810825 -0.11078961 -0.078742385
000050 63 0d 06 be 48 d8 cd 3c c8 a6 39 bd ed 51 80 bb
       -0.13091044 0.025127545 -0.04532507 -0.0039160163
000060 60 6a 36 3e 27 f0 a3 3e f3 17 76 3e 40 b4 1d 3e
       0.17814016 0.3201916 0.24032573 0.15400791
000070 a1 73 00 3f dd bd 3b 3d ea 1c 89 3e 96 6c 3a be
       0.50176436 0.045835365 0.26779872 -0.18205485
000080 bc e3 41 bd 12 c3 1e be
       -0.047336325 -0.15504101

layer_3.weight f4 [15, 34]
000000 90 a5 2e 3c 2a 05 45 be 32 1e 0f 3e 2a b7 4b bd
       0.01065959 -0.19240251 0.13976362 -0.049735226
000010 85 6a 88 be ca de 8b bd 44 eb e8 be 49 c7 cd 3d
       -0.26643768 -0.06829603 -0.45491993 0.10047776
000020 69 75 b8 bd 52 0e 80 bb d6 8a 3c 3e 45 4f fa 3d
       -0.09006769 -0.003907957 0.18412337 0.12222151
000030 38 d4 d7 be 63 50 2d be 82 98 9a bc 92 1a db bd
       -0.42154098 -0.16925196 -0.01887155 -0.10698427
000040 f9 c8 0e bc 16 2a ca bd 89 bc a3 be 7d 87 65 b9
       -0.008714908 -0.098713085 -0.31979778 -0.00021889615
000050 64 2e 9e bd da 38 30 3f 27 19 41 be 50 ce ae be
       -0.07723692 0.6883675 -0.18857251 -0.3414178
000060 d4 6f 93 be 8b d2 85 be b1 84 83 3c ce 02 01 be
       -0.28796256 -0.26137194 0.016054483 -0.12598726
000070 e5 cf 2a 3f 28 3b 01 3d 75 a9 85 be e3 f0 ad bd
       0.6672347 0.031550556 -0.26105848 -0.08493211
000080 aa 01 25 3e 78 61 34 be 5f 22 cb bd 56 79 60 3d
       0.16113916 -0.17615306 -0.09918665 0.054803215
000090 a4 c5 10 bd f0 44 3a 3c 1a 1c e4 bc 81 27 a0 bd
       -0.035344735 0.011368975 -0.027845431 -0.07820035
0000a0 bd 83 01 3e 5f 05 75 bd 11 75 6a 3d 15 18 56 3d
       0.1264791 -0.059819575 0.05724055 0.05226906
0000b0 64 1a 33 be 79 f3 17 3d 1d 48 ab bd 47 0b 69 3c
       -0.17490536 0.037097428 -0.08363364 0.01422388
0000c0 bb 08 23 3e 8c a0 da bd 85 2f 01 be de bf 01 be
       0.15921299 -0.10675153 -0.12615784 -0.12670848
0000d0 9e 0b 0b bd ce 8c ee 3d 55 0c f2 bc 0f 2f 34 be
       -0.033946626 0.1164795 -0.029546896 -0.17596076
0000e0 f3 78 01 be 3b 3d 30 3e 6c 62 b9 bd 0b 7b b8 3d
       -0.12643795 0.17210858 -0.090519756 0.090078436
0000f0 ea db 61 3e d2 1c 9d bd d5 19 65 3d a6 b4 0a 3d
       0.22056547 -0.07671513 0.05593284 0.033863686
000100 1a 7d 69 3d a3 80 96 3d d6 60 a4 bb 33 95 8a bd
       0.05700407 0.07348754 -0.0050164266 -0.06766739
000110 9d cc 81 3c 79 21 41 3e 6f 00 cb 3b 94 63 0e be
       0.015844638 0.18860425 0.00619512 -0.13905174
000120 8d 6d 85 be 97 37 35 bd eb 5c 99 be ad 61 84 bd
       -0.26060143 -0.044242468 -0.29953703 -0.06463943
000130 26 96 f5 bd 95 19 05 be d7 97 7f bc 28 f6 ae 3d
       -0.11991529 -0.1299804 -0.015600166 0.08543044
000140 da 5c 41 be 3c b1 0b 3d 19 b1 b8 be a2 23 fb bd
       -0.18883076 0.03410457 -0.36072615 -0.12262656
000150 2d 17 be 3d 39 e3 61 be bc 9c 26 be 42 ba e1 bd
       0.09281764 -0.22059335 -0.16270727 -0.11021854
000160 a8 49 d8 3d 39 50 84 be f7 45 04 3c 50 55 91 bc
       0.10560924 -0.25842455 0.008073322 -0.017740875
000170 94 2c dd be 33 d0 97 be b3 e9 8d be 4d f0 59 be
       -0.43198073 -0.2965103 -0.2771736 -0.21283074
000180 41 15 16 be f4 a9 63 be 8a 10 d4 be 8d 24 49 3d
       -0.14656545 -0.222328 -0.41418868 0.049107123
000190 80 95 2b 3e 55 b5 c8 3d 10 fd db bd f8 4b 48 3e
       0.16756248 0.09800211 -0.10741627 0.1956023
0001a0 c9 e6 cc 3d 92 5c 86 bb dd 5b f7 3d 8f 04 01 3e
       0.10004956 -0.0041003907 0.120780684 0.12599395
0001b0 c5 55 fa bd b1 f8 08 be d7 7a 84 bb c5 c1 c1 bd
       -0.122233905 -0.13376118 -0.004042964 -0.09460787
0001c0 92 19 7e bd 8d e0 75 bc ad 37 6e 3d e7 97 be 3d
       -0.062036105 -0.01500715 0.058158565 0.09306317
0001d0 0c ba 9d bd 97 d5 ee 3d 8e 34 61 3e 6c ef 60 3e
       -0.07701501 0.11661833 0.21992704 0.21966332
0001e0 c4 8a 96 3d 13 13 ab be 5a ce a0 bd d7 c1 b7 3e
       0.07350686 -0.3341299 -0.078518584 0.35890076
0001f0 05 d5 2e 3d e7 c7 87 3d 29 c7 1f 3e c7 03 96 bc
       0.04268362 0.06629925 0.15603317 -0.018312348
000200 e4 6e cd 3d cf ab cf 3b 36 7b 52 3e 2c 01 23 3d
       0.10030916 0.00633762 0.20554814 0.03979604
000210 fc a3 db bd 92 69 d2 3d 90 a9 8d 3b b9 da 78 3d
       -0.10724637 0.10274042 0.004323192 0.060755465
000220 29 92 84 3c 51 f0 4b 3c aa 45 51 3d 2c a1 f0 bc
       0.016182976 0.012447433 0.051091827 -0.029373728
000230 28 4c 96 bc a2 c4 21 be 00 fe 20 be 8f a8 df 3c
       -0.018346861 -0.15797666 -0.15721893 0.027302055
000240 31 84 fa 3d 70 72 5d 3e 11 00 09 bc 17 fd 13 3e
       0.12232245 0.21625686 -0.008361832 0.14452015
000250 82 a2 28 be a9 dd 06 3d 6d ea 78 bd e0 db d7 bd
       -0.16468242 0.032926235 -0.06077044 -0.10539985
000260 f9 cf 22 3e cc ea 29 be 0f 81 39 be be 99 c4 3d
       0.15899648 -0.16593474 -0.18115638 0.095996365
000270 5e 82 24 bc 8f 37 20 be e6 c0 2d 3c 6c 5a 87 be
       -0.010040848 -0.15646194 0.010605073 -0.26436174
000280 b4 45 81 be 24 70 1e bb 6d b1 5f be 21 67 3f be
       -0.25248492 -0.0024175728 -0.21845026 -0.18691684
000290 af 6b 89 bd ca f0 66 3e 95 36 53 be dc 9b 41 3d
       -0.06709992 0.22552791 -0.2062629 0.04726778
0002a0 16 b7 c6 3c f1 2e e0 3d 5a 56 1b 3e ac d3 df bd
       0.024257224 0.10946453 0.1516966 -0.10929045
0002b0 50 94 0b be 5b a6 fe 3d c2 9e ce bc f4 bb c0 3d
       -0.13630795 0.124340735 -0.025222186 0.09410849
0002c0 e8 2a 53 bd 1e f9 d0 3d dd 2f a8 bc c1 d7 d3 3d
       -0.05155459 0.10203765 -0.020530635 0.10343886
0002d0 67 b9 4c bd d3 fb 22 3e 0a d9 db bc 40 95 ec 3d
       -0.0499815 0.15916376 -0.02683689 0.11551905
0002e0 0f 61 1a 3d 06 de ad 3d c8 65 93 bd 47 e5 6d bc
       0.03769022 0.08489613 -0.071971476 -0.014519996
0002f0 26 ab 8d bd 3c f1 ad 3d e1 c9 30 3d e8 2a 33 be
       -0.069174096 0.084932774 0.043161277 -0.17496836
000300 89 d7 b2 3d a7 d3 3c 3d f0 92 12 bd 2a 1c 40 bc
       0.08732516 0.046100285 -0.03578466 -0.011725465
000310 7c b9 7a 3d 11 66 34 bd 63 b6 da be 81 e2 05 be
       0.061212048 -0.04404265 -0.42717275 -0.13074686
000320 26 3c cd 3c a0 be ee bd 43 70 92 bd 3d 63 fc bc
       0.025053095 -0.116574526 -0.071503185 -0.03080904
000330 17 4b a5 bd 56 c1 34 be 62 d4 03 bd c4 a8 dc 3d
       -0.08070963 -0.17651877 -0.032184966 0.10774377
000340 bc 0b 5e 3e 27 c2 c8 bd 19 01 ee 3d 6a a4 2e be
       0.21684164 -0.098026566 0.11621303 -0.17054906
000350 76 18 24 3d 16 e7 bf bc 5e 67 73 bd 0d cc 39 be
       0.04006239 -0.02342562 -0.05942475 -0.18144245
000360 91 a7 9f 3c 9d 84 cb bd 3d dd a3 3e 92 d0 f3 bd
       0.019489082 -0.09937403 0.3200473 -0.11905016
000370 8f a5 a2 bd f0 30 78 be 09 93 73 3d 5a f3 c4 3c
       -0.07941734 -0.24237418 0.059466396 0.02404182
000380 ec 1c 14 3e 5c 28 d7 3e ca 64 15 be aa de b1 3e
       0.14464158 0.4202298 -0.14589229 0.34740192
000390 b0 e7 6f 3e 19 e1 ac 3e e8 e8 ac 3e f5 3f f4 3d
       0.23428226 0.33765486 0.33771443 0.11926261
0003a0 c8 d9 e4 3e 1c 04 ed bd df fb 47 3e dd d8 23 3d
       0.44697404 -0.115730494 0.19529675 0.04000174
0003b0 c5 04 cd 3c 93 47 dc bd df bd 3c be ae 39 0a be
       0.025026688 -0.10755839 -0.18431805 -0.13498566
0003c0 db ab 85 3d e2 05 18 bc 61 14 93 bd e9 11 a7 bd
       0.065269195 -0.009278746 -0.07181621 -0.08157713
0003d0 75 2e bc 3b 50 ba 3a bd 54 f7 02 bd a1 81 9b 3e
       0.005742843 -0.045587838 -0.03197415 0.30372337
0003e0 2e b6 04 3d 9f 26 25 3d d9 aa 54 3d ec 82 b9 bd
       0.032400303 0.040320035 0.051920746 -0.090581745
0003f0 5c 5f 6e 3c b9 47 9c bc 4e 73 70 3d 0c 4a 8a 3d
       0.014549103 -0.019077169 0.058703713 0.067524046

layer_3.bias f4 [15]
000000 d4 ac a5 be 8d d1 65 3e da f4 8b be f7 7f 1d 3e
       -0.3235842 0.22443219 -0.27335244 0.15380846
000010 bc cd 47 3d 65 d2 3b be 0d 4f 51 3e 3b c9 2d bd
       0.048780188 -0.18341978 0.20440312 -0.042428236
000020 02 69 96 3d 2a b0 59 be 0a 59 94 be 50 0e 70 bd
       0.073442474 -0.21258608 -0.2897418 -0.0586074
000030 c4 ca 03 3d 31 9f 0d 3d 52 4a 00 be
       0.032175794 0.034575645 -0.12528351
