mean_model.pt (torch, 21583 bytes, 8 tensors)

layer_1.weight f4 [33, 30]
000000 f7 e8 bb 3c 92 e1 92 3d 12 86 2c 3e cf cf 6a 3c
       0.022938235 0.071719304 0.16848019 0.014331772
000010 02 01 bf 3d df 0e f1 3d 3e 8d 1c bd bd 7a 5f 3c
       0.09326364 0.117704146 -0.038220637 0.013640103
000020 1e 6d a1 bb e1 a3 ab bd 4b 29 0b be a8 d8 23 3e
       -0.004926338 -0.08380867 -0.13589971 0.16000617
000030 c8 31 3a 3e f1 91 8f 3d 42 ce 86 3d ee c1 81 3d
       0.18183053 0.07010258 0.06582309 0.06335817
000040 9a a2 d1 bd 77 21 43 3d 59 3b a0 3d f5 78 31 be
       -0.10236092 0.047639336 0.0782382 -0.17331298
000050 b3 f1 d4 bd f9 e3 d3 3d 00 93 bf 3c e6 0d 3c 3e
       -0.10397663 0.10346217 0.023385525 0.18364677
000060 b6 61 00 be 53 35 aa bd 3e 1e 69 bc 6c 97 16 be
       -0.12537274 -0.08310952 -0.014228402 -0.147062
000070 6a e7 bd 3d 91 43 86 3d ae 22 34 bd 4a 00 15 be
       0.09272654 0.06555856 -0.043978386 -0.14550892
000080 00 61 2b 3e fb c6 39 be 16 fd 0b 3e 89 63 e1 bd
       0.16736221 -0.18142311 0.13670763 -0.11005313
000090 e0 23 18 bd 30 18 fc ba c2 7d e1 bd e0 e6 29 be
       -0.037143588 -0.0019233283 -0.110103145 -0.16591978
0000a0 7e f2 ca bd fc ca e4 3d eb e3 1d be 7c ae d9 3b
       -0.09909533 0.11171529 -0.15418975 0.0066431146
0000b0 ae c0 9b 3d e6 c8 98 bc 95 00 fa bc 12 9a 35 3e
       0.0760511 -0.018650483 -0.030517856 0.17734554
0000c0 fa 9a d6 3d 44 ee 15 be 4a a5 5c bd a4 4a 6b bd
       0.10478778 -0.14641672 -0.05386857 -0.05744423
0000d0 0f e2 fe 3d f5 e6 89 3d c4 a0 c2 bd b9 08 94 3d
       0.12445461 0.06733505 -0.0950332 0.07228226
0000e0 a4 d8 b0 3b f6 c5 aa 3c 2c 76 8e 3d 6e 0f b5 bd
       0.0053969193 0.020846348 0.06956133 -0.088408336
0000f0 ed 6b a3 3d 08 25 a6 3d 69 09 b9 bc 64 4c ab 3d
       0.079795696 0.08112532 -0.022587495 0.0836418
000100 6e ff aa 3b e8 96 85 3d aa e3 42 3d ba af 2a 3d
       0.005218438 0.06522924 0.0475804 0.041671492
000110 0e 82 7c bd 22 80 9c 3d a7 cd d9 bd 2b 92 18 be
       -0.061647467 0.07641627 -0.10634928 -0.14899509
000120 6c 6e 96 3c ad ee 0e be 4d 64 35 be 27 90 f9 bd
       0.0183632 -0.13958235 -0.17714043 -0.12185698
000130 c7 a4 4c 3e 46 77 17 3d b3 bf 1e be df 74 b9 3d
       0.19984733 0.036978982 -0.15502815 0.090554945
000140 c2 ef 4b be b9 a2 cc 3d 62 a2 52 3c eb 2a 95 3d
       -0.19915679 0.099919744 0.012856098 0.072835766
000150 63 4f a6 bd 72 5e 2a be 32 7f 52 bd c7 35 38 3c
       -0.081206106 -0.1663759 -0.051390834 0.01124329
000160 e1 62 2e 3e 20 45 62 3d 6c b7 5c 3b 38 4b fe bc
       0.17029907 0.055241704 0.0033678664 -0.031041726
000170 27 85 99 3d 1f 14 ca 3d 87 c0 a1 bd 96 b3 e6 bd
       0.074961 0.09867119 -0.0789805 -0.11264722
000180 aa ec a9 bd 34 d3 1e 3e d4 2b 25 3e 30 4a 9c 3d
       -0.08297093 0.15510255 0.1613 0.07631338
000190 68 4a db bd d6 b4 09 bd 01 bf f7 bd bc 23 89 3d
       -0.10707551 -0.033619724 -0.12096978 0.06696269
0001a0 e2 53 b3 3c b1 62 bd bd 5e 6d 9a bb d8 59 63 bd
       0.021890584 -0.092473395 -0.0047127446 -0.055505604
0001b0 fa 5d 3b 3d f0 38 90 bd b8 a3 0d bd 8e 6e 47 bd
       0.04574392 -0.0704211 -0.034579962 -0.048689418
0001c0 55 b8 2d be eb 14 26 3e 91 bc d2 bd e3 f0 79 3d
       -0.16964848 0.16218917 -0.102898724 0.061020743
0001d0 8a 30 18 be 6e ed 5d 3d 65 8f f1 bd 9b b1 31 3e
       -0.14862266 0.05418151 -0.117949285 0.17352907
0001e0 27 2e 93 bd 86 84 98 bd da 7f cf bd 70 19 90 3d
       -0.07186537 -0.07447152 -0.101318076 0.07036102
0001f0 b1 c2 9f bc f4 e0 30 3e b1 76 e3 bd 4b fb 2f be
       -0.019502016 0.17273313 -0.11106623 -0.17185704
000200 b8 4f 95 3d ae d9 0d bd bb 0f a5 3d 01 5a 86 bd
       0.07290596 -0.034631424 0.08059641 -0.06560136
000210 72 3f 26 3c a3 54 e3 bc 81 23 f1 bd f4 f1 06 3e
       0.0101469625 -0.027750319 -0.1177435 0.13178235
000220 be 23 09 3d 8d a7 27 be ce ee a0 3c 7b ca 05 bd
       0.033481352 -0.1637251 0.019645121 -0.032663804
000230 24 ae 0c 3e 62 21 0f 3e f2 d6 9b 3d 40 99 d3 3d
       0.13738304 0.13977578 0.07609357 0.103319645
000240 d7 a2 40 be b8 bc d1 bd ba 34 df bd 4b a2 8b 3d
       -0.18812118 -0.10241073 -0.10898729 0.06818064
000250 38 eb 88 3d ff d7 d1 bd 95 f8 24 3e 91 7a 85 bd
       0.066854894 -0.10246276 0.16110452 -0.06517518
000260 27 6d 35 be 36 f3 2f be 19 5b dd bc 92 e5 40 bb
       -0.1771742 -0.17182621 -0.027020978 -0.002943371
000270 26 17 17 be 3f e2 3f 3e 8c 5f 27 3e 2b b7 9b bd
       -0.14754924 0.1873865 0.16345042 -0.07603296
000280 18 73 17 be 05 d1 3a 3d a3 c9 ea bd 2c 99 4d be
       -0.14789999 0.045609493 -0.114642404 -0.20077962
000290 10 52 b8 bc 9c 7f ff 3d 10 49 f0 bc 89 f5 ce 3d
       -0.022500068 0.124755114 -0.029331714 0.10105426
0002a0 40 9a af 3d 79 b1 c7 3d c9 d0 cc 3d 29 00 f8 3d
       0.08574343 0.09750647 0.1000076 0.121094055
0002b0 8c e8 0b 3d 27 82 c6 bd 63 dd ea 3d e0 5e 59 3d
       0.03415732 -0.09692793 0.114680074 0.053068995
0002c0 50 c2 fb bc 16 e1 15 be 2c 22 22 3e ca 56 d5 3d
       -0.030732304 -0.14636645 0.15833348 0.10416944
0002d0 e2 cc f3 bd af e2 8a bc 7f ba fd bd 7a 84 4a bd
       -0.11904313 -0.016953794 -0.12389087 -0.049442746
0002e0 2e d1 d3 bb 34 8d b2 bd da 53 05 3e 8f d0 39 3e
       -0.006464145 -0.087183386 0.13020268 0.18145965
0002f0 3e 0e b4 bd 4d f1 87 3d ab 95 ba bd 31 3c ec bd
       -0.08791779 0.06637821 -0.09110578 -0.11534918
000300 a1 b7 2f 3e 8d fc 16 bc d5 7d 05 3e 6c d4 fa 3d
       0.17159893 -0.009215486 0.13036282 0.122475475
000310 ab d4 41 bd 07 0f ed bd 30 6c 8d bd 78 0c a4 bd
       -0.047321957 -0.11575132 -0.06905401 -0.08010191
000320 38 f1 16 3e ac 61 a1 bb f4 38 5e 3d 59 ae 8c 3d
       0.14740455 -0.0049249735 0.054253533 0.06869192
000330 86 25 1e be 5a 56 cc 3d 05 cf 36 be 05 d7 15 3e
       -0.15444002 0.09977408 -0.17852409 0.14632805
000340 8e 31 f0 bc c1 c1 2d 3e 27 90 00 be 3d 8d ba bd
       -0.029320505 0.16968442 -0.1255499 -0.0910897
000350 70 5a 85 3d 68 65 29 3d 50 95 01 3d 1e 19 0d 3c
       0.0651139 0.041356474 0.031636536 0.008611945
000360 00 8c 94 bc 02 81 24 be 26 1e f3 bd 70 13 77 3d
       -0.018133163 -0.16064838 -0.11870985 0.06032127
000370 a0 5b 68 3d e7 b9 1d be 83 23 95 bd 42 50 e9 3d
       0.056728005 -0.15402947 -0.07282164 0.11392261
000380 30 e0 de bd f4 18 cd bd 2d 37 08 be 36 b9 06 be
       -0.10882604 -0.10014525 -0.13302298 -0.1315659
000390 e6 4f ac bd 8b b5 a6 bd b3 c7 db bd 39 21 b1 bd
       -0.08413677 -0.08140095 -0.10731449 -0.08648915
0003a0 48 9c 3c 3e e4 a6 02 be c8 a4 99 3d f8 3c 7c 3d
       0.18418992 -0.12758976 0.07502133 0.06158158
0003b0 4a 80 11 bd d7 71 0d be 0d 7a f6 3d 1c e4 18 be
       -0.035522737 -0.13812958 0.12034998 -0.14930767
0003c0 c9 b2 02 3e b4 c1 4b 3d 57 c3 ca bd 56 be 1a 3e
       0.12763514 0.049745277 -0.09900539 0.1511167
0003d0 ef d9 8c 3d c9 61 04 3d 34 5c 1a be 5f 84 20 3e
       0.06877505 0.032319818 -0.15074235 0.15675496
0003e0 99 2d 26 be 64 03 07 3e 43 cb 32 bd aa ca c6 bd
       -0.16228332 0.13184887 -0.043650877 -0.09706624
0003f0 c2 2b fe 3d 29 47 14 3c d1 ca 44 be b8 88 22 be
       0.1241069 0.009050169 -0.19217993 -0.15872467

layer_1.bias f4 [33]
000000 3c 94 51 3d b9 4e 06 be 60 a2 57 ba 92 df 3c bc
       0.051166758 -0.13115968 -0.0008225795 -0.011527913
000010 66 10 18 be 45 05 d4 3d 9c b0 d9 bd 95 8c 18 3e
       -0.14850006 0.103525676 -0.10629389 0.14897378
000020 f3 c5 1a 3e 7e 67 8a 3d be 11 ea bd a7 a2 9f 3d
       0.15114574 0.06758021 -0.11429165 0.07794695
000030 95 b8 19 3e 58 64 fd 3c cb 58 ef bd 70 62 20 3e
       0.15011819 0.030931637 -0.11686858 0.15662551
000040 30 b6 b6 3c 3f c6 0a be ff bd 33 bc d1 a6 f5 bd
       0.02230367 -0.13552187 -0.010970592 -0.11994708
000050 9d f6 f3 bd c3 d7 d2 bc 25 95 16 3e 18 e8 1a 3e
       -0.11912272 -0.025737649 0.14705332 0.15127599
000060 0c 86 b7 3c d1 84 12 be 7d a5 91 3c 20 f4 24 3e
       0.022402786 -0.14308478 0.017779106 0.16108751
000070 fd eb 0f 3e 54 3f 17 be fc 7b 34 be eb fd 47 3d
       0.14054866 -0.14770252 -0.17625421 0.04882614
000080 c8 2e 8b ba
       -0.00106188

layer_2.weight f4 [34, 33]
000000 41 bb e0 bc 22 c9 de 3d 1c f4 98 3c e1 4b c5 bd
       -0.02743304 0.10878207 0.018671088 -0.096336134
000010 35 24 90 3d 2e 9a 01 3d f0 e0 e0 3d a8 01 f7 bc
       0.07038156 0.031641178 0.109804034 -0.030152157
000020 ad 96 b7 3d 99 c4 32 3e 71 cb 29 3e f6 30 33 bd
       0.08964286 0.17457809 0.16581513 -0.043747865
000030 9b ed dc bd a6 b7 99 bd c1 9a 16 be fd ea 90 bd
       -0.10787507 -0.07505731 -0.14707471 -0.070760705
000040 c9 ea 82 3d 31 46 a2 3d 32 9a 55 3d d3 bc 94 3d
       0.06392438 0.07923544 0.052149005 0.07262578
000050 cc ed 51 bd cc 56 30 3e dd 55 ed bd 81 fa 26 be
       -0.05125217 0.1722061 -0.11588643 -0.16306497
000060 38 79 2e bd 6b dc 88 bd b0 28 c8 3d 9d af 28 3e
       -0.042596072 -0.066826664 0.097733855 0.16473241
000070 6f 1f a8 bd b2 f9 8e 3d 49 7b 17 3d 24 6f 02 3e
       -0.082091205 0.06981219 0.03698281 0.1273771
000080 06 57 26 bd a5 71 28 be c7 b6 82 3b 8f b0 1e 3e
       -0.040610336 -0.16449602 0.003989074 0.1549704
000090 8e b4 18 3e ee 7d 50 bd ca a0 e4 bd 59 4c b9 3d
       0.14912626 -0.050901346 -0.111634806 0.09047765
0000a0 0f c4 25 3e 46 f6 c0 3d 36 a3 bb bd d6 69 01 bd
       0.16188072 0.09421973 -0.091619894 -0.031595074
0000b0 29 76 8c bd b4 d4 aa 3d c2 18 03 be b6 ef f0 bd
       -0.06858475 0.08341351 -0.12802413 -0.11764471
0000c0 64 d8 b5 3d 13 59 cb bc c8 3a 24 bd a8 5e a1 bd
       0.08879164 -0.024822747 -0.04009512 -0.07879382
0000d0 d6 6e 14 bd 8c 18 d2 3d bc da 2e 3b 31 a4 12 be
       -0.036238514 0.10258588 0.0026680669 -0.14320447
0000e0 94 38 03 bd bc be 45 3e 33 40 19 be 6a 53 e9 bd
       -0.03203638 0.1931104 -0.14965896 -0.11392863
0000f0 2c 7e 0b bc 69 07 50 bd 4b 12 b6 bc ad 59 fa bd
       -0.008513968 -0.050788317 -0.02222552 -0.122241355
000100 d7 4c 22 be e1 e4 54 bc 1d 10 83 bc e2 7e c1 3d
       -0.15849625 -0.012994022 -0.015998894 0.09448029
000110 7c ad b3 bd dd 37 a2 bd 75 0a b7 3d 7a d7 6f bd
       -0.08773324 -0.07920811 0.089375414 -0.058555104
000120 40 bc 4a bd eb 67 40 be 2f 61 2e 3e 2e 03 a9 3c
       -0.049495935 -0.18789642 0.1702926 0.020631399
000130 d1 d7 11 3e cd 43 3a 3c f4 26 3e bb c5 1c 09 be
       0.14242484 0.011368704 -0.0029014917 -0.13389881
000140 3c d4 93 3c 12 29 6c bd c2 26 0b be fc 96 f4 bd
       0.018045537 -0.057656355 -0.13589004 -0.119428605
000150 ef 72 90 3d f7 bf f3 bd 78 79 12 3e fa e9 2c bd
       0.07053172 -0.11901849 0.14304149 -0.042215325
000160 fe e3 1f 3d 2b b0 58 3d bb fd d5 bd df c4 b5 bc
       0.03903579 0.052902382 -0.10448786 -0.022188602
000170 d0 7c 82 3d 04 3b 75 bd 30 30 53 3d 64 00 bc bd
       0.06371462 -0.059870735 0.051559627 -0.09179762
000180 b2 4e 42 bc 93 07 fa bd 57 fc 0a be b1 33 aa bc
       -0.011859583 -0.12208476 -0.13572823 -0.020776602
000190 fb 6d 03 be 2c 04 07 3e 01 68 bb 3d ee c1 bc 3b
       -0.12834923 0.13185185 0.091506965 0.005760423
0001a0 90 b8 16 bd 54 a2 9a bd 75 b3 2e be 67 84 b5 3d
       -0.036797106 -0.07550493 -0.17060645 0.08863144
0001b0 8e fa 93 3b 7c 77 7e 3d 9d c9 f5 bc 65 26 0b 3c
       0.0045159524 0.062125668 -0.030003363 0.008493041
0001c0 7f dc 27 3d 01 2d 22 3e 9b 17 b1 bd d2 64 89 bc
       0.040981766 0.1583748 -0.086470805 -0.016771708
0001d0 07 ae d5 3d 84 b3 1a 3e 8e cd 53 bd 88 cc 99 3d
       0.10433584 0.15107542 -0.051709704 0.07509714
0001e0 ab e2 02 3d ab e0 aa 3d 0a 58 96 bc 98 a2 43 bd
       0.03195445 0.08343633 -0.018352527 -0.047762483
0001f0 ff 59 a7 3d 1f d1 f7 bc 44 b3 e9 3d 57 e4 e9 bd
       0.08171462 -0.030251084 0.11411145 -0.114205055
000200 db db 3e 3c 57 00 25 bd b3 a5 38 bc 46 be b1 3d
       0.011649097 -0.040283527 -0.0112699745 0.0867887
000210 f1 bd 08 3e a7 98 61 3d ae 01 7e bd 68 3a 9b ba
       0.13353707 0.05507722 -0.06201332 -0.0011842968
000220 5f 54 26 3e e0 fe 0b 3e 8e ed bf bc cd 86 21 be
       0.16243123 0.13671446 -0.023428705 -0.15774079
000230 76 ea 47 bd 7c a1 35 3d 7f 0f 18 be ac b2 98 3d
       -0.048807584 0.044343457 -0.14849661 0.07455954
000240 fd fd 31 be 27 8f a1 3c 36 ca 14 3e 20 cc dd bd
       -0.17382045 0.01972158 0.14530262 -0.108299494
000250 98 5c 01 bd 9a 16 51 3d 81 9b 9e bd 6b 68 e2 bd
       -0.031582445 0.051046945 -0.07744504 -0.110550724
000260 87 ea 0a be 7e 32 6e 3c 48 c6 c6 bd ed 4d f2 3d
       -0.13566028 0.014538405 -0.09705788 0.118312694
000270 64 ac 27 3e d2 ef 96 bb a0 80 08 bd a1 8e 26 3d
       0.16374356 -0.0046062255 -0.03332579 0.040663365
000280 4c e0 16 be 20 3e 1b 3e 37 fb 04 3e 5c 26 25 be
       -0.14734 0.15160418 0.12986456 -0.16127914
000290 5c 4f c3 bd f8 65 e6 3d b2 07 99 3c 3b 66 b4 bd
       -0.09536621 0.11249918 0.018680427 -0.088085614
0002a0 fb 56 8f 3d 11 db 10 be 86 15 b8 3d 4e de 02 3e
       0.06999012 -0.14146067 0.0898848 0.12780115
0002b0 9d 25 d9 bd 30 bf 5f bd 1a 61 a8 3d 91 f2 8e 3d
       -0.10602877 -0.05462569 0.08221646 0.069798596
0002c0 e4 fa 2e be 40 9c 29 3e c0 ff b1 ba 42 84 69 bd
       -0.17087895 0.16563511 -0.0013580248 -0.057010897
0002d0 5c 13 6d 3d 77 cc 13 be f0 47 19 bd ef 7d d5 bd
       0.05787979 -0.14433466 -0.03742212 -0.104244106
0002e0 fc 8c 5b bb 26 ef 24 bd 4c 3f 2d 3e c2 35 6c 3c
       -0.0033500781 -0.040267132 0.16918677 0.014417114
0002f0 b9 3e e8 3d ec 1f 01 be d6 e3 3c 3d ac 0b b2 3c
       0.113400884 -0.12609833 0.04611572 0.021734081
000300 b8 6e c8 bd 6c 50 5d 3d 0e 03 6c bd 82 5c 87 3d
       -0.09786743 0.054031774 -0.0576201 0.06609441
000310 fe 95 de bc 92 99 de bc a7 a0 7f bd 17 bf 3d be
       -0.027171131 -0.027172837 -0.06240907 -0.18529926
000320 86 7f 40 3d 9e 1a 11 3e 34 0d 79 bd f6 2b 24 be
       0.046996616 0.1417031 -0.060803607 -0.16032395
000330 65 be d5 3c fd 7d dd 3c 6f 7a 0c be b3 6f 97 bd
       0.026091764 0.027037615 -0.1371858 -0.07394352
000340 f8 86 fd bc d6 a4 d1 3c f8 db 05 3d 9a e2 25 3c
       -0.030948147 0.025591295 0.03268048 0.010124827
000350 59 98 ee 3d 45 d7 34 be 7a 40 8e bd d4 3f 9e 3d
       0.11650152 -0.17660244 -0.06945892 0.07727018
000360 1e cd 65 3d 40 27 f7 bc 06 85 83 3c 2e ad 40 bd
       0.056103818 -0.030170083 0.016054641 -0.047040157
000370 ee 60 03 3e 37 05 d9 3d 1b f7 85 3d 85 3c 98 bd
       0.12829944 0.10596698 0.06541272 -0.07433418
000380 10 1b e6 bd d4 80 c4 bd aa 81 8f bc 82 90 da 3d
       -0.112356305 -0.095948845 -0.017517883 0.10672094
000390 fd 1b ed 3d 52 15 81 3d 41 a8 d3 bc b3 c6 49 bc
       0.11577604 0.06302895 -0.025837066 -0.01231544
0003a0 8b 3f b8 3d ed 95 f6 3d e2 fb 3f bd c0 ba 24 bc
       0.08996495 0.12040315 -0.046871074 -0.01005429
0003b0 8d c1 d7 3d 57 96 e2 3d 54 d6 4c bd a3 24 f9 3d
       0.10534964 0.11063831 -0.050009087 0.12165191
0003c0 06 75 87 bd 76 2c c7 bd 58 13 02 3e 39 5c 06 3e
       -0.06614117 -0.09725277 0.12702692 0.13121118
0003d0 16 7b 05 3e 55 26 9b bd ed 82 b3 3c ee 59 01 3e
       0.13035235 -0.07575671 0.021913016 0.12631962
0003e0 a2 c6 59 3d ec a0 3b 3d 37 d0 e8 bd 97 80 93 3d
       0.053167947 0.045807764 -0.11367839 0.07202261
0003f0 73 1a ca 3d f0 af d8 3c e8 6c 96 bd 15 2a 23 be
       0.09868326 0.026451081 -0.07344991 -0.15934022

layer_2.bias f4 [34]
000000 6a 57 11 3e ae 83 b1 3d ae d9 2c 3c af 4b 25 3e
       0.14193502 0.08667694 0.010549946 0.16142152
000010 a1 d0 bb 3d 01 ff ab 3d d8 b3 b9 3d 24 23 00 3e
       0.09170652 0.083982475 0.090675056 0.12513405
000020 50 87 4a 3d e9 2c 06 3e 78 4b 28 3e 79 6c e0 bb
       0.04944545 0.1310307 0.16435039 -0.0068488684
000030 d5 64 b6 bd 65 cb 81 bd 0d cb f6 3d 3a 93 1c 3d
       -0.08905951 -0.063376226 0.120504476 0.038226344
000040 0b 11 15 3e 62 e1 64 3d b6 2e 20 bd 74 7c 0e 3e
       0.14557283 0.055879004 -0.039107047 0.13914663
000050 8d f0 a6 bd d8 25 47 3d ee f7 9d bd 94 00 8d 3d
       -0.0815135 0.048620075 -0.077133045 0.06884876
000060 e5 b8 0f bd f9 c7 1f bd 7b 2d ff 3d 2b 0a 4a bd
       -0.03508844 -0.03900907 0.124598466 -0.049326103
000070 b5 d5 ea bd 24 5c 75 bd 60 79 ab 3d 76 43 15 3d
       -0.11466543 -0.059902325 0.0837276 0.03644129
000080 51 e9 98 3c cd b2 24 3e
       0.018665941 0.16083832

layer_3.weight f4 [36, 34]
000000 a4 d5 9d bc 59 76 71 bc f2 33 6e bd 7f 78 01 3d
       -0.01926691 -0.014737689 -0.058155008 0.031609055
000010 11 af 04 3e 39 80 16 3e d9 56 fd 3d 88 cf 20 bd
       0.12957408 0.1469735 0.123700805 -0.039260417
000020 cb 1b c4 3d a8 44 50 bd e3 e4 d0 bd ea 0d 18 3e
       0.095756136 -0.050846726 -0.10199907 0.14849058
000030 08 75 7e bd a3 a4 09 be c2 65 da 3d a0 82 a6 ba
       -0.06212333 -0.1344171 0.1066394 -0.0012703724
000040 29 c9 0e 3e fa d1 67 3d 7c d8 a6 bd af a5 16 be
       0.13943924 0.056596734 -0.0814676 -0.14711641
000050 3c 6c 1c be cc 11 9d bd 21 cc 0e 3e 7b 18 1e 3e
       -0.15275663 -0.0766941 0.13945056 0.15439026
000060 07 ef 80 bd 50 cb 3b 3a 93 d7 dc 3c cf f4 bd 3c
       -0.06295591 0.000716378 0.026958263 0.023188023
000070 27 a5 a5 3d 62 97 6f bd d4 6c 87 bd 0a 6c 40 3e
       0.08088141 -0.05849398 -0.06612554 0.18791214
000080 08 93 44 3b 3b 37 2e bc 50 f3 1f 3d 94 99 17 3d
       0.0029994864 -0.010633285 0.0390504 0.037011698
000090 89 bd b4 3d 87 59 91 3c c0 ad c9 3a 06 c2 93 bd
       0.088252135 0.017742885 0.0015386865 -0.072147414
0000a0 4b e6 c9 3d 26 4b 3e bd 7f b4 1a be 44 c1 64 3d
       0.09858378 -0.046458386 -0.15107916 0.055848375
0000b0 9d f2 fe 3d 6e a9 9e 3d 59 2a 61 3d 10 3e 17 bd
       0.124486186 0.0774716 0.054972026 -0.03692442
0000c0 d4 9f 5a bd fb 92 2d be ac 55 ff 3b 4e 71 3a bd
       -0.05337508 -0.169506 0.0077921953 -0.045518212
0000d0 9a af c7 bd 7a fd 0e 3e 50 d7 e6 3d 78 4e 17 be
       -0.0975029 0.13963881 0.11271536 -0.14776027
0000e0 d9 e9 9c 3d f9 90 4a 3d 7d 19 81 3d 60 31 19 be
       0.076617904 0.049454663 0.0630369 -0.14960241
0000f0 27 38 19 bc 07 ac f9 3d 80 6a 2e be db 79 96 3d
       -0.009351767 0.12191015 -0.17032814 0.07347461
000100 87 47 27 3e bb 81 c2 3d bf ae b7 bd 23 21 04 3e
       0.1633588 0.094974004 -0.08968877 0.12903266
000110 78 5f d7 3d 3a 47 0c be 9b 71 fb 3d a7 6c 93 3d
       0.10516256 -0.13699046 0.12277528 0.07198458
000120 c4 b5 92 3d d0 8c 10 3e e5 53 f0 bd 9e 07 13 3d
       0.07163575 0.14116216 -0.117347516 0.035895936
000130 3a 8e 28 be 2e c8 67 3d f0 85 27 3d e6 3e e9 3d
       -0.16460505 0.05658739 0.040899217 0.1138895
000140 5c 0b 83 3d 96 ad db bb 06 0b 64 3d 4c 57 db bd
       0.06398651 -0.0067040427 0.055674575 -0.1071001
000150 b8 97 33 bc 78 23 0a bd 16 7a 83 bc 92 26 c9 3d
       -0.010961466 -0.033725232 -0.016049426 0.0982181
000160 b0 17 12 bd f2 cf c8 bb b3 e8 6f bd 0c cd 04 3e
       -0.03566712 -0.0061283046 -0.05857153 0.12968844
000170 f4 c8 5f bd 5f 1d d8 3d b8 08 f5 3a da db 1c be
       -0.054635003 0.10552477 0.0018694615 -0.15318242
000180 e9 a5 18 3e 3e 98 52 3d 97 50 07 3e fb 00 ce bd
       0.1490704 0.05141472 0.13214336 -0.10058781
000190 3d 40 11 be 7e af b9 3d e6 d0 25 be df 5f f7 bd
       -0.14184661 0.090666756 -0.1619297 -0.12078833
0001a0 0b d0 15 3d ce 6b fa bd 17 57 da bc 7e 05 15 bd
       0.03657536 -0.12227593 -0.026652856 -0.03638219
0001b0 aa 55 4c bd d0 1c 47 bd 32 27 a6 3d 5b 9a 33 be
       -0.049886383 -0.048611462 0.08112945 -0.1753935
0001c0 75 74 21 be 1b 06 04 3e 48 e5 36 be 3c 7c 1d 3e
       -0.15767081 0.12892954 -0.17860901 0.15379423
0001d0 da db 9a 3b 15 a9 2c be 84 42 7f 3d dd d4 ff 3d
       0.0047259154 -0.16861375 0.062319294 0.12491772
0001e0 a4 d2 26 3d 00 d0 cb bc 2e e8 b5 bd 95 c9 43 be
       0.040728226 -0.024879456 -0.088821754 -0.19119866
0001f0 34 9e 0b 3e c1 01 85 3d eb 44 e5 bc 9b 3c f0 3d
       0.13634568 0.06494475 -0.027986964 0.117303096
000200 31 ef ba 3c 4d cc d6 3d 21 71 90 3d 3d 39 85 bd
       0.022819133 0.10488186 0.070528276 -0.06505058
000210 a1 7e ed 3d 70 64 b8 bc 71 cf e4 3d e6 5b 07 3e
       0.11596418 -0.02250883 0.11172379 0.1321865
000220 3d 3d 0c be 27 72 80 bd f9 f1 1f bc 1d be 10 bd
       -0.13695236 -0.06271773 -0.009762281 -0.035337556
000230 1b 3c a5 bd be ad 7a bc e6 eb 8d bd 9e 1f 0e be
       -0.08068105 -0.015300212 -0.0692976 -0.13879248
000240 7c 8f a7 3d dd e0 40 bd 16 aa 20 be a8 2c ac bd
       0.08181664 -0.047089446 -0.15689883 -0.08406955
000250 8a dc 3c bd 2b c7 92 bb 81 4a eb 3c aa 12 c4 bd
       -0.04610876 -0.004479309 0.02872205 -0.095738724
000260 41 b9 fd 3d 98 27 a6 3b d8 8f 6e 3d 80 84 29 be
       0.1238885 0.005070638 0.05824265 -0.16554451
000270 a4 04 10 3e c6 04 1b 3c a6 15 a6 3d 38 ee df 3d
       0.1406427 0.009461587 0.08109598 0.109341085
000280 8e 49 1a be a4 e2 23 3d c8 43 6d bd 94 ee 35 bd
       -0.15067121 0.040011063 -0.05792597 -0.04441698
000290 1d 06 07 be 33 49 96 3d e1 01 0c be c6 bd f2 3d
       -0.13185926 0.073381804 -0.13672592 0.11852603
0002a0 50 16 1d be ec 04 7f bd 8e 40 ee 3d 5c ee 11 3d
       -0.15340543 -0.062260553 0.116334066 0.035627708
0002b0 46 3a 25 3d 6c 1f 37 3d 4e 53 fb 3d d8 e9 15 bd
       0.040338777 0.0447077 0.122717485 -0.036599964
0002c0 7b 5d 96 3d a5 19 11 be 11 b4 b1 3d d6 f9 0c be
       0.07342049 -0.14169939 0.08676923 -0.1376718
0002d0 f0 68 2d 3d 96 c3 8c bd ff 01 04 3e 61 79 04 be
       0.042336404 -0.068732426 0.12891386 -0.12936927
0002e0 52 47 23 3e f0 98 17 3e 5f 23 1c 3e 6b 18 f4 3d
       0.15945175 0.14804435 0.15247868 0.1191872
0002f0 1b ba 00 be d2 1c ef bc a4 0e 11 3b e2 9a 81 3d
       -0.12570994 -0.029188547 0.002213397 0.0632837
000300 3f 2c 26 bd 11 c9 1d be 7b 34 14 3c 66 71 12 bd
       -0.04056954 -0.15408732 0.009045715 -0.035752676
000310 6c 88 13 bd 4f 15 83 3d df 59 53 3b 45 26 91 3c
       -0.036018774 0.06400549 0.0032249612 0.017718444
000320 7b a6 87 3c a7 b4 f3 3d 4a 66 28 3b c0 aa a0 3c
       0.016558876 0.11899691 0.0025695735 0.01961267
000330 f8 91 d7 3c 1e 89 0d be 77 8d 39 be 3c e7 21 3d
       0.02631472 -0.13821837 -0.18120371 0.039527163
000340 91 a4 5e bc 36 12 1b 3e 90 8c b1 3d 57 ef 8c bd
       -0.01358904 0.15143666 0.08669388 -0.06881588
000350 27 4e 83 bc 01 6c f8 bd f5 fb d1 3d f5 75 80 3d
       -0.016028477 -0.12129975 0.10253135 0.062724985
000360 ab 57 fe bd 55 22 55 bd 63 9c ae bd ec ee 43 bd
       -0.12419065 -0.052034695 -0.08525922 -0.047835276
000370 a9 09 13 3e f0 9e 93 bd 7e 54 37 3d b5 fd 24 3e
       0.14359154 -0.07208049 0.044758312 0.16112407
000380 5e ac 8e 3d 57 1d e2 bd be 95 37 3d 28 a5 37 bd
       0.0696647 -0.110407524 0.04482054 -0.04483524
000390 c2 a1 26 3e e4 5d 2b 3e a0 a8 28 3e db ce cc 3d
       0.16272643 0.16735035 0.16470575 0.10000392
0003a0 4e 6d fc 3d dc bd ab 3d 85 5a 00 3e 29 e0 10 be
       0.12325536 0.08385822 0.1253453 -0.1414801
0003b0 cf 1a 1f 3e 11 2e 09 3e 7e 6a 95 3d a6 1c 06 be
       0.1553757 0.13396479 0.072957024 -0.13096866
0003c0 15 25 e3 3d 1b a5 c8 3d e8 72 73 bc 43 06 2c bc
       0.11091057 0.09797116 -0.014858939 -0.01049954
0003d0 88 98 e8 bc 74 25 27 3d 04 e3 d3 bd 8b e5 1b 3e
       -0.028393045 0.040807202 -0.10346034 0.15224282
0003e0 d9 68 20 be 4b 3c db 3d ee d1 bf bd 22 b8 e4 3d
       -0.15664996 0.10704859 -0.09366213 0.11167933
0003f0 a5 c2 de bd 3f bf ba 3c 9c 8c 86 bd 69 41 a2 bd
       -0.10876969 0.022796271 -0.06569788 -0.07922632

layer_3.bias f4 [36]
000000 1e f4 13 3c 16 c5 a6 3c 62 3d 61 3d 15 9a 27 3e
       0.00903037 0.02035765 0.05499018 0.16367371
000010 bb 93 4e 3c e0 80 5b bd 80 47 32 3e d8 aa 20 be
       0.012608464 -0.0535897 0.17410088 -0.15690172
000020 62 0c cb 3d 8f 8b 13 3e d8 d0 7c bd cc ae 78 3d
       0.09914471 0.14408706 -0.061722606 0.060713574
000030 0f 2e 09 be b0 4e 74 3a b6 f6 0c 3e 05 54 c1 3d
       -0.13396476 0.00093195867 0.13765988 0.094398536
000040 02 92 11 be cb c7 29 be 31 69 11 be 26 7a 17 3e
       -0.14215854 -0.16580121 -0.14200284 0.1479269
000050 e6 d6 70 bd 8c d0 ac bc 82 11 11 3e 64 f3 85 3d
       -0.058798693 -0.021095537 0.14166835 0.06540564
000060 83 bb 8d 3d 7d 27 39 3e e9 90 16 3e 67 fb 9a 3d
       0.06920531 0.1808147 0.14703716 0.075674824
000070 c0 ba d8 3c 45 f0 28 3e ef dc f7 3d b5 71 c6 bd
       0.026456237 0.16497906 0.121026866 -0.09689657
000080 ff 71 ed bd 8e ad 1c 3e 1b 31 f7 3d a4 9d 6d bd
       -0.11594009 0.15300581 0.12069913 -0.058011666

action.weight f4 [36, 36]
000000 6b 06 bb bd 58 49 ef 3d 8a 3c e3 bd b1 02 bd bd
       -0.091320835 0.11683911 -0.11095531 -0.09229029
000010 10 01 17 3d 67 be f6 3d 4c ad d8 bc f1 7b f7 bd
       0.036866248 0.12048035 -0.026449822 -0.12084187
000020 90 0e 37 bd 90 96 28 3e b0 de 25 be 41 f2 d0 bd
       -0.044691622 0.16463685 -0.1619823 -0.10202456
000030 df dd e8 3d 68 ee d8 ba fe 59 0a 3e 62 15 32 3d
       0.113704436 -0.0016550543 0.13510892 0.043477423
000040 eb 02 16 be aa 6f 28 3e c7 34 ba 3d d1 65 6d 3d
       -0.1464955 0.16448846 0.09092098 0.057958428
000050 00 71 88 3d 83 99 eb 3d 2d fa af bc 39 0f fc bd
       0.06662178 0.115038894 -0.021481598 -0.12307591
000060 6a 41 28 bc 1f 46 17 3e 44 ff 02 bb fa f4 5a bd
       -0.010269502 0.14772843 -0.0019988576 -0.053456284
000070 4e 00 58 3d ec b2 4a 3d 55 b9 fc bd 16 fb bc 3d
       0.052734666 0.04948704 -0.12340037 0.09227578
000080 cd 37 05 be a7 97 0d be 72 46 08 be 48 7f 49 3d
       -0.13009568 -0.13827382 -0.13308123 0.04919365
000090 d2 71 36 3d c9 01 2a 3e 2d 27 18 be a7 9c 9f bd
       0.04454214 0.16602243 -0.14858694 -0.07793551
0000a0 e0 71 20 be 51 dc dc 3b 5a 49 1f be 69 54 d9 bd
       -0.1566844 0.006740131 -0.15555325 -0.10611803
0000b0 bf 42 05 bd 0a 18 96 3d 87 aa 01 3e 5b 24 12 3d
       -0.032534357 0.07328804 0.12662707 0.035679203
0000c0 c0 01 85 3d ae f4 02 be eb 09 de 3d 90 12 8b ba
       0.064944744 -0.1278865 0.108417355 -0.001061039
0000d0 a0 50 b0 bd a6 e6 03 3d a6 76 cb 3c 31 37 d8 3d
       -0.08609128 0.032202385 0.02483685 0.10557402
0000e0 b8 49 8b bd 0f 9d 92 3d c4 28 b9 bd bc 71 11 3e
       -0.0680117 0.07158863 -0.090409786 0.14203542
0000f0 04 7e 67 3d 3f 31 ff bd 00 90 2a bd 05 1f a2 3d
       0.056516662 -0.12460565 -0.041641235 0.07916073
000100 54 31 cc 3c ea cf 7d bd ff 94 b8 bd 2b 67 be 3b
       0.024925865 -0.06196586 -0.09012794 0.0058106384
000110 9e 48 03 3e e0 aa d4 3d 73 73 b8 bd 89 e4 23 bd
       0.1282067 0.10384154 -0.09006395 -0.04001287
000120 83 08 21 3e 93 c8 a5 bd 42 b5 4e bd fe 4b f7 3d
       0.15725903 -0.08094897 -0.05046583 0.12075041
000130 af ad 16 3e 11 7a a5 bd d4 89 01 bc 18 c4 14 3b
       0.14714693 -0.08079923 -0.007906396 0.0022699889
000140 0a e0 69 3d 6f b8 2f bd 40 16 e1 3c e6 1e 2f 3d
       0.057098426 -0.0429005 0.02747643 0.042754076
000150 26 a7 0c 3e 34 fa 2c 3e 5c ac 1c 3e 35 85 27 3e
       0.13735637 0.1689232 0.15300125 0.16359408
000160 3b 9c ae 3d 86 90 1a bd ad af 0b 3e 5b 22 0e 3e
       0.08525892 -0.037735485 0.13641234 0.13880293
000170 20 9e c1 3c 99 72 00 3e 16 33 87 3d 20 5f 10 3e
       0.02363497 0.12543716 0.06601541 0.14098787
000180 80 75 76 bd 89 71 e4 3d a0 de 9a bd 90 8b 30 3e
       -0.06017065 0.111544676 -0.075619936 0.17240739
000190 2b f4 07 be 13 93 82 3d 7b 92 d6 bd c0 61 db 3d
       -0.13276736 0.063757084 -0.10477158 0.10712004
0001a0 3f b7 f5 bd d8 44 1d 3d b5 21 03 3e 12 93 56 3d
       -0.11997842 0.038395733 0.12805827 0.05238635
0001b0 76 be d5 bd 9a b4 c4 bd be 5d b6 bc b6 13 3f bd
       -0.10436718 -0.096047595 -0.022261497 -0.046649657
0001c0 70 5c 13 bd 4f 46 ab bd f0 ff 28 be 07 fe da 3d
       -0.035976827 -0.0836302 -0.16503882 0.10692983
0001d0 d5 a5 f4 bd b5 75 e7 bc 13 30 ff bd c1 f7 29 be
       -0.119456924 -0.02825437 -0.12460341 -0.16598417
0001e0 07 a2 65 bd 71 51 06 bd 89 6d e6 3d 9d ff d3 bd
       -0.056062724 -0.032792512 0.11251361 -0.10351489
0001f0 d0 8f e2 3d 6b a2 3c bd 0f 54 ab bd 94 ee c4 bd
       0.11062586 -0.04605333 -0.08365642 -0.09615818
000200 26 dc 4a bd 0a ff 1a be 6a e9 e9 3b c1 ab 91 bd
       -0.049526356 -0.15136352 0.007138421 -0.071128376
000210 73 bc 62 3d 26 01 13 be 06 a9 8b 3d a7 fb 21 be
       0.0553555 -0.14355907 0.06819348 -0.15818654
000220 76 06 cb bd b4 fa ed 3b f0 ab 83 3d b8 a3 bf bd
       -0.09913342 0.007262552 0.06429279 -0.09357399
000230 ca 2d 15 bc 2d 84 ec 3d be 94 5a bd 07 f8 47 bc
       -0.009105155 0.11548648 -0.053364508 -0.01220513
000240 cf dc f6 3d b2 eb 2e bb 0f ac 69 3c bc f3 15 3e
       0.12053835 -0.0026690778 0.014262213 0.14643759
000250 6c 62 20 be 66 58 1b 3e 42 77 6f 3d 6e 76 09 bd
       -0.15662545 0.1517044 0.058463342 -0.03356021
000260 de 55 50 bd 04 5b 04 be 20 ea dc bc 84 64 18 3e
       -0.05086314 -0.12925345 -0.026967108 0.14882094
000270 b2 6a 85 bb b7 c3 07 be 4e bb 28 3e bb 3e 08 be
       -0.004071557 -0.13258253 0.16477701 -0.1330518
000280 ab 84 87 3d 00 e6 16 3b 4d 90 8f 3d a8 1d ba 3d
       0.06617101 0.0023025274 0.07009945 0.09087688
000290 42 d5 07 3e 50 af 44 bd 6a f6 89 3d 2e 1b 32 bd
       0.13264945 -0.048018754 0.06736453 -0.04348295
0002a0 b6 32 d4 3d fb 00 ed bd 30 94 8f 3d 1a 1d 74 bd
       0.10361235 -0.11572453 0.070106864 -0.059598066
0002b0 27 3d f8 bd dd 5b fb 3d 12 29 1f be e0 93 c9 3c
       -0.12121039 0.12273381 -0.15543011 0.024606645
0002c0 9d 56 a4 bd a6 85 ab bd 15 43 c4 3d a8 44 23 bd
       -0.08024333 -0.08375101 0.095831074 -0.039860398
0002d0 e9 8b 1f 3e 1c a3 2b be 80 48 05 be a2 83 a5 bc
       0.15580715 -0.1676144 -0.13015938 -0.020204369
0002e0 b0 ae 48 bd cc 8d f6 3d 44 d7 76 bc 87 4a df bc
       -0.04899472 0.12038764 -0.015065972 -0.027257217
0002f0 cc e9 f1 bd c1 08 e0 bc 06 3a c9 3d 59 36 e9 bd
       -0.11812171 -0.027347924 0.0982552 -0.11387319
000300 d7 ae 11 3e 4c b5 a6 bd f3 3f 9c bd c3 72 95 bc
       0.14226852 -0.081400484 -0.07629385 -0.0182432
000310 db 7c e0 3d 5b a4 ec 3d ff 32 30 3e 32 4f 08 3e
       0.10961314 0.11554786 0.17206953 0.1331146
000320 f8 86 0a be 9c ab 09 bc eb 53 6f bd ad a8 9c bd
       -0.13528049 -0.008402731 -0.05842964 -0.0764936
000330 50 45 26 3d d7 62 99 bd be 45 83 bd 97 e0 1d be
       0.040593445 -0.07489555 -0.06409787 -0.15417705
000340 a2 92 04 3e 1e 06 a4 bd ce 5c cc bd f6 79 ba bc
       0.12946561 -0.08008979 -0.099786386 -0.022763234
000350 79 3b 18 be 0b 85 14 be 63 dc 0f be e9 91 ee 3a
       -0.14866437 -0.14503877 -0.14048915 0.0018201444
000360 cb 98 1a 3d 4b f9 f7 bd 42 7f 8f 3d 38 b5 17 be
       0.03774337 -0.12108096 0.070066944 -0.14815223
000370 30 08 c2 bd 69 22 03 be 81 8b 1a be 95 2a c7 3d
       -0.09474218 -0.12806095 -0.15092279 0.09724919
000380 b9 31 25 3e e3 ef 0b be 14 98 27 3e ae f8 6c 3d
       0.16132249 -0.13665728 0.16366607 0.057854347
000390 c0 74 0c 3e 8f e6 ba bd a1 2b d3 3d d8 33 8b bd
       0.13716412 -0.09126007 0.10311056 -0.06796998
0003a0 50 40 bc bd 2b f9 1f be a4 f2 6a bb 9c 5f 27 be
       -0.09191954 -0.15622394 -0.0035850191 -0.16345066
0003b0 3b 41 00 3e cd 85 33 be 8d cb 07 3e 80 15 19 3e
       0.12524883 -0.1753151 0.13261242 0.14949608
0003c0 90 89 05 be d8 4e 51 3d f7 dd 15 be 12 a4 07 3e
       -0.13040757 0.051100582 -0.14635454 0.13246182
0003d0 05 7f ce bb 1e 11 15 3e c7 e6 85 bd 80 62 3b 3c
       -0.006301763 0.14557311 -0.06538158 0.011437058
0003e0 38 d0 01 3c 43 d4 db bd 0a 45 0f 3e 87 db 41 bc
       0.007923178 -0.10733845 0.1399118 -0.011832125
0003f0 88 5b b3 3b e7 c7 ef 3d bd 55 8d bc f9 11 b2 bd
       0.005473558 0.1170805 -0.017252797 -0.08694834

action.bias f4 [36]
000000 5a 54 2f bd 37 9a d2 bd f4 ac 1b bd 55 32 06 be
       -0.042805053 -0.102833204 -0.038006738 -0.13105138
000010 dd de df 3d 2c ac ad bc 3c fb 9e 3d 51 2a 91 3d
       0.1093118 -0.021200262 0.07762763 0.07088149
000020 12 56 00 3e 3c 38 2d 3e 81 40 a9 3d ab 85 22 3e
       0.12532833 0.16915983 0.08264256 0.15871303
000030 bf d6 1a 3e 23 62 cc 3d 7d 2b 25 be 65 a9 0e be
       0.15120982 0.099796556 -0.1612987 -0.13931806
000040 98 6d c1 3d 08 c7 20 3e 5e 4e 53 bd bd 1d f6 bd
       0.094447315 0.15700924 -0.05158841 -0.12017391
000050 1a 6f 7a 3c 9c d3 3d 3d b8 28 64 3d 16 60 00 bd
       0.015285278 0.046344385 0.055702895 -0.031341635
000060 5c 9a 6b bc 0c 42 b0 3c 92 6d b5 bd ca 58 80 3d
       -0.014380064 0.021515869 -0.088587895 0.06266935
000070 b6 df df 3d 87 bd 38 bc c4 b5 5f bd 12 ac 75 3d
       0.10931341 -0.011275656 -0.054616705 0.059978552
000080 78 98 54 3c 0a 9b 13 3d 2a d2 21 bd f8 f7 9e ba
       0.0129758045 0.03603653 -0.03950707 -0.0012128344
