mean_model.pt (torch, 21583 bytes, 8 tensors)

layer_1.weight f4 [33, 30]
00000000: cc58 693d 0a43 b43d a978 2cbe 6590 81bd
00000010: 83ee f63d d0b0 c43c e67d bb3d 0849 03be
00000020: e1e9 38be 7fa7 ef3d dfd6 bebc d4d8 913b
00000030: 50a0 89bc db76 c6bd b3f4 e5bd 58eb dbbd
00000040: 751f 9b3d 8db0 dabc 3f02 ccbd 4cc1 1ebd
00000050: c2f7 b0bd aac7 6bbd bed0 14be b78b 53bc
00000060: 3853 313e 926e 3e3d e4b8 793c f5e0 c5bd
00000070: f2bb dcbd 9cc7 e2bd d9cb aabd d3fd 02be
00000080: 3af0 4fbc bc22 443e a46a 8f3d 982d bb3c
00000090: 3195 2fbd 251e 243e 14a4 663d 04db 37be
000000a0: a632 5a3d 7480 01bd 3cdc e9bd 1e5c ca3d
000000b0: b2d2 fcbd 0a00 c23d 55c4 263e 39de a93d
000000c0: 05b6 dfbd bcbd f3bd 7509 053c c501 e93d
000000d0: 4b85 a3bd bc8d a7bd 4689 14be 19c3 b1bd
000000e0: 904a 5aba 8c0f 433c 05eb 0bbe 9916 09be
000000f0: 7e5c 0ebe 7f41 78bd 808f 05bd d7bc 863d
00000100: 7a0e 1dbd b540 e7bd a09a f63c 2962 f5bd
00000110: 9c5e 91bd 2e97 edbd d63e e2bc 01ee 02be
00000120: 155d c93c a0ec 7e3d 260b 873c e8b0 413e
00000130: 405f 9cbc 3ea1 00be 894b 803b fcbb 793d
00000140: b02d 62bd ed6e 0fbd 0dd7 243e 2a2f 293e
00000150: 1f97 2f3e 4c04 703d f692 bfbb e837 03be
00000160: ea88 173e 1abd 073e 67db cebd 7c5a eabb
00000170: 06b6 2b3c 7ea5 193d 39e9 42bd 14a7 203e
00000180: e6de 173e 0da0 f5bd 8acb 02be de93 02bd
00000190: e58e 883d e174 133d 40fb 303e 534c 513e
000001a0: 2799 b4bd a687 0e3e bf8c 04be 65f1 1fbe
000001b0: cd83 d63d b04d dbba 2ed3 98bd 2214 04bd
000001c0: a647 a5bc 31f7 e2bd 10c1 c63b 0426 1a3e
000001d0: 8f18 ed3d 6010 563d aa96 f63d 59be 063e
000001e0: 7045 31be 5883 b1bc 46af 9f3c e9cc 13be
000001f0: 392c 253e ba1f 183e 3aa5 143e 94b9 91bd
00000200: b019 64bd b5a6 213e 553f 0c3e 2784 01be
00000210: 8b27 c13d 2999 36be 44a0 15be b06b 613d
00000220: d7bd 2f3e a64b f4bd 4b94 11be 31a6 1bbe
00000230: b107 3ebe 492f a43d 1548 88bd 37dd 633d
00000240: 4d39 1bbe 2124 54be 80c0 a83c 92a2 11bd
00000250: a474 0e3e d75c 493e 20ad 35be 07c1 d3bd
00000260: e715 293e f4d4 b0bd 20be dabc 5018 16be
00000270: b627 dbbd cc0f 073e 6612 2bbe 6524 d1bc
00000280: f063 153d 2c21 893d d369 013e 8499 543b
00000290: 7d24 07be 6cba 02be 33ef 19be 431d 7ebd
000002a0: 6b3e 2bbe d632 2abd aebb 2fbe d94c 0dbe
000002b0: 7ccc 1c3d 70c5 6ebd 587e cabd 5ec9 1fbe
000002c0: 20b0 453e 757f 303e f7f3 96bd 6576 87bd
000002d0: d842 b13c d7a6 073e c65a 14be 521f 6b3d
000002e0: 7cc7 b8bd d8a0 ebbd 7e10 21be 11f7 513e
000002f0: f66e 1b3e 5574 4b3d 086e 24be 8aa5 44bc
00000300: b221 eabd fee4 18bc 0150 16be 523a aabd
00000310: b689 d43c 1a77 183e a02b e039 9e3f e1bd
00000320: bc4c 3fbe ad47 9abd 7f0b b7bd 1490 01be
00000330: bab2 4f3e 6ded 0fbe 9052 e33d e067 f2ba
00000340: 8e1a 623e 35ee 223e 66cd 1c3e a685 103e
00000350: aab7 b4bd 8f33 f9bd 1a1f eb3d c218 103e
00000360: 0c65 87bd 79c7 f33d 70a9 08bd 6682 43bd
00000370: 26dd 54bd 54f0 ca3d 598e 07be 0630 d5bd
00000380: 547c 62be b58c dfbd 8ff2 463e 8260 0ebe
00000390: 4606 f53d 34f2 563d dc07 8abc 8a8a 79bd
000003a0: 7c56 b33d 8c3c 06be d2a5 1f3c 4b61 1b3e
000003b0: ad80 25bd a20d 9abd 9cb0 08be 2771 943d
000003c0: b085 f33c b93b cd3d 8e91 0c3e 3627 97bc
000003d0: 57e8 d13d 006b 39bb ee75 ca3c 640e cbbc
000003e0: ceb1 b0bd 8783 3cbe c865 463e 36d2 0fbe
000003f0: 3f20 893d 46ed 12be 00ab c1bc f6ad 1cbe
0.05696945 0.08801849 -0.16842903 -0.06326369 0.12057211 0.024010092 0.091548726 -0.12820828
-0.18057968 0.11701869 -0.023295818 0.0044508968 -0.016800076 -0.09690639 -0.11228313 -0.10738248
0.07574359 -0.026695514 -0.09961366 -0.03875856 -0.08641006 -0.05756346 -0.14532754 -0.012911729
0.17316902 0.046492167 0.015241835 -0.09662048 -0.10778035 -0.11073229 -0.08339662 -0.12792139
-0.012691552 0.19153875 0.07002762 0.02284889 -0.04286689 0.16027124 0.05630882 -0.17954642
0.05327096 -0.031616643 -0.114189595 0.09880851 -0.123448744 0.09472664 0.16285832 0.08294339
-0.10923389 -0.11901423 0.0081199305 0.11377291 -0.07984408 -0.081813306 -0.1450549 -0.0867979
-0.0008327151 0.011905562 -0.13663872 -0.13387527 -0.1390247 -0.060609337 -0.032607555 0.06578987
-0.038343884 -0.11291639 0.030103028 -0.11981613 -0.070981234 -0.11601101 -0.027617853 -0.12786104
0.024580518 0.062237382 0.016484808 0.1891514 -0.019088387 -0.12561509 0.0039152545 0.06097029
-0.055219352 -0.035017896 0.1609766 0.16521898 0.17147492 0.058597848 -0.0058463765 -0.12814295
0.14798322 0.1325573 -0.101004414 -0.0071519 0.0104804095 0.03751134 -0.0475857 0.15688735
0.14831123 -0.11993418 -0.12772956 -0.0318793 0.0666788 0.036000136 0.17283344 0.20439272
-0.08818274 0.13918933 -0.12944315 -0.15619428 0.10474358 -0.0016731527 -0.07462154 -0.032245763
-0.020175766 -0.11082304 0.0060654953 0.15053564 0.1157695 0.05226171 0.12040456 0.1315855
-0.17311645 -0.021669075 0.019492757 -0.14433636 0.16130151 0.14855853 0.14516154 -0.07115474
-0.05568856 0.1578625 0.13696034 -0.12648068 0.0943137 -0.17831863 -0.14611918 0.05503434
0.17162262 -0.11928491 -0.14216726 -0.15200116 -0.18557622 0.080168314 -0.066543736 0.05563089
-0.15158577 -0.20716907 0.020599604 -0.03555543 0.13911682 0.19664322 -0.17741823 -0.103395514
0.16512261 -0.086343676 -0.026701987 -0.14657712 -0.10700934 0.1318962 -0.16706237 -0.02553005
0.03647226 0.0669578 0.12638025 0.0032440135 -0.13197513 -0.12766427 -0.15032654 -0.062039625
-0.1672303 -0.041552387 -0.17161438 -0.13798846 0.03828095 -0.05829376 -0.098873794 -0.15604159
0.19305468 0.17236121 -0.07370751 -0.06614379 0.021638319 0.13247238 -0.14487752 0.057402916
-0.090224236 -0.11505288 -0.15728948 0.20504405 0.15179047 0.04967149 -0.16057599 -0.012002358
-0.11432208 -0.00933194 -0.14678957 -0.08311905 0.025944572 0.14889184 0.00042757113 -0.10998462
-0.18681616 -0.07533202 -0.089377396 -0.12652618 0.20283023 -0.14055414 0.11099732 -0.0018494092
0.22080442 0.15911181 0.15312728 0.14113483 -0.08824094 -0.12168037 0.114805415 0.14071944
-0.0661107 0.11903281 -0.033364713 -0.04773178 -0.051968716 0.0990912 -0.13237895 -0.1040955
-0.2211774 -0.109155096 0.19428466 -0.13904002 0.11964087 0.052477077 -0.01684945 -0.060923137
0.0875673 -0.13109034 0.0097441245 0.15173833 -0.040405918 -0.075221315 -0.13348621 0.072481446
0.029726833 0.10021157 0.137274 -0.018451314 0.102493934 -0.0028292537 0.024714436 -0.024787135
-0.086276636 -0.18409549 0.19374764 -0.14045033 0.066956036 -0.14348325 -0.02364111 -0.15300736

layer_1.bias f4 [33]
00000000: 16bc a23d 0bb0 c4bd cd3e 743d 4101 ea3d
00000010: 1dbf bf3d 5c9a 2dbe 442b dbbd a759 bd3d
00000020: 5d4d 23be 1466 053e d268 f33d 075a e83d
00000030: aac4 df3d 6599 d6bb ae66 1f3e 1dd0 f03d
00000040: 9bc1 653d 0d0e 4e3e 3e9b babd 406d 13be
00000050: b32a a03d 00a7 073e 21ac c8bd 3052 cc3a
00000060: 9f65 bc3d 5b9a 2fbe 69e1 57be f412 6cbd
00000070: 7cca 0ebe f988 99bd 19a5 9abd edbe a1bd
00000080: 84f7 733d
0.07946031 -0.0960389 0.059630204 0.114260204 0.09362624 -0.16953415 -0.10701612 0.092456155
-0.1594748 0.13027221 0.11885227 0.11345296 0.109261826 -0.006549048 0.15566513 0.117584445
0.05609284 0.20122547 -0.09111641 -0.14397144 0.07820644 0.13247299 -0.09798456 0.0015588459
0.0919907 -0.17148726 -0.21082081 -0.057635263 -0.13944429 -0.074968286 -0.07551021 -0.07897744
0.05956222

layer_2.weight f4 [34, 33]
00000000: ddaa bd3d f399 143d 5eaa 27bd 75e3 9d3d
00000010: 1987 413c 11e9 0b3e 89b8 8b3d 1028 babc
00000020: c348 e1bd 20aa 5b3e 1984 8a3d 6228 c03c
00000030: 2248 03be c7e4 6bbd 389c 30be cdb6 e93c
00000040: e08e 233e 7b5d 80bd 3a85 1d3e cd9f 8e3d
00000050: a00f c8bc f726 85bd 5d6d 20be a3c9 ebbd
00000060: e88a 033d 9edd 0bbd ea34 373e 78d5 8a3c
00000070: 4a40 5cbc eec7 50bd 9419 083d 845e b5bc
00000080: fb38 b83d 5b94 bd3d fe7f 08bd 1f8f b63d
00000090: dd12 8dbd 1267 67bc ce9e 093e d342 69bd
000000a0: 0473 c53d 7d56 08be 786d 813d 9f22 6d3e
000000b0: 200b 6ebd 98cd 17bd 6d8f a8bd db52 2e3e
000000c0: 1655 0f3e 67d1 483e 3519 89bc 5251 163e
000000d0: b375 863d 0713 5b3d 1409 fd3b 46ba 24be
000000e0: c122 0f3e 00ff 9bbc 8270 02bd 471e 3bbe
000000f0: 723d 7c3d 650d 363e f662 0a3e 0729 b3bd
00000100: 1f6d e63d 9293 49bd b46b 4fbd ceec d9bd
00000110: f99c 283e 24fc 9b3d a286 74bc c6f8 d93d
00000120: 4dda 0e3e ddb2 11bd 071b 19bd a5ae b0bd
00000130: 81f6 e5bd 42d7 ce3d 0feb f5bd 5aee 183e
00000140: 0791 bd3c f4bd 4abe e078 a73c 11e7 45be
00000150: 1715 193d d47e adbd aca7 86bc 34e9 2dbe
00000160: d63c a33d 2de4 103e 54c9 c63d f1a3 143e
00000170: f61d 8a3d dcf7 313b 4d8a e8bd 2150 bc3c
00000180: ecb9 413d ea11 063e abcb d2bd 0317 ca3d
00000190: e04b 593a aa1e 1ebd b0c9 53be 6ac7 533e
000001a0: 61bd 983d d17b 04bd 7b80 91bd f52a c2bd
000001b0: e9dd e33d aff6 b53d 4dd0 c83d 88e3 5cbd
000001c0: 37ca d53d 76d4 b43c 4371 17bd dd20 c83d
000001d0: 32f2 473d 0562 8e3d 65a5 a0bd 58d5 293d
000001e0: 7013 a73a 5afa 753d 738b 8ebd f603 1b3d
000001f0: 5eae 1abd 0530 dd3d 4a00 bb3c a2c4 503d
00000200: d728 99bc 08d4 303e c4e9 083e 1d92 25be
00000210: ff17 2e3e dd08 07be da35 d13d bb86 703d
00000220: 3103 b83d 7629 57bd 4fa1 eb3c 0f8b 3ebe
00000230: b8dd 90bc 4220 94bd 584b 9abd 8508 203d
00000240: fef7 05be b8cf e53d 0909 91bd 8346 0c3e
00000250: 64fa ecbd 709c a83d af8c 15be 68ad d1bd
00000260: 447a 02be 4187 843d 2858 0d3e d3dc a83b
00000270: 348e 2fbe c8fb 5fbd 5ac7 eabd 2163 c23c
00000280: bd3b a53d 2444 e13d 4671 2ebd acc4 0e3e
00000290: 6793 c43d 8c2d 803d b691 42bd 5298 48be
000002a0: 08a0 803d 27fc 28be 7e2a 3b3d 95e0 8dbd
000002b0: 54cd a83d e2fd 8f3d 8ed0 14be 4ce3 aebd
000002c0: db5d 49be b49a f8bd 67ea f93d 57f8 033d
000002d0: 46ca 30bd 603a 603d 92b3 5ebd d6cb 263d
000002e0: 455f 123e 1999 f2bd 4024 033d 8fdd a23d
000002f0: ea52 a4bd c5b4 ac3c 1961 9b3d 23f3 1c3e
00000300: db8f 263e a09b 6bbd 3e0a 603d 2ca3 e5bd
00000310: 30dc 93bc e83e 903d d01f b7bc 56be 5dbd
00000320: dcd3 8abd ba3d 143e 66ba 2bbe ec95 e23d
00000330: 19e8 1abe 20f2 ffbc 0447 713d 00cf db3c
00000340: 6069 373c 0871 45bd b809 ce3c a8d5 adbc
00000350: 0997 90bd 3aea 98bd 80b3 fb3c c05a d4bc
00000360: b0e1 14be 581e b7bc 2cb1 dd3d 68d4 aa3d
00000370: 8c12 bb3d 9019 373c 486c 91bd f4cf c13d
00000380: 470f b8bd c039 56bc 3b45 f7bd a864 b73d
00000390: ec0f 673d c035 f43b 3096 563d 66ce 4c3c
000003a0: ae9d da3d b4b2 3ebe ac19 de3d f0c7 c7bd
000003b0: 4ef7 963d ada9 f3bd 22ac b1bd 7220 3cbe
000003c0: 64f6 273e 7bd0 f13d 7c40 293b d58a 5fbe
000003d0: 554c 0bbe c4ca 58be aa05 103d 766b 00be
000003e0: 28b9 62bd cbb1 2dbd 3cd2 d43c 8857 683d
000003f0: 7558 abbd 4db1 ecbd 7c86 f5bc 0e6d 453d
0.09261105 0.03627963 -0.04093396 0.077093996 0.011811995 0.13663127 0.06822307 -0.022724181
-0.11000206 0.21451616 0.06763477 0.023456756 -0.12820485 -0.057591226 -0.17247093 0.028529549
0.15972471 -0.0626783 0.15382853 0.06964073 -0.024421513 -0.065015726 -0.15666719 -0.115130685
0.032114893 -0.034146897 0.17891279 0.016947493 -0.013443062 -0.050971918 0.03322752 -0.022139795
0.08995243 0.09256812 -0.033325188 0.08914017 -0.068883635 -0.014123695 0.13439485 -0.056948494
0.09641078 -0.13314243 0.06319708 0.23157738 -0.05811608 -0.037061304 -0.08230481 0.17023794
0.13997301 0.1961113 -0.016735652 0.14679459 0.06565418 0.053484943 0.0077220295 -0.16086683
0.13978101 -0.019042492 -0.031845577 -0.18273269 0.061582036 0.17778547 0.13514313 -0.0874806
0.11251282 -0.049213 -0.050639823 -0.1064087 0.1646613 0.076164514 -0.014924677 0.10643153
0.13950463 -0.035570968 -0.03737929 -0.08627061 -0.112286575 0.10099651 -0.120077245 0.14934674
0.023140443 -0.19799024 0.02044338 -0.19326426 0.03737363 -0.08471456 -0.016437374 -0.16983491
0.07970588 0.14149542 0.09706369 0.14515664 0.06743996 0.0027155792 -0.11354504 0.022987427
0.04729645 0.13092771 -0.10292753 0.098676704 0.00082891993 -0.038603462 -0.20682406 0.20681539
0.07457996 -0.032344643 -0.07104584 -0.0948085 0.111263104 0.08884942 0.09805355 -0.05392793
0.1043896 0.022073966 -0.03697325 0.09771893 0.04881496 0.069522895 -0.078440465 0.041463226
0.0012746882 0.060053207 -0.069601916 0.037845574 -0.037763946 0.108001746 0.022827286 0.050968774
-0.018696232 0.17268384 0.13370425 -0.16169019 0.17001341 -0.13186975 0.102153495 0.05872224
0.08984984 -0.052529775 0.028763441 -0.18607734 -0.017683849 -0.07232715 -0.07533902 0.039070625
-0.13082883 0.1122126 -0.070818014 0.13698773 -0.11571196 0.08232963 -0.14604448 -0.10238153
-0.12741953 0.0647111 0.1380316 0.0051532774 -0.1714409 -0.054683477 -0.114638045 0.023728909
0.08068035 0.10999325 -0.042588495 0.13942212 0.09598427 0.062586874 -0.047502242 -0.19589356
0.062805235 -0.16502438 0.04569482 -0.06927601 0.08242288 0.07030846 -0.14532682 -0.08539447
-0.1966471 -0.12138882 0.12202912 0.032219257 -0.043161653 0.05474317 -0.05437047 0.040721737
0.14294155 -0.11845607 0.032016993 0.07952415 -0.08023627 0.021082291 0.07586879 0.15327124
0.16265814 -0.057521462 0.054697268 -0.11212763 -0.01804933 0.070432484 -0.022354037 -0.054136597
-0.0677869 0.14476672 -0.16770324 0.110637516 -0.151276 -0.031243384 0.058905616 0.026832104
0.011194557 -0.048203498 0.025151119 -0.021220043 -0.07060058 -0.0746655 0.03072524 -0.02592218
-0.14539218 -0.022353336 0.108248085 0.083412945 0.09134397 0.011175528 -0.07100731 0.09463492
-0.08987289 -0.013075292 -0.120737515 0.089547455 0.05641167 0.0074526966 0.052389324 0.012500381
0.10674606 -0.18622857 0.1084474 -0.09754932 0.073713884 -0.118975975 -0.0867541 -0.18371752
0.16402584 0.118073426 0.002582579 -0.21830304 -0.13603337 -0.21171099 0.03516165 -0.12540993
-0.05535236 -0.042405885 0.025979154 0.0567241 -0.08366481 -0.11557255 -0.029971354 0.048199706

layer_2.bias f4 [34]
00000000: dc79 a6bc b905 bdbd 405e 3ebc 8ba5 333e
00000010: a821 1cbe b0ee c93d 797a 0bbe c90d f6bd
00000020: deae 7a3d 0bb7 2a3e 8ec3 173d 1d73 18be
00000030: 14aa 043e 1779 33be 33e9 4ebc 6d31 ae3d
00000040: 1abe 48be cb02 333d 572d 363e 5388 debd
00000050: 1c5e 943d b31d 163e 9a85 6a3d 9526 f53d
00000060: 20f7 473d e33a 073e 721c 353e 56d8 6e3d
00000070: 168b f4bd 6fef a7bd 0edb a8bd 082c 2abe
00000080: b38a 21be 01ab 14be
-0.020321779 -0.09229607 -0.011619151 0.17543618 -0.15247214 0.09859979 -0.13620938 -0.12014348
0.061201923 0.16671388 0.03705173 -0.14887662 0.12955505 -0.17526661 -0.012628841 0.08505521
-0.19603768 0.043703835 0.17790733 -0.108658455 0.072445124 0.14659767 0.05725632 0.119702496
0.04881966 0.13206057 0.17686632 0.058311783 -0.11940591 -0.08199965 -0.08244906 -0.16618359
-0.15775566 -0.14518358

layer_3.weight f4 [36, 34]
00000000: bbf5 bebd d31f 7e3c 3ec2 dcbd a3f9 13be
00000010: 26a5 493c e2ca a73c ceb4 d33d 1ba5 2bbe
00000020: 3882 2b3d a05e 263e c13f 443c c21a aabd
00000030: a012 053b 72d2 a13d 21cd 533c 0458 a13d
00000040: 7572 e83c 3e14 7abd 8d7b 0cbe 2d3f d4bd
00000050: 0841 85bd c5cc e43d 6ce7 413e 561f a23d
00000060: f4a1 fbbd ab4d b43d 0e14 ca3d b745 d7bd
00000070: f3a6 b9bd f5bd fabd f5ba dd3b 0915 203e
00000080: b613 1a3e 3a7a c2bd 874c 24be 4af4 3b3d
00000090: 0f50 1dbe 557b 08bd b67f 1cbd 4f9e a83d
000000a0: 304c fe3c 76ea 15be b912 c43d 0add 12be
000000b0: 507c 773c 0fcb 0bbe 40fd cabd 473a 37be
000000c0: 6f4d 30be ca22 173e 6096 12bc 5280 073d
000000d0: 7c9e 90bd 9b56 3ebe 0267 1ebe c4a2 733d
000000e0: 463d 9f3d 5d28 06be 6558 cebd 964b 4cbe
000000f0: 059b 11be 0d02 243c 719f 25be ee85 2dbe
00000100: 2d94 073e 46e2 7dbd 2e35 fcbd 1e6d ff3d
00000110: 944d abbd ce0b b4bd f2bc 953d 13d3 a6bd
00000120: 67fb e63d 6f17 683d cdf1 8cbd 72da a7bc
00000130: e500 ddbd 826e 0f3d f6d8 5c3c 1fa7 91bd
00000140: 0f93 1ebe dd24 0d3e c6a2 0e3b 6ef5 3c3c
00000150: 7f20 233d cb28 2c3d 9c2e 8bbd 22a1 013e
00000160: eeeb c13d dc87 dcbb 509e 313c 8330 48be
00000170: 8c99 16bd 94cf 58bd 8402 ccbd c87d a0bd
00000180: e7bb 1fbe a62f 873c 4b4e 06be 67df a0bd
00000190: ea0c 633d a336 553d e79d acbd c428 0cbe
000001a0: 9a17 173e 53eb 703c 7bc3 7a3c 440f 78bb
000001b0: 59d3 093e 870c 833d c3d2 d73d d67f 253e
000001c0: 9e75 223e 0e36 f13c 2fa6 033e 7dc4 063e
000001d0: d8dc acbd 063b 54bd a982 a93d a55f a1bd
000001e0: f197 ee3d 279c ad3c d98b f03d 5942 f1bd
000001f0: 5360 ee3d cb11 e4bc 1fb3 e23d e33d a63d
00000200: b01b b6bc d441 8c3d 89fd e4bd 9720 1d3e
00000210: 68fd dfbc cdbb 23be d63a 433e 220a f7bd
00000220: 0f18 a5bd a413 e8bb 01e9 3d3e 10c5 023e
00000230: c7a1 12bc baf2 74bd 9050 4bbc b2e8 94bd
00000240: 5970 023c e344 35be e846 15bd b330 67bd
00000250: 8ac4 7dbd 6799 783d e5f5 ac3d 4886 1ebe
00000260: 16e6 033e 8faa 14be f8f3 0f3e 912e ae3d
00000270: d388 b83d 9af5 07be 3c4a d5bc 3f0e 26bd
00000280: 1a35 23be fc6f 34bd aaf3 eabd 6084 dabd
00000290: d786 093e 6317 eabd e775 093e da5a 0abe
000002a0: 4219 3f3e bf23 1ebe 8df7 9bbd 6748 0fbe
000002b0: bdcb 76bd 3ce5 3fbc 0591 ccbd 0cf4 2a3e
000002c0: eae5 55bd 80bd 9b3b fb18 4a3d 1d5c cc3d
000002d0: 40cd 4ebd 7a53 36bc 9e75 e23b 089d 46be
000002e0: d699 41bd f86d 2b3d fc76 a83d 7649 de3d
000002f0: eb98 f7bd 6f43 cf3d c1df 03be ebf9 89bb
00000300: cc66 183e 7b9b e1bd 8d1d fdbc 6bc8 133e
00000310: 1a47 fb3d 53e2 13be d1c1 073d 583a 353c
00000320: 0a32 c4bd 6807 db3d 3cb9 a4bc c9b7 373e
00000330: 95fd 2ebe 0264 173e 04ce 61bc 909c 663d
00000340: e5da 1fbe 6d95 b33d d2ac ce3d 4f69 f83d
00000350: afb0 13be f202 52be ac55 e4bd d958 0bbd
00000360: 0697 823d 69ec bcbd bebf c8bd 7f9a af3d
00000370: 66f1 403e cdd0 07be 4aa7 36be 641b 0cbd
00000380: d10e 28be 47ec d2bd eeda 16bd 83a6 f9bd
00000390: 61ef 45be 54f3 4fbe 1216 5e3d 1221 2fbe
000003a0: 35b0 05be 11c7 a6bd eaf3 113c fac9 14bd
000003b0: 2c9f 85bd fa94 7abd 0559 d23d 98ad 8cbd
000003c0: cf1c b13d 3ed7 e4bd cf5f adbc eae0 13be
000003d0: e3f5 2d3e 2523 e53d 1b12 b63d bf01 993d
000003e0: a40d 003d 8eb8 c03d 1c71 d2bd da1f 0ebe
000003f0: 1220 f33d ac04 f83d b87c b6bc b3fd a6bd
-0.09324213 0.015510517 -0.10779236 -0.14450698 0.012307441 0.020482484 0.1033722 -0.16762201
0.041872233 0.16247034 0.011978091 -0.08305885 0.002030529 0.079014674 0.0129273245 0.07878116
0.02837489 -0.06105446 -0.13719006 -0.10363612 -0.06506544 0.11171869 0.18935937 0.07916133
-0.122867495 0.088038765 0.098671064 -0.10511344 -0.09065046 -0.12243263 0.006766672 0.15633024
0.15046582 -0.09495969 -0.16044818 0.04588727 -0.15362571 -0.033320744 -0.038207732 0.0823332
0.031042188 -0.14640221 0.095738836 -0.14342132 0.015105322 -0.1365168 -0.09911585 -0.17893325
-0.17217039 0.14759365 -0.008946985 0.03308136 -0.070614785 -0.18587725 -0.15468982 0.059481397
0.07775359 -0.13101335 -0.10075454 -0.19950709 -0.14219292 0.010010255 -0.16174103 -0.16945621
0.13240118 -0.06198337 -0.12314831 0.12471984 -0.08364406 -0.08791314 0.07311429 -0.08145728
0.1127842 0.056662973 -0.06882057 -0.020489905 -0.10791186 0.035017498 0.013479462 -0.07111954
-0.15485786 0.13783593 0.00217645 0.011533124 0.039825913 0.04203109 -0.067959994 0.12659124
0.09468828 -0.006730063 0.010840967 -0.19549756 -0.036767527 -0.052932337 -0.09961417 -0.07836491
-0.15599023 0.016502213 -0.13115804 -0.078551106 0.055432238 0.05205406 -0.08428555 -0.13687426
0.14755097 0.014704543 0.015305395 -0.0037850896 0.13459529 0.06398874 0.105382465 0.16162047
0.1586518 0.02944472 0.12856363 0.13160892 -0.0844056 -0.0518141 0.082768746 -0.07879571
0.11650074 0.021192623 0.11745424 -0.11780233 0.11639466 -0.027840516 0.11069321 0.08117273
-0.02223 0.06848493 -0.111811705 0.15344463 -0.027342513 -0.15989609 0.19065413 -0.120624796
-0.080612294 -0.0070824195 0.18545915 0.12770486 -0.008949704 -0.059801795 -0.012409344 -0.072709456
0.007961356 -0.1770206 -0.036444575 -0.056442928 -0.061955012 0.06069317 0.08445338 -0.15480912
0.1288074 -0.14518188 0.1405791 0.085049756 0.09010472 -0.13277283 -0.026036374 -0.04054093
-0.15938225 -0.04405211 -0.114722565 -0.1066978 0.13430344 -0.11430242 0.13423882 -0.1351122
0.18661979 -0.15443324 -0.07615576 -0.13992463 -0.060252894 -0.011712369 -0.09988598 0.16694659
-0.052221216 0.004752815 0.04934023 0.09978507 -0.05048871 -0.011128301 0.0069109937 -0.1939584
-0.04726585 0.04185292 0.082258195 0.10853855 -0.12089714 0.10120284 -0.12878324 -0.0042107007
0.14882964 -0.11015984 -0.03089788 0.14431922 0.12269421 -0.14441805 0.033143822 0.0110612735
-0.09579857 0.10694772 -0.020107858 0.17941202 -0.17088921 0.14784244 -0.013782028 0.056301653
-0.15610845 0.08768735 0.100915566 0.12129461 -0.14422868 -0.20508936 -0.11149153 -0.03402028
0.06376462 -0.09224779 -0.09802197 0.0857439 0.18842086 -0.13263245 -0.17837253 -0.03420581
-0.16411902 -0.102989726 -0.03682988 -0.12189963 -0.19329597 -0.20307666 0.054220267 -0.17102459
-0.13055499 -0.08143438 0.008908251 -0.036325432 -0.065245 -0.06117723 0.102708854 -0.06869048
0.08648073 -0.11173867 -0.02116385 -0.14441267 0.1698833 0.11188344 0.08890172 0.07471036
0.03126301 0.09410201 -0.1027548 -0.13879338 0.11871351 0.12110266 -0.022276267 -0.08153858

layer_3.bias f4 [36]
00000000: caf1 073e 0c48 0cbc 4539 8d3d 4592 97bc
00000010: 9d6b 8a3d bc9c 14be 888a 7d3d f495 9cbd
00000020: 4811 8f3d 989c 16be 2996 26be fa8f dcbc
00000030: 832a 013e 2ee9 f73d 2cc6 dc3d 4759 43bd
00000040: 6bbb bd3c 3047 c4bd 666c 0e3e 4cfe cabd
00000050: 8ab3 b83d d3e2 44be bf99 2cbe 7d52 1abe
00000060: 4924 16be 53cf 253e bc2f 09bb fa5d 5b3e
00000070: d686 04bd 213e 1abd 9648 a5bd 4445 043d
00000080: 08d5 25be cc72 bcbc e906 853c c697 1e3d
0.13275829 -0.008562099 0.06895689 -0.018502364 0.06758807 -0.14512914 0.06189969 -0.07645789
0.06985718 -0.14708173 -0.16268219 -0.026924122 0.12613873 0.12105022 0.10779986 -0.047692563
0.023160657 -0.095838904 0.13908538 -0.099117845 0.09018619 -0.19227152 -0.16855524 -0.1507053
-0.14662279 0.16192369 -0.0020932993 0.21422568 -0.032355152 -0.037656907 -0.08070485 0.03229262
-0.16194546 -0.023003958 0.016238647 0.03871896

action.weight f4 [36, 36]
00000000: ca09 10be da01 e63c a143 ca3d f833 d93c
00000010: acff c63c 5f0b 003c e1c1 86bd 721c 373e
00000020: f0b6 cbbd c3c4 21be 8055 953b c3ee efbc
00000030: d836 103e 0e9f 433d 668f 013e 1f46 153e
00000040: c134 ab3d 75b1 29be 72d4 123e 68b4 e23d
00000050: 55f1 b53d 744f a33d 1bbf 8ebd 1da3 253e
00000060: 50b9 87bd 339e cf3d f863 e8bc c4cb 20be
00000070: 7a1f dcbd 2dce ad3c 594f a33c ce8b 19bd
00000080: 1091 543d aa98 0fbb 62a7 6fbc 7fbc ed3d
00000090: 195e 063e 4012 9b3d 2e7a bebd 6607 27be
000000a0: a2e4 d13d 0384 dfbd d0a3 ba3d cc3b c53c
000000b0: b241 e2bc 44c1 15be f62c a93d 6bce 003e
000000c0: dec7 843c 6e5b fcbc 844e be3d 4d9f a9bc
000000d0: ea55 10be ff43 1dbd 8bc0 0b3c ca8b a4bd
000000e0: 0bbf 003e 3ae5 f83c 88ff 803d 34b5 093d
000000f0: bbd9 1cbe 7e19 033d a4f0 97bd 1e5d b63c
00000100: 5e00 5d3b 10d3 c8bd 9e93 193e 43b9 dc3d
00000110: b941 aabc 785c 553d faeb afbd 1d0e 15be
00000120: 3a93 d2bc 62d8 68bd b4b7 8b3d 8a67 9dbd
00000130: 58da 383c 89f3 95bd fc7a 263d 66c7 36bd
00000140: 9cc2 553d 1223 a23d 747c 753d 40bb 75bd
00000150: 8879 d6bb 8cbb 34bc f2db 5e3d c664 5bbd
00000160: edf8 23bd 006c aabc 3520 2cbe 4880 963c
00000170: 7525 f93d dffb 80bd e9eb 183e 014a 0e3e
00000180: 40f7 dabc bbdb 8abd 01c4 c93d 7200 d73d
00000190: 4602 43bd cfc6 af3d 55b1 3ebd cc61 cbbc
000001a0: 2982 f13d e223 2ebc 6dbf 2e3e bb60 e8bd
000001b0: 348d db3d 0c20 9ebc fab7 bebd 37ef 6d3d
000001c0: a5b4 d2bd b601 dcbd 8cc6 a0bd f314 8b3d
000001d0: 4687 393e 5c98 30bd 314d 013e be8d 1c3e
000001e0: 7e05 273e 87a4 b03d 938a b43d f46f 96bc
000001f0: f30f cbbd d53f 87bd cbe6 313d 31a0 213e
00000200: 6971 db3d 7629 cc3d e62b 1ebe 50b2 bcbd
00000210: a27e a43d 8e08 593d da1b 4e3e bb5d 0d3e
00000220: 8a22 c7bd cdad cdbd f3c5 a93d b7d0 f23c
00000230: 9f76 0d3e b027 21bd 6ed9 88bd 24c0 01bb
00000240: c4f1 653d f706 0e3e fd4b ee3c 9413 9f3d
00000250: ddad db3d e096 38b9 8dcc 1ebe ff00 10be
00000260: 5cfc e9bd 80df dfbd 60a7 9cbd 74e3 5c3d
00000270: 9e00 d9bd 0393 d63d 3178 a43d 4731 143e
00000280: faeb 9fbd 037b c8bd fd37 b03d c0fe fbba
00000290: 7c8f a13d 2663 7c3c 43c1 adbd 742a 793d
000002a0: 7029 443d 502d b6bd 7e9a bfbc f505 3dbe
000002b0: 29c5 46be 3004 ff3a a061 1ebe 8f2b 4fbe
000002c0: d322 b7bd 98d2 573c 7fa7 16be 5fe4 f93c
000002d0: a862 c2ba 93dc d53d 3aa8 cfbd 66f1 0d3e
000002e0: a414 24bc 659e ab3c b72f 813d c547 a3bd
000002f0: e6fd 7cbd 4ee1 29be 380b 8cbc 7b4f 1cbd
00000300: 871a 263e 8f80 793c ec6f a0bd ad37 e7bc
00000310: 8991 09be f7e2 f93d 29c4 7d3c 92ef 39bd
00000320: 73ff bc3d 4cda 153c 444c 01be 2409 01be
00000330: 1386 93bd e765 f03d 6058 24be 612b 5e3c
00000340: c775 d53d 7755 82bd f4e0 07be 7eef 23be
00000350: f681 50bd a2c0 d23d dd9a db3d 072d b43c
00000360: 7e87 0ebe dc22 f6bb f2ef da3c a5eb d53d
00000370: b72d fa3c 7e2a 6d3b 485e c3bd b2c7 fe3d
00000380: b81b 94bc 0417 2e3d 14c6 413d e04a 95bd
00000390: 45b6 a83d 2517 123e e196 0bbe be82 2c3d
000003a0: 24e6 8a3d 3adb cdbd c23a e73d b8fb 72bd
000003b0: 5386 ca3d bd12 513d 4605 853d e8ee eebc
000003c0: d8fc a63d 8a66 37bd 2165 2b3e 9a75 2fbb
000003d0: ec8d 80bc 1aae 133e d557 153c b4bc 15bc
000003e0: 2662 01be faac f83d 95a2 913d 22d2 0bbd
000003f0: 0474 9a3d e2ba 8a3d f1ab c33d 00e9 003e
-0.14066234 0.028077055 0.098761804 0.026514038 0.024291836 0.007815211 -0.06579948 0.17881945
-0.09947002 -0.15797715 0.0045573115 -0.029288655 0.14083421 0.04775911 0.12652358 0.1457753
0.083596714 -0.165716 0.14338854 0.11069566 0.08883921 0.07974139 -0.06970044 0.16175504
-0.066271424 0.10137596 -0.028367981 -0.1570273 -0.10748191 0.021216476 0.019935297 -0.037486844
0.051896155 -0.0021911063 -0.0146273095 0.116082184 0.13121833 0.0757184 -0.09300648 -0.16311416
0.102486864 -0.10913851 0.09113276 0.024076365 -0.027619217 -0.14624506 0.08260529 0.12578742
0.016208585 -0.030805316 0.092923194 -0.020705843 -0.14095274 -0.038394924 0.008529793 -0.08034475
0.12572877 0.030382741 0.06298739 0.033620074 -0.15317433 0.032006733 -0.074189454 0.022261199
0.0033722143 -0.09805882 0.14997718 0.10777523 -0.020783292 0.05209014 -0.08589931 -0.14556165
-0.025704969 -0.056846984 0.06822148 -0.07685764 0.011282526 -0.07321841 0.04064463 -0.044623755
0.052187547 0.079168454 0.05993314 -0.05999303 -0.0065452494 -0.011031043 0.054408975 -0.053562902
-0.040032316 -0.020803452 -0.16809161 0.018371716 0.121653475 -0.062980406 0.14933743 0.13895418
-0.026729226 -0.067801915 0.09851838 0.10498132 -0.04760959 0.085828416 -0.046555836 -0.024826907
0.11792404 -0.010628672 0.1706521 -0.11346575 0.10720292 -0.01930239 -0.093124345 0.05808946
-0.102883615 -0.10742514 -0.0785037 0.06791105 0.18118009 -0.04311405 0.12627102 0.15288445
0.16310689 0.08625131 0.088154934 -0.01836393 -0.099151514 -0.06603972 0.043432992 0.15783764
0.10714991 0.099688455 -0.15446433 -0.09213698 0.08031966 0.052986674 0.20127812 0.13805287
-0.09723385 -0.100429155 0.08289709 0.029640539 0.13814782 -0.03934449 -0.066820964 -0.0019798363
0.05613877 0.13869844 0.029088968 0.07767406 0.10726521 -0.00017603813 -0.15507717 -0.1406288
-0.11425087 -0.10931301 -0.07649112 0.053927854 -0.10595821 0.10477259 0.08030737 0.14471923
-0.07808681 -0.097890876 0.08604429 -0.0019225702 0.078886956 0.015404498 -0.08484127 0.060831502
0.04789108 -0.088953614 -0.023389097 -0.18459304 -0.19411148 0.0019456204 -0.15466928 -0.2023146
-0.08942189 0.013172768 -0.14712332 0.030504404 -0.0014830427 0.10442462 -0.101395085 0.13861617
-0.010014687 0.020949552 0.06307929 -0.07972673 -0.061765574 -0.16589853 -0.017095193 -0.038161736
0.16221057 0.015228405 -0.078338474 -0.02822479 -0.13434424 0.12201493 0.015488663 -0.045394488
0.092284106 0.009146284 -0.1262675 -0.12601143 -0.07203307 0.11738186 -0.16049337 0.013560147
0.10422855 -0.063639574 -0.13269407 -0.16009328 -0.05090519 0.10290648 0.10722897 0.021994127
-0.13918874 -0.00751148 0.026725743 0.10445336 0.030539377 0.0036188657 -0.09539467 0.124404326
-0.018079624 0.04250242 0.047308043 -0.07289672 0.0823789 0.14266641 -0.13631774 0.042116873
0.06782177 -0.1005158 0.11290504 -0.05932209 0.098889016 0.05104326 0.064951465 -0.029166654
0.08153695 -0.044775523 0.16737796 -0.0026772977 -0.015692674 0.14421883 0.009115179 -0.009139229
-0.12635097 0.12142368 0.07111088 -0.034135945 0.075416595 0.06773926 0.095542796 0.12588882

action.bias f4 [36]
00000000: 6cdf c2bc 5988 d93c 9cc5 b33d 5912 91bc
00000010: 183a 3ebe c0cb 06be 23e1 af3c 900f 363d
00000020: 301e 84bc fb18 8cbd 8294 183e d6b2 8abd
00000030: d486 8fbd cd7e 52be 2b54 20bd c614 163e
00000040: 0cc7 573e e0db 12be 9ad6 a1bd 6de8 dcbd
00000050: b68a 3a3d 7bff 18be aa34 c43c e5f5 0bbe
00000060: 575d de3b b4a7 01bd 8518 0e3e a2cd 093d
00000070: b009 9cbd d08e 993c 212e 14be 6b5a 94bc
00000080: bb38 19be 3a08 0ebe e40d 103e 7ae3 6f3b
-0.023788176 0.026554273 0.08777925 -0.017708944 -0.18576849 -0.13163662 0.021469658 0.044448435
-0.016127676 -0.06840702 0.14900401 -0.067723915 -0.07008138 -0.20556183 -0.03914277 0.14656362
0.21072024 -0.14341688 -0.0790226 -0.10786519 0.04554244 -0.14941208 0.023950893 -0.1366802
0.0067860293 -0.031654075 0.13876541 0.033643372 -0.07619035 0.018744856 -0.14470722 -0.01810952
-0.14963047 -0.13870326 0.14067799 0.0036604092
