mean_model.pt (torch, 12823 bytes, 6 tensors)

layer_1.weight f4 [33, 30]
000000 56 5a 6f bd e5 2f f5 3d 00 ea 7f be 94 f8 e7 be
       -0.05843576 0.11972026 -0.24991608 -0.45306838
000010 d8 e6 12 bb aa 2c 0a 3e 11 25 a9 bd 97 4c 08 3f
       -0.0022415426 0.134936 -0.08259023 0.53241867
000020 e4 d3 ad bd 5d 9e 94 3e 72 d6 87 be a9 a0 03 3f
       -0.084876806 0.29027072 -0.26530796 0.5141702
000030 03 a5 2b 3e 57 60 b8 3d 76 bb cb 3e 4f 8a 91 3d
       0.16762166 0.0900275 0.3979146 0.071064584
000040 94 a6 e1 3d 1c b5 30 3f 13 b1 99 3e 93 2c 7d 3e
       0.110181004 0.6902635 0.3001791 0.24724035
000050 7a 56 7c bd 43 c4 92 3d 37 3a ce 3e ac a9 11 3e
       -0.061605908 0.0716634 0.4027879 0.14224881
000060 73 0d 2b bf 21 fb 86 be e1 bf 04 3f 6a a7 ec 3e
       -0.66817397 -0.2636347 0.51855284 0.46221477
000070 08 32 a2 3e 3d 97 72 bd 4c 53 1c be be 83 e0 bc
       0.31678796 -0.059226263 -0.1526615 -0.02740657
000080 a6 90 96 3e b4 99 bb 3d 97 ff ea bd c2 42 d5 3d
       0.29407233 0.09160176 -0.11474531 0.10413124
000090 f6 a3 9e bd ec 30 82 bd 3a 93 b8 3d ce 1b 60 be
       -0.07746117 -0.06356987 0.09012456 -0.21885607
0000a0 fa 12 94 3d ea 61 dd bd 2c 6f df bd 1f 38 a8 3d
       0.07230182 -0.10809691 -0.10909876 0.08213829
0000b0 8a 0a 84 be 0a a0 1e be be bc bb bd 39 9d 00 3d
       -0.2578929 -0.15490738 -0.09166859 0.03139994
0000c0 89 5f 92 3d 05 ff 89 3d f0 88 e2 bd 47 ee da 3d
       0.07147128 0.06738094 -0.11061275 0.10689979
0000d0 41 5d 3d be 49 81 74 be 46 37 f2 3d ae eb 09 3e
       -0.18492605 -0.23877443 0.11826949 0.13468811
0000e0 75 76 2d bd 54 55 6b be 9d 65 00 bd 93 9e b9 3d
       -0.042349298 -0.22981769 -0.031346906 0.09063449
0000f0 6e 50 f5 bd cd 46 c4 bd d9 f1 35 3e bb 0f 48 3e
       -0.11978231 -0.09583817 0.17768039 0.1953725
000100 58 94 08 be db 8d ab 3a c2 1b 8f 3d 14 88 a2 3d
       -0.13337839 0.0013088541 0.06987716 0.07936111
000110 89 70 98 bd 79 6a 13 3e 07 8f ea 3c a2 56 b3 bd
       -0.074433394 0.14396085 0.028632654 -0.08756758
000120 d7 5e 78 3e 22 1b 88 3e 19 bb a8 be aa 1d b6 3d
       0.24254929 0.265832 -0.32955244 0.08892377
000130 fe 7d 7a be 7a ab b1 3e 56 a4 79 3e 52 5b 28 be
       -0.24462125 0.3470114 0.24379095 -0.16441086
000140 c3 3b ee bd c3 27 a7 3e 7b bd 1a 3f 2c 07 e2 3e
       -0.116324924 0.32647523 0.60445374 0.44146097
000150 73 e1 a5 3c bc 9f 6b 3e f9 90 bd 3e cf 50 d5 3d
       0.020249104 0.23010153 0.37024668 0.10415804
000160 8e 94 83 3e a0 39 1a 3e d0 8b 2a be 2c 1b 84 3e
       0.25699276 0.15061045 -0.16654897 0.2580198
000170 97 f4 a0 be e8 a6 89 bc b2 7f ec 3d 41 9e bd bd
       -0.31436607 -0.01680322 0.115477934 -0.092587
000180 ac 80 86 3e 1b 13 d8 3e 67 60 f8 bd 94 ce 14 3f
       0.26270044 0.42202076 -0.12127762 0.58127713
000190 e1 d3 0c bd 38 b3 e4 3e 64 43 e0 3d db 88 8c 3e
       -0.03438175 0.44667983 0.10950354 0.27448162
0001a0 22 19 2c 3e 4c e9 9a 3e 29 23 0e 3e c7 c1 74 3f
       0.16806462 0.30256116 0.138806 0.9560818
0001b0 d3 0b 4a 3d 3b ce 0b 3f ab e8 ed 3d 16 1b cd 3e
       0.049327683 0.5461156 0.116166435 0.40059727
0001c0 bb 79 40 3f ca a8 d2 3e 07 8a 54 be 59 a6 c5 bc
       0.75185746 0.411444 -0.20755778 -0.024127172
0001d0 f5 91 00 3f 1b 0b 12 3f 24 92 7d 3e 30 69 9a 3e
       0.5022271 0.57048196 0.2476278 0.30158377
0001e0 44 97 87 3d b2 c2 1d 3d d7 69 4e 3e 5d 0d 4a be
       0.066206485 0.038515754 0.20157562 -0.1973166
0001f0 20 00 cf 3e 72 41 7f bd 1b f2 e3 3e 5e 14 68 3e
       0.40429783 -0.062318273 0.4452065 0.2266402
000200 f8 6c d5 3b f7 94 af 3e 4e cd f2 bd a3 b6 43 3e
       0.006513234 0.3429334 -0.11855565 0.19112639
000210 2c c1 e2 3d c6 bc 85 3e 89 c2 8d bd 8d 3a de bc
       0.11072001 0.26120585 -0.0692187 -0.027127529
000220 ef 85 4a 3e b0 a2 74 3e 90 ff 31 3b 25 bd 99 3e
       0.19777654 0.23890185 0.0027160384 0.30027118
000230 d2 3a 29 bc 7d f7 2c 3e 54 2b 15 3f d9 ab 21 3f
       -0.010328965 0.16891284 0.5826924 0.63152844
000240 26 82 85 3e 4f d8 80 3d 7a ad 0f 3e aa 57 24 3e
       0.26075858 0.062912576 0.1403102 0.16049066
000250 0c d8 87 3e 9c ef fd 3e b1 75 0d 3e 9a d4 67 be
       0.26532018 0.4959687 0.13814427 -0.22639695
000260 e6 7e f6 3e 8b 5b c5 bc ae db 06 be f0 b0 d0 bd
       0.4814369 -0.024091503 -0.13169739 -0.10189998
000270 40 1e 8f 3e b1 4a 10 3c 5a 97 d3 3d 3f 41 97 3e
       0.27952766 0.00880687 0.103316024 0.29541966
000280 e7 7b fa 3d e6 29 a4 3d 86 92 a9 3e 51 25 c7 3e
       0.12230664 0.08015804 0.331196 0.38895658
000290 54 73 83 be c2 61 94 be c7 95 12 be bc bc 03 3d
       -0.25673926 -0.28980833 -0.14314948 0.032162413
0002a0 ff 5f 90 bb 8c 3a 18 3e 5e 42 1b 3e 36 c8 18 bb
       -0.004405975 0.14866084 0.15162036 -0.0023312694
0002b0 46 5a 98 be 6f e2 95 be 80 58 09 3e ca 76 52 be
       -0.29756373 -0.29274318 0.13412666 -0.20553127
0002c0 f0 2b cf 3d 66 eb 5a bc a4 6b c1 bd 92 ee 7d bd
       0.10115802 -0.013361787 -0.09444359 -0.061995097
0002d0 cc 0d 0a bd 1c c1 a9 bd da 20 1d 3e 17 b8 26 be
       -0.033704564 -0.08288786 0.15344563 -0.16281162
0002e0 ec 8d ac 3b 5e 95 3e bd 56 03 6d 3d 2d 51 e1 3c
       0.005265942 -0.046529166 0.05786451 0.027504528
0002f0 09 22 61 3d 54 f0 89 3d 79 67 a2 3e e2 86 87 bd
       0.0549641 0.06735292 0.31719568 -0.06617524
000300 9a 95 bd 3c f1 7e 31 3d 18 b8 f9 bd c2 1a 00 be
       0.023142625 0.04333395 -0.12193316 -0.12510207
000310 0c e4 9e bd ac 02 40 be 7a d2 ff 3b de 8e 6f be
       -0.0775834 -0.18751019 0.007807073 -0.23394343
000320 a5 30 0d 3e 26 4b c5 bd 31 12 a2 bd ac 77 4d be
       0.13788088 -0.09633474 -0.07913626 -0.20065182
000330 1a d8 55 3d 1b a8 06 be a9 ef 51 3d fc 04 81 bd
       0.052208044 -0.13150065 0.05125395 -0.06299779
000340 38 57 7f be 30 0f 1c bd 48 6f b1 bd 90 50 e8 bd
       -0.24935615 -0.03810042 -0.08663803 -0.11343491
000350 8a 17 3b 3e 1c ff 13 be 88 13 ba 3d 7a a0 f5 bd
       0.18270698 -0.14452785 0.090857565 -0.11993499
000360 c3 17 0b be d8 c2 92 3c 20 e4 68 3d bd 76 92 be
       -0.13583283 0.017915174 0.056858182 -0.28606215
000370 56 f4 69 3e f3 db 76 bd c9 d0 8f 3d 57 02 77 bb
       0.22847113 -0.060268354 0.070222445 -0.0037690604
000380 5b 59 d8 bd 5a 9b 86 3d 79 f9 34 bd 74 b9 1a be
       -0.10563918 0.065726 -0.04418323 -0.15109807
000390 33 62 c5 bd 4a f5 ee 3d 76 23 2a bd 8a ce 91 3d
       -0.09637871 0.11667879 -0.041537724 0.07119472
0003a0 1c 6d 85 bd 92 33 19 be b2 67 d0 3d 6e b6 12 bc
       -0.065149516 -0.14961079 0.10176028 -0.008954627
0003b0 ae d3 95 bd 7e 17 33 3b e3 93 11 3d 99 22 62 3d
       -0.07315765 0.0027327235 0.035541426 0.055208776
0003c0 47 ff 7c bc 6b 67 be 3e 0e b4 21 be 8c 80 14 be
       -0.015441722 0.37188277 -0.15791342 -0.14502162
0003d0 d4 cc 77 3e 77 5f 0e 3e b5 44 24 3d a8 79 f9 3e
       0.2419923 0.13903604 0.040104587 0.4872563
0003e0 b4 b0 ea bd 5a f7 f1 3e 32 44 cc be 2f 33 25 3f
       -0.11459485 0.47259027 -0.3989578 0.64531225
0003f0 6f 48 50 3e fb f3 3f 3e 8f dd b6 3e a3 b4 8a 3e
       0.20340131 0.18745415 0.3571591 0.2709094

layer_1.bias f4 [33]
000000 94 7b e0 3e ab eb 3f be 64 fb e9 bd 31 e8 62 3e
       0.43844283 -0.18742244 -0.11424902 0.22158886
000010 4e 40 8c 3e 96 65 b1 be 88 7f 53 3e 28 96 46 be
       0.2739281 -0.34647816 0.20654118 -0.19393218
000020 14 e2 ec 3e a8 a6 86 be 41 de 65 be 8e d2 78 be
       0.46266234 -0.26299024 -0.22448064 -0.2429907
000030 e3 f7 c2 3e cf 44 80 3e bf 1d 24 be b2 c0 bd 3e
       0.38079748 0.25052497 -0.16026972 0.37061077
000040 b5 02 90 3e c2 e9 5d be 3d 2d 9c be 84 4b df bd
       0.28127065 -0.21671203 -0.30503264 -0.10903075
000050 a1 59 64 3e bc 4b be 3e 52 d9 14 be 4e 54 b7 bd
       0.22299816 0.37167156 -0.14536026 -0.08951627
000060 8c 14 1e 3e 3b b8 67 be 4f d3 b4 bd 3d 45 b8 3e
       0.15437526 -0.22628872 -0.088293664 0.35990325
000070 b1 07 9e 3e fd eb cc 3e 27 37 c1 bb 5a 9a ad bc
       0.30865243 0.40023795 -0.0058964672 -0.021191765
000080 9c f0 d1 3c
       0.025627427

layer_2.weight f4 [34, 33]
000000 a6 55 de 3d 79 b3 ee bc a5 b5 96 3d 19 1f 58 be
       0.1085618 -0.029138314 0.07358865 -0.21105613
000010 07 f7 82 3c 3c 0e 87 bd 60 35 67 3e 0b a9 2e be
       0.015986932 -0.06594512 0.22578955 -0.17056672
000020 ce d3 49 be d9 53 ae 3d c3 11 a7 3d 46 31 c5 3d
       -0.19709703 0.085120864 0.08157685 0.09628539
000030 40 b1 99 bd 90 86 1e bd a9 ac 13 3d b9 93 42 be
       -0.07504511 -0.038702548 0.036053333 -0.19001664
000040 a4 e0 8d 3c bc 01 00 3e b1 c8 9d 3d 73 6d 0a be
       0.017319031 0.12500662 0.077042945 -0.13518314
000050 1f 5e c1 3c cf b4 58 be 30 3c c1 bd 5e e9 0e be
       0.02360445 -0.21162723 -0.09435308 -0.1395621
000060 34 b1 ac bd a5 5f 77 3b b5 7f bc bd 1c d8 7d bd
       -0.08432236 0.0037746218 -0.09204046 -0.061973676
000070 44 66 80 bd d1 5d d3 3c 14 67 31 bd 0e 82 0b be
       -0.062695056 0.025801571 -0.043311194 -0.1362383
000080 6c 5f 1c 3d 3d e2 d1 bd b0 5e 45 3e 75 02 23 3e
       0.03817694 -0.1024823 0.19274402 0.15918906
000090 a5 8d 82 bd 38 b6 82 bb 13 6c eb 3d 0b 08 27 3e
       -0.06374673 -0.0039890073 0.11495223 0.16311662
0000a0 5d 16 84 be a8 68 38 be 21 ae f0 bd 56 5f 6f be
       -0.25798312 -0.18008673 -0.117519625 -0.23376212
0000b0 ad 39 6b be 25 c8 11 be c2 63 6a 3d 79 62 e6 b9
       -0.2297122 -0.14236505 0.057224043 -0.00043942386
0000c0 7c cf 26 bc 5e b5 83 be f9 ce 50 3e 1a 92 05 be
       -0.010181304 -0.2572431 0.20391454 -0.13044015
0000d0 f1 fe f8 3d 87 77 44 be 9d ce d0 3d e1 f1 86 bd
       0.12158001 -0.19186221 0.10195658 -0.065891035
0000e0 95 80 3c bd 27 56 8b be 4b 6c 12 3e f7 fb e1 3d
       -0.046021063 -0.27214167 0.14299123 0.110343866
0000f0 d6 f8 68 3d 18 40 12 be 5f 8d 79 be 6b 67 1b be
       0.056877933 -0.14282262 -0.24370335 -0.1517617
000100 0c b5 1b bd bc 35 1d 3d 9a 37 87 be a9 db dc bd
       -0.038014457 0.038381323 -0.26409608 -0.10784084
000110 8f 71 37 bd 0e 90 32 be b5 2f fd bc ca bc 61 3d
       -0.044786032 -0.17437765 -0.030906538 0.055111684
000120 4a eb 52 bc 56 ff a5 bd d0 e1 6b be f0 eb ab 3d
       -0.01287348 -0.08105342 -0.2303536 0.08394611
000130 f9 74 9c 3b c6 8d 0f be 1e 21 be bd 06 24 18 bd
       0.0047746864 -0.14018926 -0.0928366 -0.03714373
000140 ce 8d 87 bc 4e 85 85 3d 2e c2 f0 3b b9 9f a1 bd
       -0.01654711 0.065195665 0.007347367 -0.07891793
000150 0a c3 0b 3d 54 b4 60 3e 19 36 86 be 03 7e 21 3e
       0.03412155 0.2194379 -0.26213148 0.15770726
000160 c7 e6 b4 3d 2c f5 81 3d 7a b5 a0 3d 22 cf 18 3e
       0.0883308 0.06345591 0.07847114 0.14922765
000170 28 12 82 be 51 58 44 be da 59 37 be b5 28 3f bd
       -0.25404477 -0.19174315 -0.1790537 -0.04666968
000180 0b 6f cc 3b 2c c7 16 be 7d ef f3 3c 3b ce e9 3d
       0.0062388233 -0.14724416 0.029777283 0.114162885
000190 60 e5 5f bd 7f 2b 64 3d af 00 94 3d 8e 35 06 be
       -0.05466211 0.055705544 0.07226693 -0.13106367
0001a0 fb 98 3c be 58 21 c2 bd 94 f0 73 3d 53 a9 3b be
       -0.18417732 -0.09479016 0.059555605 -0.18326311
0001b0 1a 88 14 bd 9e 5f ce 3d 2c 5b 30 3e c2 c2 ea bd
       -0.03626261 0.10076831 0.1722228 -0.11462928
0001c0 97 0b 5d be 03 3c 77 bc 1b 61 e4 3c 79 14 02 be
       -0.21586452 -0.0150899915 0.027878335 -0.12703122
0001d0 b0 05 14 3a 51 42 7f 3d 70 fc 02 be de 6a 3a bc
       0.00056465995 0.062319104 -0.1279161 -0.011378018
0001e0 0c 51 4d be e6 de 1c be c0 11 22 be 18 84 70 3d
       -0.20050448 -0.15319404 -0.15827084 0.058719724
0001f0 e2 39 8c bd 95 f3 cf 3d 39 cc d5 3c 4f bb 8b 3c
       -0.06846978 0.101538815 0.026098358 0.01705709
000200 cd ac ab bd ce 48 99 bd bc af 5a 3d c8 f5 f4 3c
       -0.083825685 -0.074845895 0.05339025 0.029902354
000210 34 a5 2a 3d 84 eb d6 3c 0c cc 82 3e 4a e0 49 3e
       0.041661456 0.02623535 0.255463 0.19714466
000220 f0 2f b3 3e 6a 25 20 3d 6f d7 1b 3e 37 e4 15 3e
       0.3499751 0.03909818 0.152189 0.14637838
000230 2a 01 68 3e 6b 66 39 3d 9a c9 db 3d 85 d2 0c 3d
       0.22656694 0.04526369 0.10731812 0.034380455
000240 7f ff 1b 3e c1 5d 9e 3e 0c 9e 0f be 99 f8 a8 3e
       0.15234183 0.30930904 -0.14025134 0.33002165
000250 56 3e cc 3d d7 2f 7d 3c 2a 30 4a 3e c6 74 a4 3b
       0.09972827 0.0154533 0.19744936 0.0050188033
000260 c4 86 81 3e 32 4c 02 3f 03 f1 2b be 4b e9 44 bc
       0.2529813 0.50897515 -0.16791157 -0.012018512
000270 03 b6 f1 3d d1 26 f0 3d fc b9 d8 3b a9 14 95 3e
       0.11802294 0.11726154 0.006613968 0.29117325
000280 cd 50 cd 3e 57 22 9f 3e 2f e7 93 bd 34 d3 0e 3e
       0.4010071 0.31080887 -0.07221829 0.13947755
000290 ee fd 91 3e c9 35 d1 bc 83 96 47 3d 3d 20 d6 bd
       0.28514045 -0.025538342 0.048727524 -0.10455368
0002a0 7c 38 be 3c 0b 74 9b bd dc c3 1a be ed e9 34 3d
       0.023220293 -0.07590493 -0.15113777 0.0441684
0002b0 d2 49 b8 bd c6 ad 2f be f5 55 49 3d a7 2c 0e bc
       -0.08998455 -0.17156133 0.04915424 -0.008677638
0002c0 1d 7d 71 bd a0 66 06 bc c2 a2 41 3d 5c 97 fa bc
       -0.058957208 -0.008203179 0.04727436 -0.030589752
0002d0 dc 29 83 bc 28 5a 49 bd 40 a1 39 be 0b 7a 08 be
       -0.016011171 -0.049158245 -0.18127918 -0.13327806
0002e0 28 8d 97 bd d7 f6 4d 3b f0 1c ff 3d 88 d0 84 3d
       -0.0739997 0.0031427646 0.12456691 0.06485087
0002f0 47 73 0e be 5c f9 6e 3d e6 a0 0a be aa 10 28 bd
       -0.13911162 0.058343276 -0.1353794 -0.041031517
000300 85 c4 a9 3c e8 5c 14 be c0 8d 92 3d a1 c8 bf 3d
       0.02072359 -0.14488566 0.07155943 0.09364439
000310 06 07 97 bd 3b 75 bc bd 38 58 ea be 7c 11 e2 bd
       -0.073743865 -0.092020474 -0.4577043 -0.11038491
000320 ee 98 b6 3c d3 1e 2e be ee 5b f0 3d a1 72 3c 3e
       0.02228972 -0.17003946 0.11736284 0.18403102
000330 aa 84 38 3d b4 a8 96 bc 16 6d a9 bd 6e bc 9b 3c
       0.045048393 -0.01839099 -0.082727596 0.019010749
000340 d7 24 87 3d 79 a1 75 3d cf b9 12 be 0d b1 6e be
       0.065988235 0.059968445 -0.14328693 -0.23309727
000350 8e 73 e7 bc 2d bb 9b bd 4d 7b 5d 3d 07 c6 87 bd
       -0.028253343 -0.0760406 0.054072667 -0.066295676
000360 52 72 d1 3d f0 6e 3f 3e d9 f1 c1 be ce 23 16 3e
       0.10226883 0.18694663 -0.37879828 0.14662096
000370 3b fa 32 3e 3b 5a 04 be 54 b4 6b 3d 28 2a 56 3d
       0.17478268 -0.12925045 0.05754502 0.052286297
000380 7d bf e6 3b 7f c7 2c be 23 74 07 3d 4a 55 67 3b
       0.00704187 -0.16872977 0.03306974 0.003529864
000390 be c7 c7 bc 80 46 84 3e 5a 47 da bd 7a 5e 20 3c
       -0.024387237 0.25835037 -0.106581405 0.00978815
0003a0 7d bb 24 bd 10 ac 33 3d 06 34 16 be 8f 42 62 3d
       -0.040217865 0.043865263 -0.14668283 0.055239256
0003b0 74 47 f1 bb 5a c6 1b be 9b 75 99 3d 77 be e9 bd
       -0.007363254 -0.15212384 0.074931346 -0.114132814
0003c0 02 72 bf bd 79 f6 e8 bd 94 d7 1c 3e 03 a8 c1 bc
       -0.09347917 -0.11375136 0.15316612 -0.023639685
0003d0 24 af 2a be 0f 81 e5 3d 7c 54 4b bd 6c 38 81 bd
       -0.16668373 0.112062566 -0.049641117 -0.0630959
0003e0 7f 09 bb 3d b1 7c d1 bd 8a 76 ec bd 72 12 a0 3c
       0.091326706 -0.10228861 -0.11546047 0.019540045
0003f0 5b 9b 43 bc c2 16 16 be f6 c7 ad 3d 4c 1c e3 3d
       -0.011938895 -0.14657119 0.08485405 0.110893816

layer_2.bias f4 [34]
000000 1f 32 69 bd 30 26 f4 3d 93 3a b8 bd 1d b4 37 be
       -0.056932565 0.11921346 -0.08995547 -0.17939802
000010 3a 32 91 3e 3e b5 15 be 52 91 66 ba 53 45 14 be
       0.28358632 -0.1461992 -0.0008795458 -0.1447957
000020 f0 0a 3a be 10 d7 23 3c e0 9e 74 be 43 88 f6 bd
       -0.18168235 0.010000005 -0.23888731 -0.120377086
000030 11 87 ce 3d f4 b1 c9 bd b0 c0 01 3f bb c6 2f 3b
       0.100843556 -0.09848395 0.5068464 0.0026821333
000040 f2 80 32 be d2 b7 5f 3c af 7e 54 3d b0 43 a1 bd
       -0.17432001 0.013654666 0.051878627 -0.078742385
000050 63 0d 06 be 58 78 9a 3d c8 a6 39 bd 01 79 1c 3e
       -0.13091044 0.07542485 -0.04532507 0.15280534
000060 b2 e3 c6 3e 7a 6f f5 3e 94 9e be 3e 63 6a c0 3d
       0.38845593 0.47936612 0.3723036 0.09395292
000070 5e 42 18 3f dd bd 3b 3d 72 86 02 3f 96 6c 3a be
       0.5947627 0.045835365 0.509864 -0.18205485
000080 bc e3 41 bd 12 c3 1e be
       -0.047336325 -0.15504101

layer_3.weight f4 [15, 34]
000000 90 a5 2e 3c 2a 05 45 be 32 1e 0f 3e 2a b7 4b bd
       0.01065959 -0.19240251 0.13976362 -0.049735226
000010 29 28 0e bf ca de 8b bd 0b ed 07 bf 49 c7 cd 3d
       -0.5553003 -0.06829603 -0.53096074 0.10047776
000020 69 75 b8 bd 52 0e 80 bb d6 8a 3c 3e 45 4f fa 3d
       -0.09006769 -0.003907957 0.18412337 0.12222151
000030 82 81 05 bf 63 50 2d be d2 7c 8a be 7f dc df bd
       -0.5215074 -0.16925196 -0.27048355 -0.10930728
000040 f9 c8 0e bc cb bb 57 be cc ef 19 bf 7d 87 65 b9
       -0.008714908 -0.21067731 -0.60131526 -0.00021889615
000050 64 2e 9e bd 73 93 e7 3e 27 19 41 be 9c 53 1c bf
       -0.07723692 0.45229682 -0.18857251 -0.6106508
000060 73 69 0b bf c8 91 01 bf 3b f5 74 be ad 07 87 bd
       -0.5445778 -0.5061307 -0.23921673 -0.06593261
000070 15 b9 d9 3e 28 3b 01 3d 7f 4d 01 bf e3 f0 ad bd
       0.4252402 0.031550556 -0.50508875 -0.08493211
000080 aa 01 25 3e 78 61 34 be 5f 22 cb bd 56 79 60 3d
       0.16113916 -0.17615306 -0.09918665 0.054803215
000090 a4 c5 10 bd f0 44 3a 3c 0e 81 d8 bd 81 27 a0 bd
       -0.035344735 0.011368975 -0.1057149 -0.07820035
0000a0 00 9e 4e 3d 5f 05 75 bd 11 75 6a 3d 15 18 56 3d
       0.05044365 -0.059819575 0.05724055 0.05226906
0000b0 64 1a 33 be 79 f3 17 3d a0 2b 9f bd 47 0b 69 3c
       -0.17490536 0.037097428 -0.07771993 0.01422388
0000c0 6a 5c c2 3d eb b8 73 bd 85 2f 01 be 86 af 71 be
       0.09490283 -0.059502523 -0.12615784 -0.23602113
0000d0 63 2b 0c be ce 8c ee 3d 55 0c f2 bc d8 37 61 be
       -0.13688426 0.1164795 -0.029546896 -0.21993959
0000e0 f3 78 01 be 1e 0c a6 3d d4 b1 21 be ea f9 d0 3c
       -0.12643795 0.0810778 -0.15790492 0.025509793
0000f0 ba c8 21 3e 03 7b 88 bc 40 43 5c ba a6 b4 0a 3d
       0.15799227 -0.016660219 -0.0008402355 0.033863686
000100 44 d7 9b bb a3 80 96 3d d6 60 a4 bb 33 95 8a bd
       -0.0047558863 0.07348754 -0.0050164266 -0.06766739
000110 9d cc 81 3c 79 21 41 3e 6f 00 cb 3b 94 63 0e be
       0.015844638 0.18860425 0.00619512 -0.13905174
000120 2a d7 c1 be 97 37 35 bd 64 4b c0 be ad 61 84 bd
       -0.3785947 -0.044242468 -0.37557518 -0.06463943
000130 26 96 f5 bd 95 19 05 be d7 97 7f bc 28 f6 ae 3d
       -0.11991529 -0.1299804 -0.015600166 0.08543044
000140 15 dc 5d be 3c b1 0b 3d ba 6d f7 be 17 d4 7d 3c
       -0.21665986 0.03410457 -0.48325902 0.015492461
000150 2d 17 be 3d d8 89 a1 bd fb 9a 8a be 42 ba e1 bd
       0.09281764 -0.0788762 -0.27071366 -0.11021854
000160 a8 49 d8 3d 4a dc c3 be f7 45 04 3c 16 fb 05 be
       0.10560924 -0.38254005 0.008073322 -0.13084063
000170 e5 4c 0d bf 80 21 d8 be 86 7e ca be a7 b7 8b be
       -0.55195457 -0.42213058 -0.39549655 -0.27288553
000180 f5 6b 8b be f4 a9 63 be 7a 96 0a bf 8d 24 49 3d
       -0.27230802 -0.222328 -0.5413586 0.049107123
000190 80 95 2b 3e 55 b5 c8 3d 10 fd db bd f8 4b 48 3e
       0.16756248 0.09800211 -0.10741627 0.1956023
0001a0 c9 e6 cc 3d 92 5c 86 bb 4a 6c f3 bd 8f 04 01 3e
       0.10004956 -0.0041003907 -0.11885889 0.12599395
0001b0 6f fb 4a be b1 f8 08 be d7 7a 84 bb c5 c1 c1 bd
       -0.19822477 -0.13376118 -0.004042964 -0.09460787
0001c0 92 19 7e bd 8d e0 75 bc e3 39 c6 bc e7 97 be 3d
       -0.062036105 -0.01500715 -0.024197524 0.09306317
0001d0 b9 c0 b2 be e5 fd 80 3d 8e 34 61 3e 4c 94 ab 3d
       -0.3491266 0.062984265 0.21992704 0.08377895
0001e0 83 66 4b be 13 13 ab be 5a ce a0 bd 54 6c c0 3d
       -0.19863324 -0.3341299 -0.078518584 0.09395662
0001f0 05 d5 2e 3d 68 80 4f be 1e 4b e6 bd 89 2d 98 be
       0.04268362 -0.20263827 -0.11244796 -0.2972224
000200 9f b5 33 be ce f8 87 3d 32 c2 93 bd 2c 01 23 3d
       -0.17549752 0.066392526 -0.07214774 0.03979604
000210 26 01 c8 be 92 69 d2 3d 90 a9 8d 3b b9 da 78 3d
       -0.39063376 0.10274042 0.004323192 0.060755465
000220 29 92 84 3c 51 f0 4b 3c aa 45 51 3d 2c a1 f0 bc
       0.016182976 0.012447433 0.051091827 -0.029373728
000230 a1 f8 92 be a2 c4 21 be f3 3f a6 bd 8f a8 df 3c
       -0.28705314 -0.15797666 -0.08117666 0.027302055
000240 31 84 fa 3d 70 72 5d 3e 11 00 09 bc 17 fd 13 3e
       0.12232245 0.21625686 -0.008361832 0.14452015
000250 a0 69 55 be a9 dd 06 3d df 00 dc be 2b a5 59 bd
       -0.20841074 0.032926235 -0.42969415 -0.053136032
000260 f9 cf 22 3e 39 0d 08 be 4d 60 0f bf be 99 c4 3d
       0.15899648 -0.13286294 -0.5600632 0.095996365
000270 5e 82 24 bc 61 68 fe be e6 c0 2d 3c 6d 0f 1c bf
       -0.010040848 -0.4968901 0.010605073 -0.6096104
000280 d5 b5 19 bf 06 62 bd be af 59 16 bf 2b e8 01 be
       -0.6004308 -0.36988848 -0.58730596 -0.12686221
000290 e1 1e d9 be ca f0 66 3e d6 fd 15 bf dc 9b 41 3d
       -0.4240637 0.22552791 -0.5859045 0.04726778
0002a0 16 b7 c6 3c f1 2e e0 3d 5a 56 1b 3e ac d3 df bd
       0.024257224 0.10946453 0.1516966 -0.10929045
0002b0 50 94 0b be 5b a6 fe 3d ee ed c3 3d f4 bb c0 3d
       -0.13630795 0.124340735 0.09566866 0.09410849
0002c0 08 75 c8 3c 1e f9 d0 3d dd 2f a8 bc c1 d7 d3 3d
       0.024469867 0.10203765 -0.020530635 0.10343886
0002d0 67 b9 4c bd d3 fb 22 3e 92 45 c4 3a 40 95 ec 3d
       -0.0499815 0.15916376 0.0014974347 0.11551905
0002e0 c6 4c 09 3e ce ae 23 3e c8 65 93 bd a6 7b 67 bd
       0.13408193 0.15984651 -0.071971476 -0.056514405
0002f0 9e ce 30 3c 3c f1 ad 3d e1 c9 30 3d 8f 36 5c bd
       0.010791449 0.084932774 0.043161277 -0.05376297
000300 89 d7 b2 3d dd 3d 1d 3e 61 87 97 3d 38 ca be 3d
       0.08732516 0.1535563 0.07398868 0.09315914
000310 a8 2d 26 3e d5 30 d5 bd 38 d6 a1 be 81 e2 05 be
       0.16228354 -0.104097046 -0.31608748 -0.13074686
000320 91 9c f5 3d a0 be ee bd 43 70 92 bd 3d 63 fc bc
       0.11992753 -0.116574526 -0.071503185 -0.03080904
000330 17 4b a5 bd 56 c1 34 be 62 d4 03 bd c4 a8 dc 3d
       -0.08070963 -0.17651877 -0.032184966 0.10774377
000340 eb 4c 9d 3e 27 c2 c8 bd 71 90 24 3d 6a a4 2e be
       0.30722746 -0.098026566 0.040176813 -0.17054906
000350 76 18 24 3d 16 e7 bf bc 5e 67 73 bd 0d cc 39 be
       0.04006239 -0.02342562 -0.05942475 -0.18144245
000360 a6 ad 05 bd 9d 84 cb bd 08 2d c0 3e 2c 4b 22 be
       -0.032636307 -0.09937403 0.37534356 -0.15848988
000370 8f a5 a2 bd f7 5e 65 be 30 11 19 3e 5a f3 c4 3c
       -0.07941734 -0.22399507 0.14947963 0.02404182
000380 ec 1c 14 3e 05 c8 eb 3e ca 64 15 be 02 9e d8 3e
       0.14464158 0.4605104 -0.14589229 0.4230805
000390 e5 62 99 3e a0 42 c5 3e 68 e1 c5 3e 17 87 72 3d
       0.29958263 0.38527393 0.38648534 0.059210863
0003a0 08 a7 fa 3e 1c 04 ed bd cc 35 7a 3e dd d8 23 3d
       0.4895556 -0.115730494 0.24434584 0.04000174
0003b0 c5 04 cd 3c 93 47 dc bd df bd 3c be ae 39 0a be
       0.025026688 -0.10755839 -0.18431805 -0.13498566
0003c0 db ab 85 3d e2 05 18 bc ea 57 32 be e9 11 a7 bd
       0.065269195 -0.009278746 -0.17416349 -0.08157713
0003d0 79 f1 8f bd 50 ba 3a bd 54 f7 02 bd a1 81 9b 3e
       -0.07028479 -0.045587838 -0.03197415 0.30372337
0003e0 2e b6 04 3d 9f 26 25 3d e3 5c 98 bc ec 82 b9 bd
       0.032400303 0.040320035 -0.01859898 -0.090581745
0003f0 3e 06 64 bd 89 16 16 be 4e 73 70 3d 14 0d f0 bd
       -0.055670016 -0.14657034 0.058703713 -0.117212445

layer_3.bias f4 [15]
000000 4d 5e 04 bf 2d 21 28 3e 85 fa dc be 4b b9 31 be
       -0.5170639 0.16418906 -0.4315988 -0.1735584
000010 62 29 9f be bc 99 45 be 31 ec 54 3e 07 ed 87 bd
       -0.3108626 -0.19296926 0.20793225 -0.06637006
000020 79 d3 96 3d ed 92 65 be a7 61 e2 be 92 96 d7 bd
       0.07364554 -0.22419329 -0.44215128 -0.10526766
000030 f8 cd bc 3d 25 90 a7 3e 14 9f 97 bd
       0.09218973 0.3272716 -0.074033886
