mean_model.pt (torch, 21583 bytes, 8 tensors)

layer_1.weight f4 [33, 30]
00000000: f7e8 bb3c 99a9 923d 6c23 2d3e ddb8 663c
00000010: 0f98 bf3d df0e f13d 2feb 1cbd cc39 663c
00000020: 1e6d a1bb 5ef6 aabd ac8d 0bbe 2dd6 233e
00000030: f560 3a3e 4809 8f3d 60c3 863d 66fd 813d
00000040: 95e1 d0bd e274 433d fff4 a03d aab2 31be
00000050: 3bef d4bd 937f d43d b2de bf3c 5448 3c3e
00000060: 3c62 00be 9f39 aabd 210a 67bc 1ed2 16be
00000070: b37e bd3d a7d4 863d ae22 34bd 74c3 14be
00000080: 4141 2b3e d3b6 39be 0122 0c3e 8963 e1bd
00000090: 1ae9 17bd 812b ffba c27d e1bd 1eb3 29be
000000a0: 15ee cabd 8db1 e43d bbe6 1dbe c6f3 d63b
000000b0: 6b62 9b3d a6b9 98bc 2a5f fabc 0688 353e
000000c0: 00d0 d63d fff5 15be 7ab2 5dbd ae51 6bbd
000000d0: 309e fe3d 255a 893d 11fb c2bd e601 943d
000000e0: 19ac b13b 1b9c ae3c 4fc6 8e3d 1e67 b5bd
000000f0: ed6b a33d e8f5 a53d fc22 bcbc 2a91 ab3d
00000100: 1a39 a23b e896 853d eedf 443d 0da5 283d
00000110: 0e82 7cbd 3809 9c3d 432b d9bd 89b5 18be
00000120: 7376 953c 949a 0ebe f965 35be 4252 fabd
00000130: ca61 4c3e 985e 173d 42c0 1ebe d8b6 b93d
00000140: 4301 4cbe 495d cc3d 7f2d 523c 3e8c 953d
00000150: 8a76 a6bd 2fb2 2abe 9b12 52bd 65f6 393c
00000160: 682c 2e3e 24b3 613d 6cb7 5c3b af9f fdbc
00000170: 2534 993d 909b ca3d 902e a2bd 96b3 e6bd
00000180: 81fd a9bd ef8e 1e3e d42b 253e 952c 9c3d
00000190: 6106 dbbd cdc0 0abd cece f6bd 419a 893d
000001a0: 79a9 b13c 06e9 bdbd 2a68 9dbb 4b84 63bd
000001b0: 14c0 3a3d fb93 90bd 5f7e 0ebd 6a11 48bd
000001c0: 6ff4 2dbe 149e 253e 7610 d3bd 1e16 7a3d
000001d0: 2c13 18be 6ba6 5c3d de8a f0bd fe08 323e
000001e0: 272e 93bd ee4a 98bd e966 cfbd 0492 8f3d
000001f0: 7ade 9ebc f4e0 303e 0b6d e3bd abc1 2fbe
00000200: b84f 953d c03b 0ebd ee93 a43d 7acd 86bd
00000210: 202d 2b3c e9fb e3bc 0db4 f1bd 1ef0 063e
00000220: d7ac 083d f7c3 27be 468c a33c ee09 05bd
00000230: 16cf 0c3e 3114 0f3e 9753 9c3d 468f d33d
00000240: f67e 40be 5d73 d1bd c28d dfbd 55ab 8b3d
00000250: 9a0f 893d 72c3 d1bd 95f8 243e bb45 85bd
00000260: 7658 35be f0d0 2fbe 48a4 dfbc 92e5 40bb
00000270: d329 17be 43a2 3f3e 8c5f 273e 9b29 9bbd
00000280: 373a 17be 68b2 3b3d b896 eabd 0d39 4dbe
00000290: cdaa b7bc 8579 ff3d 4338 f0bc 6c33 ce3d
000002a0: 635e af3d 6071 c73d df3d cd3d 9828 f83d
000002b0: bde2 0b3d 0c9c c6bd b194 ea3d e5fe 583d
000002c0: 6369 fbbc 72dc 15be 14fb 213e 57e6 d43d
000002d0: e2cc f3bd 8233 8abc 898e fdbd b133 4abd
000002e0: dc67 cabb 348d b2bd a87c 053e 8b3a 3a3e
000002f0: 3e0e b4bd 3dda 873d cd3e bbbd 8913 ecbd
00000300: 330e 303e 03eb 1abc bc48 053e d122 fb3d
00000310: 669a 41bd faa6 ecbd 472a 8dbd 3b3e a4bd
00000320: 05e6 163e 2e42 a4bb 1891 5d3d 75ca 8c3d
00000330: 8623 1ebe 46b6 cc3d 7e8a 36be 231e 163e
00000340: 39a0 eebc 3924 2e3e 2790 00be 6b1b bbbd
00000350: 7ac8 853d 01e8 293d 92dd 003d 1e19 0d3c
00000360: eb91 94bc 70e5 24be 261e f3bd 8aa0 763d
00000370: e7ef 683d 7e6a 1dbe 9a9d 95bd 5cb6 e93d
00000380: 6624 debd 9814 cdbd 0aac 08be 0ecf 06be
00000390: 5c50 acbd e51c a7bd ab61 dbbd aff6 b0bd
000003a0: b1a8 3c3e 4daf 02be 4e24 9a3d 1aea 7c3d
000003b0: 522e 12bd 2276 0dbe 740e f63d cef0 18be
000003c0: c9b2 023e 4c28 4b3d 8be0 cabd 4f70 1a3e
000003d0: 08d9 8c3d c961 043d 5f12 1abe 18a4 203e
000003e0: 992d 26be 9ff2 063e 5314 33bd 0ecb c7bd
000003f0: 5676 fe3d 067e 143c 4ac5 44be 5048 22be
0.022938235 0.071612544 0.16908044 0.014082161 0.09355175 0.117704146 -0.038310226 0.014051866
-0.004926338 -0.08347772 -0.13628262 0.1599967 0.18201049 0.06984192 0.065802336 0.0634716
-0.10199276 0.04771889 0.07859229 -0.17353311 -0.10397192 0.10375895 0.02342162 0.18386966
-0.12537473 -0.083117716 -0.014101536 -0.14728591 0.092526816 0.06583529 -0.043978386 -0.14527684
0.16724111 -0.18136148 0.13684846 -0.11005313 -0.037087537 -0.0019467921 -0.110103145 -0.16572234
-0.09908692 0.111666776 -0.15420048 0.006559822 0.07587131 -0.018643212 -0.030562956 0.1772767
0.104888916 -0.14644621 -0.054125287 -0.057450943 0.124325156 0.06706647 -0.09520543 0.072269246
0.005422127 0.021314671 0.06971418 -0.08857559 0.079795696 0.081035435 -0.0229659 0.08377297
0.0049506547 0.06522924 0.04806512 0.04117303 -0.061647467 0.07618946 -0.10603955 -0.14913
0.018244958 -0.13926154 -0.1771468 -0.12222721 0.19959179 0.036955446 -0.15503028 0.09068078
-0.19922356 0.0997873 0.01282823 0.0730214 -0.08128078 -0.16669534 -0.051287275 0.011350249
0.17009127 0.055102482 0.0033678664 -0.030959932 0.07480649 0.098929524 -0.07919037 -0.11264722
-0.08300305 0.15484212 0.1613 0.07625691 -0.10694576 -0.033875275 -0.120511636 0.06718875
0.021687256 -0.09272961 -0.004803677 -0.055546086 0.045593336 -0.07059475 -0.034788486 -0.048844732
-0.16987775 0.16173583 -0.10305874 0.06105625 -0.14851063 0.053869646 -0.11745237 0.17386243
-0.07186537 -0.07436167 -0.101270504 0.07010272 -0.019393194 0.17273313 -0.11104783 -0.17163722
0.07290596 -0.03472495 0.08036028 -0.0658216 0.01044777 -0.027830081 -0.1180192 0.13177535
0.033367958 -0.16383348 0.019964349 -0.032480173 0.13750872 0.13972546 0.07633131 0.103300616
-0.18798432 -0.10227082 -0.1091571 0.06819788 0.06692429 -0.10242356 0.16110452 -0.06507441
-0.17709526 -0.17169547 -0.027300015 -0.002943371 -0.14762048 0.18714242 0.16345042 -0.07576295
-0.14768301 0.04582444 -0.114545286 -0.20041294 -0.022420311 0.1247435 -0.029323703 0.10068402
0.08562925 0.097384214 0.100215666 0.12117118 0.03415178 -0.09697732 0.11454142 0.05297746
-0.0306899 -0.14634874 0.15818435 0.10395496 -0.11904313 -0.016870264 -0.12380702 -0.049365703
-0.006176932 -0.087183386 0.13035834 0.18186395 -0.08791779 0.066334225 -0.09142838 -0.115271635
0.17192917 -0.009455445 0.13016027 0.122625 -0.047266386 -0.11555286 -0.068928294 -0.08019682
0.14736183 -0.005012772 0.05409345 0.06874553 -0.15443239 0.099957034 -0.17826268 0.14659934
-0.029129134 0.17006005 -0.1255499 -0.09136089 0.065323785 0.04148102 0.031461306 0.008611945
-0.018135985 -0.16103148 -0.11870985 0.060211696 0.056869414 -0.15372655 -0.07305451 0.114117354
-0.10846786 -0.100136936 -0.13346878 -0.13164923 -0.08413765 -0.08159808 -0.10711988 -0.08640801
0.18423726 -0.12762184 0.07526456 0.061746694 -0.035688706 -0.13814595 0.120144755 -0.1493561
0.12763514 0.049598977 -0.099061094 0.15081905 0.06877333 0.032319818 -0.1504607 0.15687597
-0.16228332 0.1317849 -0.043720555 -0.097555265 0.124249145 0.009063249 -0.19215885 -0.15847898

layer_1.bias f4 [33]
00000000: 8cbc 523d eb45 06be f954 97ba a299 40bc
00000010: 18ef 17be 804c d33d 9800 d9bd b84b 183e
00000020: 79d8 1a3e 8693 8a3d fea7 e9bd 36ec 9f3d
00000030: f2a5 193e 74d1 fd3c aae5 efbd 70b7 203e
00000040: 7bae b53c 090f 0bbe 384f 35bc 28a4 f5bd
00000050: 6c18 f3bd fb08 cfbc 7409 173e 8e85 1a3e
00000060: 594c b83c 348b 12be fce0 903c 9616 253e
00000070: e622 103e 7f6c 17be f373 34be 9c5b 493d
00000080: a00a 53ba
0.051449344 -0.13112609 -0.001154571 -0.011755379 -0.14837301 0.103173256 -0.105958164 0.14872634
0.1512164 0.06766419 -0.11408995 0.078087255 0.1500471 0.030983664 -0.11713727 0.15694976
0.022177925 -0.13579954 -0.0110662505 -0.11994201 -0.118698925 -0.025272837 0.147497 0.1509001
0.022497343 -0.14310914 0.017685406 0.16121897 0.14075813 -0.14787482 -0.17622356 0.04915963
-0.00080505945

layer_2.weight f4 [34, 33]
00000000: 6ac2 debc 0169 de3d 7b5c 9a3c bc16 c5bd
00000010: 052f 8f3d be60 013d dd3c e13d e478 f6bc
00000020: d7f0 b73d 420d 333e b3d9 293e 460a 33bd
00000030: f389 dcbd 6c63 99bd 78a8 16be 40df 90bd
00000040: 27a4 823d 47ba a13d c2ed 553d 6b6c 943d
00000050: 3d49 52bd a781 303e cb12 edbd 4eca 26be
00000060: 9909 2fbd fd44 89bd 7272 c83d d5f0 283e
00000070: bfb8 a7bd 93f7 8e3d 4ee4 153d 8db6 023e
00000080: 6140 26bd 5356 28be f036 833b 34a3 1e3e
00000090: a9c4 183e 5ce0 50bd 74e4 e4bd 0e52 b93d
000000a0: 8ab9 253e f1dd c03d 0228 bcbd a2bc 01bd
000000b0: 6ef8 8cbd 3e40 aa3d b515 03be fb3b f1bd
000000c0: cabb b53d bb9e cbbc 9e72 24bd 5287 a1bd
000000d0: c59b 15bd 8339 d23d 2b8b 313b 5db9 12be
000000e0: a906 04bd f3a7 453e 6776 19be 2cb7 e9bd
000000f0: 36da 0cbc d983 50bd 5326 b7bc 52f4 fabd
00000100: f96d 22be 827e 58bc a706 84bc 776c c13d
00000110: cbe5 b3bd 5e8a a2bd 96ef b63d 18ee 6fbd
00000120: 6c1e 4cbd e466 40be e643 2e3e 698e a73c
00000130: 86f3 113e 34b9 393c 2d7b 3fbb 132a 09be
00000140: f35f 943c 11a5 6dbd 4435 0bbe a380 f4bd
00000150: 4e40 903d 49d6 f3bd 8a8b 123e 0e7b 2dbd
00000160: 8b70 1f3d aa65 583d c8a4 d5bd 38c3 b6bc
00000170: d759 823d 90f4 75bd 8bdd 523d 9c17 bcbd
00000180: fe6b 40bc 8053 fabd f7ff 0abe 2ef2 acbc
00000190: fef2 03be 2aed 063e 5a47 ba3d 109e b43b
000001a0: d944 18bd 2655 9bbd 5ef9 2ebe 7f0e b53d
000001b0: 69ca 953b cdf4 7e3d d2bb f7bc 1a04 0a3c
000001c0: f614 273d f5e5 213e 7786 b1bd e0f3 8bbc
000001d0: 1fc2 d43d 4e9f 1a3e 5abd 53bd 96a7 983d
000001e0: aadd 013d c236 aa3d 70fd 97bc b0e2 44bd
000001f0: 5b69 a73d e982 f8bc 7544 e93d 9a83 eabd
00000200: bb5c 3a3c 33b1 25bd ef8c 3dbc f764 b13d
00000210: 42d5 083e 24a6 613d 2493 7ebd e5a0 96ba
00000220: d95b 263e e5f9 0b3e 6c51 bfbc fbb5 21be
00000230: 48be 48bd c196 343d 731e 18be c717 983d
00000240: 5d31 32be 2f17 a13c c2c0 143e dc0f debd
00000250: e612 01bd 3979 513d 39f6 9ebd 53d5 e2bd
00000260: 20e8 0abe 282c 6f3c 2826 c7bd bbe8 f13d
00000270: 3ac5 273e 0321 8ebb a705 09bd e1fd 253d
00000280: eaed 16be ca32 1b3e 4412 053e 5568 25be
00000290: daa1 c3bd 8c4d e63d 2e68 963c 5b87 b4bd
000002a0: b606 8f3d f1dc 10be 2b5a b73d 15f9 023e
000002b0: 32da d9bd 4ca7 60bd 4478 a83d c802 8f3d
000002c0: e819 2fbe cb69 293e dd0a b1ba 29eb 69bd
000002d0: 9862 6c3d e71c 14be fafd 19bd fa69 d5bd
000002e0: 5165 6abb 1562 25bd 815a 2d3e d941 6a3c
000002f0: 0feb e73d 5965 01be 368f 3b3d 866e b13c
00000300: 3384 c8bd bfaf 5c3d 5e3f 6cbd 89cc 863d
00000310: b01f dfbc 62e0 debc 479e 7fbd e7d2 3dbe
00000320: e443 3f3d 71ab 103e e530 79bd dd6e 24be
00000330: a59c d33c a9d1 da3c 94a1 0cbe 2d07 98bd
00000340: b548 fdbc c366 cf3c 56d5 043d 91df 213c
00000350: 7dfa ed3d efd8 34be 5eec 8ebd dc3d 9e3d
00000360: 0bdf 653d 1d5c f7bc 5ca7 823c 2f11 41bd
00000370: 5f66 033e 466f d83d 94af 853d 0b80 98bd
00000380: c937 e6bd e8c0 c4bd efe0 90bc 735b da3d
00000390: 5bff ec3d 9ed0 803d 4752 d4bc 1734 46bc
000003a0: 41d8 b83d 6f12 f73d 930e 3ebd 75c3 1fbc
000003b0: 6250 d83d 865a e33d e681 4cbd 4f6d f93d
000003c0: 6e3c 87bd 1307 c7bd 7143 023e 338a 063e
000003d0: 7fbf 053e 186c 9abd 9595 b53c c5be 013e
000003e0: 0aaf 5a3d 59e6 3b3d 00b2 e8bd a2f3 933d
000003f0: cb61 ca3d 0ba4 d93c 11f1 95bd efe9 22be
-0.027192313 0.10859872 0.018842926 -0.09623477 0.0699139 0.0315864 0.10997937 -0.030086942
0.089814834 0.17485526 0.16586952 -0.04371097 -0.10768499 -0.07489666 -0.14712703 -0.070738316
0.06378966 0.07896858 0.052228697 0.072472416 -0.051339377 0.17236958 -0.1157585 -0.1628811
-0.042733762 -0.067026116 0.09787454 0.1649812 -0.081895344 0.06980815 0.03659468 0.1276495
-0.04058874 -0.1643918 0.004004352 0.15491945 0.1491877 -0.050995216 -0.111763865 0.09048854
0.16184059 0.09417332 -0.091873184 -0.031674035 -0.06883322 0.083130345 -0.1280125 -0.117790185
0.088737085 -0.024855962 -0.04014837 -0.078871384 -0.036525507 0.10264876 0.0027091007 -0.14328523
-0.032232914 0.19302349 -0.14986573 -0.114118904 -0.008596947 -0.05090699 -0.022357142 -0.12253632
-0.15862264 -0.013213756 -0.016116453 0.09444516 -0.08784064 -0.07936548 0.08932416 -0.058576673
-0.0498337 -0.1878925 0.17018089 0.020453649 0.14253053 0.01133566 -0.0029217706 -0.13394956
0.018112158 -0.058018748 -0.13594538 -0.11938598 0.07043515 -0.11906106 0.14311042 -0.042353682
0.03892569 0.05283133 -0.1043182 -0.022309884 0.06364792 -0.060047686 0.05148081 -0.09184191
-0.011744497 -0.122229576 -0.13574205 -0.021111574 -0.12885663 0.13176408 0.090956405 0.0055120066
-0.037175033 -0.075846 -0.17087314 0.088406555 0.0045712483 0.06224518 -0.030240927 0.008423829
0.040791474 0.15810378 -0.08668225 -0.017084062 0.10388588 0.15099832 -0.05169425 0.074538395
0.031705536 0.083112255 -0.018553466 -0.04806775 0.08174392 -0.03033586 0.1139001 -0.11450882
0.011374648 -0.040452193 -0.011569246 0.08661836 0.13362601 0.055090085 -0.062152043 -0.0011492042
0.16245975 0.13669546 -0.023354255 -0.15792076 -0.04900959 0.044089083 -0.14855365 0.0742641
-0.17401643 0.019664375 0.14526656 -0.10842869 -0.031512164 0.051140998 -0.07761807 -0.110758446
-0.13565111 0.01459793 -0.097240746 0.11811968 0.1638383 -0.0043374314 -0.033452656 0.04052532
-0.14739195 0.15156093 0.12995249 -0.16153081 -0.09552355 0.1124526 0.018360224 -0.088148795
0.06983702 -0.14146782 0.08952745 0.1279033 -0.106373206 -0.054847047 0.08226064 0.06982952
-0.17099726 0.16544263 -0.0013507266 -0.05710903 0.057711214 -0.1446415 -0.037595727 -0.10420604
-0.0035765956 -0.04037674 0.16929056 0.014297926 0.11324131 -0.12636317 0.045790873 0.021659147
-0.0979084 0.053878542 -0.05767762 0.06581981 -0.02723679 -0.027206603 -0.062406804 -0.18537484
0.046695605 0.141279 -0.060837645 -0.16057916 0.02583153 0.026711302 -0.13733512 -0.07423244
-0.030918458 0.025317555 0.032430016 0.009879963 0.116200425 -0.17660879 -0.06978677 0.077266425
0.056120913 -0.03019529 0.015948944 -0.04713553 0.1283202 0.10568099 0.065276295 -0.07446297
-0.11241109 -0.096071064 -0.017685382 0.10661974 0.11572143 0.062897906 -0.02591814 -0.01209738
0.09025622 0.12064063 -0.046400618 -0.00975119 0.10562207 0.1110125 -0.04992857 0.12179052
-0.06603323 -0.09718146 0.1272104 0.13138656 0.13061331 -0.075401485 0.022166053 0.12670429
0.053389587 0.045873974 -0.11362076 0.07224204 0.09881934 0.02656748 -0.073213704 -0.15909551

layer_2.bias f4 [34]
00000000: 8778 113e ef2a b13d 946c 2b3c c103 253e
00000010: 897f bb3d 3975 ab3d 5933 b93d bc60 003e
00000020: 6ac4 493d 64da 053e 0864 283e 1bd5 d9bb
00000030: 0008 b6bd 3a40 82bd 496b f63d f95b 1a3d
00000040: b8e9 143e db7c 643d 91d9 1fbd 3c4f 0e3e
00000050: dbf3 a5bd ae41 463d eef7 9dbd 038f 8c3d
00000060: 285d 0fbd f2ed 1fbd b167 fe3d 1edf 49bd
00000070: ded4 eabd 3ffe 73bd b327 ab3d 2180 153d
00000080: bffe 963c 0785 243e
0.14206134 0.08650767 0.010462899 0.16114713 0.09155185 0.08371968 0.09042997 0.12536901
0.04925958 0.1307159 0.16444409 -0.0066477186 -0.08888245 -0.063599065 0.12032182 0.03768537
0.14542282 0.055783134 -0.039025847 0.13897413 -0.08103152 0.04840248 -0.077133045 0.06863215
-0.03500095 -0.03904528 0.12422121 -0.049285047 -0.114663824 -0.05956864 0.083571814 0.036499146
0.01843202 0.16066371

layer_3.weight f4 [36, 34]
00000000: 40ea 9ebc a3d0 72bc 3718 6fbd 6e48 013d
00000010: 5daf 043e 0379 163e 5967 fd3d d7f2 20bd
00000020: 2b23 c43d bdb5 50bd f9e1 d0bd a469 183e
00000030: b1fc 7cbd d684 09be c451 da3d c906 9eba
00000040: 2fd4 0e3e a430 673d 327a a6bd 00bd 16be
00000050: 7e78 1cbe 6828 9dbd 21cc 0e3e fb36 1e3e
00000060: c7ed 80bd 243a 3d3a 4e5c dc3c cff4 bd3c
00000070: 88ca a53d d28b 71bd e14a 87bd 6653 403e
00000080: 082f 3d3b 04dd 2dbc 757e 213d d02a 193d
00000090: 1ac4 b43d fad6 943c 7be3 d93a b6d7 92bd
000000a0: 4852 ca3d 9a9b 3cbd 7625 1abe 1285 663d
000000b0: 93e5 ff3d 163c 9f3d 051b 613d 2b36 16bd
000000c0: 278b 58bd 233b 2dbe 59db 053c 1297 38bd
000000d0: 9d4f c7bd 7061 0f3e d861 e73d bced 16be
000000e0: d9e9 9c3d 5acf 4b3d 4956 813d d1b0 18be
000000f0: cbd4 13bc 822c f93d c003 2ebe 58e1 963d
00000100: 4a9d 273e 8a39 c33d e0dc b6bd 0071 043e
00000110: 6a11 d73d 2869 0cbe 1662 fb3d 032e 933d
00000120: af80 923d 6e7a 103e e073 f0bd 7d6d 123d
00000130: e397 28be 0a45 673d 462f 273d f10a e93d
00000140: f3ff 823d 6243 debb 5797 633d 0974 dbbd
00000150: a466 35bc 23b4 0abd 7969 80bc 19d5 c83d
00000160: d072 12bd 2723 cebb b3e8 6fbd 88a0 043e
00000170: 8c25 60bd 620f d83d 4649 da3a 12ca 1cbe
00000180: 769c 183e 2321 533d 342b 073e e774 cebd
00000190: 9d5d 11be a763 b93d ebe3 25be 3be7 f6bd
000001a0: a53c 163d d092 fabd 7977 d9bc cc6d 15bd
000001b0: 77a9 4cbd 1d32 47bd f0ed a53d f4a6 33be
000001c0: 0f77 21be a0eb 033e ed1e 37be 9c7b 1d3e
000001d0: 3b66 9d3b 6473 2cbe 6004 803d d8cb ff3d
000001e0: e92c 263d 767e ccbc f7cb b5bd 769f 43be
000001f0: 349e 0b3e 496e 853d f411 e5bc 4e26 f03d
00000200: 8f7c ba3c a58d d63d 8729 903d 617a 85bd
00000210: 7b96 ed3d 6882 b9bc f3d1 e43d d952 073e
00000220: 3d3d 0cbe 2772 80bd f9f1 1fbc 1dbe 10bd
00000230: 1b3c a5bd bead 7abc e6eb 8dbd 9e1f 0ebe
00000240: 7c8f a73d dde0 40bd 16aa 20be a82c acbd
00000250: 8adc 3cbd 2bc7 92bb 814a eb3c aa12 c4bd
00000260: 41b9 fd3d 9827 a63b d88f 6e3d 8084 29be
00000270: a404 103e c604 1b3c a615 a63d 38ee df3d
00000280: 8e49 1abe a4e2 233d c843 6dbd 94ee 35bd
00000290: 1d06 07be 3349 963d e101 0cbe c6bd f23d
000002a0: 5016 1dbe ec04 7fbd da7c ee3d 5166 123d
000002b0: 68f1 233d 76b0 373d 1f49 fb3d 4c55 14bd
000002c0: 31c4 963d 9bee 10be e622 b23d 60ad 0cbe
000002d0: b9e6 2d3d 730a 8dbd b614 043e 86ab 04be
000002e0: 7a8d 233e e8e9 173e 0348 1c3e 1f17 f43d
000002f0: f0af 00be 9a97 edbc 81e9 1b3b b00e 823d
00000300: 3f2c 26bd 5abd 1dbe 1988 0f3c bf8a 11bd
00000310: 4f81 13bd 4f15 833d e091 5b3b afaa 923c
00000320: 7d3e 883c aa39 f43d 313a 273b 60f3 a03c
00000330: 58d8 d83c 8973 0dbe e86c 39be 188d 223d
00000340: 9ca8 5cbc 0a2a 1b3e aec2 b13d a594 8cbd
00000350: af3c 82bc f93b f8bd e056 d23d be2f 803d
00000360: d02c febd 51a7 54bd c771 aebd 2941 43bd
00000370: 802c 133e 245c 93bd 6499 373d 941c 253e
00000380: 9e33 8f3d baf8 e1bd be95 373d 3713 38bd
00000390: 2ec3 263e 1176 2b3e 8fd3 283e e984 cc3d
000003a0: c19a fc3d d60d ac3d e283 003e 54e0 10be
000003b0: 9b56 1f3e 4060 093e 6f98 953d a61c 06be
000003c0: 1525 e33d 19cf c83d 2eb2 71bc 3ace 2abc
000003d0: 6ff7 e7bc 2756 273d a42e d4bd e5fc 1b3e
000003e0: 2165 20be e895 db3d 62db bfbd 22b8 e43d
000003f0: a5c2 debd 924d ba3c c64f 86bd 316d a2bd
-0.019398808 -0.014820251 -0.058372702 0.031563215 0.12957521 0.146946 0.123732276 -0.03929409
0.0957702 -0.05095457 -0.10199351 0.14884049 -0.061764423 -0.13429579 0.10660127 -0.0012056465
0.13948129 0.05644287 -0.08128776 -0.14720535 -0.15280339 -0.076737225 0.13945056 0.15450661
-0.062953524 0.00072184415 0.026899483 0.023188023 0.080952704 -0.058971234 -0.06606079 0.18781814
0.0028867144 -0.010611776 0.03942724 0.037394345 0.08826466 0.018168915 0.0016623581 -0.0717005
0.09878975 -0.04604683 -0.15053353 0.05627925 0.1249496 0.07775132 0.05495741 -0.036672752
-0.05286708 -0.1691709 0.008169972 -0.045065947 -0.09731982 0.14002013 0.11297959 -0.14739126
0.076617904 0.049758293 0.06315286 -0.149112 -0.009022902 0.12166692 -0.16993618 0.073672
0.16368595 0.09532459 -0.08928847 0.12933731 0.10501368 -0.13711989 0.12274568 0.071865104
0.07153451 0.14109203 -0.117408514 0.035748947 -0.1646419 0.056462325 0.040816568 0.1137904
0.06396475 -0.006782935 0.05556425 -0.10715491 -0.011071835 -0.033863198 -0.015675293 0.0980627
-0.035754025 -0.0062908116 -0.05857153 0.12951863 -0.054723307 0.10549809 0.0016653917 -0.15311459
0.14903435 0.051545274 0.13200074 -0.10080891 -0.14195867 0.0905221 -0.16200225 -0.120558225
0.03667893 -0.122350335 -0.026546227 -0.036481664 -0.0499663 -0.048631776 0.081020236 -0.17544156
-0.15768073 0.12882853 -0.17882891 0.15379184 0.0048034466 -0.16840893 0.062508345 0.12490052
0.040570173 -0.024962645 -0.08876794 -0.19103798 0.13634568 0.06515176 -0.027962662 0.11726056
0.022764472 0.10476235 0.07039171 -0.065174825 0.116009675 -0.02264519 0.11172857 0.13215198
-0.13695236 -0.06271773 -0.009762281 -0.035337556 -0.08068105 -0.015300212 -0.0692976 -0.13879248
0.08181664 -0.047089446 -0.15689883 -0.08406955 -0.04610876 -0.004479309 0.02872205 -0.095738724
0.1238885 0.005070638 0.05824265 -0.16554451 0.1406427 0.009461587 0.08109598 0.109341085
-0.15067121 0.040011063 -0.05792597 -0.04441698 -0.13185926 0.073381804 -0.13672592 0.11852603
-0.15340543 -0.062260553 0.11644907 0.035742108 0.040025145 0.04484602 0.12269806 -0.036214158
0.07361639 -0.14153521 0.086980626 -0.13738012 0.042456362 -0.06886759 0.12898526 -0.12956056
0.15971938 0.14835322 0.15261845 0.119184725 -0.12567115 -0.029002953 0.0023790302 0.06350458
-0.04056954 -0.15404263 0.008760476 -0.03553271 -0.03601199 0.06400549 0.0033503696 0.017903654
0.01663136 0.11925061 0.0025516863 0.0196473 0.026470348 -0.13813604 -0.1810795 0.03968534
-0.013467934 0.15152755 0.0867971 -0.06864289 -0.015898077 -0.12120814 0.10270476 0.06259106
-0.12410891 -0.051917378 -0.08517795 -0.047669563 0.14372444 -0.07195309 0.04482402 0.16124183
0.06992267 -0.11033769 0.04482054 -0.0449402 0.16285393 0.16744258 0.16486953 0.09986288
0.123342045 0.084010765 0.1255031 -0.14148074 0.15560381 0.13415623 0.07304465 -0.13096866
0.11091057 0.09805126 -0.014751954 -0.010425145 -0.028316228 0.040853646 -0.103604585 0.1523319
-0.15663578 0.10721952 -0.09368016 0.11167933 -0.10876969 0.022742067 -0.06558184 -0.07930983

layer_3.bias f4 [36]
00000000: c925 133c 2345 aa3c cca5 603d 6292 273e
00000010: bb93 4e3c 8bb7 5abd 2e68 323e 7794 20be
00000020: 8ebc ca3d e2ee 133e d8d0 7cbd 6cd8 763d
00000030: 2573 09be b736 463a c2dc 0c3e ce5f c03d
00000040: 0292 11be cbc7 29be 7b97 11be 5754 173e
00000050: e6d6 70bd 22a1 adbc 6e21 113e a44d 853d
00000060: 51ca 8d3d dbc9 383e edcd 163e 36aa 9b3d
00000070: dab9 d93c b2c2 283e 07b4 f73d b571 c6bd
00000080: fa2f edbd 430b 1d3e 2239 f73d a49d 6dbd
0.008981177 0.02078492 0.054845616 0.16364434 0.012608464 -0.053397696 0.17422554 -0.15681635
0.09899245 0.14446595 -0.061722606 0.06026499 -0.1342283 0.0007561254 0.13756087 0.09393273
-0.14215854 -0.16580121 -0.14217941 0.14778267 -0.058798693 -0.021194998 0.14172909 0.065089494
0.069233544 0.18045752 0.14726992 0.076008245 0.026577879 0.1648052 0.12094884 -0.09689657
-0.115814164 0.15336327 0.12071444 -0.058011666

action.weight f4 [36, 36]
00000000: 6173 bbbd e277 ef3d c61c e3bd 6203 bdbd
00000010: 1001 173d 6346 f63d 397f d8bc 9034 f7bd
00000020: 6ef6 36bd e5b1 283e b0de 25be 3bf5 d0bd
00000030: 61d5 e83d 5525 e4ba e459 0a3e 5237 323d
00000040: eb02 16be aa6f 283e cad8 b93d b4b1 6d3d
00000050: 0071 883d 3b93 eb3d bc29 b0bc ccc6 fbbd
00000060: b420 2fbc 9161 173e 1bf9 01bb 0a63 5cbd
00000070: 1ada 573d c2d5 4a3d 4fa3 fcbd 16fb bc3d
00000080: 86ec 04be 0075 0dbe e834 08be 487f 493d
00000090: 84f6 363d 9b05 2a3e 9117 18be 099a 9fbd
000000a0: e071 20be 458c db3b 433b 1fbe 31d7 d9bd
000000b0: 82de 04bd 5e35 963d 87aa 013e 2c4f 123d
000000c0: f2ff 843d e417 03be 851a de3d 6b26 7cba
000000d0: a050 b0bd a6e6 033d 739a cb3c b25e d83d
000000e0: b849 8bbd 2e56 923d fc0a b9bd 8887 113e
000000f0: 1a38 683d 9eef febd d96a 2abd c207 a23d
00000100: 8cdd cd3c 16ca 7dbd f801 b8bd 2b67 be3b
00000110: 3d16 033e 6cd0 d43d 087a b8bd 89e4 23bd
00000120: 5b55 213e 96df a5bd 34bb 4ebd bf46 f73d
00000130: afad 163e d22a a5bd b5b3 01bc 3c10 1a3b
00000140: e0df 693d 6cdb 2fbd 4016 e13c c405 2f3d
00000150: 78cc 0c3e c68e 2c3e faab 1c3e 577b 273e
00000160: 3b9c ae3d 8690 1abd fac4 0b3e c91c 0e3e
00000170: 209e c13c 282c 003e be3b 873d 6b69 103e
00000180: 1756 76bd e37b e43d 6ff1 9abd 97cd 303e
00000190: 19ad 07be 7f83 823d 704d d6bd c061 db3d
000001a0: 0a83 f5bd 6b45 1d3d 581e 033e 1293 563d
000001b0: e4b7 d5bd b075 c4bd 73bc b5bc 1bfe 3ebd
000001c0: 705c 13bd 1db7 abbd 15ed 28be 9dce da3d
000001d0: 6471 f4bd 06ff e6bc 1330 ffbd 21f5 29be
000001e0: 6c39 66bd 1011 05bd 2d86 e63d 73df d3bd
000001f0: d08f e23d 6ba2 3cbd 8371 abbd c0ce c4bd
00000200: 26dc 4abd 5eca 1abe 0204 ed3b 586d 91bd
00000210: 4cf7 613d 8cdf 12be aabf 8b3d 951c 22be
00000220: c3a4 cabd 05b0 ef3b abd0 833d b8a3 bfbd
00000230: b6e2 14bc 4ac4 ec3d 1f26 5abd 07f8 47bc
00000240: 76e9 f63d f1b8 29bb d132 6a3c 6c00 163e
00000250: 6c62 20be ae7b 1b3e c98a 6f3d abd3 0abd
00000260: eb89 50bd 4259 04be 20ea dcbc 685f 183e
00000270: 2d9c 85bb 49ed 07be d6c0 283e 0d53 08be
00000280: ab84 873d 00e6 163b 19f8 8f3d 8018 ba3d
00000290: 42d5 073e bb18 45bd 72fd 893d b765 32bd
000002a0: b92c d43d 8807 edbd 2e7a 8f3d 9603 75bd
000002b0: 6893 f8bd e060 fb3d 3e67 1fbe e093 c93c
000002c0: 50d5 a4bd d19a abbd 2e4b c43d a844 23bd
000002d0: 7b89 1f3e 2f8d 2bbe 8a49 05be 5d06 a5bc
000002e0: b0ae 48bd d375 f63d 14e6 76bc f6e5 debc
000002f0: 860c f2bd 0624 e0bc 063a c93d 4835 e9bd
00000300: eb8e 113e fb4a a7bd 9445 9cbd 207b 96bc
00000310: db7c e03d 5ba4 ec3d 7b31 303e d949 083e
00000320: f886 0abe 0557 0fbc 6e81 6fbd a5b0 9cbd
00000330: 0827 263d 0789 99bd 6f5f 83bd d406 1ebe
00000340: d170 043e 2ef3 a3bd 98bd ccbd f679 babc
00000350: 5849 18be b88f 14be f7db 0fbe e991 ee3a
00000360: e078 1a3d 89c4 f8bd 4ecc 8e3d f50e 18be
00000370: 3008 c2bd 4a55 03be 60ed 1abe 0997 c73d
00000380: a0b8 243e 584f 0cbe 1498 273e d16a 6b3d
00000390: 61a0 0c3e 1ff4 babd 5d58 d23d b52b 8cbd
000003a0: 5040 bcbd 2bf9 1fbe 2643 6cbb 8ac4 27be
000003b0: 3b41 003e 00c8 33be 3165 073e a5b8 183e
000003c0: 45b9 05be 0e77 4f3d bd4d 16be ad57 073e
000003d0: 32dd cfbb 29af 143e 68b2 86bd 8062 3b3c
000003e0: 868c fb3b 8e88 dcbd c4df 0e3e 87db 41bc
000003f0: 5b7d b03b 992a f03d f147 8cbc b0f7 b1bd
-0.09152866 0.11692788 -0.110894725 -0.09229161 0.036866248 0.12025144 -0.026427852 -0.120705724
-0.044668607 0.16474111 -0.1619823 -0.10203024 0.11368824 -0.0017406145 0.13510853 0.04350979
-0.1464955 0.16448846 0.09074552 0.0580308 0.06662178 0.11502691 -0.021504276 -0.12293777
-0.010688949 0.14783312 -0.0019832316 -0.05380539 0.052698232 0.04952026 -0.12335836 0.09227578
-0.12980852 -0.13814163 -0.13301432 0.04919365 0.04466869 0.16603701 -0.1485274 -0.07793052
-0.1566844 0.006700071 -0.1554995 -0.10636748 -0.032438762 0.07334398 0.12662707 0.035720035
0.0649413 -0.12802082 0.10844902 -0.0009618762 -0.08609128 0.032202385 0.02485392 0.10564937
-0.0680117 0.07145344 -0.09035298 0.14211857 0.056694128 -0.12448047 -0.041605804 0.07911636
0.025130056 -0.061960302 -0.089847505 0.0058106384 0.12801452 0.10391316 -0.090076506 -0.04001287
0.15755217 -0.08099286 -0.0504715 0.120740406 0.14714693 -0.08064808 -0.007916381 0.0023508212
0.05709827 -0.042933866 0.02747643 0.042730108 0.13749874 0.16851339 0.15299979 0.16355644
0.08525892 -0.037735485 0.1364936 0.13878168 0.02363497 0.12516844 0.06603192 0.14102714
-0.060140695 0.11156442 -0.07565581 0.17265926 -0.13249625 0.06372737 -0.10463989 0.10712004
-0.11987884 0.03839628 0.12804544 0.05238635 -0.10435465 -0.095927596 -0.022184586 -0.046629053
-0.035976827 -0.083845355 -0.1649669 0.106839396 -0.1193569 -0.028197777 -0.12460341 -0.16597416
-0.056207106 -0.032486975 0.11256061 -0.10345354 0.11062586 -0.04605333 -0.0837126 -0.09609747
-0.049526356 -0.1511626 0.007233144 -0.07100934 0.05516748 -0.14343089 0.068236664 -0.15831216
-0.09894707 0.0073146843 0.06436285 -0.09357399 -0.009087255 0.11560877 -0.05325901 -0.01220513
0.12056248 -0.0025897587 0.014294342 0.14648598 -0.15662545 0.15183899 0.058481965 -0.03389327
-0.05091278 -0.12924674 -0.026967108 0.14880145 -0.0040774555 -0.13274111 0.16479811 -0.13312931
0.06617101 0.0023025274 0.07029743 0.09086704 0.13264945 -0.048119288 0.06737794 -0.043554034
0.10360093 -0.11573702 0.07005726 -0.059817873 -0.121374905 0.12274337 -0.15566728 0.024606645
-0.08048499 -0.08379138 0.09584652 -0.039860398 0.15579788 -0.16753076 -0.13016334 -0.020144636
-0.04899472 0.12034192 -0.015069503 -0.027209263 -0.11818795 -0.027360927 0.0982552 -0.11387116
0.14214675 -0.08168598 -0.076304585 -0.018369257 0.10961314 0.11554786 0.17206375 0.1330942
-0.13528049 -0.008748774 -0.058473043 -0.0765088 0.040564567 -0.07496839 -0.06414687 -0.15432292
0.12933661 -0.08005367 -0.099971 -0.022763234 -0.14871728 -0.1450795 -0.14048754 0.0018201444
0.03771293 -0.12146861 0.06972562 -0.14849456 -0.09474218 -0.12825504 -0.15129614 0.097456045
0.16086054 -0.13702142 0.16366607 0.057474915 0.13733055 -0.09128594 0.1027076 -0.06844274
-0.09191954 -0.15622394 -0.0036050766 -0.16383567 0.12524883 -0.17556763 0.13222195 0.14914186
-0.13058956 0.05065065 -0.14678092 0.1321704 -0.006343507 0.14519943 -0.06576997 0.011437058
0.007676664 -0.10768233 0.13952547 -0.011832125 0.0053860373 0.11726875 -0.017124148 -0.08689821

action.bias f4 [36]
00000000: d718 2fbd 2880 d2bd 9bb6 1bbd c61e 06be
00000010: 4bd9 df3d 4fcb adbc e124 9e3d 426c 913d
00000020: cc37 003e 6915 2d3e b3cf a73d b4c5 223e
00000030: 429c 1a3e b767 cc3d 964f 25be 269e 0ebe
00000040: c2ad c13d 83e2 203e c6a7 54bd 8111 f6bd
00000050: 8767 793c 58fe 3d3d 4e9f 633d 73aa 00bd
00000060: 0147 6abc 0e5b b33c 038a b5bd 9b88 803d
00000070: 92db df3d 9788 3bbc 0d4e 60bd a8a0 753d
00000080: 20b8 503c 2995 133d 5ee2 21bd e0c1 acba
-0.0427483 -0.1027835 -0.038015943 -0.13097677 0.10930117 -0.02121511 0.07721878 0.07100727
0.12521285 0.16902699 0.08193912 0.1589573 0.1509867 0.099807195 -0.16143641 -0.13927516
0.0945697 0.15711407 -0.051917814 -0.12015057 0.015222437 0.04638514 0.055571847 -0.031412553
-0.014299155 0.021894004 -0.08864214 0.062760554 0.109305516 -0.01144614 -0.054761935 0.059967667
0.012739211 0.036030922 -0.03952252 -0.0013180338
