mean_model.pt (torch, 12823 bytes, 6 tensors)

layer_1.weight f4 [33, 30]
00000000: 305d 9b3d d4b9 6dbd d9e5 ff3d 59c1 1d3e
00000010: c1a8 af3c 341c 12bd 1cfa 3dbd 488a 91bd
00000020: f55e 96bd 76e0 90bd c760 8c3e d3ad 1cbe
00000030: d2e4 e2bc cb7e 593e b30d 91be d03a 113c
00000040: 4a35 adbd 3bcb 0a3d 0438 41bc 1fa0 b93d
00000050: 0077 70bd 9e58 013b 687b 41be 5023 833d
00000060: 9cdb 6eba 5a0f 08bd 0a35 d83d eb92 41bd
00000070: bc11 bf3d 829b 13be 80d5 fd3d 40de 293e
00000080: 0a1e d5bc b3d4 b93c 270d 2d3d 82d3 b9bd
00000090: 2911 babd fb0c fd3d 3841 0c3e 503b 8d3e
000000a0: 57f1 88bd e8ee 553d ae82 da3c de51 6dbc
000000b0: e718 ff3d 9758 fb3d e00f 4dbe d68f 993c
000000c0: ce4e 64bb 02ce 09be 6097 673e de60 4dbd
000000d0: 147b 533e b24a 0a3d bb3e b03d 7d62 ff3c
000000e0: 870c 213e 9f1b 35be d4ca c23d 21a7 983e
000000f0: 1fa8 3abe 511a 053e 6cc2 30be acc7 d7bc
00000100: fc85 a5bd 7c46 20bd 636d de3d be3c 24be
00000110: 94a5 7dbd f2d2 d2bc f0be b23d a26e 1bbe
00000120: 5902 3bbe 3c4a 263e 502e 2bbe afef cd3d
00000130: 829f 9abc 2bcd 113c 718b 69bd a108 4b3e
00000140: 2886 043e 0c2f 5c3e 1d98 c13d f9df 703c
00000150: 17a4 cbbd f243 3a3e 1017 d93d 1576 b63d
00000160: 4c45 c1bb 20fd a13c b455 643d 774c 04bd
00000170: 907f 143e 00e3 dcbc 7812 adbc c410 1fbe
00000180: a9ef 5bbe 542d 6abe 9535 97bd 0130 b8bd
00000190: 3523 693d 6413 3bbe c408 2dbe 8685 c23c
000001a0: 4536 c6bd 4921 0a3e 92c8 cfbd f6de f03d
000001b0: c08a 0cbd 9433 03bc af89 3f3d 7470 18be
000001c0: 3b9e b3bd 9df2 a7bd dfa5 7abd 506c 76bc
000001d0: bab6 b2bd 6fbc 09be f234 b23d d1da 1ebe
000001e0: 2c81 d73d 7ee1 633d 0b6e 3f3e 7426 53bb
000001f0: 2f65 fb3d a11c adbd fc27 7e3d 208a 2d3b
00000200: 7cc7 ae3d 12f6 d1bc 7781 073e 4ff0 e63d
00000210: d725 c93d f4de aabc 46a2 843d 6e32 46bd
00000220: 2252 13bd ef68 0bbc d813 133e 8817 153e
00000230: 45a0 a53d 3fef 4fbe 79c7 e9bc d544 0cbe
00000240: 1ebf 1ebe 809d 8dbd cb07 30be d862 e13d
00000250: 86ad 613d b46c 2abd f073 973d 22b9 743d
00000260: 5a7f 123d 6b10 80bd 5fba 28bc 4a63 27be
00000270: 6822 20be d35d fbbd 4028 af3d f59c 29be
00000280: 30ad d83d 244b 9ebd 5f0c fcbd a4a2 143d
00000290: 680b 7ebb 8c03 dabd c9c0 c83d ee2e 47be
000002a0: 0880 923d 102a 3cbe 1432 6e3d d990 d53b
000002b0: e38f fbbb acc3 d0bd f047 19be d326 91bd
000002c0: e7ec 1b3e ff19 a1bd 773b a83d 135d c83b
000002d0: bc10 da3d 279c b6bd 4962 393e 4e08 28bd
000002e0: 441a 9e3b 0ed3 a9bd 9021 d83d e492 053d
000002f0: 90ff 513d 48d4 12be 834c 3e3e c537 48be
00000300: cd8d 1cbd 9dc8 c13c 7ad2 7dbd a3a4 a73d
00000310: 1749 b63d cb5c 82be 6261 e7bd d5a3 d2bd
00000320: 89bc 00be 5b24 bebd 8982 353e b8d3 403d
00000330: a159 d73d 249d 47bd c05b c8bd 09d4 51be
00000340: 63e1 4abe 0c39 253e 9026 8d3d aaaf 70be
00000350: fb4c 133e f96f 813d 1835 b1bd 5dd4 e0bd
00000360: 5a75 40be ec54 2ebe 4c75 7d3d 7118 eebd
00000370: 733f 73bd 4477 4fbd ce59 d63c 8800 6a3d
00000380: fa39 f23d 9ef9 153d 0883 55be cae9 30be
00000390: f86c bd3d e999 9e3c 5508 a2bd 1e27 30be
000003a0: e885 f93d 08dd bbbd 41dd dabd 4b40 8e3d
000003b0: a88e 0dbc b85f 533d 7dca 09be 53f5 ba3d
000003c0: 164e 003e d890 d53c baa4 1bbd 4d17 553e
000003d0: f935 2ebe 307e 003e 9475 35be 5912 893d
000003e0: 4783 d9bd 5684 b63d 7e0a 213e 1a99 2bbe
000003f0: a59e aa3c 0b75 593e 8129 6dbd 3087 23be
0.075861335 -0.058038548 0.12495012 0.15405788 0.021442773 -0.035671428 -0.0463811 -0.07106453
-0.0734233 -0.070740625 0.27417585 -0.15300684 -0.027697 0.21239774 -0.28330764 0.00886412
-0.0845743 0.033885222 -0.01179314 0.09063744 -0.058707237 0.0019736658 -0.18894732 0.0640322
-0.0009111704 -0.033217765 0.105569914 -0.047259253 0.093295544 -0.1441479 0.123942375 0.16588688
-0.0260153 0.02268443 0.04224887 -0.09073545 -0.09085304 0.123559915 0.13696754 0.27584314
-0.06686657 0.052229792 0.026673641 -0.014484851 0.124559216 0.122727565 -0.20025587 0.018745344
-0.003483701 -0.13457492 0.22616339 -0.050141208 0.2065242 0.03376264 0.08605715 0.031174893
0.15727435 -0.17686318 0.09511343 0.2981501 -0.18228196 0.1299832 -0.17261666 -0.026340328
-0.08082196 -0.03912972 0.108607076 -0.16038796 -0.061925486 -0.025735352 0.08727825 -0.15178922
-0.18262614 0.16239256 -0.16716886 0.10055482 -0.018874887 0.0088990135 -0.057017747 0.1982751
0.12941802 0.21502322 0.094528414 0.014701837 -0.09943407 0.18189982 0.10600102 0.08909241
-0.0058981534 0.01977402 0.055745795 -0.032299485 0.14501786 -0.02696371 -0.02112697 -0.1553374
-0.21478142 -0.22868854 -0.07383267 -0.08993531 0.05691834 -0.18269116 -0.16897875 0.02374531
-0.0967832 0.1348926 -0.101456776 0.117612764 -0.03431201 -0.008007903 0.046762165 -0.14886647
-0.087704144 -0.08200572 -0.061193343 -0.015040472 -0.087262586 -0.13450788 0.08701505 -0.1551316
0.105226845 0.055634968 0.18694322 -0.0032218965 0.122751586 -0.08452726 0.06204985 0.0026480034
0.085341424 -0.02563003 0.1323298 0.11276304 0.098216705 -0.020858265 0.06476264 -0.048387937
-0.035967 -0.008508905 0.14363039 0.14559758 0.080872096 -0.20306109 -0.028537499 -0.13698132
-0.15502593 -0.06914806 -0.17190473 0.11005181 0.055097125 -0.041607574 0.0739516 0.05974687
0.035765983 -0.062531315 -0.010298341 -0.1634647 -0.15638125 -0.12273755 0.08552599 -0.1656378
0.10579908 -0.07729176 -0.12307047 0.03628792 -0.0038764123 -0.10645208 0.09802396 -0.19451496
0.07153326 -0.1837542 0.058153227 0.0065175113 -0.0076770647 -0.101935714 -0.14968848 -0.07087483
0.1522709 -0.078662865 0.08214467 0.006114611 0.10647723 -0.089165024 0.18103899 -0.041023545
0.0048249085 -0.082922086 0.105532765 0.03261079 0.051269114 -0.14338791 0.18583874 -0.19552524
-0.03822117 0.02365523 -0.061968304 0.08185699 0.089006595 -0.2546142 -0.11297871 -0.10285155
-0.1257192 -0.09284278 0.17725576 0.04707691 0.10515142 -0.048733845 -0.09783125 -0.20491041
-0.1981254 0.16135043 0.06892121 -0.2350451 0.14384834 0.06320185 -0.08652705 -0.10978005
-0.18794766 -0.17024583 0.06187944 -0.116257556 -0.05938668 -0.05065085 0.02616587 0.057129413
0.118274644 0.036615007 -0.20850766 -0.17276683 0.092493 0.0193605 -0.079117455 -0.17202422
0.12183744 -0.09173018 -0.10686732 0.06945857 -0.008639969 0.051604956 -0.1345615 0.09128823
0.12529787 0.026070043 -0.037998892 0.2080967 -0.17012776 0.12548137 -0.17720634 0.06692953
-0.10620742 0.0891196 0.15726659 -0.16757622 0.0208276 0.21236055 -0.05790091 -0.15969539

layer_1.bias f4 [33]
00000000: f3b2 07bd 4a5f 7f3d ea5b 353e 4cd8 31bd
00000010: 7a46 0c3d 9983 dfbc 5411 353d 5fc0 a6bb
00000020: 7c19 00bd 6e9a 183e 52cc b63c 958d 0cbe
00000030: e45b cabd a1e2 033e 3897 843c 84f5 7d3d
00000040: 5f23 2e3e 04da 553e 3d04 33bd 0651 9a3d
00000050: 9dba de3d e6e4 a33c 486a d03c 65ba 4b3e
00000060: fbce c43d 57e2 0abe 433d b63c 5e82 ee3b
00000070: ff95 46be a6d7 993c 764a f5bd 5bfe 57be
00000080: 66af 673c
-0.033129644 0.062346734 0.17710844 -0.043419167 0.0342469 -0.02728443 0.04420598 -0.0050888504
-0.031274304 0.1490266 0.022314224 -0.13725884 -0.09880808 0.12879421 0.016185388 0.06200172
0.1700568 0.20883948 -0.043705214 0.07534985 0.108754374 0.020006608 0.025441304 0.19895323
0.09609791 -0.13562904 0.022246009 0.0072787246 -0.19393156 0.018779587 -0.11977093 -0.21093123
0.014140939

layer_2.weight f4 [34, 33]
00000000: a160 25be 7cbf 833d 1635 e7bd 0bc0 8cbd
00000010: 1e5f adbd cc25 dd3d 4f11 ec3d 9738 96bc
00000020: 6b03 c5bd ac5b 083e bd10 5e3e 54b5 f2bc
00000030: 591b 98bd 819e 4f3e cc93 1a3d 2127 0a3e
00000040: 5aca 8dbd d3ba 713e c7c4 c83d 5132 0a3e
00000050: bb85 213d 9a1b 053e 9010 4b3d e6f2 423e
00000060: f81d d0ba 32e8 8abd 05fa 963d b4db 5d3d
00000070: 8a62 2f3e f2e5 083e 5465 943d 803f d43d
00000080: 0465 5c3d 3113 05bd 1724 9cbd c0e5 1ebe
00000090: 6638 7cbd 0155 babd e8b1 36bd 284d 0cbe
000000a0: 300b 5fbd 564d 32be 30d4 7cbd 93a7 09bd
000000b0: c78c 44bd 587d 42bd 54ad a0bd 90ca 2dbe
000000c0: f548 2bbe d829 f2bd f63b f3bd c214 1b3d
000000d0: 3187 d4bc c904 803d 95b5 02be 9f6d 7abc
000000e0: bbee 12be ad80 13bb 1d99 6e3d 220d 63bd
000000f0: 5196 95bc 4a26 febd 8ead ac3d 64c8 be3b
00000100: e8cc dcba 52b8 2c3d 0253 2bbd d43d cfbd
00000110: 3f22 0f3e 0095 5bbc 7f03 4dbe 5215 f93d
00000120: 37af 0abe 904e 7bbc 130e f33d 89df ccbd
00000130: f7ca d13d 4201 e6bc 019e e0bd be0d 62bd
00000140: 53b7 0ebe 881e 31bd 8878 75bd 314d 4fbe
00000150: 7996 2c3d c5fd 03be 5118 be3c 6b5b 04be
00000160: e7c6 92bd 6c8c d13c da34 31bd 38a6 a23d
00000170: 2297 31be ce45 18be e513 f33d b77a 8e3d
00000180: 9203 233e 74cf 3c3e dc54 fd3d 305c 843d
00000190: bbb6 b6bd 7571 833d 85f2 94ba 219d 48be
000001a0: bf10 153d 0e38 033d b4d2 d53a 2685 f53c
000001b0: 9da1 42bc 7556 16be 9a91 56be a434 8bbc
000001c0: 9cc3 333d b7ee e7bd f03e e7bc 05ab 9c3b
000001d0: a3d1 cabd 1e00 70be 0b54 94be eeeb 353d
000001e0: d83e 8c39 3658 16bd 87c5 2bbe 82a7 babd
000001f0: a65f b4bd 68da 583d caeb 983d 8e7b 663d
00000200: 6f20 b53d 7c3d 303c 31a0 10be 2744 213e
00000210: 2c88 263d 2691 043e 18d5 323d 5511 bc3c
00000220: c2ce 88bc 54bd 90bd c7ba ad3c c7cb 96bd
00000230: d775 04be 954f 053e e10e 0b3e 7f52 1d3e
00000240: 9aac 393e 29b5 b9bd 1f05 a23c 5746 66bc
00000250: 09d4 35be 8de5 ae3d 8766 0f3e d17b 013e
00000260: f8c9 5cbd 0eca 91bc b443 013e 8a4f 81bc
00000270: f986 963d 42fc 52bd 165a 9d3d a464 203e
00000280: 94cd 3bbd 5a05 d33d 5812 cbbd 0f08 c03d
00000290: 2330 69bd 6c69 30be 8e5b c83d a548 b1bd
000002a0: b59d f93d eacc 903d 0612 c63d e535 29be
000002b0: 569b d83d b07f e33c 340a 91bd 5908 80bd
000002c0: 885b 41bb e6a7 1ebc de09 763b 6ac7 1dbe
000002d0: 20fb 0d3e 848b e0bd 8d60 5fbe f3c9 a1bd
000002e0: edfe 2dbd f907 13be f2cf 7abe 46e6 473c
000002f0: bf68 6c3d c582 ddbd d5f1 7e3d 6f04 553d
00000300: 793f 26be f562 f5bd cee5 02bd 801f 60bd
00000310: 6eb3 7a3d 3e0f 2dbe dc67 0f3e c3f2 033e
00000320: 5db5 c9bd 0941 aa3d c0f3 063e a2a5 36bd
00000330: 1ee8 ae3d 8de5 a9bc c153 473e 7a8e 643d
00000340: e195 0bbe 0ad9 09be a928 e1bd 9459 3f3e
00000350: a647 0e3e 9d8a 93bd 549c 483e 3c5b 6d3b
00000360: 071f 543e 4e39 7bbd a8f1 d8bd 7b35 303d
00000370: 8260 213d f117 a53d de1b b93d 7833 0fbe
00000380: f297 593e 9737 0d3e e8c1 a1bd 202b da3d
00000390: a23e 00be 8453 923d 87c1 093e a940 54bd
000003a0: 86da 9e3d 14b8 18bd 1055 98bc da1e f2bd
000003b0: 1fb3 41be 7a99 51bd 5877 02bd 20fb 44be
000003c0: 85f2 ed3d cabd dc3d 2ac8 ae3d 1640 d83d
000003d0: ecd2 df3d 331a 0abe 25d3 cebd a7bc 37be
000003e0: b65b 1abe 1690 18be d91e 11be 402e edbc
000003f0: 9294 4bbc 8cb2 a73d 43ef fbbd 7a82 50be
-0.16150142 0.06433007 -0.11289422 -0.06872567 -0.08465408 0.10798225 0.11526739 -0.018337531
-0.096197926 0.1331622 0.21686073 -0.02962748 -0.07427091 0.20275308 0.037738606 0.13491489
-0.06923361 0.23606424 0.09803157 0.13495757 0.039434176 0.1299881 0.049576342 0.19037971
-0.0015878072 -0.06782569 0.07371906 0.054164603 0.17127433 0.13368967 0.07245889 0.10363674
0.053807274 -0.032489005 -0.07624071 -0.1551733 -0.061577223 -0.090982445 -0.04460326 -0.13701308
-0.05445403 -0.17412314 -0.061725795 -0.033607077 -0.04798582 -0.04748282 -0.0784556 -0.16971803
-0.1672705 -0.11824387 -0.11876671 0.037861593 -0.02594337 0.06250913 -0.1276458 -0.015284925
-0.14348881 -0.0022507117 0.05825149 -0.055432446 -0.018260153 -0.12409647 0.084315404 0.0058222283
-0.0016845735 0.04216797 -0.04182721 -0.10119215 0.13977908 -0.013402224 -0.20020865 0.1216227
-0.13543402 -0.015338555 0.11867919 -0.100035734 0.102437906 -0.028076772 -0.10967637 -0.055188887
-0.1393712 -0.043242007 -0.0599294 -0.2024429 0.04213569 -0.12889774 0.023204954 -0.12925498
-0.07166844 0.025579654 -0.043263294 0.0794186 -0.17342809 -0.14870378 0.11869029 0.06957
0.1591933 0.18438512 0.12369701 0.06462896 -0.08921572 0.064181246 -0.001136378 -0.1959119
0.036392923 0.03203588 0.0016313405 0.029970717 -0.011879352 -0.14681418 -0.2095398 -0.016992874
0.04388772 -0.11324828 -0.028228253 0.0047811293 -0.09903266 -0.23437545 -0.2897037 0.044414453
0.00026749703 -0.03670522 -0.1677457 -0.09113981 -0.08807306 0.052942663 0.07466848 0.056270175
0.08844077 0.0107568465 -0.14123608 0.15748654 0.040657207 0.12945995 0.043660253 0.022957483
-0.016700152 -0.070673615 0.021207226 -0.07363086 -0.12935577 0.1301864 0.13579895 0.15363501
0.18132249 -0.09067757 0.019777833 -0.014054856 -0.17756666 0.08539877 0.14003955 0.12644888
-0.05390355 -0.017796542 0.12623483 -0.015784997 0.07349963 -0.051510103 0.07683198 0.15663391
-0.04585035 0.10303755 -0.09915608 0.09376537 -0.056930672 -0.17227715 0.09783088 -0.08656434
0.12188283 0.07070334 0.096714064 -0.16524465 0.10576503 0.027770847 -0.07082024 -0.06251592
-0.002950402 -0.009683585 0.0037542502 -0.15408102 0.13865328 -0.109641105 -0.21814175 -0.07899847
-0.042479444 -0.1435851 -0.24493387 0.012200898 0.05771708 -0.10815958 0.062242348 0.05200618
-0.1623515 -0.11981765 -0.03195744 -0.05471754 0.061206274 -0.16900346 0.14004463 0.12885575
-0.098490454 0.08313186 0.13178921 -0.044591554 0.085403666 -0.020739341 0.19465543 0.05579994
-0.13631393 -0.134617 -0.109940834 0.18686515 0.13894519 -0.07204173 0.19590884 0.003621771
0.20714961 -0.061333947 -0.10592967 0.043019753 0.039398678 0.08061207 0.09038518 -0.13984478
0.21249369 0.13790737 -0.07898313 0.10652757 -0.12523893 0.071448356 0.13452731 -0.051819477
0.07756524 -0.037284926 -0.018595248 -0.11822291 -0.18915986 -0.051171757 -0.031852096 -0.19236422
0.116185226 0.10778387 0.08534272 0.105590984 0.10928902 -0.13486557 -0.100988664 -0.17943059
-0.15074047 -0.14898714 -0.14171924 -0.028952718 -0.012425559 0.08188352 -0.12301495 -0.20362273

layer_2.bias f4 [34]
00000000: 80b4 8bbc 391e 8abd a4a5 02be 00b3 17bd
00000010: 8119 18bd 511f 9d3d 2853 db3d c4d2 f7bd
00000020: 1699 24be a6a6 183c 6a5d 14be 044f 073d
00000030: ae60 4a3e fe29 823d e23f 53bd 2331 2dbe
00000040: a2c8 3cbd 5312 48be ea8a 98bc fbfd ed3d
00000050: c9fc c8bd cba6 76bc cad8 81bd 85dd d13d
00000060: 8771 b23d d765 6d3c 8d38 98bd 0572 6cbe
00000070: 2491 5f3c 0e1c 4cbd 68be 203e 20cf fcb9
00000080: d818 8dbc 8b9b 80bd
-0.017053843 -0.06744046 -0.127585 -0.037035942 -0.037133697 0.07671989 0.1070922 -0.12100747
-0.16074023 0.009317076 -0.1448876 0.03303434 0.19763443 0.063556656 -0.051574595 -0.16913275
-0.046089776 -0.1953824 -0.018620927 0.116207086 -0.0981384 -0.015054415 -0.06340177 0.102473296
0.0871306 0.014489613 -0.07432661 -0.2309037 0.013645444 -0.049831443 0.15697634 -0.00048219506
-0.01722376 -0.062796675

layer_3.weight f4 [15, 34]
00000000: 0dcd 273e a8c0 4abd 2f77 e93d f01a ab3d
00000010: 5537 15bd f235 493d 64c8 fb3b 301e 2d3c
00000020: 131d 08be d1e8 9fbd c4d7 28be 915c 2a3e
00000030: b318 4f3e 7493 3e3e dd95 093e 087f b33d
00000040: fc4f e83d 7f9a 393d 2770 80bd 2af3 303e
00000050: 7ea9 c9bd ccc9 9d3d b022 333e f540 393e
00000060: 86d6 2b3d c299 98bd debb 2f3e 468d 2ebe
00000070: 3781 153e 1af7 1e3d b190 553e 4a0a 093e
00000080: c514 a7bd 2549 12be 14cd b1bd 799a dcbd
00000090: 1b9e 4a3c 5200 f53c d2fc 51bd 0eab 15bd
000000a0: 9bbf 5e3c 9257 49bc 8f28 223e 7241 553d
000000b0: 37ac 2abd 2125 a93d 4e0d 0dbe ec52 0d3b
000000c0: 5f1c 203e 347e 773d 1e68 46bd ef37 1ebe
000000d0: 1bbc efbd 5a55 ccbd b1ec d8bd edf1 9c3d
000000e0: 642f 46bd 3cea 23be 62ae 02be 91b1 cb3d
000000f0: 4c33 363d d31a 23bc 715c e1bd ccb0 203c
00000100: efc2 a8bd 6857 db3a 0b2c 1e3d 8c3c 17bd
00000110: ba53 6b3e 1fc1 ac3d 3d99 83bc 4e2d a73c
00000120: 32ed 523e 8cb9 ec3b cc11 7ebd 6c4b 103e
00000130: 8c4b 003e 8df1 173e e0d5 513c 0463 0b3e
00000140: a713 abbd 3e62 a43d 7ddd c93d a83c 0bbe
00000150: ae3a ac3d 6db8 c5bd 0438 7b3d 8910 363e
00000160: 8703 233e 59b3 823e a2a9 1b3d f41e b7bc
00000170: 1a76 d23d a595 0d3e c96f ce3d 4675 0ebe
00000180: 612f cb3d 2565 853c cd53 a13d 4382 653c
00000190: c4e2 32bc 2eaa 31bd e2fa 763e 9277 c9bc
000001a0: 5ceb 40bd 6812 4e3e b880 973e a710 0abd
000001b0: 7cd1 903e bc1e abbd 96e9 76bc ea70 cd3c
000001c0: 2760 f73c 9558 aabd c239 963e a5e6 953e
000001d0: 084b 533e 7a78 05be 94f8 3d3e 1d45 a23d
000001e0: 04ba 7d3d 3f0b 493d 1d25 443e 2c5e 7c3c
000001f0: bd9e dd3d 8f03 063e 98f8 ec3a a9cd f0bc
00000200: f886 bf3c f69d a93d eaf0 203d fc0f 6c3e
00000210: 7902 893e 1b0f 293e 3983 043e 18f0 613e
00000220: a522 743d acc0 efbc c035 4a3d 7b3f 1abe
00000230: b364 ca3d dffe f43d 8581 00be 4fb0 523c
00000240: fada 963d 7a16 373e 0d00 2cbd 06f0 10be
00000250: ba9e 143d 9db3 1b3e f00e ea3d 541d 0a3e
00000260: 9d37 fd3d 8394 20bd 1a46 12bd f0d0 153e
00000270: efb6 1cbd 9526 0e3e eb27 e9bd 4f88 d63d
00000280: 1da5 d23d 59fb 863d 4e37 af3d 139f 863e
00000290: 4c95 2e3e 7d2b d1bd 649a 42be cce2 25ba
000002a0: cf73 64bd 1f0a fc3d 7b13 6e3e 9a89 78bd
000002b0: 2a9a 983c 1022 00bb 9158 f53d d1c3 62bd
000002c0: 957e bcbd b483 ba3d d0cd b03d 57e4 4c3e
000002d0: 71de e1bd f8f5 8abc 1002 17bd 7709 fa3d
000002e0: 21a5 a7bd 98a4 1bbd 2030 40bd 4934 acbd
000002f0: 5d47 873c 4d9c 1cbe f567 b73d 5fbb c23c
00000300: 9bba 133e 68ce c23d b14d ffbc 3386 d4bd
00000310: 73f1 193e a433 c93d d299 cd3c 9e03 fc3c
00000320: 69d8 15bd bc12 12be 040f 4c3e 4b55 aebd
00000330: 6f41 98be 6fd1 c9bc 2198 cdba 8fc6 51bd
00000340: c533 4f3d 2c95 5b3e 4fe2 bcbd 5c15 d63d
00000350: c2dd e5bd e465 9b3d 8310 cd3c 55e7 67be
00000360: 1c46 34be ea1f 3cbd ce13 8fbe ca89 1b3e
00000370: cfc2 8f3d 83ef 383d 4f12 1bbd 6af2 84bd
00000380: 9a82 00be f302 78be 08c4 ddbb 8dc0 72bc
00000390: 7051 24bd a246 e43d 889b b73d 742c 4abe
000003a0: da27 1ebe 372b e2bc ca22 b3bd 1e44 103e
000003b0: 6cc7 4ebe ef58 a5bc 6848 f03d 78e6 79ba
000003c0: 2c8b d93d bbbe 2c3e 48c5 87bd d04b 043d
000003d0: 5ca8 513e cb2b d4bd 50b5 0dbe 82b6 fb3d
000003e0: eb5d a13c c293 39bd 3ea2 9fbd 74e7 3bbd
000003f0: 7a30 ee3d d8c7 f63d 3218 9abd 4231 43be
0.16386814 -0.049500138 0.113996856 0.08354747 -0.03642972 0.049123712 0.0076838005 0.010566279
-0.13292341 -0.07808078 -0.16488558 0.16636874 0.20224266 0.18610936 0.13436075 0.08764464
0.11343381 0.045313355 -0.06271391 0.1728026 -0.09846781 0.07704505 0.17493701 0.18091185
0.041952632 -0.07451202 0.1716151 -0.17046079 0.14600073 0.038809873 0.20855977 0.13382831
-0.08158258 -0.14285715 -0.08681694 -0.10771651 0.012366797 0.02990738 -0.0512665 -0.036540084
0.013595487 -0.012288945 0.15835784 0.052064367 -0.041668143 0.08259035 -0.13774607 0.0021564318
0.15635823 0.06042309 -0.048439138 -0.15451024 -0.117058 -0.09977217 -0.1059202 0.07663331
-0.04838504 -0.16007322 -0.12761834 0.099459775 0.044482514 -0.009955126 -0.1100396 0.009807777
-0.08240306 0.0016734423 0.03861622 -0.036922976 0.22981158 0.084352724 -0.01606428 0.020407345
0.20598295 0.0072242673 -0.06202869 0.14091271 0.12528819 0.14838238 0.012807339 0.1361199
-0.08353358 0.08026551 0.09856699 -0.13597357 0.0840963 -0.09654317 0.061332718 0.17779745
0.15919314 0.25527456 0.03800357 -0.022353627 0.10276432 0.13826616 0.10079915 -0.13911924
0.09921146 0.016283581 0.07877312 0.014008108 -0.010918323 -0.043375187 0.24119142 -0.024593148
-0.047099456 0.20124209 0.29590392 -0.033707287 0.28284824 -0.083554715 -0.01507034 0.025078256
0.030197216 -0.08317677 0.2934094 0.2927753 0.20634091 -0.1303424 0.18551856 0.079233386
0.061944976 0.04908299 0.19154783 0.015403312 0.108212925 0.13087295 0.0018079458 -0.029394941
0.023379788 0.08282082 0.039292254 0.23052973 0.267597 0.16509669 0.12940682 0.22064245
0.059603352 -0.029266678 0.049367666 -0.15063278 0.09882488 0.11962675 -0.12549408 0.012859418
0.07365985 0.17879668 -0.041992236 -0.14154062 0.036284186 0.15205236 0.1142863 0.1348775
0.12364123 -0.03920413 -0.035711385 0.14630485 -0.038260397 0.13881905 -0.11384567 0.104752176
0.10285399 0.065909095 0.085554704 0.2629324 0.1704914 -0.10213373 -0.19004208 -0.0006328046
-0.055774506 0.12306618 0.23249619 -0.060678102 0.018628199 -0.0019551553 0.11979783 -0.055362526
-0.09203831 0.09107152 0.086330056 0.2000898 -0.110287555 -0.01696299 -0.0368672 0.122088365
-0.08185793 -0.037998766 -0.046920896 -0.0840841 0.01651352 -0.15293999 0.08955375 0.023770986
0.14426653 0.09512025 -0.031164976 -0.10377159 0.15033512 0.09824303 0.025097761 0.030763444
-0.036583338 -0.14264959 0.19927603 -0.08512362 -0.29737422 -0.024635999 -0.0015685597 -0.05121475
0.05058648 0.21443623 -0.092228524 0.10453293 -0.112239376 0.075877935 0.025032287 -0.2264684
-0.1760487 -0.045928873 -0.27944797 0.15189281 0.07019579 0.04515029 -0.037859257 -0.06491549
-0.1254982 -0.24219875 -0.0067677535 -0.0148164155 -0.040116727 0.11146285 0.08965212 -0.1974352
-0.1544489 -0.027608497 -0.0874687 0.14088485 -0.20193261 -0.020184008 0.117325604 -0.0009532939
0.10622248 0.16869633 -0.06629425 0.032298863 0.2047438 -0.10359915 -0.13838696 0.1229067
0.019698104 -0.04530693 -0.07794617 -0.045875028 0.1163034 0.12049836 -0.07524146 -0.19061759

layer_3.bias f4 [15]
00000000: 5057 df3d b692 c93c 79e7 5b3e a177 b93d
00000010: f35a 003e 62ed 19be 9816 503d bab2 e13d
00000020: 26bb bbbd 84fb d1bb 4a8f ef3c 97b9 a03b
00000030: 6b73 853d 500b 9d3c a170 f3bd
0.109053254 0.02460609 0.21475019 0.090560205 0.12534694 -0.1503196 0.050802797 0.110204175
-0.09166555 -0.006408157 0.02924313 0.0049049365 0.06516155 0.019170433 -0.11886717
