st_dev_model.pt (torch, 21583 bytes, 8 tensors)

layer_1.weight f4 [33, 30]
0	0x3dbb9de2	0.09160973
1	0x3e00fe69	0.1259705
2	0x3dcddaa8	0.10051471
3	0xbc98ef08	-0.018668666
4	0xbbd5330e	-0.0065063303
5	0xbe1bf09e	-0.15228507
6	0xbded8c56	-0.115990326
7	0x3d9d8188	0.07690722
8	0xbc99f5a8	-0.018793896
9	0x3de5a7e8	0.11213666
10	0x3dd4a9c8	0.10383946
11	0xbe12241a	-0.14271584
12	0x3e107811	0.14108302
13	0xbe3d1cf5	-0.18468077
14	0x3da4ebaa	0.08052762
15	0x3e3283cc	0.17433089
16	0xbc5f8b1c	-0.013644006
17	0xbd3a02a0	-0.04541266
18	0xbd428f44	-0.04749991
19	0x3a9ca6c0	0.0011951551
20	0x3e14246e	0.14467022
21	0xbe0cc675	-0.1374758
22	0xbe06a80c	-0.13150042
23	0xbe287e91	-0.16454531
24	0xbdc7e31e	-0.09760116
25	0xbdbfe666	-0.09370117
26	0xbd3890b3	-0.04505987
27	0xbb1d34b6	-0.0023987717
28	0x3af84568	0.0018941583
29	0x3c711f2e	0.0147169065
30	0xbd35ea6e	-0.044413023
31	0x3df4f70b	0.11961182
32	0x3e09f9b8	0.13474166
33	0xbdef5c6e	-0.116875514
34	0x3dbef9ee	0.09325014
35	0xbe0f369e	-0.13985679
36	0xbe177fd9	-0.14794864
37	0x3e02c2b4	0.12769586
38	0x3b8a2a47	0.0042164656
39	0x3bccca7e	0.006249725
40	0x3d8a94dc	0.06766674
41	0xbde4e464	-0.111763746
42	0xbd84883e	-0.06471299
43	0x3e3a6c0b	0.18205278
44	0xbe13886d	-0.14407511
45	0xbdd154dc	-0.10221264
46	0xbe2dd80f	-0.16976951
47	0x3e2455ad	0.16048308
48	0xbd324e61	-0.04353178
49	0x3de844ea	0.11341269
50	0xbe2bae79	-0.16765775
51	0x3d670084	0.056396976
52	0x3d7fb332	0.062426753
53	0x3df7024f	0.12060987
54	0x3d18878e	0.03723865
55	0x3e1e00ea	0.15430036
56	0x3e05ab8e	0.13053724
57	0xbc6b6b01	-0.014368773
58	0x3db3009b	0.0874035
59	0xbda0c754	-0.07850519
60	0x3ca1ddf3	0.019759154
61	0x3df39b75	0.118948855
62	0xbc249b90	-0.010046855
63	0x3cec067e	0.02881169
64	0xbdfe0216	-0.124027416
65	0xbdd2a2dd	-0.1028497
66	0x3c89f5df	0.016840873
67	0xbe16d88b	-0.14731042
68	0xbde2afe9	-0.110687084
69	0xbd6c06b0	-0.057623565
70	0xbdef1a59	-0.11674947
71	0x3d6fdf23	0.05856241
72	0x3c9c6afc	0.019093983
73	0x3da0efa4	0.07858208
74	0xbe27c956	-0.16385397
75	0xbd8ff764	-0.07029608
76	0x3de3f8dd	0.11131451
77	0xbcea8a99	-0.028630542
78	0xbe2ed755	-0.1707433
79	0xbc2c119b	-0.010502244
80	0xbe4015d8	-0.18758333
81	0x3d51c0b4	0.051209167
82	0xbe0abbf5	-0.13548262
83	0x3dfb007d	0.122559525
84	0x3e3c97a0	0.18417215
85	0xbdfc4b9d	-0.123191096
86	0xbd26b729	-0.04070202
87	0xbda467cd	-0.08027611
88	0xbe31877a	-0.17336836
89	0x3e317e71	0.1733339
90	0x3c5fc0d3	0.013656813
91	0xbe0b395e	-0.13596103
92	0x38fe2e80	0.00012120325
93	0x3d9a8aaa	0.07545979
94	0xbc7f3776	-0.015577188
95	0xbe05a6d7	-0.13051926
96	0x3db58760	0.08863711
97	0x3de46603	0.1115227
98	0xbe20b64f	-0.15694545
99	0xbcfc305c	-0.030784778
100	0x3cd0a4b2	0.025469158
101	0x3d800f23	0.06252887
102	0xbd3b27c8	-0.045692235
103	0x3b622690	0.0034507848
104	0x3d36dfd4	0.044647053
105	0x3df45103	0.11929514
106	0x3d28d977	0.041223016
107	0x3d28e8c8	0.041237622
108	0xbe067fe2	-0.13134721
109	0xbd305db5	-0.043058116
110	0xbe0a33d1	-0.13496329
111	0xbd148144	-0.03625609
112	0xbe326dcd	-0.17424698
113	0xbd83cac7	-0.06435161
114	0x3decbe63	0.11559751
115	0xbd6d457a	-0.057927586
116	0xbde3f88b	-0.1113139
117	0xbe188a2b	-0.14896457
118	0xbe44f870	-0.19235396
119	0x3e0028bd	0.1251554
120	0xbe07c0fb	-0.1325721
121	0x3e39b5a6	0.181357
122	0xbe213e6b	-0.15746467
123	0xbd15d46b	-0.03657953
124	0x3e2203da	0.15821782
125	0x3e1e0998	0.15433347
126	0x3de6d3ca	0.11270864
127	0xbdc56271	-0.09637917
128	0x3e2a5561	0.16634132
129	0x3bcf37aa	0.0063237743
130	0xbda02ff2	-0.07821645
131	0xbe356ec3	-0.17718033
132	0x3cfa988a	0.030590314
133	0x3d9f6ed7	0.07784813
134	0x3ddd68d2	0.108110085
135	0x3db78d18	0.08962458
136	0xb9297440	-0.00016160402
137	0xbe21bf65	-0.15795667
138	0x3b1f9b6c	0.0024354113
139	0xbd189236	-0.037248813
140	0x3e01904b	0.126527
141	0x3e24127e	0.16022679
142	0x3dfe0c97	0.12404745
143	0xbde61b77	-0.11235707
144	0x3c44f5b5	0.012021472
145	0xbdc12b8e	-0.094321355
146	0xbe0e7f17	-0.13915668
147	0x3de02e4d	0.10946331
148	0x3c21dbe1	0.009879083
149	0x3deb0073	0.11474695
150	0x3d8a3643	0.06748631
151	0xbdbb526d	-0.09146581
152	0x3d7421f4	0.059602693
153	0x3d962037	0.07330363
154	0x3ddfad1d	0.109216906
155	0x3d7d6fd6	0.061874233
156	0xbddc4ac5	-0.10756449
157	0x3c771a69	0.01508198
158	0x3d519588	0.051167995
159	0x3d3c8174	0.046021894
160	0x3d7bf92a	0.06151692
161	0x3cd13658	0.025538608
162	0xbd1b2e2d	-0.037885834
163	0x3bb2990c	0.0054503735
164	0xbe0163b0	-0.12635684
165	0x3ce2d6e7	0.027690364
166	0x3e2518d6	0.16122755
167	0x3c1c1688	0.009526856
168	0xbe3c4a96	-0.18387827
169	0x3e0a0646	0.13478956
170	0xbe3d1516	-0.18465075
171	0x3ddb88fc	0.10719487
172	0xbe171682	-0.1475468
173	0x3de22fc8	0.1104427
174	0x3d0bd1ee	0.03413575
175	0xbdf0ae4e	-0.11751996
176	0xbcb4e88a	-0.02208354
177	0x3e266f07	0.16253291
178	0x3e06ee0a	0.13176742
179	0x3d882018	0.066467464
180	0x3dd93930	0.10606611
181	0x3e130fdf	0.14361523
182	0x3e495809	0.19662489
183	0x3b838911	0.0040141423
184	0x3ce2f259	0.027703451
185	0x3e1001c7	0.14063178
186	0xbe2cc122	-0.1687055
187	0x3e016147	0.12634765
188	0x3db00baf	0.085959785
189	0x3e1a4f5f	0.1506934
190	0x3e1fa392	0.15589741
191	0xbe3a1b31	-0.18174435
192	0x3e10b824	0.14132744
193	0x3c878d6e	0.016546931
194	0xbdd66730	-0.104689
195	0x3d48bd98	0.049008936
196	0x3d774528	0.060368687
197	0xbe1e57c9	-0.15463175
198	0x3d83ca92	0.064351216
199	0x3a0e4160	0.0005426612
200	0x3d86a376	0.065741464
201	0x3cfbc138	0.030731782
202	0xbda09a51	-0.078419335
203	0x3df53a3b	0.11973997
204	0xbd3f1dc8	-0.04665926
205	0xbdf7276d	-0.12068067
206	0x3d808d62	0.06276967
207	0x3d5899c1	0.052881006
208	0x3dfcaae8	0.12337285
209	0x3e0729fa	0.13199607
210	0xbd72f018	-0.059311002
211	0xbe1e3614	-0.15450317
212	0x3df08a61	0.11745144
213	0x3d4b4d28	0.04963413
214	0x3c8d8a87	0.017277969
215	0x3e2c5e1f	0.1683278
216	0x3ba23536	0.004950191
217	0x3d22a5c1	0.039708856
218	0xbe337a63	-0.17527156
219	0x3e1da707	0.15395747
220	0xbe482b82	-0.19547847
221	0xbdda048d	-0.10645399
222	0x3da8a12d	0.08233867
223	0x3bae9b3c	0.005328564
224	0xbdb9fd5c	-0.090815276
225	0xbe1dbec2	-0.154048
226	0xbdb13605	-0.086528815
227	0x3cfa4ff7	0.030555708
228	0x3da0bf9c	0.078490466
229	0x3bf9a818	0.0076189153
230	0xbe1fe563	-0.15614848
231	0x3d9f4b1d	0.077779986
232	0x3e007183	0.12543301
233	0xbd758b3a	-0.05994723
234	0xbdefc468	-0.117073834
235	0xbd26d1e2	-0.040727504
236	0x3cd6154f	0.026133208
237	0x3d7d1708	0.061789542
238	0x3dab754d	0.08371983
239	0x3d66f814	0.05638893
240	0xbcadf27b	-0.021233788
241	0xbd3c515a	-0.04597602
242	0x3e310246	0.17286023
243	0xbe4558fe	-0.19272229
244	0x3e15e1bc	0.14636892
245	0x3e05b7d9	0.13058414
246	0x3e296b5d	0.16544862
247	0x3d449a80	0.047998905
248	0x3da6e4b6	0.08149092
249	0x3c2bf5f4	0.0104956515
250	0x3da71c85	0.081597365
251	0x3e1207be	0.14260766
252	0xbc83f65a	-0.01610868
253	0xbd413bc4	-0.047176138
254	0xbd80310e	-0.062593564
255	0xbd1c3334	-0.03813477

layer_1.bias f4 [33]
0	0x3de4df28	0.11175376
1	0x3e03515a	0.12824002
2	0x3c0820ea	0.008308629
3	0xbe21720a	-0.15766159
4	0x3d6c07f8	0.057624787
5	0xbcbd89b9	-0.02313696
6	0xbe12a6a1	-0.14321376
7	0x3cdb88c2	0.02679861
8	0x3db7743d	0.089577176
9	0x3dd91f71	0.106017
10	0xbcc292c6	-0.023751628
11	0xbd4d9681	-0.05019236
12	0x3d4dbfce	0.050231747
13	0xbdfb9df7	-0.12285989
14	0xbe273aa7	-0.16330968
15	0xbdcc8957	-0.09987133
16	0x3db6be9c	0.089230746
17	0x3deae424	0.114692956
18	0xb9f15ce0	-0.000460363
19	0x3d54e10a	0.051972426
20	0xbdabbf74	-0.08386126
21	0xbda4f1fe	-0.08053969
22	0xbc1b6732	-0.009485053
23	0xbdf7049f	-0.12061428
24	0x3df7b25f	0.120945685
25	0xbe2d2797	-0.16909634
26	0x3da5b4a6	0.080910966
27	0xbc235b76	-0.009970536
28	0x3d683c0d	0.056697894
29	0x3df0f882	0.11766149
30	0x3e23a948	0.15982544
31	0xbde55585	-0.11197952
32	0x3dc5d70d	0.09660158

layer_2.weight f4 [34, 33]
0	0xbe2ce8bc	-0.16885656
1	0x3df9463d	0.121716
2	0x3d306a14	0.043069914
3	0x3cbefe7e	0.02331471
4	0x3e1af2ef	0.15131734
5	0xbd691822	-0.05690778
6	0x3e46437f	0.19361685
7	0x3d46682c	0.04843919
8	0x3d5c98ee	0.053856783
9	0xbbbdca9e	-0.005791976
10	0xbe099238	-0.13434684
11	0x3df338d7	0.11876076
12	0xbdd9812b	-0.1062034
13	0x3e10852c	0.14113301
14	0x3d81a3d0	0.06330073
15	0x3da0ef2c	0.078581184
16	0xbe303ec0	-0.17211437
17	0x3d8054ac	0.0626615
18	0x3dc8c708	0.09803587
19	0x3d900023	0.07031276
20	0x3e030a2d	0.1279685
21	0xbb558590	-0.003258083
22	0x3e03c0ec	0.12866563
23	0x3dede9c5	0.116168536
24	0xbe36e3d2	-0.17860344
25	0xbd51923e	-0.051164858
26	0xbd96c2d6	-0.07361381
27	0xbd29e0e2	-0.04147423
28	0xbe226ef8	-0.15862644
29	0xbe1b07ba	-0.15139666
30	0xbe15f17c	-0.146429
31	0xbd9f90cd	-0.077912904
32	0xbe03f78b	-0.12887399
33	0xbda5500b	-0.080719076
34	0x3df19ec5	0.11797861
35	0x3cb7f9e9	0.022458034
36	0x3d8ee7c5	0.069778
37	0x3e30a771	0.17251374
38	0x3d82fe55	0.06396166
39	0xbcdd7ad2	-0.027036104
40	0x3e11b002	0.14227298
41	0xbabaf538	-0.0014263755
42	0xbdf81aed	-0.12114511
43	0x3d585698	0.052816957
44	0x3e4265ea	0.1898419
45	0xbe33c641	-0.17556097
46	0xbd15d521	-0.03658021
47	0x3daad9f8	0.083423555
48	0xbde7e552	-0.11323036
49	0x3e449b31	0.19199826
50	0x3e0248f2	0.12723139
51	0x3cb320f8	0.021866307
52	0xbd9495ad	-0.07255111
53	0xbd75dcbf	-0.060024973
54	0x3c855c38	0.016279325
55	0x3e2c3aff	0.1681938
56	0x3c811998	0.015759274
57	0xbe0e9458	-0.13923776
58	0x3e127c85	0.14305313
59	0xbdd79f26	-0.10528402
60	0xbdc80715	-0.09766976
61	0x3d8c72c1	0.06857825
62	0x3e2db86e	0.16964886
63	0x3dbfc43d	0.09363601
64	0x3e094009	0.13403334
65	0x3c8938eb	0.016750773
66	0x3e0667bc	0.13125509
67	0x3d32ca0a	0.04364971
68	0x3de121d7	0.109927826
69	0xbcd9d2ea	-0.02658983
70	0x3db288a8	0.08717471
71	0xbdd1c114	-0.10241905
72	0xbe180fa9	-0.14849724
73	0x3d4f05dd	0.0505427
74	0x3e04498e	0.12918684
75	0x3e31d8cc	0.17367858
76	0xbd724512	-0.0591479
77	0xbc022d20	-0.007945329
78	0xbd2721a2	-0.04080356
79	0xbdcf0b13	-0.10109534
80	0xbe00e6dc	-0.12588066
81	0x3d761602	0.060079582
82	0xbe084e78	-0.13311183
83	0xbcb2f5da	-0.021845747
84	0xbe044195	-0.12915643
85	0xbe15855b	-0.14601652
86	0x3da52eb9	0.08065552
87	0xbdaacff3	-0.083404444
88	0x3e0b6dee	0.13616154
89	0x3db2e689	0.08735377
90	0x3d02a6d9	0.0318974
91	0xbd4a9bae	-0.049464874
92	0x3b94a748	0.004536543
93	0xbc83bf9b	-0.016082576
94	0x3dcab8f8	0.09898561
95	0xbc6e4743	-0.014543357
96	0xbdd20abd	-0.102559544
97	0x3d15bbc6	0.036556028
98	0x3e156c67	0.14592133
99	0xbc63a65a	-0.013894642
100	0xbd21f443	-0.039539587
101	0x3e199535	0.14998324
102	0x3de62cc1	0.11239005
103	0xbd7fd7f2	-0.0624618
104	0xbe3963d5	-0.18104489
105	0xbde90622	-0.11378123
106	0xbd8f2748	-0.06989914
107	0x3dc62651	0.09675277
108	0xbe05e098	-0.13073957
109	0xbcd2a050	-0.025711209
110	0xbe29dd5a	-0.16588345
111	0xbe39ca1e	-0.18143508
112	0x3be0ecf2	0.0068641836
113	0x3e2680ae	0.16260025
114	0xbe1063f7	-0.14100634
115	0xbd5dbbb7	-0.054134097
116	0xbd398128	-0.04528919
117	0xbd378d16	-0.044812284
118	0xbd6b8048	-0.057495385
119	0xbd87a803	-0.066238426
120	0xbe330a8f	-0.17484497
121	0x3db26b83	0.087119125
122	0xbe1a3077	-0.1505755
123	0x3d37e988	0.044900447
124	0xbddd7374	-0.108130366
125	0xbd583f7a	-0.05279491
126	0x3cb9b9b6	0.022671562
127	0xbd8c8550	-0.06861365
128	0xbe093463	-0.1339889
129	0x3e21b9d7	0.15793549
130	0x3ab851c8	0.0014062459
131	0xbe23d8c1	-0.16000654
132	0x3bf6a70e	0.0075272387
133	0x3cb06cf1	0.021536322
134	0xbd1c8b16	-0.03821858
135	0xbdcd63ec	-0.10028824
136	0xbced8416	-0.028993648
137	0x3d42736f	0.047473367
138	0x3d995364	0.074866086
139	0xbc07c2ab	-0.008286159
140	0xbd365d02	-0.044522293
141	0xbdc1b5c6	-0.09458499
142	0x3db6865f	0.08912348
143	0xbe237208	-0.15961468
144	0xbe04a931	-0.12955166
145	0x3c84e0bf	0.016220449
146	0xbd72c030	-0.059265316
147	0xbe2a38f9	-0.16623296
148	0xbddf7278	-0.10910505
149	0x3d7a35cd	0.061086465
150	0x3de8546b	0.113442264
151	0xbc1f7130	-0.009731576
152	0x3cd6e21d	0.026230866
153	0xbd9b4109	-0.07580764
154	0xbdc63dd2	-0.0967976
155	0xbd47445a	-0.04864917
156	0xbd58e0e7	-0.05294886
157	0x3cd06b0b	0.025441667
158	0xbe2c5dba	-0.16832629
159	0xbdedb31f	-0.1160643
160	0x3d0f4f0c	0.034987494
161	0xbdf260c1	-0.118348606
162	0xbcd82e3c	-0.026389234
163	0xbc7aba05	-0.01530314
164	0x3de4416d	0.111452915
165	0x3cc8f7c5	0.024532208
166	0x3dd996b3	0.10624447
167	0x3bc6db7e	0.006068646
168	0xbe1b2725	-0.15151651
169	0xbddc5b33	-0.10759582
170	0xbda80c2f	-0.08205449
171	0xbe1d9b89	-0.15391363
172	0x3dae4ae6	0.085103795
173	0xbd354450	-0.0442546
174	0x3b8cdcb6	0.0042987717
175	0xbe04a9ea	-0.12955442
176	0xbd6d89d2	-0.057992764
177	0x3e292db5	0.16521342
178	0xbd82e7f5	-0.063918985
179	0x3b8f0bc8	0.004365418
180	0x3d8669e6	0.06563167
181	0xbd0dbaf1	-0.03460211
182	0x3e0002f0	0.1250112
183	0xbe2179e5	-0.15769155
184	0x3c5dc7a5	0.0135363685
185	0x3cc4543e	0.023965951
186	0xbd8ec623	-0.06971385
187	0x3d4c77e6	0.04991903
188	0x3e046e1e	0.12932631
189	0xbe1a72a2	-0.15082791
190	0x3db3c50c	0.08777818
191	0x3d7da418	0.06192407
192	0xbd727d3e	-0.05920147
193	0x3e296473	0.16542225
194	0x3d277846	0.040886186
195	0x3dc6849c	0.09693262
196	0xbe164994	-0.14676505
197	0x3e2208e6	0.15823707
198	0x3c9d40e0	0.019195974
199	0x3df117dd	0.1177213
200	0x3df0b95d	0.11754105
201	0x3df23ffa	0.11828609
202	0xbe46a7fa	-0.19400015
203	0x3d7f97ac	0.062400505
204	0x3e057c07	0.13035594
205	0x3db05560	0.08610034
206	0x3d448b62	0.04798449
207	0xbcac6294	-0.0210431
208	0x3bc493b6	0.005999054
209	0xbe116170	-0.14197326
210	0x3dbc09eb	0.09181579
211	0x3d91ca80	0.07118702
212	0xbdf136e9	-0.117780514
213	0xbce3405f	-0.027740655
214	0xbd16848e	-0.036747508
215	0x3dacd47c	0.08438966
216	0xbda46644	-0.08027318
217	0xbde3063f	-0.11085176
218	0xbe26528e	-0.1624243
219	0x3d376b92	0.04478032
220	0x3e1cacbd	0.1530027
221	0xbd8689e7	-0.065692715
222	0x3da46a31	0.08028067
223	0xbdb9e1a2	-0.09076239
224	0xbd8c4ea2	-0.068509355
225	0x3dd8daf2	0.105886355
226	0xbcdbf45c	-0.026849918
227	0x3e031e0d	0.12804432
228	0xbe26363a	-0.16231623
229	0x3d451367	0.048114207
230	0xbe0ea266	-0.13929138
231	0x3b8ba45b	0.004261536
232	0x3e1e466e	0.15456554
233	0xbd2bebfe	-0.041973107
234	0x3e181a46	0.14853773
235	0x3d8a22d1	0.06744922
236	0xbc2145d8	-0.009843312
237	0xbe1cebb0	-0.15324283
238	0xbe1b28fb	-0.15152352
239	0xbca81731	-0.020518871
240	0x3d50af6e	0.050948553
241	0xbd4bb9c2	-0.0497377
242	0x3d3ccd52	0.046094246
243	0xbcd3d27a	-0.025857199
244	0xbe0eda77	-0.13950525
245	0x3de851cc	0.113437265
246	0xbda0bfd8	-0.07849091
247	0xbe2ed465	-0.1707321
248	0x3da291c2	0.07937957
249	0xbe2e3695	-0.17013009
250	0x3d25d906	0.040490173
251	0x3d9ed100	0.07754707
252	0xbcb4ccf4	-0.022070386
253	0xbc08404b	-0.00831611
254	0xbdba42c9	-0.090947695
255	0xbe081224	-0.1328817

layer_2.bias f4 [34]
0	0xbdd9e43c	-0.106392354
1	0x3d586a7c	0.052835926
2	0xbaab8cf8	-0.0013088277
3	0xbbe2e7f4	-0.0069246236
4	0x3d789baa	0.060695328
5	0xbe061d10	-0.13097024
6	0x3e08d491	0.13362338
7	0xbd8dbd83	-0.06920912
8	0xbd14da0e	-0.036340766
9	0x3cec4656	0.028842133
10	0x3dd04fc5	0.10171465
11	0xbc7e8cdc	-0.015536513
12	0xbe1107d9	-0.1416315
13	0xbdf9b013	-0.121917866
14	0x3dcf8d1f	0.101343386
15	0xbd5c6030	-0.05380267
16	0xbd854a17	-0.06508272
17	0x3e1133b6	0.14179882
18	0xbcd304c2	-0.025759105
19	0xbe196b69	-0.1498238
20	0x3d200389	0.03906587
21	0x3db5d148	0.08877808
22	0xbb83c146	-0.0040208427
23	0x3d563444	0.052295938
24	0x3c3a0f83	0.011356237
25	0x3c769e55	0.015052398
26	0xbdc565eb	-0.0963858
27	0xbe00cf28	-0.12579024
28	0xbd90ea5e	-0.07075952
29	0xbe1cde7e	-0.15319249
30	0x3d052fd5	0.03251632
31	0x3cc031bd	0.023461217
32	0x3e2b2010	0.1671145
33	0xbe04f52e	-0.12984154

layer_3.weight f4 [36, 34]
0	0x3e2858fd	0.16440196
1	0xbc58d55a	-0.013234461
2	0xbd613c75	-0.054989297
3	0x3cd002de	0.025391992
4	0x3e2845fe	0.1643295
5	0x3d79bfc6	0.060973905
6	0x3c90bfcb	0.017669579
7	0xbcc7a5cd	-0.024371052
8	0x3c9ce940	0.019154191
9	0x3c831938	0.016003236
10	0xbc7587d8	-0.014986001
11	0xbc2cf05d	-0.010555354
12	0x3becffa4	0.007232623
13	0x3d95a783	0.07307341
14	0x3e0622b0	0.1309917
15	0xbe0220aa	-0.12707773
16	0xbbb5bf74	-0.0055465046
17	0xbccb2601	-0.024798395
18	0xbe0353d8	-0.12824953
19	0x3d9c8413	0.07642379
20	0x3dfa52f2	0.12222852
21	0x3e3a4ea3	0.1819406
22	0x3c42bf58	0.01188644
23	0x3da994bc	0.08280322
24	0x3ce296ae	0.02765974
25	0x3dd96c46	0.10616355
26	0xbcc95e65	-0.024581144
27	0x3e16af19	0.14715232
28	0xbdfc6a27	-0.123249345
29	0xbdccfec3	-0.100095294
30	0xbb73fb8c	-0.003722879
31	0xbd2b83a0	-0.041873574
32	0x3d8392ef	0.0642451
33	0x3c9fa619	0.019488381
34	0x3df13032	0.11776771
35	0x3d43b5cf	0.047780808
36	0xbe00f82f	-0.12594675
37	0x3c15561f	0.009114771
38	0xbdb4dd07	-0.0883122
39	0x3c757b57	0.01498302
40	0xbd4bbb97	-0.049739446
41	0x3de95fef	0.11395251
42	0x3d4dba82	0.050226696
43	0x3df87095	0.12130848
44	0xbe2d37a1	-0.16915752
45	0xbc9e9def	-0.019362418
46	0xbbde183d	-0.006777792
47	0xbccf0c6c	-0.025274478
48	0x3c01a47e	0.007912753
49	0xbd73b21a	-0.059496023
50	0xbc6818e2	-0.014166089
51	0xbe05629c	-0.13025898
52	0x3e0a84c2	0.13527206
53	0x3c8e25ba	0.017351974
54	0xbd6fbf97	-0.058532324
55	0x3c826599	0.015917586
56	0x3dd310fc	0.10305974
57	0x3c54711e	0.012966422
58	0xbd6963bf	-0.05697989
59	0x3d3e0eaf	0.046400722
60	0x3d93c34b	0.072149836
61	0x3d11dd49	0.035611425
62	0x3b12729e	0.002234615
63	0xbe2e962e	-0.17049477
64	0xbd008c96	-0.031384073
65	0x3dfb168f	0.12260162
66	0xbd1d7833	-0.03844471
67	0xbc34c2f3	-0.011032808
68	0xbe25afc9	-0.16180338
69	0xbd055a77	-0.032556977
70	0x3c123ae2	0.008925172
71	0x3d9030cf	0.070405595
72	0x3e2b7794	0.16744834
73	0x3e1d6137	0.15369116
74	0xbe0fa863	-0.14029078
75	0xbc839090	-0.016060144
76	0x3c4f42eb	0.012650232
77	0x3e19f913	0.1503642
78	0x3b57c28c	0.0032922355
79	0xbdb58c18	-0.088646114
80	0x3c80d0dd	0.015724594
81	0xbc2417b8	-0.010015421
82	0xbd0dd729	-0.03462902
83	0xbdf299ba	-0.11845727
84	0x3c111c91	0.008856908
85	0x3da2e394	0.07953563
86	0xbc9b2e3b	-0.018942943
87	0x3c0f79c4	0.0087570585
88	0x3d458c8d	0.048229743
89	0xbcaf7e32	-0.02142248
90	0xbe28bda6	-0.16478595
91	0xbe19362d	-0.14962073
92	0x3d8813c4	0.06644395
93	0xbda18f30	-0.07888639
94	0x3ce0f0fb	0.027458658
95	0xbdc970bf	-0.09835958
96	0xbdcaf87e	-0.099106774
97	0x3d4b2d71	0.049603883
98	0x3da43dde	0.08019613
99	0x3da28a2a	0.07936509
100	0xbd359738	-0.044333667
101	0x3d9cd272	0.07657327
102	0xbdd4aeaf	-0.10384881
103	0x3e2fe0f4	0.17175657
104	0xbdfc0534	-0.1230568
105	0x3d1e458a	0.038640536
106	0xbde105f5	-0.10987464
107	0x3c0f166d	0.008733374
108	0x3d67f1fd	0.056627262
109	0xbe14818a	-0.1450254
110	0xbe096f6d	-0.13421412
111	0xbdcac1f9	-0.099002786
112	0xbe2b6a13	-0.16739683
113	0x3e00e22e	0.1258628
114	0x3d45b0d4	0.04826434
115	0x3e1846c0	0.14870739
116	0x3e24f271	0.16108109
117	0x3c80b156	0.01570956
118	0x3e0f8d98	0.14018857
119	0x3ddd16e1	0.107953794
120	0x3d2369a8	0.039895684
121	0xbde86496	-0.1134731
122	0xbd707768	-0.058707625
123	0x3db8bb8b	0.09020146
124	0x3de66e96	0.11251561
125	0xbe056fb3	-0.13030891
126	0xbde6299d	-0.11238406
127	0xbd130530	-0.03589362
128	0x3e0472e4	0.12934452
129	0xbd5aa802	-0.05338288
130	0x3e3f6bc3	0.18693452
131	0xbd7b7e7c	-0.06139992
132	0x3e01e2ae	0.12684128
133	0x3de5d75e	0.11222719
134	0x3cf793cf	0.030221848
135	0xbe18d18f	-0.1492369
136	0xbd9dfdde	-0.07714437
137	0xbaf7ee30	-0.001891559
138	0x3e0e6d25	0.13908823
139	0xbcb7e20e	-0.022446658
140	0x3d847b3f	0.0646882
141	0xbc88c7a4	-0.016696759
142	0xbdfbd7ee	-0.12297045
143	0xbe08297b	-0.13297074
144	0xbd0c6172	-0.03427262
145	0xbd050338	-0.032473773
146	0x3e133e2b	0.14379184
147	0x3b55d358	0.0032627191
148	0x3db46c5d	0.08809731
149	0xbda9329d	-0.08261607
150	0x3db70c30	0.089378715
151	0xbd6d1340	-0.057879686
152	0x3d0b9fbf	0.034087893
153	0x3d790fbc	0.06080602
154	0xbe0e0d00	-0.13872147
155	0x3e3215be	0.17391106
156	0xbd421b4a	-0.047389306
157	0x3d9cc9ee	0.076557025
158	0x3dd8b59e	0.10581516
159	0xbdd2aeca	-0.102872446
160	0x3dc74646	0.097302005
161	0x3ba10588	0.0049139895
162	0xbdb59862	-0.08866955
163	0xbd94d223	-0.07266643
164	0xbe030026	-0.12793025
165	0x3ddf6aec	0.109090656
166	0x3da163c1	0.07880355
167	0x3dacf322	0.084448114
168	0xbdc0391a	-0.09385891
169	0x3e22bf23	0.15893225
170	0x3e12ef8d	0.14349194
171	0xbd9bf304	-0.07614711
172	0xbd80a381	-0.06281186
173	0xbdf1b401	-0.11801911
174	0x3cd842a4	0.026398964
175	0x3d637c26	0.05553832
176	0x3e133fa5	0.14379747
177	0xbdabc712	-0.08387579
178	0xbe118f21	-0.14214756
179	0xbe25ed37	-0.16203772
180	0x3d545406	0.051837943
181	0x3da2e422	0.07953669
182	0x3d02e57c	0.031957135
183	0x3d97bc4f	0.07408964
184	0x3c97dcb6	0.01853786
185	0x3d864aa8	0.06557208
186	0x3dbf3459	0.093361564
187	0xbd9ac8bc	-0.07557818
188	0xbdfa59e0	-0.122241735
189	0xbe0dedc5	-0.13860233
190	0xbe40f721	-0.18844272
191	0x3dbef3fa	0.093238786
192	0x3db66bfd	0.08907316
193	0xbe239a9b	-0.15976946
194	0xbe3dea5a	-0.1854643
195	0x3cea0f67	0.028571798
196	0xbdeb1abc	-0.114797086
197	0xbdda4909	-0.106584616
198	0x3c8e5fa5	0.017379591
199	0x3db4a5b1	0.08820666
200	0x3e0550e0	0.13019133
201	0x3bb04792	0.0053796256
202	0xbdca5439	-0.098793454
203	0xbd808250	-0.06274855
204	0x3e1566b1	0.14589955
205	0xbe070465	-0.1318527
206	0x3e1844c8	0.14869988
207	0xbd5b379e	-0.053519838
208	0x3dc0ed4c	0.09420261
209	0x3e154a2f	0.1457908
210	0xbdec9c60	-0.11553264
211	0xbdf2bbea	-0.11852248
212	0xbe4320ae	-0.19055435
213	0x3cd2a411	0.025712999
214	0x3df4d799	0.119551845
215	0x3dc4991a	0.09599514
216	0xbd3ab966	-0.045586966
217	0xbe14d2fb	-0.14533608
218	0x3cedfb4d	0.029050494
219	0x3cf7a0a0	0.03022796
220	0xbd1aac01	-0.037761692
221	0x3a6eb870	0.0009106463
222	0xbe03adb9	-0.12859239
223	0xbdec368f	-0.11533844
224	0x3d2d427a	0.042299725
225	0xbc7d1a47	-0.01544816
226	0x3e067ce8	0.13133585
227	0x3dd8bc93	0.10582843
228	0xbd2c060c	-0.041997954
229	0xbe21d0e7	-0.15802346
230	0xbaf6c62b	-0.0018827369
231	0x3c8548dc	0.016270094
232	0xbd9564f4	-0.07294646
233	0x3e0601c0	0.13086605
234	0xbe01e8ad	-0.12686415
235	0xbdd493e4	-0.103797704
236	0x3e241be7	0.16026269
237	0x3de4385e	0.11143564
238	0x3dc56ab9	0.09639496
239	0xbdabcfa7	-0.08389216
240	0x3d6562b3	0.05600233
241	0x3d28fe7d	0.041258324
242	0xbe144222	-0.14478353
243	0x3e0f3540	0.13985157
244	0xbcf21d63	-0.029555028
245	0xbe2abef0	-0.166744
246	0x3da8129d	0.08206675
247	0x3df48d3f	0.11941003
248	0xbe068eec	-0.13140458
249	0x3cd6e804	0.02623368
250	0xbdb7e334	-0.089788824
251	0x3e093ecf	0.13402866
252	0xbdf0e598	-0.117625415
253	0x3e1d8225	0.15381677
254	0x3dc29dae	0.09502731
255	0xbd2773b3	-0.040881824

layer_3.bias f4 [36]
0	0x3e1196fc	0.14217752
1	0xbdcd0faf	-0.10012757
2	0xbe0da70f	-0.13833259
3	0x3e1289ae	0.14310333
4	0x3e2b8982	0.16751674
5	0x3d3cbab8	0.046076506
6	0x3d34ba2e	0.044122867
7	0xbdf7bfbf	-0.120971195
8	0xbd207d40	-0.039181948
9	0x3d09f7fb	0.03368376
10	0x3d7307a2	0.05933345
11	0xbe2d69bd	-0.16934867
12	0xbcff96fe	-0.031199928
13	0x3d9585a4	0.073008806
14	0xbe0f4fbf	-0.13995264
15	0x3da455d2	0.080241814
16	0x3c1e1ec8	0.0096508935
17	0x3d203fc2	0.039123304
18	0x3d1dda4a	0.038538255
19	0x3d8fd5fa	0.07023235
20	0x3de9f902	0.114244476
21	0x3c3658da	0.011129582
22	0x3d11a61e	0.035558812
23	0xbd003dc3	-0.0313089
24	0xbe02bffd	-0.1276855
25	0xbdb4d27d	-0.0882921
26	0xbe188183	-0.14893155
27	0xbd44e62d	-0.048071075
28	0xbbfb2df8	-0.007665392
29	0xbdcc29d5	-0.09968916
30	0x3c6e554e	0.014546705
31	0xbe03b9a2	-0.12863782
32	0xbe0c648f	-0.13710235
33	0xbe04802b	-0.12939517
34	0xbd1c1a4d	-0.03811102
35	0x3d0552bf	0.032549616

action.weight f4 [36, 36]
0	0xbbeac218	-0.007164251
1	0xbd0431b0	-0.03227395
2	0x3d7ea200	0.062166214
3	0xbc82eda7	-0.015982462
4	0x3dd52b54	0.10408655
5	0xbe0327e2	-0.12808183
6	0x3dd0a414	0.101875454
7	0x3d348d90	0.044080317
8	0x3c254aed	0.0100886645
9	0xbdd80f66	-0.10549812
10	0xbcfbc064	-0.030731387
11	0xbdf6f466	-0.12058334
12	0xbc2097aa	-0.0098017845
13	0x3c953b4c	0.018216752
14	0xbc7c6caa	-0.015406767
15	0xbdaaef6d	-0.08346448
16	0x3d46ac1e	0.048503987
17	0x3e3a285f	0.18179463
18	0x3d2c03bb	0.041995745
19	0xbcd2a72c	-0.02571448
20	0xbe02187a	-0.1270465
21	0x3c75b91d	0.014997748
22	0x3e3c4f8b	0.18389718
23	0xbd84a46c	-0.064766735
24	0xbdb4259c	-0.08796236
25	0xbd894ddb	-0.06704303
26	0xbdd8fbfe	-0.10594939
27	0xbcf43a4d	-0.029812956
28	0x3d8d6094	0.069031864
29	0xbe1f7fe0	-0.15576124
30	0x3deebf81	0.1165762
31	0xbe169ad3	-0.14707498
32	0x3dde310c	0.10849199
33	0x3dc45b82	0.09587766
34	0xbda302fe	-0.07959555
35	0x3e200b3f	0.1562929
36	0xbd9d80e2	-0.07690598
37	0xbcc37a96	-0.023862164
38	0xbc22b8c0	-0.009931743
39	0xbd54722e	-0.051866703
40	0x3ced5e5a	0.028975654
41	0xbd8ac55b	-0.06775924
42	0x3e2d3f58	0.16918695
43	0x3debfc58	0.1152274
44	0x3e269816	0.16268954
45	0x3db8df89	0.09027011
46	0x3d146d90	0.0362373
47	0x3de43b0b	0.11144074
48	0xbdce8610	-0.10084164
49	0x3e18a401	0.14906313
50	0x3e0df673	0.13863544
51	0xbd629220	-0.055315137
52	0x3dc87f0e	0.09789859
53	0xbd5c4a3f	-0.053781744
54	0xbe1214a2	-0.14265683
55	0xbd4eca7a	-0.050486065
56	0xbd464232	-0.048402973
57	0x3d3a8a4a	0.04554204
58	0x3d468f88	0.048476726
59	0x3d6910ad	0.05690067
60	0xbe237a1e	-0.15964553
61	0x3dc47d50	0.09594214
62	0x3d1f7216	0.03892716
63	0xbd598040	-0.053100824
64	0x3d4f258d	0.05057292
65	0x3dd9d6c1	0.10636664
66	0x3d7d6d57	0.061871853
67	0x3db4fbce	0.088370904
68	0xbd37dd71	-0.044888917
69	0x3d678eca	0.05653266
70	0x3b797400	0.0038063526
71	0x3c23d261	0.009998889
72	0x3de39201	0.111118324
73	0xbe036d12	-0.12834576
74	0x3dee056e	0.116221294
75	0xbb77f5d4	-0.0037835734
76	0x3d8d114e	0.06888066
77	0x3e22731d	0.15864225
78	0x3d86ab9a	0.06575699
79	0x3da63c9b	0.08117028
80	0x3a833758	0.0010011
81	0xbd23c6ad	-0.039984394
82	0xbe11bb45	-0.14231594
83	0x3d0678fb	0.03283022
84	0x3d868b88	0.06569582
85	0xbd725d5a	-0.05917106
86	0x3de2db51	0.110769875
87	0x3e2abd87	0.16673861
88	0xbd544430	-0.05182284
89	0xbd3efe44	-0.046629205
90	0x3cc46bd0	0.02397719
91	0xbdb4fcd2	-0.08837284
92	0x3e124083	0.14282422
93	0xbbcf9400	-0.0063347816
94	0x3d3b96ac	0.04579799
95	0x3cd83171	0.026390763
96	0x3be13131	0.006872319
97	0xbe0418ac	-0.12900037
98	0x3d90ef13	0.0707685
99	0xbc82b7d6	-0.0159568
100	0xbdbf46f2	-0.093397036
101	0x3da29a35	0.07939569
102	0x3e3ce3a5	0.18446214
103	0x3da5b94e	0.08091985
104	0xbd49a83f	-0.049232718
105	0xbe0b888a	-0.13626304
106	0xbc86fc56	-0.016477745
107	0x3e0929d4	0.13394862
108	0xbe1e9ab3	-0.154887
109	0x3e1fa257	0.15589271
110	0xbe01132a	-0.12604967
111	0x3cea4a96	0.028600018
112	0x3db04b15	0.08608071
113	0x3db64f97	0.08901899
114	0x3e22a313	0.1588252
115	0xbded80d6	-0.11596839
116	0xbdf75322	-0.12076403
117	0xbe2472b8	-0.16059387
118	0xbe0d8aa1	-0.13822414
119	0x3d578e30	0.052625835
120	0xbc9faafc	-0.019490711
121	0xbcb77bc1	-0.022397878
122	0xbdeda386	-0.11603455
123	0x3dd2fbfc	0.103019685
124	0x3dcb846e	0.09937368
125	0x3d484950	0.04889804
126	0xbdc6f17b	-0.097140275
127	0x3d94b0d1	0.072602876
128	0xbd4a4526	-0.04938235
129	0xbe19afbf	-0.15008448
130	0xbe252411	-0.1612704
131	0x3ce5d481	0.028055431
132	0x3e1e27db	0.15444891
133	0xbe17305b	-0.1476454
134	0xbe02ac26	-0.12760982
135	0xbd969a7e	-0.07353686
136	0xbb95a3fa	-0.0045666667
137	0x3dd0018b	0.10156544
138	0x3d34b772	0.04412026
139	0x3d296896	0.041359507
140	0xbcecb7e7	-0.028896285
141	0xbce354f4	-0.02775047
142	0xbe0808d6	-0.1328462
143	0x3e0a384b	0.13498037
144	0xbc96f4cb	-0.018427273
145	0x3de4a720	0.11164689
146	0xbdfe38cb	-0.12413176
147	0xbe27e308	-0.163952
148	0x3c5654db	0.013081755
149	0x3dbcb4f2	0.092142
150	0xbd744338	-0.059634417
151	0xbdaabe2e	-0.08337055
152	0xbe03df96	-0.1287826
153	0x3cccda77	0.025006516
154	0x3d8b502a	0.068023995
155	0x3e104e54	0.1409238
156	0x3db911e2	0.09036614
157	0x3dfa9b6c	0.122366756
158	0xbca1550b	-0.019693872
159	0xbdb9eba1	-0.09078146
160	0x3d5c1a68	0.05373612
161	0x3d8cba8b	0.06871518
162	0x3d71a810	0.058998168
163	0xbdb559c6	-0.088550135
164	0x3d2d2fce	0.04228192
165	0x3d2c83c3	0.042117845
166	0xbdebcdc4	-0.11513856
167	0x3dc2468f	0.09486114
168	0xbddf19ca	-0.10893591
169	0x3da43b5e	0.08019136
170	0xbd4e2c10	-0.05033499
171	0x3e0f96c7	0.1402236
172	0x3b444a34	0.0029951455
173	0xbd710355	-0.05884107
174	0x3e050371	0.12989594
175	0xbdb28e66	-0.087185666
176	0xbd33bc00	-0.043880463
177	0x3caf661b	0.021410992
178	0x3cb50460	0.022096813
179	0x3e00c7ca	0.12576213
180	0x3d8372c5	0.06418375
181	0x3df90d53	0.121607445
182	0xbdd6791e	-0.1047232
183	0xbe1dc430	-0.15406871
184	0x3e109892	0.14120701
185	0x3e24b118	0.16083181
186	0x3d9e92b6	0.07742827
187	0x3e1c29a7	0.15250264
188	0xbd77ff88	-0.060546428
189	0x3dfdb547	0.123880915
190	0xbd32b6b7	-0.04363128
191	0x3ce952cb	0.028481862
192	0x3dde08df	0.10841536
193	0xbc41064a	-0.011781285
194	0xbe273c70	-0.16331649
195	0xbde8b39a	-0.11362381
196	0xbdc763d9	-0.09735841
197	0xbdbd11f1	-0.09231938
198	0x3e3501cf	0.17676471
199	0x3daacb1d	0.08339522
200	0x3e0d9508	0.13826382
201	0x3e1ffa0c	0.15622729
202	0xbd0afa26	-0.033929966
203	0x3ca08ae0	0.01959747
204	0x3e0f7cf7	0.14012514
205	0xbe177a30	-0.14792705
206	0x3ced6e4b	0.028983256
207	0x3cb1e286	0.02171446
208	0x3dde8092	0.108643666
209	0xbdb9ce2e	-0.09072529
210	0x3e136f08	0.14397824
211	0xbc58e02b	-0.01323704
212	0x3df3fc41	0.11913348
213	0xbe0079e2	-0.12546495
214	0x3df533a3	0.119727395
215	0x3c90858a	0.017641801
216	0x3dc5fd37	0.096674375
217	0xbd0e1186	-0.03468468
218	0x3dc1b463	0.09458234
219	0xbd8dc4fe	-0.06922339
220	0xbd6b9c46	-0.05752208
221	0xbddc971d	-0.1077101
222	0x3d974119	0.07385463
223	0xbe29d1ac	-0.1658389
224	0x3d9d8540	0.07691431
225	0xbd99dcbd	-0.075128056
226	0x3d7ac2f9	0.061221097
227	0x3d1c3276	0.03813406
228	0x3cec1c15	0.028821984
229	0x3da24bfe	0.079246506
230	0x3ddf0e48	0.10891396
231	0x3d8bfdc7	0.068355136
232	0x3b68900e	0.0035486254
233	0x3d101319	0.035174463
234	0x3e237c5e	0.15965411
235	0xbd8555ae	-0.06510483
236	0x3d480d9a	0.048841096
237	0xbabccd28	-0.0014404403
238	0xbc25a0ae	-0.01010911
239	0x3d6ad9e8	0.057336718
240	0xbe173709	-0.14767088
241	0x3c84252b	0.016131004
242	0xbd806563	-0.06269338
243	0xbda87de4	-0.08227137
244	0xbdca236c	-0.098700374
245	0xbdc8cddb	-0.09804889
246	0xbde771ea	-0.11301024
247	0x3e081c6b	0.1329209
248	0xbe0687da	-0.13137761
249	0x3d904ce0	0.07045913
250	0x3d46aa2b	0.04850213
251	0xbdb29b45	-0.087210216
252	0x3dbba48a	0.09162243
253	0x3e1e2dbf	0.15447138
254	0x3e11312f	0.14178918
255	0x3e3c32ed	0.18378802

action.bias f4 [36]
0	0x3e15e925	0.14639719
1	0x3dfda991	0.12385858
2	0xbd00f368	-0.03148213
3	0xbe27f2e4	-0.16401249
4	0x3e09c829	0.13455261
5	0x3cc4e61a	0.024035502
6	0xbddd3106	-0.10800366
7	0xbde2bebc	-0.11071536
8	0x3d819d71	0.06328858
9	0xbd9fabdb	-0.07796451
10	0x3db4d832	0.088302985
11	0xbd8602bc	-0.0654349
12	0x3d3ad17b	0.045609932
13	0x3e1dd040	0.15411472
14	0xbd511691	-0.05104691
15	0x3e10fca8	0.1415888
16	0x3e044a97	0.12919079
17	0x3e142093	0.14465551
18	0xbda5f3f3	-0.0810317
19	0xbdb5c17c	-0.08874795
20	0xbb9f844c	-0.004868066
21	0x3def3be7	0.11681347
22	0x3de2e7d5	0.11079375
23	0xbe20bdb2	-0.15697363
24	0xbd5ddfe2	-0.05416859
25	0x3c87c1c4	0.016571887
26	0x3c9721e4	0.018448777
27	0x3d9ea4c0	0.07746267
28	0x3d2216ae	0.03957241
29	0xbca52f36	-0.020164113
30	0x3dfd9c5d	0.123833396
31	0xbdaf64e1	-0.08564163
32	0xbde1d365	-0.110266484
33	0xbdbc0d33	-0.09182205
34	0x3dcf03fd	0.101081826
35	0x3e2a3d58	0.16624963
