st_dev_model.pt (torch, 21583 bytes, 8 tensors)

layer_1.weight f4 [33, 30]
00000000: e29d bb3d b222 0b3e 48a8 e13d 2835 05bc
00000010: 70dd 4e3b 9ef0 1bbe 4f48 01be 79e1 873d
00000020: a8f5 99bc e76b fa3d 8383 c03d e8c9 07be
00000030: fb56 063e 891c 47be 29cd b93d 91a3 3c3e
00000040: b304 c1bc 92c9 11bd 249c 18bd 2f50 383c
00000050: 43fa 093e 8be3 16be 13d2 f8bd 2925 33be
00000060: ddf6 b3bd 52b1 abbd 4867 60bd f8e7 52bc
00000070: c607 08bc 4ec9 c73c 6eea 35bd f093 043e
00000080: 6a4a 003e af18 02be d6b1 ab3d 9e36 0fbe
00000090: dc2f 21be db8e 0d3e 472a 8a3b bef5 7fbb
000000a0: c753 9e3d 58a6 cfbd bae9 60bd ab8a 2f3e
000000b0: 0e8b 08be e8e6 e5bd 660d 38be db4f 2f3e
000000c0: 561c 5bbd b83e d43d 0fa4 35be 433e 873d
000000d0: 363d 933d 4e24 e23d 5ada db3c 6a2a 143e
000000e0: a12d 103e 12ba 88bb 308f c73d e320 b5bd
000000f0: f3dd a13c 0eff de3d 48b9 a5bc 3264 983c
00000100: 923b e8bd dda2 d2bd c06b e63b e1ec 0bbe
00000110: e9af e2bd f8f0 8abd 5898 02be ac8e 453d
00000120: 25ce ed3c c54b b43d 355c 1ebe a2f5 75bd
00000130: 3520 f93d c7ce 94bc 35c3 38be 4cfb 2cbc
00000140: 3c3b 40be a085 7b3d 6779 00be 20c3 073e
00000150: 1d52 473e d3f6 e7bd caa1 4ebd 0aaa b8bd
00000160: 1853 27be d489 273e d3c0 5f3c 6989 01be
00000170: 8b7c 22bc 2044 863d 7ab2 cabc d7a6 05be
00000180: 066f a13d ab3f d13d 4fb6 20be 3498 28bd
00000190: d993 0d3d 6c23 573d 6498 66bd f22c 503c
000001a0: 8892 0d3d a13b e03d 9a9c 523d 98e6 513d
000001b0: 460e 07be 1baf 2ebd 6566 ffbd b255 3dbd
000001c0: c092 32be fe30 5ebd 063f d83d 9e62 8bbd
000001d0: 6684 cfbd e2bc 18be eeee 3abe b732 ed3d
000001e0: fbc0 07be 6243 2f3e a3da 16be 54a6 d6bc
000001f0: ddff 2b3e 9809 1e3e ad83 d03d 8bf1 b1bd
00000200: 6155 2a3e 6c4d 63bb 5394 b4bd b89a 3fbe
00000210: ed33 273d 9288 8b3d 0712 f23d 8aed a33d
00000220: 0ae5 1bbc ed0a 17be 8012 f1bb 40b8 40bd
00000230: ebb2 ee3d cc6b 2e3e 1293 ea3d e3c3 f9bd
00000240: 6839 1c3b cfff d4bd 7658 18be 6108 cc3d
00000250: 005b 0b38 26a4 ff3d 4336 8a3d c509 a7bd
00000260: 9fa2 4a3d 6364 803d 0384 cc3d d66f 7d3d
00000270: 1aca c6bd e871 bd3b 8895 513d 0581 633d
00000280: 06c9 913d 5b18 803c a6a0 45bd e745 763c
00000290: 97b8 0bbe d334 1b3d c1ac 1a3e d0ce 0dba
000002a0: 52dd 31be 2ed9 143e 86a0 32be 8fe1 ef3d
000002b0: a56b 0dbe 9261 f63d bf04 c83c b461 02be
000002c0: 2b39 42bc 1ab4 303e d93c 113e 0a80 683d
000002d0: 3039 d93d 172d 1d3e a084 3e3e 4fa4 bbbb
000002e0: a5ed 893c c701 103e bd4e 36be 8edb 0a3e
000002f0: af0b b03d a5fc 0f3e 7696 2a3e 99be 2fbe
00000300: f460 1a3e ced6 de3c 4963 eabd 1295 723d
00000310: d163 903d 6138 14be d2ad 5e3d 856c 23bc
00000320: 8256 623d b6c6 253d beac 8bbd d2a7 e03d
00000330: f2b7 16bd c0c3 e1bd 625c 563d 90ce 813d
00000340: 21a4 083e 328c 113e 18f0 72bd 10de 13be
00000350: 5acd 023e 8e0c 763d f423 e03c 1f5e 2c3e
00000360: b533 a4bb 71dc 4b3d 637a 33be 3096 133e
00000370: 999e 52be 3120 c4bd bbcd bc3d ed3f a3bb
00000380: ea2b a5bd ddf6 27be 2471 c5bd 04b9 263d
00000390: 4be5 8c3d e29a 25bb f453 2abe 76b3 b33d
000003a0: c6a6 0a3e f4f6 8ebd c3fb dabd 6e89 4ebd
000003b0: 2c4d 863c 7281 533d dfc5 963d 1fdf 873d
000003c0: 7bf2 adbc a262 11bd 2a95 263e 4fb5 3abe
000003d0: 4f02 0b3e d9b7 053e e636 333e ee14 193d
000003e0: b6e4 a63d 3e08 a93c 4f69 bc3d 8913 083e
000003f0: 8397 d4bc 89b1 16bd 5b6c 95bd c28d 47bd
0.09160973 0.13587454 0.11018425 -0.008130349 0.0031565093 -0.15228507 -0.1262524 0.06634802
-0.018793896 0.12227612 0.09400084 -0.13260615 0.13119118 -0.19444479 0.09072334 0.1842177
-0.023561811 -0.035592623 -0.037258282 0.011249586 0.13474374 -0.14735238 -0.121494435 -0.17494644
-0.0878732 -0.083834305 -0.054785997 -0.0128726885 -0.008302635 0.024387982 -0.044413023 0.12947059
0.12528387 -0.12704729 0.08383529 -0.13985679 -0.15740913 0.13824026 0.0042164656 -0.0039056386
0.07730823 -0.101391494 -0.0549104 0.17142741 -0.13334295 -0.112256825 -0.17973861 0.17120306
-0.05349382 0.10363525 -0.17738365 0.06603672 0.071894094 0.11042081 0.026837517 0.14469305
0.14079906 -0.004172572 0.09744108 -0.08844163 0.019759154 0.108884916 -0.02022995 0.018602464
-0.11339487 -0.1028497 0.007031888 -0.13664581 -0.110687084 -0.067842424 -0.12753427 0.048231766
0.029028961 0.088035144 -0.15464862 -0.060048707 0.12164346 -0.018165005 -0.18043216 -0.010557961
-0.18772596 0.06140673 -0.12546311 0.13258028 0.19464917 -0.11326375 -0.050447263 -0.090168074
-0.16340292 0.16361171 0.013656813 -0.12650074 -0.009917389 0.065559626 -0.024743307 -0.13051926
0.07882504 0.10217222 -0.15694545 -0.041160777 0.034564827 0.052524015 -0.056297675 0.012706028
0.03456357 0.10948873 0.05141888 0.051245302 -0.13189039 -0.042647462 -0.12470702 -0.046224304
-0.17438793 -0.05424594 0.10558896 -0.06805919 -0.10132675 -0.14915803 -0.18255207 0.11581939
-0.1325721 0.17115548 -0.14731841 -0.026202358 0.16796823 0.15433347 0.10181365 -0.08688649
0.16634132 -0.0034683598 -0.08817353 -0.18711364 0.040821005 0.06813158 0.11819845 0.08004291
-0.009515056 -0.14750262 -0.0073569417 -0.047050714 0.1165522 0.17033309 0.11453833 -0.121955656
0.0023837928 -0.10400354 -0.14877495 0.09962536 3.3224933e-05 0.12482481 0.06748631 -0.0815616
0.049471494 0.06269147 0.09986117 0.061874233 -0.097065166 0.005781401 0.051167995 0.055542964
0.0711842 0.015636614 -0.04824891 0.015031314 -0.13644634 0.037892174 0.15104963 -0.00054095406
-0.17369583 0.14535972 -0.17444047 0.11712944 -0.13810594 0.12030329 0.024416326 -0.12732583
-0.01185445 0.17256203 0.14183368 0.056762733 0.10606611 0.15349232 0.1860528 -0.005726374
0.01683695 0.14063178 -0.17803474 0.13560316 0.085959785 0.1406122 0.16658959 -0.17162551
0.15076047 0.027202036 -0.114447184 0.059224196 0.070502885 -0.14474632 0.054364987 -0.009974604
0.05525828 0.04047271 -0.06820057 0.10969509 -0.036796518 -0.110236645 0.052334197 0.06338227
0.1334386 0.14213637 -0.059311002 -0.14440179 0.12773648 0.060070567 0.027360894 0.1683278
-0.005011047 0.049770776 -0.17527156 0.1441276 -0.20568313 -0.095764525 0.092189275 -0.004981986
-0.080650166 -0.16402765 -0.096407205 0.04070379 0.06879672 -0.002526932 -0.16633588 0.08774464
0.13540182 -0.06980696 -0.10692551 -0.050424032 0.01639422 0.05163712 0.0736196 0.06634354
-0.021233788 -0.035494454 0.16267839 -0.18233226 0.135751 0.13058414 0.17501411 0.037373476
0.08149092 0.020633813 0.091997735 0.13288702 -0.025951153 -0.036790404 -0.07296058 -0.048719175

layer_1.bias f4 [33]
00000000: e7d1 cf3d 792b f33d b127 9b3c e1d8 2abe
00000010: 8c3f 8a3d cca3 05bd c1a7 1dbe 957f 173d
00000020: 930a a23d 1b02 ee3d 3feb 08bd 8212 76bd
00000030: 60fc 243d ca95 07be d309 1dbe e8a4 e1bd
00000040: 854b a33d 19dc ff3d e05c 263c aaf0 2c3d
00000050: f32a c0bd dbef b8bd a0c3 9339 f46c e2bd
00000060: 8e82 e33d 4780 22be f1e9 b83d 6e31 a8bc
00000070: f94a 893d 194e dc3d 220e 193e ceb8 fabd
00000080: e57d da3d
0.101474576 0.11873526 0.018939825 -0.16684295 0.06750402 -0.032626912 -0.15396024 0.036986906
0.07912173 0.11621495 -0.033427473 -0.060076244 0.040279746 -0.13240734 -0.15335779 -0.110177815
0.079733886 0.12493152 0.010153979 0.042221703 -0.09383192 -0.09030124 0.00028183777 -0.110559374
0.11108886 -0.15869246 0.09028996 -0.020531382 0.06703753 0.107570834 0.14946797 -0.1224228
0.10668544

layer_2.weight f4 [34, 33]
00000000: 17ee 2cbe 5b68 f83d 2a68 323d c634 bf3c
00000010: 7c55 1a3e f9a9 6bbd d8d7 453e 2bad 443d
00000020: f254 5b3d 11fc cebb 379a 09be 8e25 f33d
00000030: e3e6 d8bd b8c3 103e d2c2 803d 3c70 a13d
00000040: ab18 30be 3403 803d e769 c93d b6c6 903d
00000050: 1dd2 023e ca5b 58bb 7e2c 033e b16e ed3d
00000060: 5db8 36be 7f72 51bd fdc4 96bd 92bd 2bbd
00000070: 60ec 22be f77f 1bbe 4269 16be 43b8 9ebd
00000080: ed4c 04be 6db7 8fbd 054b dd3d c180 063d
00000090: b520 a33d f1b4 263e 364f 983d 3cf4 14bd
000000a0: 3b3d 1c3e 84b6 123c 2aae e2bd 0ce2 803d
000000b0: 9c48 383e f741 29be 3a98 3ebd 1cc5 963d
000000c0: 8057 fbbd 50f0 3a3e 23c2 f03d 20be 033d
000000d0: 0096 7fbd 44ad 4cbd ee87 d73c 08c8 363e
000000e0: 1c36 b93b 81bb 03be ef94 1c3e df53 c2bd
000000f0: 9f05 b3bd e272 713d 1a00 243e 65e8 ab3d
00000100: 7a28 143e ca76 e83b 2971 f83d 4a2a 5b3d
00000110: 351f f53d a683 8abc 10cb c63d 3004 e7bd
00000120: 0c21 22be 52c3 773d 3644 0e3e 6fb1 273e
00000130: 87e5 8dbd 405a d43a b5f4 fbbc e73f babd
00000140: e93a 0bbe 6cd3 4b3d 0f5f fcbd 268d 4abc
00000150: acf3 0ebe bbc5 1fbe 41fa 8f3d b71f 96bd
00000160: dbaf 153e a966 9d3d 46de b33c 6419 21bd
00000170: 18a7 b9bb c61c d1bb f437 df3d 5857 a3bb
00000180: e77e bdbd da17 3f3d fb2a 203e c64c 64bc
00000190: 9e14 23bd cf77 193e 7bcd e63d 00a9 7fbd
000001a0: 4089 39be 1362 e8bd 0b26 8fbd 7df3 c53d
000001b0: 210a 06be 9b5b d2bc 97c0 29be 1d1f 3abe
000001c0: b7e9 ea3b 5f77 263e 7fb7 10be 9f7a 5dbd
000001d0: 7ef7 39bd fac0 36bd 9553 6bbd 3923 87bd
000001e0: 7356 33be c8f4 b13d 0812 1abe 0b6a 383d
000001f0: 7473 ddbd fb64 57bd 99fe ba3c 5085 8cbd
00000200: 400b 09be fca9 213e 5b1e c53a 3efb 23be
00000210: 0669 923c 113e 433c d9d5 eabc d0e3 b8bd
00000220: cb86 98bc 4624 1a3d 33db ad3d d89c 113b
00000230: d2f3 5dbd 0bd3 d5bd 0920 cb3d e05c 2dbe
00000240: bda3 f4bd 6ef8 d43c 6f3b 4bbd e734 20be
00000250: f8ea c9bd dca6 523d 1490 fd3d 0087 5839
00000260: 9542 863c 078a afbd be0e dabd 5958 6fbd
00000270: 9385 80bd 4376 803c 1cc3 21be dd4a d9bd
00000280: 3f0b 393d 9e0c 03be 38d1 83bc 5a41 bdbb
00000290: 803a d03d c91e c93c 2a59 da3d f1ee ce3b
000002a0: 4fe7 1abe 23bf dcbd b54f a7bd 84fc 1dbe
000002b0: 62a1 ae3d 73e3 33bd dfc8 8f3b 6cb0 04be
000002c0: f6d7 6ebd 4c39 293e aa61 82bd aa1c 923b
000002d0: 61e5 853d 4b98 0dbd 2555 003e 351f 21be
000002e0: e658 623c 5059 c73c 3e9f 8ebd 0819 4b3d
000002f0: 67b8 043e 4a2d 1abe 5ad3 b33d 838f 7d3d
00000300: b3ee 71bd 6151 293e 04c0 283d 932d c73d
00000310: 9008 16be b614 223e eef9 173c 6302 033e
00000320: 6557 dc3d e4ae dd3d 2225 3cbe 6ca2 573d
00000330: 3776 0f3e a1b5 9b3d 6ee0 1c3d 0400 fcbc
00000340: c264 68bb 9eef 06be 39c4 cf3d dcaf 7b3d
00000350: e00e ddbd 26c3 90bc dd78 d9bc 8d1a 993d
00000360: c31d 8fbd 5c1c f8bd 814d 30be 9c4c 613d
00000370: 95e6 263e 82c7 62bd 2963 903d 12ee cebd
00000380: 50da 9fbd 0532 c43d 1408 16bd e376 f23d
00000390: c9c3 30be 82e5 1a3d 9e67 04be d57e c2bb
000003a0: 9b53 283e 5875 57bd 773d 0d3e 4ed6 6b3d
000003b0: 00f0 0237 aabd 12be e695 25be 459c 32bc
000003c0: 9c93 783d bc18 76bd e4b4 3b3d 6cbe 13bd
000003d0: d5e8 04be 2efa fc3d 7b61 b5bd 0196 24be
000003e0: 9c99 b63d ae16 24be 9f67 f63c cc3c 9e3d
000003f0: f224 05bd 1bde 07bc 8aa4 a5bd 7366 12be
-0.16887699 0.12129279 0.04355637 0.023340594 0.15071672 -0.057535145 0.19320619 0.04801671
0.053547807 -0.0063166698 -0.13437735 0.11872397 -0.10590913 0.14137161 0.06287159 0.07882735
-0.1719691 0.06250611 0.098346524 0.07069151 0.12775464 -0.0033013695 0.12809941 0.11593378
-0.17843767 -0.051134583 -0.07361791 -0.041928835 -0.15910482 -0.15185533 -0.1468859 -0.07749989
-0.1291997 -0.070174076 0.108053245 0.032837633 0.07965223 0.16279961 0.07436983 -0.036365733
0.15257733 0.008954648 -0.110683754 0.06293115 0.17996448 -0.1652907 -0.046531893 0.073618144
-0.12272549 0.18255734 0.11755779 0.03216374 -0.06239891 -0.049969926 0.026309934 0.17849743
0.0056522023 -0.12864496 0.15291189 -0.094886534 -0.087413065 0.05894745 0.16015664 0.08393935
0.14468566 0.007094239 0.121309586 0.053507127 0.11968843 -0.016908478 0.097067 -0.112800956
-0.15832919 0.060489006 0.13893208 0.1637628 -0.069285445 0.0016201213 -0.030756334 -0.0909422
-0.13596691 0.049762174 -0.123228185 -0.012362754 -0.13960141 -0.15602772 0.07030154 -0.07330268
0.14617865 0.076855965 0.021956574 -0.039330855 -0.005665671 -0.006381604 0.10899344 -0.0049847774
-0.0925272 0.046653606 0.15641396 -0.01393432 -0.039814584 0.1498711 0.11269661 -0.06241703
-0.18118763 -0.11346831 -0.06989678 0.09665582 -0.13089801 -0.025678447 -0.16577373 -0.18175931
0.0071689743 0.16256474 -0.14132498 -0.05407202 -0.045402043 -0.04461763 -0.057452757 -0.06598515
-0.17513447 0.086892664 -0.15045941 0.045023005 -0.108130366 -0.052586537 0.02282648 -0.06861365
-0.13383198 0.157875 0.0015038954 -0.1601381 0.017872345 0.011916653 -0.028666424 -0.09027827
-0.018618962 0.03763225 0.084890746 0.002221873 -0.054187603 -0.10440644 0.099182196 -0.1692996
-0.11945293 0.025997367 -0.049617227 -0.1564518 -0.0985927 0.05142866 0.12380996 0.00020649657
0.01638917 -0.085712485 -0.10647343 -0.058433864 -0.06275477 0.015681392 -0.15797085 -0.10609982
0.04517674 -0.12797782 -0.016090974 -0.005775613 0.10167408 0.024550812 0.10661538 0.006315105
-0.151273 -0.10778644 -0.081695 -0.15428358 0.08526875 -0.043918084 0.0043879594 -0.12957925
-0.058311425 0.16525763 -0.06366284 0.0044589834 0.06537891 -0.034569066 0.1253248 -0.15734561
0.01381514 0.02433458 -0.06963967 0.04958442 0.12960969 -0.15056339 0.087805465 0.06190444
-0.059065532 0.1653495 0.041198745 0.097254895 -0.14651704 0.15828213 0.0092758965 0.12793879
0.10758857 0.10824373 -0.1837354 0.052645132 0.14009939 0.07603002 0.03829997 -0.030761726
-0.0035460447 -0.13177344 0.101448484 0.06144701 -0.10793853 -0.017671179 -0.02654689 0.07475767
-0.069880985 -0.12114784 -0.17217065 0.0550047 0.16298898 -0.055366047 0.07050163 -0.10104002
-0.07805312 0.09579853 -0.036628798 0.11839082 -0.17262186 0.037816532 -0.12930152 -0.0059355297
0.16438143 -0.052602142 0.13792978 0.057577424 7.804483e-06 -0.14330164 -0.16170463 -0.010901515
0.060687646 -0.060082182 0.045826808 -0.036070272 -0.12979443 0.123524055 -0.088564835 -0.16072847
0.089160174 -0.16024277 0.030078707 0.0772644 -0.032505937 -0.0082927 -0.08088024 -0.14296894

layer_2.bias f4 [34]
00000000: aee4 dabd 6b7b 313d 6ee6 0c3c 928e e5bb
00000010: 5a9a 913d 49e2 05be 6dc4 fd3d 82cf a2bd
00000020: 530a 3fbd c2cb 1c3d 08f8 e33d 02d5 adbb
00000030: e9df 1abe f8ef e3bd 4f0a bb3d b7ef 5dbd
00000040: 8404 62bd f0c0 1b3e 2d77 13bd b2b9 23be
00000050: 4e26 483d 9153 cb3d ef5c 5dbc a4c1 7d3d
00000060: a024 673a 0cd9 c93c b5db d9bd c9aa 0abe
00000070: f291 77bd 31d7 1cbe 386e 303d ccc4 643c
00000080: b740 353e fc24 05be
-0.106881484 0.04333059 0.008599861 -0.007005521 0.07109518 -0.13074602 0.12390981 -0.07949735
-0.046640705 0.038280256 0.111312926 -0.0053049335 -0.15124477 -0.11129755 0.091328256 -0.054183688
-0.055180088 0.15210319 -0.036002327 -0.15988806 0.048864655 0.099280484 -0.013510927 0.06195225
0.0008817408 0.024639629 -0.10637609 -0.13541712 -0.06044192 -0.15316464 0.043073863 0.013962936
0.17700468 -0.1300239

layer_3.weight f4 [36, 34]
00000000: 5a4e 283e af1d c0bc 9464 85bd c4d3 cd3c
00000010: 7690 323e 2bfe 773d 1cd5 e03c e731 78bc
00000020: 287d f03c 0698 c43b 9ec9 cbbc d6e8 a7bc
00000030: aa1f 42bb e186 aa3d b16a f73d 2199 01be
00000040: da11 81bc 7359 0fbd e99f 0dbe 106f b13d
00000050: 1460 e53d 6bcb 2f3e 3c9e b43c c88f bd3d
00000060: d27a 193d 9824 ed3d dabe 0dbd b3fb 203e
00000070: f9fc e7bd 6f8b ccbd a099 5fbc f8fa 01bd
00000080: 3067 5c3d e3fd 9e3c 3230 f13d cfb5 433d
00000090: 2ff8 00be 1f56 153c 07dd b4bd 577b 753c
000000a0: 97bb 4bbd ef5f e93d 82ba 4d3d 9570 f83d
000000b0: a137 2dbe ef9d 9ebc 3d18 debb 6c0c cfbc
000000c0: 7ea4 013c 1ab2 73bd e218 68bc 9c62 05be
000000d0: c284 0a3e ba25 8e3c 97bf 6fbd 9965 823c
000000e0: fc10 d33d 1e71 543c bf63 69bd af0e 3e3d
000000f0: 4bc3 933d 49dd 113d 9e72 123b 2e96 2ebe
00000100: 968c 00bd 8f16 fb3d 3378 1dbd f3c2 34bc
00000110: c9af 25be 775a 05bd e23a 123c cf30 903d
00000120: 9477 2b3e 3761 1d3e 63a8 0fbe 9090 83bc
00000130: eb42 4f3c 13f9 193e 8cc2 573b 188c b5bd
00000140: ddd0 803c b817 24bc 29d7 0dbd ba99 f2bd
00000150: 911c 113c 94e3 a23d 3b2e 9bbc c479 0f3c
00000160: 8d8c 453d 327e afbc a6bd 28be 2d36 19be
00000170: c413 883d 308f a1bd fbf0 e03c bf70 c9bd
00000180: 7ef8 cabd 712d 4b3d de3d a43d 2a8a a23d
00000190: 3897 35bd 72d2 9c3d fa63 d4bd c060 263e
000001a0: 337e 07be 3cd4 1e3d 4fe0 f5bd b1e5 0b3c
000001b0: ef80 423d e37c 0abe 39d1 12be 1781 ddbd
000001c0: 131a 35be 3128 ef3d a48a 1b3d 5e82 223e
000001d0: 7f26 1b3e bcb0 803c 3139 053e d146 ca3d
000001e0: 82dd fa3c cc06 fcbd 381d 8bbd 2185 a53d
000001f0: 6fb4 d13d 20d7 0ebe d224 d0bd 4fe5 d1bc
00000200: 5d02 f53d 7fe9 81bd 3504 4a3e 184f 7abd
00000210: 9dde f03d 82c0 fb3d 3206 a83c 8360 18be
00000220: fdf8 9cbd 7270 0a3c 041c 043e f0b5 b9bc
00000230: 35da 983d 8b91 8cbc a7b1 e6bd 9fdb fabd
00000240: 2343 c7bc d05d 2dbd ab4a 1d3e db02 5f3c
00000250: a41d c93d 2aa2 95bd 9139 a23d 783a 6cbd
00000260: 5368 c53c a04d 513d 6039 03be b9eb 273e
00000270: 0372 17bd 1a01 b23d 891b c43d cc38 e6bd
00000280: 57be dc3d 8a25 793c bdd3 9fbd 5b1a a9bd
00000290: a796 0dbe b5d2 df3d e773 b73d 9f8f c23d
000002a0: 8f88 abbd e694 223e 8f10 133e 216e 86bd
000002b0: 92b0 93bd 558b f2bd d782 163d 0089 643d
000002c0: d5f2 1d3e adb2 96bd c466 1bbe e83a 1bbe
000002d0: ae83 7e3d 178a b73d b216 013d 6b1c ad3d
000002e0: fa09 ee3c 4930 873d be45 c03d f238 85bd
000002f0: 94cf e4bd 3760 0dbe e64d 36be a0da d43d
00000300: 08b8 a23d 7b99 18be 0841 33be 7f03 eb3c
00000310: a0e7 eabd 23f5 d8bd 7f37 8d3c f578 b43d
00000320: ac1d 103e 7d2e 823c 6adc b3bd 5082 80bd
00000330: 67d2 143e 0bca f8bd 05c1 223e dbd5 5abd
00000340: f18b d53d dfa7 153e f3bf d7bd cbc9 02be
00000350: af29 4dbe 9ad6 123d bec0 043e 56c3 d93d
00000360: 846b 12bd 4037 0bbe d550 203d dc9f f63c
00000370: fece e4bc ca83 373c 8d11 f2bd 6686 ebbd
00000380: 0267 573d 0674 a7bb a567 f73d 7915 ee3d
00000390: f4cb 01bd 78a6 2bbe 0d0c 3fbc 27aa d13c
000003a0: 3b93 a9bd f58b 063e 30e7 0bbe 752b c0bd
000003b0: 6967 2e3e 3ec2 e43d b96a c53d a7cf abbd
000003c0: b362 653d 7dfe 283d 2242 14be 4035 0f3e
000003d0: 631d f2bc f0be 2abe 9d12 a83d 3f8d f43d
000003e0: ec8e 06be 04e8 d63c 34e3 b7bd cf3e 093e
000003f0: 98e5 f0bd 2582 1d3e ae9d c23d b373 27bd
0.16436139 -0.023451654 -0.065133244 0.025125392 0.1743792 0.060545128 0.027445368 -0.015148616
0.029356554 0.005999568 -0.024876412 -0.020496767 -0.0029620924 0.08326507 0.12080897 -0.1265607
-0.015755583 -0.034997415 -0.13830532 0.086637616 0.11199966 0.17167442 0.022048108 0.0925594
0.037470646 0.11579245 -0.03460584 0.15721016 -0.113275476 -0.09987532 -0.013647467 -0.031733483
0.053809345 0.019408172 0.11776771 0.047780808 -0.12594675 0.009114771 -0.0883122 0.01498302
-0.049739446 0.11395251 0.050226696 0.12130848 -0.16915752 -0.019362418 -0.006777792 -0.025274478
0.007912753 -0.059496023 -0.014166089 -0.13025898 0.13527206 0.017351974 -0.058532324 0.015917586
0.10305974 0.012966422 -0.05697989 0.046400722 0.072149836 0.035611425 0.002234615 -0.17049477
-0.031384073 0.12260162 -0.03844471 -0.011032808 -0.16180338 -0.032556977 0.008925172 0.070405595
0.16744834 0.15369116 -0.14029078 -0.016060144 0.012650232 0.1503642 0.0032922355 -0.088646114
0.015724594 -0.010015421 -0.03462902 -0.11845727 0.008856908 0.07953563 -0.018942943 0.0087570585
0.048229743 -0.02142248 -0.16478595 -0.14962073 0.06644395 -0.07888639 0.027458658 -0.09835958
-0.099106774 0.049603883 0.08019613 0.07936509 -0.044333667 0.07657327 -0.103706315 0.16247845
-0.13231735 0.03877662 -0.12005674 0.008538649 0.047486242 -0.13524203 -0.14337625 -0.108156376
-0.17685728 0.11677588 0.037974015 0.15870044 0.15151404 0.015709274 0.13010098 0.098767884
0.030623201 -0.12305984 -0.067926824 0.08082033 0.10239493 -0.13949251 -0.10163273 -0.025622038
0.119633414 -0.06343364 0.19728167 -0.061110586 0.1176121 0.12292577 0.020510767 -0.14880566
-0.07664678 0.008449661 0.12901312 -0.022669762 0.07463495 -0.017159244 -0.11264353 -0.12248921
-0.024324005 -0.042325795 0.15360515 0.013611521 0.098201066 -0.07306321 0.07921136 -0.057672948
0.024097597 0.05109942 -0.12814856 0.16398515 -0.036973964 0.08691616 0.095755644 -0.11241302
0.10778492 0.015206704 -0.07804058 -0.0825698 -0.13827 0.10928861 0.089576535 0.0950005
-0.08375656 0.15877113 0.14361785 -0.06563974 -0.072114125 -0.11842982 0.036745872 0.055794716
0.15424664 -0.073582985 -0.1517592 -0.1515919 0.0621373 0.089618854 0.031515785 0.08452686
0.029057492 0.066010065 0.09388302 -0.06505002 -0.11172405 -0.13806234 -0.17803153 0.10393262
0.079452574 -0.14902298 -0.17505276 0.02868819 -0.1146996 -0.10593631 0.017238377 0.08812133
0.14073819 0.015891308 -0.08782275 -0.06274855 0.14533387 -0.12147912 0.15893944 -0.053426605
0.10427082 0.14614819 -0.10534658 -0.1277229 -0.20035432 0.03584919 0.1296415 0.106329605
-0.035747066 -0.13595295 0.039139587 0.030105524 -0.027930733 0.011200855 -0.11819754 -0.11500244
0.05258847 -0.0051102666 0.120803155 0.11625189 -0.031688645 -0.16762722 -0.011660588 0.02559383
-0.08280035 0.13139327 -0.1366241 -0.09383289 0.17031635 0.11169861 0.09639496 -0.08389216
0.05600233 0.041258324 -0.14478353 0.13985157 -0.029555028 -0.166744 0.08206675 0.11941003
-0.13140458 0.02623368 -0.089788824 0.13402866 -0.117625415 0.15381677 0.09502731 -0.040881824

layer_3.bias f4 [36]
00000000: b2a9 1b3e af0f cdbd 0fa7 0dbe b807 093e
00000010: 270a 363e af26 683d 947c 5e3d bfbf f7bd
00000020: fdca efbc 92b1 343d 8675 493d bd69 2dbe
00000030: b0f8 2abd 69b6 a93d bf4f 0fbe a622 903d
00000040: 403c 38ba 077f ec3c 5a30 463d 3b9e a43d
00000050: 7215 fe3d caa8 af3c 06e0 3b3d 304b 00bd
00000060: fdbf 02be 7dd2 b4bd 8381 18be 6717 6fbd
00000070: a497 91bc 8d5a cbbd 36ad c73c a2b9 03be
00000080: 8f64 0cbe 57b0 04be 4d1a 1cbd acc9 b93c
0.15201452 -0.10012757 -0.13833259 0.1338185 0.1777731 0.056677517 0.054318026 -0.120971195
-0.029271597 0.044114657 0.049184345 -0.16934867 -0.041741073 0.08286745 -0.13995264 0.07037859
-0.0007028021 0.028869165 0.048385955 0.080379926 0.12406434 0.02144279 0.045867942 -0.031321704
-0.1276855 -0.0882921 -0.14893155 -0.058371928 -0.017772503 -0.099293806 0.024374586 -0.12863782
-0.13710235 -0.12957893 -0.03811102 0.022679172

action.weight f4 [36, 36]
00000000: 4b49 8cbc b031 04bd 00a2 7e3d 8864 d4bc
00000010: 28b0 c03d 38c2 0dbe 57b8 e43d 908d 343d
00000020: a074 8eb9 dc47 ecbd f81f abbc 66f4 f6bd
00000030: 6c80 a0bc e801 063c aa6c 7cbc b545 bfbd
00000040: 6ac1 1d3d 4c01 303e 86a0 053d c659 11bd
00000050: c64f 0cbe e2df a63b 9f2d 323e cf58 83bd
00000060: 9c25 b4bd db4d 89bd fefb d8bd c00b a5bc
00000070: c44a 723d e595 1fbe 436e da3d d39a 16be
00000080: 0c31 de3d fcbe c43d fe02 a3bd 8fdc 153e
00000090: dfeb b0bd 967a c3bc c0b8 22bc c049 7bbd
000000a0: ea40 9f3c a4a6 9fbd bf7b 233e 58fc eb3d
000000b0: e467 1c3e 3cb6 a53d 5612 d43c 0b3b e43d
000000c0: f909 e2bd 30ce 0e3e 73f6 0d3e 8cdb 86bd
000000d0: 3064 b53d 0f99 81bd 0cc2 1bbe d93e 76bd
000000e0: 9c22 6dbd a1d3 133d b42c 203d 7935 693d
000000f0: 1e7a 23be 507d c43d 1672 1f3d 3ba9 80bd
00000100: f47f 753d 6033 da3d 0214 573d cefb b43d
00000110: 71dd 37bd 8427 673d 0074 793b c0d9 103a
00000120: 4a81 f73d 126d 03be 6e05 ee3d 0226 c23b
00000130: e1f9 a03d 1cb6 183e efaf 9a3d 9b3c a63d
00000140: b662 0ebc fbe1 f7bc 0289 07be fb78 063d
00000150: f840 643d c82c 4abd 51db e23d 828c 203e
00000160: 94e3 2cbd 3e0b 17bd 880c 6a3c eba3 a0bd
00000170: 5a36 1c3e 0495 5d3b e46d 633d eb5d d93c
00000180: 3131 e13b ac18 04be 13ef 903d 1c27 bcbb
00000190: 1d6c aabd 9a44 a33d 58db 463e 4eb9 a53d
000001a0: 3fa8 49bd 7682 0bbe 56fc 86bc 1514 133e
000001b0: 4591 28be 57a2 1f3e 2a13 01be f8cb 9a3c
000001c0: 1a34 9c3d d6d7 a13d 9f64 183e d680 edbd
000001d0: cd58 06be 723c 2ebe 6982 03be 308e 573d
000001e0: c7ac 12bc 914d 04bd 86a3 edbd 7eae be3d
000001f0: 98e9 b73d c888 203d bbfb b2bd 3bdc 803d
00000200: fe37 72bd faa7 23be 9af9 2ebe a631 ee3c
00000210: db27 1e3e 5b30 17be 26ac 02be f9bb abbd
00000220: 50ec 63bc 8ace d03d 859a 0d3d 9668 293d
00000230: e7b7 ecbc 4ded e4bc d608 08be fa44 003e
00000240: 4a24 12bc 20a7 e43d cb38 febd b727 1ebe
00000250: c9ba b83c 7f4c a83d 506c 8fbd 2ebe aabd
00000260: cfd5 f3bd 0dae 0d3d 0887 6b3d 544e 103e
00000270: b9fa cc3d d41f e53d 0b55 a1bc ffb4 a5bd
00000280: 5680 813d dc2f a03d 91b3 8c3d ec83 a1bd
00000290: af16 543d c24e 533d b44f d8bd a955 c33d
000002a0: ca19 dfbd 5e3b a43d 102c 4ebd 744f 193e
000002b0: 6261 edbb a6cb 6dbd c6c4 0e3e 668e b2bd
000002c0: 00bc 33bd 8732 af3c 6004 b53c 5986 0a3e
000002d0: 4512 973d 530d f93d 1e79 d6bd 3ff5 13be
000002e0: 3b70 1a3e 8bef 2e3e 976e b23d a729 1c3e
000002f0: 91d4 8fbd 8aa5 083e 0a74 0abd cb52 e93c
00000300: b540 ca3d ccad 13bb 703c 27be 1a1a febd
00000310: 8ca0 dcbd 476d a9bd 168b 3f3e e16c be3d
00000320: 8b67 173e 7bdc 293e 3741 c7bc 29a2 a03c
00000330: f77c 0f3e 307a 17be 4b6e ed3c 3daf 033d
00000340: 51ca c93d 4007 babd af39 1d3e 2be0 58bc
00000350: 41fc f33d c30c 00be a333 f53d 641d df3c
00000360: ea6a da3d 8611 0ebd 63b4 c13d 569a 72bd
00000370: b8a2 42bd ce23 c7bd 268c 823d acd1 29be
00000380: 8628 b23d d051 85bd cd9c 523d 7632 1c3d
00000390: 6950 953c 79c1 b63d 480e df3d 5301 a13d
000003a0: f29c 5c3c 264a 393d fdc5 183e c669 61bd
000003b0: 220a 713d d20f 0d3c 808f 1ab9 8e55 6b3d
000003c0: 0937 17be 2b25 843c 6365 80bd b6e3 93bd
000003d0: 76dd b4bd 4393 c8bd bfdf d2bd 6b1c 083e
000003e0: da87 06be 4d57 903d 2baa 463d 7c3a 9ebd
000003f0: 29fc d03d bf2d 1e3e 2f31 113e 3fdd 463e
-0.017124793 -0.03227395 0.062166214 -0.025926843 0.09408599 -0.1384362 0.111679725 0.044080317
-0.00027171243 -0.115371436 -0.020889267 -0.12058334 -0.019592486 0.008179165 -0.015406767 -0.093394674
0.038514532 0.17187995 0.03262379 -0.035486005 -0.13702306 0.005092607 0.17400216 -0.06413423
-0.08796236 -0.06704303 -0.10594939 -0.020147204 0.059153333 -0.15584524 0.10665562 -0.14707498
0.10849199 0.0960674 -0.07959555 0.14634918 -0.08638739 -0.023862164 -0.009931743 -0.06134963
0.019440133 -0.07795456 0.15965174 0.1152274 0.15274006 0.08091399 0.02588765 0.11144074
-0.110370584 0.13945842 0.13863544 -0.06584844 0.08857 -0.06328022 -0.15210742 -0.06011853
-0.057894334 0.036090497 0.039105132 0.05693576 -0.15964553 0.09594214 0.03892716 -0.06282278
0.05993648 0.1065433 0.052509315 0.088370904 -0.044888917 0.05643417 0.0038063526 0.00055256113
0.12085207 -0.12834576 0.116221294 0.005924941 0.078601606 0.14913219 0.07553088 0.08117028
-0.008690527 -0.030259123 -0.13235858 0.03283022 0.05572602 -0.049359113 0.110769875 0.156786
-0.042209223 -0.036875956 0.014285214 -0.07843765 0.15255108 0.0033810744 0.05552472 0.026534041
0.006872319 -0.12900037 0.0707685 -0.005741967 -0.08321402 0.07972069 0.1941961 0.08091985
-0.049232718 -0.13623986 -0.016477745 0.1436313 -0.16461666 0.15589271 -0.12604967 0.018896088
0.07627125 0.079024956 0.14882134 -0.11596839 -0.13119812 -0.17015246 -0.12842716 0.052625835
-0.008952326 -0.032300536 -0.11603455 0.093106255 0.08980101 0.039192945 -0.0873942 0.06292006
-0.05913543 -0.15982047 -0.17087403 0.029076409 0.15444891 -0.1476454 -0.12760982 -0.08385462
-0.013911322 0.10195644 0.03457119 0.041359507 -0.028896285 -0.027945185 -0.1328462 0.12526312
-0.008919785 0.11164689 -0.12413176 -0.15444838 0.022550004 0.082177155 -0.07003081 -0.08337055
-0.11906015 0.034589816 0.057501823 0.1409238 0.10008759 0.11187711 -0.019693872 -0.08091163
0.06323306 0.078216285 0.06870187 -0.0788649 0.051779445 0.05158878 -0.10562077 0.09537823
-0.10893591 0.08019136 -0.05033499 0.14971715 -0.007244275 -0.058055542 0.1394225 -0.087185666
-0.043880463 0.021386398 0.022096813 0.13527812 0.073765315 0.121607445 -0.1047232 -0.14449023
0.15081875 0.17083566 0.087124996 0.15250264 -0.07022966 0.13344398 -0.03380207 0.028481862
0.09875623 -0.002253401 -0.16331649 -0.12407322 -0.107728094 -0.08272796 0.18705401 0.09298111
0.14785592 0.16588013 -0.024323089 0.019608574 0.14012514 -0.14792705 0.028983256 0.032149542
0.09853042 -0.09083414 0.15354036 -0.01323704 0.11913348 -0.12504868 0.119727395 0.027235694
0.106649235 -0.03468468 0.09458234 -0.059229217 -0.047518462 -0.09723626 0.063743874 -0.1658389
0.086991355 -0.06509745 0.051419068 0.03813406 0.01822682 0.08923621 0.10891396 0.07861581
0.013465153 0.04523673 0.14919277 -0.055032514 0.058847554 0.008609729 -0.00014740042 0.05745464
-0.14767088 0.016131004 -0.06269338 -0.07221167 -0.08831303 -0.09793713 -0.102965824 0.1329209
-0.13137761 0.07047901 0.04850213 -0.07725999 0.10204346 0.15447138 0.14178918 0.19420336

action.bias f4 [36]
00000000: 7bb4 0b3e 6c2a ea3d 1531 b2bc 33f0 31be
00000010: 8f86 133e 5ca6 093d 4cb9 c8bd d45e cdbd
00000020: ef64 963d 1935 b4bd bfec c83d f260 61bd
00000030: bc9a 103d fc11 283e f460 28bd bf29 1b3e
00000040: 8f17 0f3e 2b42 0a3e de77 bbbd 05d5 c9bd
00000050: 1953 b63b 5eee db3d 3257 cf3d 6da2 16be
00000060: 63fd 83bd 0c95 d93c cc14 e93c d02f 8a3d
00000070: 325f f53c 925b f9bc 79ca e83d 8306 c4bd
00000080: c1fb cdbd b722 a7bd 02e2 b93d 3768 343e
0.13643067 0.114338726 -0.02175192 -0.17376785 0.14406799 0.03360592 -0.098009676 -0.10027853
0.0734347 -0.0879919 0.09810781 -0.055024095 0.035303816 0.1641311 -0.041108087 0.15152644
0.1397383 0.13501804 -0.09153722 -0.098550834 0.005564105 0.10738824 0.10124053 -0.14710398
-0.06444814 0.026560329 0.0284523 0.06747401 0.02995262 -0.030439172 0.113667436 -0.095715545
-0.10057784 -0.08160918 0.09076311 0.1761788
