st_dev_model.pt (torch, 12823 bytes, 6 tensors)

layer_1.weight f4 [33, 30]
00000000: bc46 a2bd 3ea8 57be 1463 043d 8dba 573e
00000010: d839 6a3d 2cad ae3d ebac 043e 6c4c fb3d
00000020: 3633 2b3e 06b5 383d b79c 613e 8327 c43d
00000030: 9256 08be bce1 d53d 2c85 0abe bb0e fabd
00000040: 88b6 48be 5061 ffbd 4083 613d a034 f5bb
00000050: 9ba3 1bbd 7a62 a03d 25ec 3e3d e58d fcbd
00000060: e8f0 19be fdee bbbd a268 0f3d 26a1 fb3c
00000070: 56d3 0e3e ccd0 163e ec34 033e c5fc dabd
00000080: b23e 303e e774 1a3e e53c 7b3d d026 6ebd
00000090: 8d51 cc3d b5da 563d a8f1 1c3d b462 cd3d
000000a0: 008e 98ba 385a 82bd c40c 143d cb3b 1a3e
000000b0: d523 3bbe 8da5 ff3d ed39 f33c a12d 00bc
000000c0: 9c22 a0bd 2d2a 443e 58a3 9e3d 6f96 203e
000000d0: 97e7 b7bd 68d8 eb3d 0c5a 41be 70e5 02be
000000e0: 2b14 be3d b677 683e 7c67 563e a72f 113e
000000f0: 7dc9 b6bd 1ec4 1ebd f1ce a0bd f54c 0b3e
00000100: c563 23be f493 da3d 53e5 e73d d349 353e
00000110: 60d5 09bd 69f7 ca3c 171b 483d c57f c2bd
00000120: 3dce 2dbe 7d4a 943d 705b 00be 1535 29bd
00000130: 5c80 bc3d 7d51 ed3d b56c 173e f0da 36be
00000140: c6cb 55be 1d9e c1bb d93c 5f3c ef39 55bd
00000150: 9d6b 2cbe 3aba 26be bbb4 c2bb 6fe7 253d
00000160: c7f6 493d befa 163e d017 55bd c7c8 4dbd
00000170: 80ac 3a3c d9ce a4bd 679b 9f3d 52e2 373e
00000180: ae01 3e3e 05ff a83d c081 09bc fa2e 213e
00000190: cd73 943d 4ff4 0abe 5be3 0bbd ed61 29be
000001a0: 0671 a53d ef50 263e 0dc1 1e3e a68d 9abd
000001b0: 0c6a f43c 4274 923d 0079 183e 76dd e53d
000001c0: 73a4 c6bd 9418 2c3c bd00 33bd 437d 13bd
000001d0: db0c 563d ca5a 61be 62c0 373d 30ca 19be
000001e0: 7039 70bc a82a d1bd 754c 553d 740f c03d
000001f0: 167b 2fbe c062 fc3d 58e3 21bd 0daf 123e
00000200: b8bb 31bd 7665 96bc 9e63 35bc 3d30 21be
00000210: 9c4c 1ebe 2f5e 1f3e ff10 9abb 177f 5ebd
00000220: 225b 5bbe 2e23 283d 3828 c03d beef 373e
00000230: ee64 233e 6263 89bd 5383 7ebe c7ca 3cbe
00000240: d56e 433d c2ef ad3d f437 083e 1d58 61be
00000250: f420 7b3d a72e 38bc 1064 7f3d 0627 f53d
00000260: 5948 bb3d 8b0e e33c ef69 223e e981 9abd
00000270: 7611 ca3d c5e0 a93d aca6 a4bd 1900 483e
00000280: 8953 9f3d a950 a8bd 2990 823d 1e91 1cbe
00000290: b9ae df3d 9853 1cbd 5e92 bcbd 625c 3e3e
000002a0: fbd0 1c3e 903b 24be 2f69 83bd c908 353e
000002b0: d57e 443e 72d7 f83c 8e80 103e 3d05 0f3d
000002c0: 422b b43a f1a1 f8bc 3e62 e4bd ae1a 4fbd
000002d0: ae37 133e 0352 e9bd 0943 0abe da84 893d
000002e0: 2aa9 32be e819 6f3d a7db 233d 02f4 a3bd
000002f0: e8c9 403d 4531 673d 1695 f6bd b344 4ebe
00000300: 4b1a e93d 58ec 5abe 745e 9abd 66ce f43d
00000310: 4cda 1fbe bf1c b83d ebad 01be c181 d9bd
00000320: 728a 9ebd 3da8 a73d 10f2 03be e1a7 46be
00000330: cc95 1fbe dc08 cb3d d63e fbbd 7929 e23d
00000340: 8031 b7bd 6a27 6cbb 4675 263e 7dfe 143d
00000350: 4f43 203e 1842 f4bc 006b 053e 793b c9bd
00000360: 6df9 183c 9785 cf3d 4065 8c3d a369 723d
00000370: 9f8e 28bd 0462 bfbc 4a79 0dbe 4c2e b43d
00000380: 7457 f33d 588b e4b9 cd69 fa3d 4a4d f8bd
00000390: 16d5 033e 5659 f4bb 7e24 56bd c912 5d3d
000003a0: 926f 463c 309a 99bd 55f4 3e3e 8f37 2bbb
000003b0: 0a4c 15bc d5bd cabd 0146 9dbd da6d b03d
000003c0: dbfa b3bd 2b96 8c3d 5c5c 0d3e 4487 0dbc
000003d0: 6e9e fdbd 94ef 183d ea80 c83d d092 c53d
000003e0: 52e8 123e 7413 c7bc c6f8 f5bb ea2c 02be
000003f0: a6fe 1e3d f9cc c03d e11a bd3c ceef 6b3c
-0.07923648 -0.21060273 0.03232105 0.21067257 0.05718407 0.08529124 0.12956588 0.12270436
0.16718754 0.045094512 0.22032438 0.09577849 -0.13314274 0.10443446 -0.13527364 -0.12209841
-0.1960088 -0.12469733 0.05505681 -0.00748308 -0.037997823 0.07831283 0.046611924 -0.12331752
-0.15033305 -0.09176443 0.035011895 0.03071649 0.13947806 0.14728087 0.12813157 -0.10692743
0.17211416 0.15083657 0.06133737 -0.058142483 0.09976492 0.05245467 0.0383164 0.10028592
-0.0011638999 -0.06364864 0.036144987 0.15061872 -0.18275388 0.12482748 0.029690707 -0.007823379
-0.07819101 0.19156714 0.07745999 0.15682386 -0.08979719 0.115158856 -0.18882006 -0.12782836
0.092811905 0.22701916 0.20937914 0.14178334 -0.089251496 -0.03876125 -0.07851971 0.13603576
-0.15956028 0.10672751 0.11323037 0.17703943 -0.033650756 0.024776177 0.04885396 -0.09497026
-0.16973205 0.0724077 -0.1253488 -0.04131039 0.0920417 0.11587808 0.14787562 -0.17856956
-0.20878515 -0.005908741 0.013625347 -0.052057203 -0.16837926 -0.16281977 -0.005941955 0.040503915
0.04930761 0.14744088 -0.052024662 -0.050240304 0.011393666 -0.080472656 0.077933125 0.17957428
0.18555328 0.08251766 -0.008392751 0.15740576 0.0724865 -0.13569759 -0.03415237 -0.16541262
0.08078198 0.16241811 0.1550333 -0.075465485 0.029835723 0.07151081 0.14889908 0.11223881
-0.09699335 0.010503907 -0.043701876 -0.03600813 0.052258354 -0.2200729 0.044861205 -0.15018535
-0.014662132 -0.10213214 0.05207487 0.093779474 -0.17136797 0.123235226 -0.039523453 0.14324589
-0.043391913 -0.018358927 -0.011071114 -0.15741058 -0.15458912 0.15563272 -0.004701733 -0.05432042
-0.21421483 0.041049175 0.09382671 0.17962548 0.1595647 -0.06708409 -0.24854784 -0.18436728
0.04771312 0.08492996 0.13302594 -0.22006269 0.061310723 -0.011241592 0.062351286 0.11970334
0.091446586 0.027716896 0.15860723 -0.0754431 0.09866612 0.082948245 -0.08039603 0.19531287
0.07779605 -0.0821851 0.063751526 -0.15289733 0.109219976 -0.03816566 -0.09207605 0.18589929
0.15314095 -0.16038346 -0.064165466 0.17679133 0.19189008 0.03037617 0.1411154 0.034917105
0.0013745802 -0.030350657 -0.11151551 -0.050562553 0.14376709 -0.113925956 -0.13502134 0.067147925
-0.17447343 0.058374316 0.0400044 -0.08005525 0.047067553 0.05644347 -0.12040155 -0.20143394
0.11381968 -0.2137922 -0.07537547 0.1195343 -0.15610617 0.08989858 -0.12664 -0.10620452
-0.0774125 0.08186386 -0.12885308 -0.19399978 -0.15584487 0.09913799 -0.122678444 0.110430665
-0.08944988 -0.0036034235 0.16255674 0.03637551 0.15650676 -0.029816672 0.13029099 -0.09825797
0.0093368115 0.10132902 0.068552494 0.059182774 -0.04115164 -0.023362167 -0.138158 0.08797893
0.11881915 -0.00043591368 0.12227211 -0.12124117 0.12874255 -0.0074569387 -0.052280895 0.053972993
0.012111561 -0.07500112 0.18647893 -0.0026125645 -0.009112367 -0.09899489 -0.07679368 0.086147025
-0.08788081 0.0686458 0.13804764 -0.008638207 -0.12383734 0.037337855 0.097902134 0.09647143
0.14346436 -0.024301268 -0.0075064627 -0.12712446 0.03881707 0.094140954 0.023084106 0.014400436

layer_1.bias f4 [33]
00000000: 7dbf dabc 6778 a03d a04e d23d 6fe7 143c
00000010: adc6 0a3e 6744 6f3e 962d e5bc 430f 2d3e
00000020: e948 123e 4505 10bd a36c e3bc 4021 3f3d
00000030: b00e 16bc 4c2c 3e3d 4710 013e 4194 13be
00000040: 508d 16be 97ff 173e 91ba e3bc 8586 d03d
00000050: 7ac4 e83d 70d8 54bd 5a09 753e aadd 08bd
00000060: bc6e 083e 039c 6f3c ff28 a93d 9e79 f5bd
00000070: bac8 9a3d 80f6 8a3c b9d0 ef3d ace6 17bd
00000080: 509f f63d
-0.026702637 0.07835465 0.10268903 0.009088381 0.13552351 0.23365937 -0.027975839 0.16900353
0.14285626 -0.035161275 -0.027761763 0.04666257 -0.009158775 0.046428964 0.12603866 -0.14412023
-0.14702344 0.14843594 -0.027798923 0.101819076 0.113656 -0.051964223 0.23929349 -0.03341452
0.13323492 0.014624598 0.082597725 -0.11986087 0.07557817 0.016963243 0.117097326 -0.03708522
0.12042105

layer_2.weight f4 [34, 33]
00000000: 60d2 823d 58a2 88bc 724e 5cbd d68b a4bd
00000010: d867 ffbc 0c70 f5bd 0899 2e3e 61f8 9fbd
00000020: f8c4 b7bc 307b 443c 841f 0e3e 4ce1 18be
00000030: 3e78 8f3d 40bb 31be d0b0 b93d 8866 37bd
00000040: 00e5 a43c 0cb2 243d 627d 883d 561e 223e
00000050: 4046 6f3c d094 93bd 67e1 11be 176b 0dbe
00000060: c829 173e 2dc1 f4bd c27a 20be 4fc3 25be
00000070: fc9c a93d daff 00be 64f7 fb3d c83d 10bd
00000080: f3cb 83bd 0fbd 8f3c 297c 5dbd 38eb 1f3e
00000090: cb78 1a3e e6fb 813c 04a5 cb3d 1cbe b2bd
000000a0: ef2d 2d3d 602c ac3d f853 483e 7fc2 cabc
000000b0: 5283 583e f714 24be 9974 5bbd 9806 243e
000000c0: 24ad c93d d494 fdbd f5cb 003e 8c66 503d
000000d0: 8359 843d e0de 72bd 99c1 bf3d 6980 3b3e
000000e0: 95d3 fb3c 84af 86bd 83e3 a33d 989d 073e
000000f0: 84b0 e2bb f073 6b3a 168f b8bc 829c ba3d
00000100: 0374 ba3c 0083 5cb8 042f 5bbe 605f 6f3d
00000110: 099b 2cbe 5588 85bd 11e4 8c3d b9eb fbbd
00000120: 0072 d9bd b64e e3bc 980a f53d 58e1 263c
00000130: 4e89 b1bd d668 5cbe ee71 a9bd 4960 3cbe
00000140: 4b50 88bc 77de 693c 7d19 dcbd 643d 043c
00000150: 3dce 5ebc fdbe 59be 631b 953d a943 903d
00000160: 5d9e 8dbd 84ee 3b3e a6ed 3abe 3ff3 17be
00000170: 4065 0dbe 0d4b cebd 4ff1 143d 4edf b4bd
00000180: f38e 39be 92d7 3d3c 2980 31be ce69 1abc
00000190: 4084 893d 04a6 52be 3ad5 0d3d bdd1 1a3e
000001a0: 712c 33be bcea 613d c1ca 8cbd 5edc 1cbd
000001b0: 9788 de3d 9801 3e3c 5937 813d 37bd 423d
000001c0: 4a0b de3d ba18 fbbd 89e7 34be 0e87 f6bd
000001d0: be19 2abe 0674 083e 74de 03be 6e62 cd39
000001e0: e4c2 d63c b0dd 02be 89bd e1bc 6b85 04be
000001f0: 4fb9 303e f8ef 043e 1933 25bd 77f7 bc3d
00000200: 4aad c63d 79ab 00be 023b 8ebd 0e7b 49be
00000210: 7916 8bbd cf6e ebbd 4614 d13c 5d40 c6bd
00000220: 4a1b 923d 1e4d e73c 44eb 493b cd86 923d
00000230: 414f bfbb 733c 33be 404c db3d 11d4 04be
00000240: 96bd 143d fd79 a23d d14f e3bd 6e12 99bc
00000250: 964f fa3d c96f 1ebe 79c1 0a3e b59d 42bd
00000260: cc3a fe3b b34a b63c f3a1 78bd 94ab 42be
00000270: f412 4fbe fffe 973d 3fff 9a3d cafc 14be
00000280: 5960 9a3d 353a ccbd 48ba 513c b58b babd
00000290: d0ba 543d 7efe 0f3e 195f d1bd 18a8 df3c
000002a0: 3c98 07be 145e 8f3d 7cb6 bd3d 80d2 9dbd
000002b0: 669a 52bd f888 fc3d b03a 5cbd 313e fbbd
000002c0: c8d7 b7bc 98a1 76bd f356 cdbd 2a28 20be
000002d0: ccbc 773d 68a1 fd3d b023 143d 780e 11be
000002e0: e0ed 33bc b462 303d 26c3 fdbd 2440 ee3d
000002f0: 88d7 05be 5d21 2bbe ec6d 0d3e 6c00 203e
00000300: d052 203e 84ab 743d 6ce6 eabd 742f e2bd
00000310: 18cd 31be 6773 cebd 7aab 51bd 65a7 2b3e
00000320: 4712 da3d cbf6 4ebe 6442 03be 6343 d9bb
00000330: 0664 8fbd 8646 4a3c a89a 20bd 848f c5b9
00000340: 7139 463e b263 1abd 7814 433d 6e2f cb3d
00000350: 51e0 aabd 27c3 f13d c8ae 10bd 82a2 8c3c
00000360: 051c d8bd 32fa 1cbe 2f42 e33c a59e 19bd
00000370: c222 e93d 0221 ae3d 8c81 113e 6473 0b3e
00000380: ac62 5cbd 5ce2 37be a132 eebd 462a ea3d
00000390: a71b f33d 0c4a d63d c035 1d37 b63e 163e
000003a0: 77f7 25be ef43 eb3d 56d7 22bd 7116 21be
000003b0: 8a30 373e e540 1e3e 7d40 833d 2247 083d
000003c0: 7259 50bd 98a8 a93d eaa2 053d 885f 99bd
000003d0: e559 9b3c 8820 113e 179b 24be 2f9a 103e
000003e0: 09e4 1a3d 208a 023c 81b8 a13d 45d1 3b3c
000003f0: 6073 423a 7b85 bcbd 1b90 f9bd 96c8 16bd
0.06387782 -0.016678974 -0.05378575 -0.08034484 -0.031177446 -0.11984262 0.17050564 -0.078110464
-0.02243279 0.011992261 0.1387921 -0.14929694 0.07005356 -0.17356586 0.090669274 -0.044775516
0.020128727 0.04020886 0.0666454 0.15831885 0.014604151 -0.07206118 -0.1424614 -0.13810383
0.14762032 -0.11950908 -0.15671828 -0.16187786 0.082818955 -0.125976 0.123030454 -0.03521517
-0.064353846 0.017546205 -0.054073486 0.15617073 0.15085141 0.015867185 0.099435836 -0.08727667
0.042280134 0.08406901 0.19563282 -0.024750946 0.21143845 -0.16023622 -0.053577993 0.1601814
0.09847477 -0.12381902 0.12577803 0.050879046 0.064623855 -0.05929458 0.09363098 0.18310703
0.030740539 -0.06576446 0.08002379 0.13243711 -0.006918015 0.00089818146 -0.022529166 0.09111883
0.022760397 -5.257409e-05 -0.21404654 0.058440566 -0.16856016 -0.06520144 0.06879438 -0.1230082
-0.10617447 -0.027747493 0.11964911 0.010185562 -0.08668767 -0.21524367 -0.082736835 -0.18396105
-0.01663985 0.014274231 -0.10747049 0.008071277 -0.013598976 -0.21264262 0.07280614 0.07044155
-0.06914971 0.18352705 -0.18254718 -0.14838885 -0.13808155 -0.100729086 0.036362942 -0.088316545
-0.18120937 0.0115870405 -0.17334045 -0.00942464 0.06714678 -0.20571142 0.034627177 0.15119071
-0.17497422 0.0551555 -0.0687461 -0.038296096 0.10865896 0.01159706 0.06309385 0.04754373
0.10841997 -0.122605756 -0.17666449 -0.120374784 -0.16611382 0.1332551 -0.12877828 0.00039173983
0.026215978 -0.1277988 -0.027556198 -0.1294152 0.1725819 0.12982166 -0.040331934 0.09226888
0.09701021 -0.12565412 -0.069448486 -0.19675848 -0.06791396 -0.114957444 0.025522362 -0.09680245
0.07134111 0.028235015 0.0030810395 0.071546175 -0.005838305 -0.17503528 0.10707903 -0.12971522
0.036313616 0.07933424 -0.11099208 -0.018685546 0.12222211 -0.1547233 0.13550366 -0.047513682
0.007758474 0.022252416 -0.06070132 -0.19010764 -0.20222074 0.074216835 0.075682156 -0.14549556
0.07537908 -0.099720396 0.012800761 -0.09108678 0.05193597 0.14061925 -0.102232166 0.027301833
-0.13241667 0.07000366 0.09263322 -0.07706165 -0.051416777 0.12330812 -0.053766906 -0.122677214
-0.02244176 -0.0602127 -0.1002635 -0.15640321 0.060482785 0.123843014 0.036166847 -0.14165676
-0.010982007 0.04306288 -0.12390737 0.116333276 -0.130705 -0.16711946 0.13811463 0.15625161
0.1565659 0.059733883 -0.11469731 -0.11044207 -0.17363393 -0.10080605 -0.051188923 0.16763075
0.106480174 -0.20211332 -0.12818295 -0.0066303476 -0.070015 0.012345916 -0.03920999 -0.00037681696
0.1935785 -0.037692733 0.047626942 0.09921156 -0.08343566 0.118048005 -0.035322934 0.017167334
-0.10552219 -0.15329817 0.02774152 -0.03750481 0.11383583 0.085023895 0.14209574 0.13618237
-0.05380504 -0.17957443 -0.116307504 0.11433844 0.11870509 0.10463342 9.370444e-06 0.1467236
-0.16207682 0.11487567 -0.03975614 -0.15731217 0.1788961 0.15454443 0.064087845 0.033270963
-0.05086655 0.0828411 0.03262607 -0.07488924 0.018963763 0.14172566 -0.16074787 0.14121316
0.037815128 0.007967502 0.078965195 0.011463468 0.0007417705 -0.09205147 -0.12185689 -0.036812387

layer_2.bias f4 [34]
00000000: db63 fabd b555 62bd 2a5c df3d ee3b d13d
00000010: 0131 083e 8473 14be 9843 36be 736e 98bc
00000020: b8af bebc 0b1d 9fbd d358 7e3c b15c d5bd
00000030: d5c1 913c 92aa 343d 02d5 e8bd 37b9 113e
00000040: 7520 5ebe cdbb 41bd 0b71 bdbd 3fd1 553d
00000050: b524 1abe 173a b53d 77eb debd 5215 37bc
00000060: 0d27 0e3e 6d5a 4c3d 5444 3a3e fe9d 14be
00000070: 452d 23be 0859 02be fdf4 6bbc 154d 7ebd
00000080: 4a00 30bd f531 b8bb
-0.12226077 -0.055257518 0.10906251 0.10216509 0.13299944 -0.1449719 -0.17799222 -0.018607354
-0.023277149 -0.077692114 0.015524107 -0.1041807 0.017792622 0.04410798 -0.11368753 0.1423081
-0.21692069 -0.04729824 -0.09250077 0.052201506 -0.15053065 0.088489704 -0.10884755 -0.011174517
0.13882084 0.049890924 0.18190128 -0.14513394 -0.15935238 -0.12729275 -0.0144016715 -0.06208523
-0.042969026 -0.0056211897

layer_3.weight f4 [15, 34]
00000000: ba08 e7bd 3d04 c63d a256 9cbd 9a6e 013e
00000010: 60f1 cebd ecde 92bd a5e5 c43d 55b1 893d
00000020: 8ac6 203d 58d1 f43d 65ad 72bd 5e48 863d
00000030: 3620 59bd 288a 62bd 0cf7 06be e932 11be
00000040: bba1 7cbd 4742 7d3d 50e5 5f3d c570 c6bd
00000050: c088 99bd dd11 923c 3981 67bd 7f14 a93d
00000060: d6fd ff3b f978 343d 7576 bd3d 0343 073e
00000070: 40c3 58bd 615b 083e 239e 053e 1273 9abd
00000080: df83 ecbd c8e2 85bd 48a8 9d3d 7aaf 0ebe
00000090: 2672 283d f1ba 1f3a 51b7 2fbe dff0 1e3e
000000a0: 9e90 b53d 5e0f 5c3d b6e2 20be 5943 f83c
000000b0: a787 cfbd 70f9 023d f11b 173d 2740 9abd
000000c0: 183f d8bd 204d d53d 06d6 ef3d 6c6c 90bd
000000d0: 4ad5 85bd c09f d8bc a289 86bd 407e e5bd
000000e0: eb53 ebbd af4b 3cbd d7e2 24be e802 0bbd
000000f0: a3d8 aabd e0ed 3f3e 043e 053e b968 c2bc
00000100: 1a4e 383d fac0 7c3c e2b6 41be 208b a0ba
00000110: fd8f 13be ec53 bbba 1b22 ebbd 199e fabd
00000120: a9be bcbd e1ab 073e 295c 053d 1812 e4bd
00000130: 2c6e cc3d 7e1e 05be e09d 83bb bdb9 443d
00000140: 74e4 153e b825 5d3d 2cb5 fb3d 7873 aebd
00000150: a123 ed3d 81d8 c3ba 4a97 41be 1093 19be
00000160: 3366 41be a9a7 493c ce7e 3e3c 96b5 efbd
00000170: 985e 9a3d 04a6 7cbd bc30 acbc ed5a e1bd
00000180: f7f9 debd 6999 003e a4fa 363e ec2b 0b3e
00000190: 3530 f2bd 42a7 ee3c c23b ef3d 22ea 26be
000001a0: 80a6 84bd 7370 2b3e 9805 993d 523c c23d
000001b0: a100 93bd 7104 b1bd 74a6 13be 6434 0b3e
000001c0: 9e9e b63c 8505 633d 1c93 17be 5ed2 1cbd
000001d0: 2ae8 9dbd 20aa 0ebe c74a 153d cdd8 aabc
000001e0: c6ce ee3d 1042 16bc abc4 c8bd c368 9b3d
000001f0: 3624 01be 20a4 f0bd 7e6d 0c3e 7cdf 3f3e
00000200: ef22 b13c d7be 113e 953f c83d d366 443e
00000210: 16c1 55bc 141b 23be 8ba7 883d 401e 09be
00000220: 8009 3abc eaa3 9fbd dfb2 cebd 055a bbbd
00000230: 4be0 dbbd 40d7 af3b 20ea ca3c 5c49 26be
00000240: 2a17 423e bf15 f13c 8b16 f0bd ad6a 433d
00000250: 9952 123e 8c24 493e 13da 0bbe 2656 73bd
00000260: fda5 ed3b beb9 303e 0fd5 0d3e a56b 4cbd
00000270: cc66 d83d 9cbd b13d 7436 cd3b 393d 4f3d
00000280: 95c2 443e 49db ec3d d404 a13d ab97 b73d
00000290: 3a1e 2abd 376d c1bd 6186 0f3d 14e6 05be
000002a0: 8e1d 40be 7ec9 0cbe 3d39 203e 61ab 5a3e
000002b0: 23d2 7c3d 3076 a73c 1db6 813c 8672 f53d
000002c0: 3dd8 843d 336e dcbd b673 9abd 46d2 8ebc
000002d0: 7ab7 b7bd dfc2 f7bd a588 fa3a ef30 04be
000002e0: 3db8 dabd efab 4a3d c950 1fbe ea48 873d
000002f0: eb1d bb3b 1ad6 febd edca 913d c017 ad3d
00000300: b1d9 ac3d 31be d73d 9196 5f3d 6d08 debd
00000310: 69dc 2b3d 968d bebd 4e22 acbd 955c 44be
00000320: d877 913d f6a1 6fbc a813 4a3e e23a 453e
00000330: 0012 ebb9 0712 883d d7a1 44be 1da7 d9bc
00000340: 9594 22bd 4e2c ad3d 7cd7 b33d 87f1 a1bd
00000350: 2ac3 783d 339b 8dbd 4cb6 9abd 424d 9cbd
00000360: 2c39 023d 2a35 07be 5a76 173d d27d ff3d
00000370: 5195 413d ac45 12be 341e 17bd 9b27 b13c
00000380: a537 953d 00d7 ea3d 8b9d fe3d 5f6c 1e3e
00000390: 4056 f6bc 0726 d33d 014a 35be e6f4 1cbb
000003a0: bb25 2d3e eb75 083e 17a0 2d3d 287a 02be
000003b0: 0cdc 93bc 0c6f c43d 6595 bebd 1e00 793d
000003c0: b883 5f3b daee d13b d621 a7bb da9e ee3d
000003d0: e6b4 a1bc 933b 423e 1a00 683c b97a 213e
000003e0: d8a9 d8bd 3fc5 203e 3f6c eabd 838a d53d
000003f0: 2f26 cbbc 5607 263e 294a 63bc 51d1 e23d
-0.11280961 0.09668777 -0.076337114 0.12639847 -0.101046324 -0.07171425 0.09614114 0.067232765
0.03925184 0.11953992 -0.059247393 0.06556772 -0.053009234 -0.055307537 -0.13180178 -0.14179577
-0.061677676 0.061830785 0.05466205 -0.09689478 -0.07496786 0.017830784 -0.05651972 0.082558624
0.007812242 0.04406068 0.092511095 0.13209157 -0.05292058 0.13316108 0.13048606 -0.07541479
-0.1154859 -0.06537396 0.07698113 -0.13934126 0.041124485 0.0006093225 -0.17159773 0.15521573
0.08865474 0.053725593 -0.15711483 0.030305551 -0.101332955 0.031976163 0.03689188 -0.07531767
-0.10558909 0.10415101 0.117107436 -0.0705193 -0.06534822 -0.026443362 -0.0656922 -0.11205721
-0.114906155 -0.045970615 -0.16102158 -0.03393832 -0.083421014 0.18743086 0.13011938 -0.023731576
0.04499636 0.015426869 -0.1891742 -0.0012248494 -0.14410396 -0.0014291978 -0.114811145 -0.12237186
-0.09216053 0.1324916 0.032558594 -0.111362636 0.09981951 -0.12999913 -0.004016623 0.048028696
0.14637929 0.05399105 0.12290415 -0.08518118 0.11579061 -0.0014941843 -0.18905368 -0.14997506
-0.18886642 0.01230804 0.011626912 -0.11704557 0.075375736 -0.061681762 -0.021019332 -0.11003671
-0.10887521 0.12558521 0.1786905 0.13590974 -0.11825601 0.02913249 0.1168132 -0.16300252
-0.0647707 0.16742115 0.0747177 0.094841614 -0.07177854 -0.08643425 -0.14418966 0.13594204
0.022292431 0.055425186 -0.14802212 -0.03828656 -0.077102974 -0.13932085 0.036448266 -0.020855332
0.11660533 -0.009171024 -0.098031364 0.07588341 -0.1261147 -0.11750054 0.13713643 0.18737596
0.021623103 0.14232956 0.09777752 0.1917985 -0.013046524 -0.15928298 0.06672581 -0.13390446
-0.011354804 -0.07794936 -0.10092711 -0.09148029 -0.1073614 0.005366236 0.024769843 -0.16238922
0.18954149 0.029429315 -0.1172305 0.047709156 0.14289321 0.19642848 -0.13657407 -0.05940833
0.0072524534 0.17258355 0.13850807 -0.049907345 0.10566482 0.08678743 0.006262595 0.050595496
0.19214852 0.11565263 0.07862249 0.08964475 -0.041532733 -0.09444659 0.035040263 -0.13076049
-0.18761274 -0.13748738 0.15646835 0.21354438 0.06172384 0.020442098 0.015833909 0.11984734
0.06486557 -0.10763206 -0.07541601 -0.01743425 -0.08970542 -0.120977156 0.001911421 -0.12909292
-0.10679672 0.049480375 -0.15558161 0.06605704 0.0057103536 -0.124431804 0.07118783 0.084517956
0.08439959 0.10534323 0.05458695 -0.10841451 0.041958246 -0.09304349 -0.084049806 -0.19175942
0.071029365 -0.014626017 0.19734061 0.19260743 -0.00044836104 0.066440634 -0.19202362 -0.026568944
-0.03969248 0.08455716 0.08781335 -0.07907396 0.060732998 -0.069143675 -0.075543016 -0.07631923
0.031792805 -0.13203874 0.036978103 0.1247517 0.04726154 -0.1428439 -0.03689404 0.02162533
0.07286004 0.11466789 0.12432393 0.15471028 -0.030070424 0.103099875 -0.17704011 -0.0023949682
0.16908924 0.13326232 0.042389 -0.12741911 -0.018049262 0.09591493 -0.093058385 0.060791127
0.003410561 0.006406647 -0.005100469 0.11651392 -0.01973958 0.18968038 0.01416018 0.15769471
-0.1057927 0.15700243 -0.114464276 0.1042681 -0.02479848 0.16213736 -0.013872662 0.1107508

layer_3.bias f4 [15]
00000000: 66f1 f5bd 9d4c 0abe 7365 003e 4bcf 42be
00000010: 4726 83bd c4b9 163e 8b57 d63d 0964 6d3d
00000020: 2ce9 1f3e fcfa 0b3e 3c57 b3bd daeb f53b
00000030: cc15 25be f521 d0bd 393c 44bd
-0.12008934 -0.13505788 0.125387 -0.19024388 -0.06403785 0.14719301 0.10465916 0.05795673
0.15616292 0.13669962 -0.08756873 0.0075049223 -0.16121596 -0.10162727 -0.047908995
