st_dev_model.pt (torch, 12823 bytes, 6 tensors)

layer_1.weight f4 [33, 30]
000000 ae 62 dd bc 9d 3d 5f be 66 09 10 3d 42 e9 56 3d
       -0.027024593 -0.21800847 0.035165213 0.052468546
000010 3c b6 16 3e 69 48 af bd 8c ea be bd d7 01 00 be
       0.14717954 -0.08558733 -0.0932208 -0.12500702
000020 8b 08 59 3d 17 6f 06 3c 84 3d bf bd 87 b5 86 bd
       0.052986663 0.008205197 -0.09337905 -0.06577592
000030 a3 4b 93 bd 50 28 1d 3d cb 46 4b be c7 7b af 3e
       -0.07192161 0.038368523 -0.19851224 0.34274122
000040 a5 91 a5 3d 28 8b 33 bd 7a 33 10 3e 9c c8 6e bd
       0.0808442 -0.04383388 0.14082137 -0.058296785
000050 a0 0b a8 3e b3 18 0c 3e 64 09 36 3d 26 3b 88 3d
       0.3282137 0.13681297 0.04444255 0.06651907
000060 8b 9d 2a 3d 7b 43 05 3e be 8c 12 3e fb 32 3a be
       0.04165415 0.13014023 0.14311501 -0.1818351
000070 82 35 98 3d f1 8f 0a 3e da ad 14 3e 12 01 8e be
       0.07432081 0.13531472 0.14519444 -0.27735192
000080 8a b4 05 3e b4 59 2a 3e 63 d4 10 3c 39 80 be 3d
       0.13057151 0.16635782 0.008839699 0.093018
000090 41 6d 5b 3e f9 f9 8c 3c 17 e6 1f 3e ba b3 88 bc
       0.21428396 0.01720904 0.15615116 -0.016687263
0000a0 f2 74 d2 3d 70 d5 cb be 11 fc 92 be 04 de bf bd
       0.10276212 -0.39811277 -0.28707936 -0.09368518
0000b0 7d 20 2f bd fe dc 85 3e 10 77 7e be f7 5a 5b be
       -0.042755593 0.26145166 -0.24850106 -0.21421419
0000c0 b9 2a c2 3e 94 2a dc bd d2 cd 56 3e ba ab 3c bd
       0.3792322 -0.10750309 0.20976952 -0.04606221
0000d0 41 02 8a 3e b6 80 0b 3e 38 38 6f be e1 40 3c be
       0.26954845 0.13623318 -0.2336129 -0.18384124
0000e0 04 92 47 3e c5 28 d0 3e 43 1a 0d 3e de a8 55 bd
       0.19489294 0.40656105 0.1377955 -0.052162997
0000f0 10 a1 10 be 6f 46 4b be 7c ce e3 3c 87 05 c1 3d
       -0.1412394 -0.19851087 0.02780842 0.094248824
000100 0d 2d 3e bd 65 23 9a 3d 0b e6 a1 bd e3 dc ca bd
       -0.046429683 0.07526282 -0.07905205 -0.09905412
000110 da 6e 88 bc 76 30 db 3d 82 2e a1 3d bc fc 5a 3d
       -0.01665442 0.107026026 0.07870199 0.053463683
000120 3b 02 c7 3d 83 7e e3 3d 9f 3e 21 bb 76 dd 06 be
       0.09717222 0.111081146 -0.0024603975 -0.13170418
000130 91 22 c0 bd a4 73 d9 bd 7c 80 a3 bd 1c f0 1e be
       -0.09381593 -0.1061776 -0.07983491 -0.15521282
000140 6e 4b 86 3d 5e 2c 5b be d5 e9 c2 bd 64 4f 02 3d
       0.06557356 -0.21403643 -0.09517256 0.031813994
000150 61 10 b3 bd 34 83 d1 bc a8 96 07 bb 35 60 50 3d
       -0.087433584 -0.025575258 -0.0020689163 0.050873
000160 5a bf 94 3c e6 87 02 3e c5 bd 75 3d 59 c6 eb 3c
       0.01815765 0.12747154 0.05999543 0.028781103
000170 a5 bd 07 bd 52 b7 18 3e 07 16 6e be d1 7a 23 3e
       -0.033139843 0.14913681 -0.2325059 0.1596482
000180 af 95 a3 bd fa be 69 be 10 be 21 be 72 a4 81 bd
       -0.07987534 -0.22826758 -0.1579516 -0.063301936
000190 44 e0 6e 3e 15 c8 83 bd b4 9a ec 3d 5c 56 09 bd
       0.23327738 -0.06434647 0.11552945 -0.033529624
0001a0 ef 12 3f be 55 c8 39 3d 44 51 19 be 6a fd 5b bd
       -0.18659566 0.045357067 -0.14972407 -0.05370847
0001b0 06 67 07 3e 1d e6 10 3d 43 bf 24 be 4b 70 89 3c
       0.13222894 0.035375703 -0.16088586 0.016777178
0001c0 3f d1 9e bc 6a 3f 1e be d4 91 2e 3e c2 28 15 3e
       -0.019386886 -0.15453878 0.17047817 0.14566329
0001d0 b8 5e 23 3e 58 9f 8b be f7 e1 54 3c 55 f6 cb bd
       0.15954101 -0.27270007 0.012993327 -0.099590935
0001e0 1a 34 49 bc 78 6b 07 be 2a f5 99 3e 7d e2 0a bd
       -0.012280488 -0.1322459 0.30069858 -0.033907402
0001f0 e4 5e 8e bc fc 0b d1 bd b9 cb 85 3d 73 f7 11 3d
       -0.017379232 -0.10207364 0.06532998 0.035636377
000200 e6 34 f6 bc d2 b9 be 3d 6d b0 cf 3d e2 b8 65 be
       -0.03005452 0.09312786 0.101410724 -0.22433808
000210 00 10 2d 3c cf 9b 0f 3e 98 f6 99 bd 3c b0 db bc
       0.010562897 0.1402428 -0.07517737 -0.026817434
000220 ef e5 96 3d 6c 09 49 bd 01 b6 e1 bd fe 75 5d 3e
       0.07368075 -0.04908125 -0.110210426 0.21627042
000230 83 04 ff bd e7 51 ac bd 7c f8 12 be 74 19 0b be
       -0.124520324 -0.08414059 -0.14352602 -0.13583928
000240 35 66 a9 bd 94 10 91 bb fd d1 18 3e 26 12 c8 be
       -0.082714476 -0.004427025 0.14923854 -0.39076346
000250 52 61 91 be dd c7 ae bc 50 81 b2 3c b3 3d 9f bd
       -0.28394562 -0.021335537 0.021790177 -0.0777544
000260 1c 04 04 3e 10 16 c2 bd 1a b2 00 3e 70 9f 35 bd
       0.12892193 -0.09476864 0.1256794 -0.044341505
000270 8e f2 af bd ed cc 1c be d6 e9 9c 3d 0a eb 43 be
       -0.085911855 -0.15312548 0.07661788 -0.19132629
000280 ea 53 33 bd 8c a0 98 bd e5 75 77 bd 28 1f fc 3d
       -0.0437812 -0.07452497 -0.060415167 0.1231063
000290 24 f0 77 be 71 69 1a be a9 78 ff bd f0 0f 69 be
       -0.242127 -0.15079285 -0.12474186 -0.22759986
0002a0 46 08 ba be 3a 95 8b bd 02 4f d1 3d c2 a7 60 be
       -0.36334437 -0.06815572 0.10220148 -0.21938995
0002b0 ed 84 9c bd 2a d6 f0 3d d9 24 76 bd 14 64 d0 bd
       -0.07642541 0.117595986 -0.060093734 -0.101753384
0002c0 91 b0 aa bd ff 26 f1 bd a5 e1 3c be 63 60 73 be
       -0.083344586 -0.11775016 -0.18445452 -0.23767237
0002d0 3c 02 00 3e 71 6b 6b bb 9d 16 94 3d 05 0e 9a 3d
       0.12500852 -0.0035922194 0.07230876 0.07522205
0002e0 e5 e5 41 be 90 3b e1 3d 39 06 3e bd 69 ef 60 be
       -0.18935354 0.10997689 -0.046392653 -0.21966328
0002f0 88 2c 40 3c 6c 03 48 bc 8a e2 b3 3e 01 3f 39 be
       0.011729367 -0.012207847 0.35133773 -0.1809044
000300 48 8b c3 bd a7 65 c3 3e a0 74 1f be 07 3c 07 3d
       -0.0954805 0.38163492 -0.15571833 0.03301623
000310 97 13 6f be 7e 93 db bd 06 24 69 3d 94 71 3d 3e
       -0.23347317 -0.10721491 0.05691912 0.18500358
000320 66 26 21 3e 96 3c fb bd 8a 25 e4 3d 56 34 08 be
       0.15737304 -0.12267415 0.111399725 -0.13301215
000330 e2 6d 13 3d f9 af 53 3e c7 0b 96 3d 20 5c 9e bc
       0.035993464 0.20672597 0.07326465 -0.019331038
000340 58 0e 04 3c 39 ed 44 3c be 7b b8 bc 92 1f 92 bd
       0.00806006 0.012019449 -0.022519942 -0.07134928
000350 38 85 d8 3d 35 b0 2c 3d a8 48 f5 bd a4 1e bb 3d
       0.105722845 0.04216023 -0.11976749 0.091367036
000360 f6 fb 70 be 43 fa 2a be 4d e7 a6 3d 07 ab 45 be
       -0.23533615 -0.1669703 0.08149586 -0.19303523
000370 f2 7e 8c 3e c1 f4 13 3a 47 31 c9 bd d4 7e 61 3e
       0.27440602 0.0005644076 -0.09823852 0.22021037
000380 81 a3 7e 3c 82 75 55 3e ff 45 3f 3c 78 29 a4 3d
       0.015541912 0.20845607 0.011674403 0.08015722
000390 90 6c eb bc 52 ba 71 bc e5 a4 97 3b 16 e3 0b be
       -0.02873829 -0.014753895 0.0046278113 -0.13660845
0003a0 1b 69 40 be 0c 18 0c be 77 05 12 be 90 d8 b9 3d
       -0.18790095 -0.13681048 -0.14259897 0.09074509
0003b0 ee b6 e1 bc 2a 4f 9e bd 5c d9 3e 3d 31 86 4d be
       -0.027553048 -0.07729943 0.04659401 -0.20070721
0003c0 02 03 41 bd 49 c6 de bb bb 9c 8f 3d 07 59 fd 3d
       -0.04712201 -0.00679854 0.07012316 0.12370496
0003d0 fe 04 4c be 72 31 8e bd ec 4f 0a bd 9c f8 c3 bd
       -0.1992378 -0.06943025 -0.033767626 -0.09568903
0003e0 49 83 0e be 5a 35 d2 bd f3 ef ea 3d df 64 04 be
       -0.13917269 -0.10264082 0.11471548 -0.12929104
0003f0 42 1a 23 3d 19 04 e5 3d fd f5 4c be 6c 66 33 be
       0.039819963 0.11182422 -0.20015712 -0.1751954

layer_1.bias f4 [33]
000000 fb 97 51 be 01 5a 50 be 3b b5 97 bd 00 35 21 bd
       -0.20468132 -0.20346834 -0.07407614 -0.039357185
000010 b3 60 47 be 2b 70 33 be da be a4 bc 98 7b 12 bd
       -0.19470482 -0.17523257 -0.020110536 -0.0357624
000020 25 b1 d5 bc 8c cd 10 be b5 54 f2 3c 20 cd 50 3b
       -0.026085446 -0.1414091 0.029581407 0.0031860545
000030 f3 8b 64 3e ab e9 9a bc 62 54 69 bd 84 14 38 3e
       0.22319011 -0.01891025 -0.05696524 0.17976576
000040 ea 40 03 be 8d 5d 57 bb 3b 43 16 3e 1c da 71 be
       -0.12817731 -0.0032862157 0.14674084 -0.23618358
000050 63 96 6b be 65 72 ad bd c0 91 b8 bc d7 35 74 be
       -0.23006587 -0.08469085 -0.022530437 -0.23848663
000060 d3 7a e7 3d ad a1 16 be 7a fe 8b be 12 8c a7 bc
       0.11302724 -0.14710112 -0.27342588 -0.020452533
000070 e4 0d 1b 3e e4 b5 f3 bd 8a 0d 4c be e2 78 f0 bd
       0.15142018 -0.11899927 -0.1992704 -0.117418066
000080 24 5f 98 bc
       -0.018600054

layer_2.weight f4 [34, 33]
000000 0f 41 d0 bd e1 ad 31 be 29 f6 21 be 0d ed 9e bd
       -0.10168659 -0.17351486 -0.15816559 -0.077600576
000010 d7 ae b1 bd 45 8e 5e 3d 4d 8a 54 3d 80 2a 0d 3d
       -0.08675926 0.054334898 0.051889706 0.03446436
000020 af cc 03 be e7 10 20 3e 2f e9 42 3c a2 20 e6 bd
       -0.1287105 0.15631448 0.011896416 -0.11236693
000030 f4 26 57 bd 8c 0c 3d bc f4 39 83 bd 03 01 08 bc
       -0.052527383 -0.011538636 -0.06407538 -0.008301022
000040 ef 03 a8 bd 55 5c d4 bd c0 5a b8 3d 7f 4b f6 3d
       -0.08203875 -0.103691734 0.09001684 0.120261185
000050 8a 0d fc bb d3 14 47 bd 0c b8 1c 3d 94 4f 04 3e
       -0.0076920437 -0.048603844 0.03826146 0.12920982
000060 1e 94 4e bd 7c 7f 0f 3e 99 d2 0d be f0 18 20 be
       -0.050434224 0.14013475 -0.13849868 -0.15634513
000070 8c 39 53 3d d9 3b a1 3d ce f1 26 bb d1 e2 e9 bd
       0.051568553 0.07872743 -0.0025473717 -0.11420215
000080 70 a4 fa 3d 9b 67 30 bd ab 3b 60 3d 97 e7 2b be
       0.12238395 -0.043067556 0.054744404 -0.16787563
000090 3f 86 29 3e 68 af d1 bc dc 28 6a bc 16 11 11 bd
       0.16555117 -0.025596336 -0.014291968 -0.035416685
0000a0 d1 18 3c 3e 02 52 45 bd a1 8b 90 3d ff c8 d9 bd
       0.18368842 -0.048173912 0.07057882 -0.1063404
0000b0 89 d3 28 bd 7a 7b 2e be d3 32 34 be 39 c2 dc bd
       -0.04121736 -0.1703929 -0.17597513 -0.107792325
0000c0 42 08 ce ba 50 6b e9 3c 23 63 f2 bd 3c d2 66 3d
       -0.0015719014 0.028493553 -0.11835315 0.05635284
0000d0 5a 27 8b 3b b7 28 c8 3d e9 81 d9 bd 76 bc ef bd
       0.0042466344 0.09773391 -0.106204815 -0.11705868
0000e0 f8 55 28 3e cd cf 2f bd ab 16 5a 3d 0d c2 58 3d
       0.16439044 -0.042922784 0.053244274 0.052919436
0000f0 ad 2f d2 bd 7f 11 dd 3d ba 63 95 3d ce 26 21 3d
       -0.10263 0.10794353 0.07294412 0.039343648
000100 6f a0 f9 bd b2 01 ae bd 08 ca 6b be 26 bf 82 be
       -0.121888034 -0.08496417 -0.23026288 -0.2553646
000110 bd 2a 1f bb f0 1a e1 b9 d9 12 e4 bd 5a 28 0d be
       -0.0024286949 -0.00042935414 -0.111364074 -0.13784924
000120 48 aa 90 bd 9c aa ad bd 0f 06 72 be e7 49 20 3e
       -0.070637286 -0.08479807 -0.23635124 0.15653192
000130 e2 9e 02 be 03 0a 13 be 92 93 0f 3e 0c 9c 7c bd
       -0.12755921 -0.14359288 0.14021137 -0.061672255
000140 b3 72 26 be 01 58 2f 3d a3 d5 e2 3c d1 a0 87 3d
       -0.16254692 0.042808536 0.02768976 0.0662247
000150 30 cc 20 3e 45 9b cd bd 4e 50 4c be ff ed 50 be
       0.15702891 -0.10039381 -0.19952509 -0.20403288
000160 a7 ee 86 bd 6e c0 d0 bc 44 3c b1 3d 02 8c b5 bd
       -0.06588488 -0.025482383 0.08654073 -0.08864595
000170 56 a7 19 3e ae 61 86 be 49 f2 83 3d 47 7f 27 be
       0.1500524 -0.262464 0.064426966 -0.16357146
000180 8e fb f1 bd 28 06 54 be 76 d6 ac 3c d7 b1 85 be
       -0.118155584 -0.20705473 0.021098357 -0.26112244
000190 bf 10 9b be ed d9 d0 3d ae 64 82 bc 49 a0 c8 3c
       -0.30286214 0.10197816 -0.015917148 0.024490492
0001a0 96 4f 5c 3c a0 3a 6f 3d 38 cc 8c 3d f6 4e ab 3d
       0.013446709 0.05840552 0.06874889 0.0836467
0001b0 9b ac 35 3e 2a c6 be 3d 63 cd 08 bd 19 80 2c be
       0.17741625 0.093151405 -0.033398997 -0.1684574
0001c0 40 a0 38 be 5e 87 2b 3d a5 0b 53 3d 52 6a a0 bc
       -0.1802988 0.041877143 0.051524777 -0.019581947
0001d0 9a f5 9b 3d 1b e1 03 3d 3d e8 55 be 0d cf d4 3d
       0.07615204 0.0321971 -0.20889373 0.10391054
0001e0 4d 90 0d bd b6 a0 78 bc 91 19 36 3e 8f 32 7e bd
       -0.034561444 -0.015175035 0.1778319 -0.062059935
0001f0 c3 7b bb bd 35 15 db 3d ab 7d 94 be 54 ee 3b bd
       -0.09154465 0.10697404 -0.29002127 -0.045881584
000200 51 c1 51 3e a1 7d c6 3d 7b 71 f2 bd d6 1f 04 be
       0.204839 0.096919306 -0.11838051 -0.1290277
000210 3c 45 ac bc 81 4c c0 bd a7 3b 1b bd c5 bb 0c bd
       -0.021029107 -0.09389592 -0.037898686 -0.03435876
000220 8c 0f 00 be 79 ba a0 bd 28 fc 8e be ab 22 89 be
       -0.1250593 -0.07848067 -0.27926755 -0.26784262
000230 95 3a ff bd e8 30 f4 3c 4e 12 95 3d 10 28 c8 3c
       -0.124623455 0.029808477 0.07278882 0.024433166
000240 db a1 2a 3d c2 61 ee 3d 91 5f 26 bc e1 5d 1c 3e
       0.041658264 0.116397396 -0.010154621 0.15270187
000250 23 bc b8 3c db ad 6e bd 20 88 02 3e 56 e8 90 bd
       0.022550648 -0.05827127 0.1274724 -0.070755646
000260 a0 84 bc 3c e0 e5 3b 3a 9c 98 ae 3d 49 63 a4 bb
       0.02301246 0.0007167738 0.08525202 -0.0050167185
000270 e1 f2 fa 3d c6 5f 9f b8 13 d4 04 3e 48 f2 8e 3d
       0.12253357 -7.59955e-05 0.12971525 0.06979805
000280 aa 07 83 3d 1f 87 a0 3c 58 60 57 3d ee aa 33 be
       0.06397946 0.01959568 0.052582115 -0.17545673
000290 2c b8 68 bd ab 82 4e be 11 c6 90 be 9c 51 66 3d
       -0.056816265 -0.20167033 -0.28276113 0.056230173
0002a0 57 b1 cb 3c 00 67 9d bd 6a cd 12 3e ba 0a 2f bd
       0.024864836 -0.07685661 0.14336172 -0.04273484
0002b0 ff f5 4f 3e 2c 8d db 3d 90 b7 b8 ba 1d a8 ea bd
       0.20308684 0.10720286 -0.0014092792 -0.11457846
0002c0 c6 55 0b be 0c 56 18 3e dd 6c 2f be 75 24 e0 bd
       -0.13606939 0.14876574 -0.17131372 -0.109444536
0002d0 e1 bf 34 3e bf 7c aa 3d 78 cc 23 be 5d 47 5f 3e
       0.17651321 0.08324575 -0.15995967 0.21804567
0002e0 8a e9 2e 3d 9d 0d 8d be 66 dd af 3c e8 d3 3c 3d
       0.04270319 -0.2754945 0.021467876 0.046100527
0002f0 e1 85 90 bc 50 2e 04 ba e3 96 4b 3d b7 6d 85 3e
       -0.017641963 -0.00050423015 0.049704444 0.26060268
000300 a1 a1 2b be 75 97 76 3c d9 a5 47 bc 6f 05 58 3d
       -0.16760875 0.015050759 -0.012185537 0.052739557
000310 ff 7e 2c 3c a9 a1 08 3e e2 da be bc 62 c8 3a be
       0.010528325 0.13342918 -0.02329773 -0.18240502
000320 bc db 8c 3d be 07 69 3c 4c 7d 97 3c eb 34 ed 3d
       0.068778485 0.014223037 0.018492363 0.11582359
000330 72 54 7f bd 62 8c ca 3d 0b 6a f2 3d 54 6b f7 ba
       -0.062336393 0.09890057 0.11836632 -0.0018876591
000340 5a 93 35 be c7 af 19 be 5e 1b 18 3d a8 97 c4 bd
       -0.17731991 -0.1500846 0.037135474 -0.09599239
000350 89 44 6d 3d 5c b9 e7 3d 0a 6b 2e be b5 6c ae 3d
       0.05792669 0.11314651 -0.1703302 0.08516828
000360 a8 eb 39 be ac 3c d0 bd dc 39 c2 3d f0 46 98 be
       -0.18156302 -0.10167822 0.09483692 -0.2974162
000370 0a dd b0 bd cb b6 24 be f2 54 14 3e 0c da 83 bd
       -0.0863591 -0.16085355 0.14485529 -0.064380735
000380 0d 92 67 bd 8c ec 99 bd 22 86 d6 3d f3 c3 23 3e
       -0.05653577 -0.07515821 0.104748026 0.15992717
000390 f8 51 65 3e 05 7b 16 3d 04 1b 75 3b 2f 36 44 be
       0.2239455 0.036738414 0.0037400136 -0.19161294
0003a0 43 1d 8f 3d a7 1e fe bd b7 f5 6c 3d dc 69 19 bc
       0.06988003 -0.1240819 0.05785152 -0.009363618
0003b0 dd fd 18 bd 84 b8 70 3d ae bb 4f bc a6 10 cc bd
       -0.037351478 0.058769718 -0.012679024 -0.09964113
0003c0 7c dd 26 be b2 d3 5a bd 19 c2 53 be 01 99 20 3d
       -0.16295427 -0.053424545 -0.20679511 0.039208416
0003d0 52 24 1a 3e 64 29 9b be 2b 38 91 be 2d ad 73 bd
       0.15052918 -0.30305016 -0.28363165 -0.059491325
0003e0 c5 a3 20 3e 24 db 04 be 18 42 b3 bd bd 83 9b be
       0.15687473 -0.1297422 -0.08752841 -0.30373946
0003f0 f5 3f b7 3c 10 c1 e8 3c ba 5e 40 3e 76 6b ea 3d
       0.022369364 0.028412372 0.18786135 0.11446278

layer_2.bias f4 [34]
000000 92 cd ab bd 65 29 3a be fe 7d 6e bd ce 51 07 be
       -0.08388819 -0.18179853 -0.058225624 -0.132148
000010 bf 82 56 3e ab 52 6e bd ac e2 83 bd 0e 03 ed bd
       0.20948313 -0.058184307 -0.064397186 -0.11572848
000020 a6 fc 57 be a8 9e ee 3c fc 54 9b bd 3d 09 85 be
       -0.21092471 0.029128388 -0.07584569 -0.2598361
000030 c5 f4 51 be 13 7d 97 bd ac 1a 82 be 7f da c7 bd
       -0.20503528 -0.07396903 -0.25410974 -0.09758472
000040 ab 02 65 bd 59 7d a8 bd 7a fe 94 bd 89 60 56 bd
       -0.055910747 -0.08227033 -0.072751 -0.052338157
000050 a7 9e 64 be fe b2 bc bd 3a 84 41 be 34 75 29 bd
       -0.22326146 -0.092138276 -0.18898097 -0.04137154
000060 18 d1 48 be 59 e7 54 3e c9 d9 67 be cf ff 32 be
       -0.19611013 0.20791377 -0.22641672 -0.17480396
000070 e5 fb d1 bd e9 22 7e be df 16 31 be 06 9d 58 3e
       -0.10253123 -0.24818005 -0.17293881 0.2115365
000080 4f af d1 bd 2f 3e 0e bd
       -0.102385156 -0.03472727

layer_3.weight f4 [15, 34]
000000 b2 31 c6 3d 86 a1 29 3d 21 68 18 be 11 4f 49 3e
       0.096774474 0.041413806 -0.14883472 0.19659068
000010 48 25 36 3e 1b 32 10 be 25 92 1e be 52 d3 ed 3c
       0.17787659 -0.14081614 -0.15485437 0.02903143
000020 a5 e4 ea 3d b2 2d f3 bd ce 46 c3 bd 82 aa ad bd
       0.11469392 -0.1187395 -0.09534989 -0.084797874
000030 1b 80 74 3d 29 70 ce bc 27 91 f9 bd d8 db b4 3b
       0.059692483 -0.025199967 -0.12185889 0.0055193715
000040 04 9f 04 3e cb d6 e9 bd 75 03 76 3e 2a 83 2e be
       0.12951285 -0.11417922 0.24024756 -0.17042223
000050 43 be 5d bc f6 49 35 be 6d a5 1d bd a5 e2 24 3e
       -0.013534131 -0.17703995 -0.03848784 0.16102083
000060 f3 85 24 3e d9 4b bb 3d 5b 51 5e bd fa be 40 be
       0.16066723 0.09145326 -0.054276805 -0.18822852
000070 fd 1f 03 be 4f d1 8e 3c bd 13 87 3d 78 66 cc bb
       -0.12805171 0.01743379 0.06595562 -0.006237801
000080 7c e1 9e 3d 05 f3 7f bc 63 e1 10 3e 73 17 e0 bd
       0.077578515 -0.015621905 0.14148478 -0.109419726
000090 57 73 c4 bd d9 6c f5 3d a8 aa 13 3e 0b 5d 19 3e
       -0.09592312 0.11983652 0.14420569 0.149769
0000a0 39 21 02 be 7e 6b 39 bc 57 a9 55 3e 33 9f 37 bc
       -0.12707986 -0.011317132 0.2086538 -0.01120739
0000b0 8c 30 9e 3d e5 9c 73 be ac 5b bd 3d b0 9a 8e 3d
       0.07724103 -0.2379032 0.09246001 0.06963098
0000c0 5a 0f 14 be 51 3a de bd c6 81 9a 3d 7b 0e 10 3e
       -0.14458981 -0.10850967 0.075442836 0.14068024
0000d0 50 a3 81 3d d2 84 13 3e 5f 8d 59 3d c6 05 93 bd
       0.063299775 0.14406136 0.053113338 -0.071788356
0000e0 cf d7 ea bd 00 88 a1 3d 1e 7b 3d 3e 93 10 d4 3c
       -0.114669435 0.07887268 0.18503997 0.02588681
0000f0 b3 02 52 be f8 ed 87 3d 9e b5 6a be d1 b3 b0 bc
       -0.20508842 0.06637186 -0.22920844 -0.021570118
000100 ed 0b 9e be 39 6d 7e 3d f3 f2 43 3e 5f b7 0e 3d
       -0.30868474 0.06211588 0.19135647 0.034842845
000110 0d 10 ce bd ad bf 15 3e 5a 10 8e 3d 10 6f 96 b9
       -0.10061655 0.146239 0.069367126 -0.00028692978
000120 82 6b 84 3e 0a 9c 9a 3c b6 60 41 bd b5 1e 01 3e
       0.25863272 0.018873233 -0.04721137 0.1260937
000130 fb 3c 0a be 34 db 17 bb d6 54 fb bd e5 bb 20 bd
       -0.13499825 -0.0023171427 -0.122720405 -0.03924169
000140 a6 de 96 3e 20 29 a7 bd 72 fd bb bd 93 83 58 3c
       0.29466742 -0.08162141 -0.091792 0.0132149635
000150 70 3d e0 bd 24 06 86 3d 5b c2 68 bb ad c3 d1 bd
       -0.10949218 0.0654414 -0.0035516236 -0.102424
000160 ec e9 1c bd 57 de 11 3e 68 0f 73 3d 38 89 a3 bd
       -0.038309023 0.14244972 0.059340864 -0.07985157
000170 2a 31 ab 3d 20 e1 a5 3c 92 2a e6 bc 4a 51 cc 3a
       0.08358987 0.02024895 -0.028096471 0.0015588191
000180 fa bb b0 bc 79 43 e5 bd 6e 90 04 39 c1 a5 3d 3e
       -0.02157401 -0.1119451 0.00012642305 0.18520261
000190 86 00 19 3c c9 c2 3e 3c bd 8f 01 be 6a 1a 88 bd
       0.009338504 0.01164312 -0.12652488 -0.06645663
0001a0 b3 32 22 be 29 ea da bc 7f 70 bb bd 31 c4 04 3d
       -0.15839653 -0.026722984 -0.09152316 0.032413665
0001b0 74 a9 05 be 41 ac 5c bd e9 31 7f bd 6a 4b cd be
       -0.13052922 -0.05387521 -0.062303457 -0.400966
0001c0 1a 52 e9 3c bd 11 a0 bd 30 9d af 3d 5f 10 a5 be
       0.028481532 -0.07815883 0.08574903 -0.32239053
0001d0 20 f2 73 be 93 22 94 3d 96 6b b3 3e 1e bc 17 bd
       -0.23822832 0.07233157 0.3504302 -0.037044637
0001e0 75 94 2d 3c fc 00 e7 3c 58 b6 88 3d b8 04 bf bd
       0.010594477 0.028198712 0.06675404 -0.09327072
0001f0 cc ff 6c be 0b 61 92 bc 3d 83 ae 3d e0 11 74 be
       -0.23144454 -0.01786854 0.085211255 -0.23834944
000200 57 f2 0c 3d 17 fd b8 bd 12 ea 3d bc ce 86 3c 3e
       0.0344108 -0.09032648 -0.011591451 0.18410799
000210 51 e8 65 bd 8d e6 11 be 5a fb 86 3b c4 15 2f be
       -0.056129757 -0.14248104 0.004119319 -0.17098147
000220 63 6c c8 3d 11 87 db bc 0f 1d 18 be 91 4f 76 3e
       0.09786298 -0.026797803 -0.14854835 0.2405379
000230 f1 34 a0 bc 1c d3 11 bd 39 4e a6 3d 99 27 44 3d
       -0.019556494 -0.03560172 0.081203885 0.047889326
000240 c7 81 30 3d 78 9f 0e 3e b8 7e 70 bd 33 7d 15 3d
       0.043092515 0.1392802 -0.0587146 0.036496352
000250 75 7d 68 be 5d 9e fa 3c 63 68 a7 3d c2 f9 6b 3e
       -0.22704108 0.030593092 0.08174207 0.23044494
000260 da b4 e8 3d f7 a0 f2 bd ff 41 e9 3c 20 fb 92 3c
       0.1136262 -0.11847108 0.028473852 0.017942011
000270 1e 12 35 bd 07 a9 1e 3e 09 80 83 bc 10 af b1 3d
       -0.04420673 0.15494166 -0.016052263 0.08675969
000280 cf e3 d2 bd b2 0a 82 3e 02 2d 92 bc e7 7c 80 bd
       -0.10297357 0.25398785 -0.017843727 -0.06273823
000290 4c 4d 34 3e 69 bc b7 bd 7e 74 df bc 95 59 0a bd
       0.17607611 -0.08971483 -0.027277227 -0.03377684
0002a0 83 64 30 3e 86 9c 0c be 19 d5 37 3d 15 31 b6 bd
       0.17225842 -0.13731584 0.04488096 -0.088960804
0002b0 87 0f 0a bd 91 83 07 3d 1b ec b5 be ea 56 6e be
       -0.033706214 0.033084456 -0.35531697 -0.23275343
0002c0 32 0b 39 bd 4d 07 26 be 5e 18 34 bd 70 64 6d bd
       -0.045176692 -0.16213723 -0.04396855 -0.057957113
0002d0 49 a5 d2 3b 5a 82 14 3e fb f3 c8 bd c2 31 31 bd
       0.006428395 0.1450285 -0.098121606 -0.043260343
0002e0 e4 30 bb bc f4 78 cc bc 6b ad 68 bd ee 5d 3f be
       -0.022850461 -0.024960019 -0.05680601 -0.18688175
0002f0 67 30 5e 3d b2 01 d7 3d fb 7d ae 3d 49 8d 0e 3d
       0.05424538 0.1049837 0.085201226 0.03480271
000300 c8 1f b7 bd ef ca 96 3d 70 9f 36 bd d0 eb b7 be
       -0.08941609 0.07362925 -0.044585645 -0.35922098
000310 46 0e 68 3e 8d f4 d9 bd 71 ec 9f be 57 c9 52 be
       0.22661695 -0.106423475 -0.31235078 -0.20584618
000320 df 94 93 3e c3 ec 53 be df 4d 0d be 1b 41 9d bd
       0.28824517 -0.20695786 -0.13799237 -0.076784335
000330 ea 92 3a 3d 00 5f 92 bd 88 b7 65 3c 85 f1 a4 be
       0.045550264 -0.07147026 0.014020808 -0.32215515
000340 ae c1 a1 be 20 e0 15 be a2 4d 6f be d0 1f 47 be
       -0.31593078 -0.14636278 -0.23369458 -0.1944573
000350 29 24 a0 3d 0a c6 34 3e 0e f4 6d bb cc e7 64 be
       0.07819397 0.17653671 -0.0036308798 -0.22354048
000360 54 77 0b bc 9c c3 95 3d 33 b8 6d 3e 20 f6 d4 bd
       -0.008512337 0.073127 0.23214798 -0.10398507
000370 e9 7f f2 3d bb 54 12 bd 03 8b 30 be 9a 1d 9a bd
       0.11840803 -0.035725337 -0.17240529 -0.07525177
000380 fb 04 55 3e 6c e8 a4 bd 08 d1 1b be 5d cc 87 3d
       0.20802681 -0.080521435 -0.15216458 0.06630776
000390 64 22 a6 bd 1f af a2 bd f9 b5 b1 bc bd 1c cb 3e
       -0.08112028 -0.07943558 -0.021693217 0.39670363
0003a0 5b e8 40 3d 43 68 09 bb cd fb ec be 8a 4d bb be
       0.04709659 -0.0020966686 -0.4628586 -0.36582595
0003b0 55 4f cc bd ad df bd 3d 48 81 9b 3d 85 a2 cf 3c
       -0.09976069 0.092711784 0.07593018 0.02534605
0003c0 98 5a bb bd b2 98 bb bc ca 56 10 be f8 47 e8 3d
       -0.09148139 -0.02289996 -0.14095607 0.11341852
0003d0 26 f5 1c be ad 6a 44 3d 93 ec b4 bd dc 48 35 be
       -0.15327892 0.047953296 -0.088341855 -0.17703575
0003e0 4e 1c 60 bd 3d 83 1d be 9c ea ab 3e 73 95 a1 be
       -0.054714493 -0.15382095 0.3357743 -0.31559333
0003f0 fe bd 20 3b 9b 4c 5d 3c 69 80 ec 3d 68 d5 73 3b
       0.0024527307 0.013507034 0.1154793 0.0037206057

layer_3.bias f4 [15]
000000 8f 1e 02 3e 3c c5 65 3e 93 41 7e 3e b6 f9 d3 be
       0.1270697 0.2243852 0.24829702 -0.41401452
000010 60 fa 3a bc 9f a8 cd bd 5d d7 0c be 51 14 23 be
       -0.011412233 -0.100419275 -0.1375403 -0.15925719
000020 5c 7e 81 be b3 57 57 3e 43 09 c4 be 96 0a 55 be
       -0.25291717 0.21029548 -0.38288316 -0.2080482
000030 c6 42 99 3d fc 6b a5 3e bf 24 4c bd
       0.07483439 0.32308948 -0.04983973
