st_dev_model.pt (torch, 12823 bytes, 6 tensors)

layer_1.weight f4 [33, 30]
0	0x3db45818	0.08805865
1	0xbd1e27a1	-0.03861201
2	0xbe3d26fc	-0.18471903
3	0xbd7dba50	-0.06194526
4	0x3e82e8fe	0.25568384
5	0xbd96ec88	-0.073693335
6	0xbd68b25a	-0.056810714
7	0x3dfade47	0.12249427
8	0xbd590928	-0.052987248
9	0xbdec680b	-0.11543282
10	0x3d9e8cf9	0.07741732
11	0x3d026246	0.031832002
12	0xbe7c2843	-0.24624734
13	0xba3fede0	-0.0007321518
14	0x3e1b3d7c	0.15160173
15	0x3e0f1a65	0.13974912
16	0xbe13e760	-0.14443731
17	0xbdbebdcc	-0.09313545
18	0x3e638559	0.22218837
19	0x3dc35e96	0.09539525
20	0xbe091999	-0.13388671
21	0x3e62fc7d	0.22166629
22	0xbddad816	-0.10685746
23	0x3e4e4c76	0.20146355
24	0xbe417997	-0.18894039
25	0xbd2691b6	-0.040666305
26	0x3cf9a0d7	0.030472202
27	0xbe014903	-0.12625508
28	0xbdacf817	-0.08445757
29	0x3e12c3a4	0.14332443
30	0x3e2f2c06	0.17106637
31	0xbda2b745	-0.07945112
32	0xbdada31f	-0.084783785
33	0x3e15cfa1	0.14629985
34	0xbe1fac21	-0.15593006
35	0x3df936b8	0.1216864
36	0xbe61163b	-0.21981137
37	0xbe2555c5	-0.16146
38	0xbe25180f	-0.16122459
39	0xbe12eb9c	-0.1434769
40	0x3e2d593e	0.16928574
41	0xbdcf0fb0	-0.10110414
42	0xbe20dc47	-0.15709029
43	0x3de41568	0.111368954
44	0x3d0c79d2	0.034295864
45	0xb9309f30	-0.0001684397
46	0x3d96f529	0.07370979
47	0x3d85db76	0.065359995
48	0xbe33abe6	-0.17546043
49	0x3da174e9	0.07883627
50	0xbde9e674	-0.114209086
51	0xbd9b98d0	-0.07597506
52	0x3ce27c40	0.027647138
53	0x3dfe72ef	0.124242656
54	0xbb16687c	-0.002295046
55	0xbcfc0143	-0.03076232
56	0xbe800665	-0.2500488
57	0x3d5fcab8	0.054636687
58	0xbe55cf2a	-0.20879808
59	0x3d3e955a	0.04652915
60	0x3e1ef25c	0.1552214
61	0xbe630437	-0.22169577
62	0x3e1cbaf4	0.15305692
63	0x3dfe34da	0.124124244
64	0x3ce12f43	0.027488356
65	0x3c617150	0.013759926
66	0x3d231a7b	0.039820176
67	0x3df6f477	0.12058347
68	0x3e2b66e4	0.16738468
69	0xbd89b6f0	-0.06724346
70	0xbd8dfd65	-0.06933097
71	0x3d38f4f0	0.045155466
72	0xbd1962d1	-0.037447754
73	0xbd819c23	-0.06328609
74	0xbda6b2c9	-0.08139569
75	0x3d89395b	0.06700393
76	0xbd2893f5	-0.041156728
77	0xbe4c3340	-0.19941425
78	0x3d53d99c	0.0517212
79	0x3e172ae5	0.14762457
80	0xbd98fd3e	-0.07470177
81	0xbdbda150	-0.092592835
82	0xbda5a60d	-0.08088312
83	0xbe6de48c	-0.23231715
84	0xbe3bf663	-0.18355708
85	0x3e476219	0.19471015
86	0x3e22e94c	0.15909308
87	0x3d5af801	0.05345917
88	0xbe427637	-0.18990408
89	0x3dde3e6d	0.108517505
90	0xbc88e640	-0.016711354
91	0xbe12dacd	-0.14341278
92	0x3c89ed41	0.016836764
93	0x3e0bfc35	0.13670428
94	0xbca02216	-0.019547503
95	0xbdd89839	-0.10575909
96	0xbe5fa333	-0.218396
97	0xbdbe834b	-0.09302386
98	0xbe177278	-0.1478976
99	0xbd929651	-0.07157577
100	0x3e9023f9	0.28152445
101	0xbddb4e82	-0.107083336
102	0xbd5f8b37	-0.054576125
103	0x3dcca8d9	0.09993143
104	0xbd488e36	-0.048963748
105	0xbdd9d2cb	-0.10635909
106	0xbe175a91	-0.14780642
107	0xbe122568	-0.14272082
108	0xbd054a67	-0.03254166
109	0xbc575f52	-0.013145285
110	0x3ce311c7	0.027718438
111	0xbc852a54	-0.016255535
112	0x3dd561df	0.10419058
113	0xbd4f8994	-0.050668314
114	0xbba00290	-0.004883118
115	0xbe5154e9	-0.20442547
116	0x3dc32d4e	0.095301256
117	0xbd727a8c	-0.0591989
118	0xbe1da8f5	-0.15396483
119	0x3ceb20c2	0.028702144
120	0x3dabf620	0.08396554
121	0xbdb77b9e	-0.08959125
122	0x3dd0e637	0.1020016
123	0x3e47d96b	0.19516532
124	0x3c9d9c4c	0.019239567
125	0xbdf62982	-0.12019636
126	0x3c7d9b66	0.015478944
127	0xbe7a8806	-0.24465951
128	0xbd5b961c	-0.053609952
129	0xbe7bb903	-0.24582295
130	0x3e0c9efd	0.13732524
131	0xbe1ed40e	-0.1551058
132	0xbc12c9db	-0.008959259
133	0x3e66ce84	0.22539717
134	0xbe70c3f5	-0.23512252
135	0xbe4075bb	-0.1879491
136	0x3df47d2e	0.11937939
137	0xbd9dc4f7	-0.07703584
138	0xbd9e7bd0	-0.07738459
139	0xbdd81bfa	-0.10552211
140	0xbd83d54d	-0.06437168
141	0xbd89d790	-0.067305684
142	0xbc7299df	-0.014807194
143	0xbdb45b2c	-0.08806452
144	0xbceb43c2	-0.028718833
145	0x3d44a77d	0.04801129
146	0xbe1b720e	-0.15180227
147	0xbd2cdec4	-0.042204633
148	0xbd5f2bbf	-0.05448508
149	0xbe63f6bc	-0.2226209
150	0x3d826b32	0.06368102
151	0x3dc6cb32	0.09706725
152	0x3c366f7a	0.0111349765
153	0xbb4e48f4	-0.003147659
154	0xbd86dc54	-0.06584993
155	0x3e0f8d2c	0.14018697
156	0x3cc94875	0.024570683
157	0xbd8daf4c	-0.06918201
158	0x3e37deaa	0.17956033
159	0x3dd0f446	0.102028415
160	0xbd4dbab6	-0.05022689
161	0xbd9eb373	-0.07749071
162	0xbe030d76	-0.12798104
163	0x3c56549e	0.013081698
164	0xbe61b7f0	-0.22042823
165	0x3c84da5c	0.016217403
166	0xbd9d1d80	-0.07671642
167	0xbe3da6ad	-0.18520613
168	0x3e0d4e1b	0.13799326
169	0x3de82388	0.11334902
170	0xbdd9d4fc	-0.10636327
171	0xbc86bdfe	-0.016448017
172	0x3dbdff43	0.09277203
173	0xbd788dac	-0.060681984
174	0x3d5ac104	0.05340673
175	0xbe039103	-0.12848286
176	0xbd8c80a6	-0.06860475
177	0xbe02304d	-0.12713738
178	0x3d9333a9	0.07187588
179	0xbe26ed87	-0.16301547
180	0xbde447ee	-0.11146532
181	0x3df01253	0.11722245
182	0xbe403e14	-0.18773681
183	0x3d3de3a4	0.046359673
184	0x3e691d49	0.22765078
185	0x3e118f88	0.14214909
186	0x3dfee0f5	0.12445251
187	0x3dd884a8	0.10572177
188	0xbdb005fa	-0.0859489
189	0x3dd5992d	0.104296066
190	0xbe05fe5f	-0.13085316
191	0x3c6250d2	0.013813214
192	0x3e16afef	0.14715551
193	0xbde2d3e0	-0.11075568
194	0x3dca5e5f	0.09881281
195	0xbd7dd037	-0.061966147
196	0xbd83ad3e	-0.06429528
197	0x3e039433	0.12849502
198	0x3e144b36	0.14481816
199	0xbe02d99b	-0.12778322
200	0x3dc43ea0	0.09582257
201	0xbe54cf77	-0.20782267
202	0x3e2f267b	0.17104523
203	0x3e334923	0.17508368
204	0x3c8f1ac6	0.017468821
205	0xbc3608bd	-0.011110482
206	0xbdf94956	-0.12172191
207	0xbdb2cc8e	-0.08730422
208	0xbe06fb35	-0.13181765
209	0xbddf21b8	-0.10895103
210	0xbd079f08	-0.03311065
211	0xba89dd70	-0.0010518264
212	0x3d104ece	0.035231404
213	0x3d01528a	0.031572856
214	0x3e02cfc6	0.12774572
215	0xbd58b424	-0.05290617
216	0x3d0b0c11	0.033947054
217	0xbd69b28d	-0.057055045
218	0xbe1c3a1b	-0.1525654
219	0xbe085dc1	-0.13317014
220	0xbdc1c922	-0.09462191
221	0xbe50ac06	-0.20378122
222	0xbdb3c95b	-0.0877864
223	0xbd1551f5	-0.036455113
224	0xbddf47c8	-0.10902363
225	0x3dee06d2	0.116223946
226	0x3e009ba1	0.12559368
227	0xbe456dda	-0.19280186
228	0x3e04c4e3	0.12965731
229	0xbd189b3f	-0.03725743
230	0x3e736360	0.23768377
231	0xbd1cd6a4	-0.038290635
232	0x3e0d2c38	0.137864
233	0xbe5e87cf	-0.21731494
234	0xbbbd5986	-0.0057784943
235	0x3d6014c0	0.05470729
236	0x3d78cbba	0.060741164
237	0xbdabe4ad	-0.08393226
238	0xbe7e8640	-0.248559
239	0x3d0eb3df	0.034839507
240	0x3e2fa45e	0.17152545
241	0x3c8dbd2b	0.017302116
242	0x3e25fb8d	0.1620924
243	0x3d66daec	0.056361124
244	0xbd9553d4	-0.072913796
245	0x3d9934b4	0.074807554
246	0xbe6b790f	-0.22995399
247	0xbd001216	-0.031267248
248	0x3df40e88	0.11916834
249	0xbd23e8da	-0.040016986
250	0xbccfeff0	-0.025382966
251	0xbdafb84b	-0.08580073
252	0x3dd77ed2	0.10522236
253	0x3e354251	0.17701079
254	0xbd3952b9	-0.045244906
255	0x3e12534b	0.14289586

layer_1.bias f4 [33]
0	0x3de9959e	0.1140549
1	0x3d82868b	0.06373318
2	0xbe2e7503	-0.17036824
3	0x3dd31873	0.10307398
4	0x3d6c395a	0.057671882
5	0xbd30e912	-0.043191023
6	0xbde37060	-0.11105418
7	0x3c38810a	0.011261234
8	0xbe07a1a0	-0.13245249
9	0x3d9c0cb5	0.07619611
10	0x3e0377e5	0.12838705
11	0xbe14a133	-0.14514618
12	0xbd8ec68e	-0.06971465
13	0xbe3c6677	-0.18398462
14	0x3d8a2989	0.067462035
15	0xbd0c351c	-0.034230337
16	0x3df871c4	0.12131074
17	0x3e5fd4ab	0.2185847
18	0xbe492ff3	-0.19647197
19	0x3d5120c8	0.051056653
20	0xbd399390	-0.045306742
21	0x3d3456a1	0.04402793
22	0xbe541bc1	-0.20713712
23	0xbdf4d0c7	-0.119538836
24	0x3cc48988	0.023991361
25	0xbd30fb5c	-0.043208465
26	0xbe09ec75	-0.13469107
27	0x3bc725d6	0.0060775084
28	0x3bd5e414	0.006527433
29	0x3d900ecd	0.07034073
30	0xbce8cf73	-0.028419232
31	0x3d032372	0.032016225
32	0xbdcd2398	-0.100165546

layer_2.weight f4 [34, 33]
0	0xbcaadcf0	-0.020857304
1	0x3e453c5c	0.19261307
2	0xbd2c7b6c	-0.04210989
3	0x3ba559ab	0.0050460896
4	0x3dd30b9b	0.10304948
5	0xbd82187b	-0.063523255
6	0xb979c280	-0.00023818947
7	0x3cee56f2	0.029094193
8	0x3ccf4ca7	0.025305105
9	0x3c8621f2	0.016373608
10	0x3cc94ef5	0.024573782
11	0xbdf93d58	-0.121699035
12	0x3da5f147	0.081026606
13	0x3d91768a	0.07102688
14	0x3d804ed7	0.062650375
15	0xbc9934ac	-0.018701874
16	0x3e27f124	0.16400582
17	0x3d8a58af	0.06755196
18	0x3e07b10e	0.13251135
19	0xbdcc6814	-0.09980789
20	0x3e2f44f9	0.17116155
21	0xbe3bf3ba	-0.18354693
22	0x3da11e2d	0.07867084
23	0x3d3b90a2	0.04579223
24	0xbd985f75	-0.07440082
25	0x3ce26c01	0.02763939
26	0xbd8f1447	-0.069862895
27	0x3dc9ca19	0.09853
28	0x3e05f600	0.13082123
29	0x3d0331e9	0.03203002
30	0xbce9e9ae	-0.02855381
31	0x3e1c118d	0.1524107
32	0xbd22d1e8	-0.039750963
33	0x3dd21070	0.102570415
34	0xbdc50706	-0.0962048
35	0xbd99d321	-0.07510973
36	0xbdefc20e	-0.11706935
37	0xbe1aa866	-0.15103301
38	0x3daf7804	0.08567813
39	0xbdd2cdef	-0.10293185
40	0xbd15b844	-0.036552683
41	0xbd19e4ec	-0.037571833
42	0xbcd30138	-0.025757417
43	0x3e186cf0	0.14885306
44	0x3dbd5600	0.09244919
45	0x3db25a78	0.08708662
46	0xbe094637	-0.13405691
47	0x3da47610	0.08030331
48	0x3e2e660a	0.17031112
49	0xbd07e7b0	-0.03317994
50	0x3d9ad24e	0.07559644
51	0xbddb024d	-0.10693798
52	0x3d66f6e8	0.056387812
53	0xbdc478c8	-0.0959335
54	0x3e141978	0.1446284
55	0xbe295be0	-0.16538954
56	0xbbf63080	-0.007513106
57	0xbe0ebf81	-0.1394024
58	0xbd5bacfc	-0.053631768
59	0xbdb5e37d	-0.088812806
60	0xbd120754	-0.03565152
61	0xbe127cd2	-0.14305428
62	0xbe1574ea	-0.1459538
63	0xbd02b43c	-0.031910166
64	0x3c34ae00	0.011027813
65	0x3d91c29a	0.071171954
66	0xbd0ea32a	-0.034823574
67	0x3e1d51f6	0.15363297
68	0x3d3e4746	0.04645469
69	0x3e0edd4f	0.1395161
70	0xbe0471ee	-0.12934086
71	0xbdae793e	-0.08519219
72	0xbe635ce8	-0.2220341
73	0x3c539863	0.01291475
74	0xbddb85db	-0.1071889
75	0x3ddf5f6f	0.109068744
76	0x3dd84f4f	0.10562002
77	0x3d8e1279	0.06937117
78	0x3cfdc70c	0.030978702
79	0xbca06fe0	-0.019584596
80	0x3d8ca711	0.06867803
81	0xbdae1315	-0.08499733
82	0xbe163048	-0.14666855
83	0x3e29ce79	0.1658267
84	0x3caa39b8	0.020779476
85	0xbe0bf40d	-0.13667317
86	0x3c86b20f	0.016442327
87	0xbcdc085c	-0.026859455
88	0xbde16dc6	-0.11007266
89	0x3e51925d	0.2046599
90	0x3df35c71	0.11882866
91	0xbc90fd38	-0.01769887
92	0xbd8bd558	-0.068278015
93	0xbcb55128	-0.022133425
94	0x3d671849	0.056419645
95	0x3e56e673	0.20986347
96	0x3dfefee8	0.12450963
97	0x3d88fbcd	0.06688652
98	0x3e8c15b7	0.27360317
99	0x3d9abcd7	0.075555496
100	0xbdfbafd9	-0.122894
101	0xbceb0f06	-0.028693687
102	0x3dc29c53	0.09502473
103	0xbd92c770	-0.07166946
104	0xbd0585c0	-0.032598257
105	0xbd8d3411	-0.068946965
106	0xbe03a848	-0.12857163
107	0xbd2330db	-0.039841514
108	0x3dc7f1c3	0.09762909
109	0xbd112429	-0.035434876
110	0xbd23849d	-0.03992139
111	0x3dbc941b	0.092079364
112	0x3d691201	0.056901935
113	0xbe2bd72b	-0.16781299
114	0xbe21faf2	-0.15818384
115	0x3e0086e1	0.12551452
116	0x3de956d0	0.11393511
117	0xbc4ac438	-0.012375884
118	0xbe283106	-0.16424951
119	0xbe617af9	-0.22019567
120	0x3c15b3fd	0.009137151
121	0x3e126f1b	0.14300196
122	0xbe59b800	-0.21261597
123	0x3d250e34	0.04029675
124	0x3da9fe65	0.08300475
125	0xbdb8a7e3	-0.09016397
126	0xbdc5cbc3	-0.09658005
127	0x3dc47334	0.09592286
128	0xbd014c57	-0.031566944
129	0x3d722e12	0.059125967
130	0x3e1346d2	0.14382485
131	0xbd0abcfd	-0.03387164
132	0x3e3f696d	0.1869256
133	0x3dc8cb62	0.09804417
134	0xbdac8b4b	-0.084250055
135	0x3e073d07	0.13206874
136	0xbdc980cc	-0.09839019
137	0xbe064b46	-0.13114652
138	0xbcb27b11	-0.021787198
139	0x3e023e05	0.12718971
140	0xbd23a9d0	-0.039956868
141	0xbaf83764	-0.0018937406
142	0x3da778c4	0.08177331
143	0x3e2104e8	0.15724528
144	0xbdd39ab2	-0.1033224
145	0xbd9c4b2d	-0.07631526
146	0x3d6f12d4	0.058367565
147	0x3df909b6	0.12160055
148	0xbdbfdd95	-0.09368435
149	0xbde96b2d	-0.11397395
150	0x3daf7ad8	0.085683525
151	0xbe078f45	-0.13238247
152	0xbd774c32	-0.0603754
153	0xbd69c3ca	-0.057071485
154	0x3dd1b954	0.10240427
155	0x3dfde4cd	0.12397156
156	0xbdcfd3ef	-0.10147845
157	0xbdfa0e68	-0.12209779
158	0x3daaeb82	0.08345701
159	0x3e1bac2e	0.152024
160	0xbdffb540	-0.124857426
161	0xbdbc3744	-0.091902286
162	0xbdfbc4eb	-0.122934185
163	0xbe22ef34	-0.15911561
164	0xbdfc1f02	-0.12310602
165	0xbcb15f10	-0.021651775
166	0xbd7fedfc	-0.06248282
167	0x3af91a00	0.0019004941
168	0x3d6d8e98	0.057997316
169	0x3b1282c0	0.0022355765
170	0x3e137856	0.14401373
171	0xbe2d2b34	-0.16911012
172	0x3dc67a5e	0.096913084
173	0x3e0af74c	0.13570899
174	0xbd848e1b	-0.06472417
175	0xbdb94900	-0.09047127
176	0x3e182292	0.14856938
177	0x3deab5c8	0.11460453
178	0x3d3e3f7c	0.046447262
179	0x3dd10d1e	0.1020758
180	0xbdf1b26e	-0.11801611
181	0xbe2a2165	-0.16614302
182	0xbdcdca18	-0.10048312
183	0x3d465208	0.048418075
184	0xbe16240a	-0.14662185
185	0xbdd5606b	-0.10418781
186	0xbd053ccc	-0.032528684
187	0xbe2e6f06	-0.1703454
188	0xbd7b524c	-0.06135778
189	0xbd9a42ae	-0.075322494
190	0xbc644d30	-0.013934419
191	0xbc81f420	-0.015863478
192	0x3e1e75be	0.15474603
193	0xbdebedc8	-0.115199625
194	0xbcdc1b80	-0.026868582
195	0xbe046976	-0.12930855
196	0xbd01d558	-0.0316976
197	0xbbf60a66	-0.007508564
198	0xbbc84f98	-0.006113004
199	0x3da7a222	0.08185221
200	0x3d9fe091	0.078065045
201	0xbd296a70	-0.041361272
202	0xbd90c57b	-0.070689164
203	0xbdc96bcf	-0.09835016
204	0x3d711774	0.058860257
205	0x3d89e0f7	0.06732362
206	0xbb879939	-0.0041381386
207	0x3e22b0a4	0.15887696
208	0x3e1b9fb9	0.15197648
209	0x3d4d8e58	0.050184578
210	0x3d5267ba	0.051368453
211	0xbd3ed81b	-0.046592813
212	0xbe14ffa9	-0.14550652
213	0x3dc227a4	0.09480217
214	0x3e199a0b	0.15000169
215	0x3e0fdefb	0.14049904
216	0xbe09e37a	-0.13465682
217	0x3e40b06a	0.18817297
218	0x3dceb6f4	0.10093489
219	0x3e06ce95	0.13164742
220	0x3e29a9b2	0.1656864
221	0x3e0c733d	0.13715835
222	0x3d85cf43	0.06533673
223	0x3e486311	0.19569041
224	0x3e24b12d	0.16083212
225	0x3e89de81	0.2692757
226	0xbb7b7d6e	-0.0038374322
227	0xbd88ff1a	-0.06689282
228	0x3de713b1	0.11283053
229	0xbd027f7a	-0.031859852
230	0xbe0e568c	-0.13900203
231	0x3d3447ac	0.044013664
232	0x3d46f06a	0.04856912
233	0x3d28e4e8	0.041233927
234	0xbe381d79	-0.17979993
235	0x3e0007cd	0.12502976
236	0xbd23879f	-0.03992426
237	0x3db8d0c0	0.09024191
238	0xbe53f96d	-0.20700617
239	0x3d3cfe1c	0.046140775
240	0xbdc6f4dd	-0.09714673
241	0x3dde4f8c	0.10855016
242	0xbde834d2	-0.113382
243	0x3d90740a	0.07053383
244	0x3df128ac	0.11775336
245	0x3ce59354	0.028024353
246	0xbe25bc1b	-0.16185038
247	0x3cedaae4	0.029012151
248	0x3e4761e2	0.19470933
249	0xbe18f367	-0.149366
250	0xbc8dfed0	-0.017333418
251	0x3e402835	0.18765338
252	0x3c2040c8	0.00978107
253	0xbd144263	-0.036196124
254	0x3dc1cb0c	0.09462556
255	0x3c003776	0.007825723

layer_2.bias f4 [34]
0	0xbd22e6b2	-0.03977079
1	0xbe0e5bcd	-0.13902207
2	0xbd2dcb40	-0.042430162
3	0xbdac8067	-0.08422928
4	0xbd6f3d89	-0.058408294
5	0xbcf5e602	-0.030016903
6	0xbd17af36	-0.03703233
7	0x3e31a86f	0.17349409
8	0xbcdc35f6	-0.0268812
9	0x3e6a8447	0.22902022
10	0xbe20ac37	-0.15690695
11	0xbdc98c75	-0.09841243
12	0xbd62f81d	-0.0554124
13	0xbd975eec	-0.07391152
14	0x3e61ff63	0.22070079
15	0x3e0bbd40	0.13646412
16	0xbd5c1e5c	-0.05373989
17	0x3d9c6158	0.07635754
18	0x3d2e0d2c	0.04249303
19	0x3c5ad3da	0.013356173
20	0xbe2378f9	-0.15964116
21	0x3da0a0fd	0.07843206
22	0xbd864340	-0.06555796
23	0xbe4b8a41	-0.19876958
24	0xbdf46048	-0.11932427
25	0xbe0ac1ba	-0.13550463
26	0xbe1ab090	-0.15106416
27	0x3e73b3f8	0.23799121
28	0xbe62acff	-0.22136305
29	0x3e6ce9f6	0.23136124
30	0x3ca866c4	0.020556815
31	0xbcdd8cbe	-0.02704465
32	0xbe714e63	-0.23565058
33	0x3c3ec9fc	0.0116448365

layer_3.weight f4 [15, 34]
0	0xbe16643b	-0.14686672
1	0x3dd6057e	0.10450266
2	0x3da0fb8b	0.07860478
3	0xbdf81ffb	-0.12115475
4	0x3de12cac	0.109948486
5	0xbe00161a	-0.12508431
6	0xbe89679c	-0.2683686
7	0xbe8717b1	-0.26385263
8	0x3d1c8e11	0.038221423
9	0xbe1f1a55	-0.15537389
10	0xbd72ab15	-0.059245188
11	0x3de37dfb	0.11108013
12	0x3e204396	0.15650782
13	0xbe1ce8f4	-0.1532324
14	0xbe89aa03	-0.2688752
15	0x3e035186	0.12824067
16	0xbd9c063a	-0.07618375
17	0xbe1fb269	-0.15595402
18	0xbdab7307	-0.08371549
19	0x3c631498	0.01385989
20	0xbdb732e2	-0.08945252
21	0x3d193b3c	0.037410006
22	0xbe808b60	-0.25106335
23	0x3b5bd964	0.0033546323
24	0x3d3d2900	0.04618168
25	0xbe4ddbcf	-0.20103382
26	0xbd7a7392	-0.061145373
27	0xbdde6114	-0.1085836
28	0xbd8e043f	-0.06934404
29	0xbdbb9963	-0.091601156
30	0x3ca126a4	0.019671746
31	0xbd145317	-0.036212053
32	0x3d46f734	0.048575595
33	0xbe0a84c1	-0.13527204
34	0xbe0fa7e1	-0.14028884
35	0x3e04f289	0.12983145
36	0x3e38727b	0.18012421
37	0xbd5a4192	-0.05328519
38	0x3a1009d8	0.0005494631
39	0xbe0bdde2	-0.1365886
40	0x3c9f9518	0.019480273
41	0xbc722897	-0.014780185
42	0x3e0c35dd	0.13692422
43	0x3d6421bc	0.055696234
44	0x3db36395	0.08759228
45	0x3c255e30	0.010093257
46	0xbdd96f55	-0.10616938
47	0x3d6c880d	0.057746936
48	0xbdf58f69	-0.11990244
49	0x3e5b0926	0.21390209
50	0xbe0f5886	-0.13998613
51	0x3c3d4e53	0.0115543185
52	0xbe5e9651	-0.21737029
53	0x3dd5192f	0.10405194
54	0x3d9158ef	0.07097041
55	0xbdb31b95	-0.08745495
56	0x3dd8d907	0.1058827
57	0x3d427fae	0.047485046
58	0xbdd65b6e	-0.104666576
59	0xbc1b4b75	-0.00947844
60	0xbd8426ff	-0.064527504
61	0xbcacc69a	-0.021090794
62	0x3bda24b6	0.0066572083
63	0xbdd6b97a	-0.104845956
64	0x3c80694a	0.015675206
65	0x3dd30954	0.103045136
66	0x3e1552e4	0.14582402
67	0xbc9f9c76	-0.019483786
68	0x3e279390	0.16364884
69	0x3d0c3fd8	0.034240574
70	0xbe445fe6	-0.19177207
71	0x3c1c2ea8	0.009532608
72	0xbdfedfe4	-0.124450475
73	0x3dacb6d4	0.08433309
74	0xbaf0b490	-0.0018364359
75	0x3cc00b88	0.023442999
76	0x3e0915bc	0.13387197
77	0x3cc3e2be	0.02391183
78	0xbc558862	-0.0130330045
79	0x3cff9f56	0.031203907
80	0xbd1d1fb4	-0.038360313
81	0xbdeeffab	-0.116698585
82	0xbd8c9b96	-0.06865613
83	0xbe899bbe	-0.26876634
84	0xbc2343f8	-0.0099649355
85	0xbdc1de2a	-0.094662026
86	0x3db44513	0.08802237
87	0x3db1b202	0.086765304
88	0x3dbe0c06	0.09279637
89	0x3dfe676f	0.12422072
90	0xbcfc75a6	-0.030817818
91	0x3de36dd8	0.111049354
92	0xbe1ed9b8	-0.1551274
93	0x3d554500	0.052067757
94	0xbde9b6a7	-0.11411791
95	0xbe291e65	-0.16515501
96	0x3ca79c80	0.020460367
97	0xbd85d9d7	-0.0653569
98	0x3d2a9236	0.041643344
99	0x3c709b20	0.014685422
100	0x3e29471d	0.16531034
101	0xbd237dfa	-0.039915062
102	0xbe1f4b36	-0.15556034
103	0x3d7a1cd8	0.061062664
104	0xbc4d7ef8	-0.012542479
105	0x3bf88078	0.007583674
106	0x3cbec468	0.023287013
107	0x3c0c85a0	0.008576781
108	0x3d70141e	0.058612935
109	0xbde5000d	-0.1118165
110	0x3d301385	0.042987365
111	0xbe443ff6	-0.19165024
112	0x3d707864	0.058708563
113	0x3df1e7f9	0.118118234
114	0xbde21845	-0.11039785
115	0x3e33162b	0.17488925
116	0x3cd39b5b	0.025830915
117	0x3dbb5aa7	0.0914815
118	0x3d701072	0.058609433
119	0xbdc76781	-0.09736539
120	0xbd30aae1	-0.043131713
121	0x3dd692e0	0.10477233
122	0x3d060b79	0.032725785
123	0xbcf20f37	-0.02954827
124	0xbd1da76a	-0.038489737
125	0xbdb73cdd	-0.089471556
126	0x3dd6e4fa	0.104928926
127	0xbd9ad5d5	-0.075603165
128	0x3d932c33	0.07186165
129	0xbe2ea7ae	-0.17056152
130	0x3d423911	0.047417704
131	0xbce88dfa	-0.028388012
132	0x3dab1465	0.08353499
133	0xbe3ef474	-0.18647939
134	0xbe00e4cf	-0.12587284
135	0xbe2d18b0	-0.16903949
136	0x3dd95f87	0.106139235
137	0x3e01729f	0.1264138
138	0x3dae86cb	0.085218035
139	0x3e1dd7bc	0.15414327
140	0x3d840cc4	0.06447747
141	0xbdee750a	-0.11643417
142	0xbca3f404	-0.020013817
143	0x3df62b58	0.12019986
144	0x3daa5c5b	0.08318397
145	0x3d82896f	0.0637387
146	0x3dd7a4fd	0.10529516
147	0x3c75e9a5	0.0150093185
148	0x3dd8ef85	0.1059256
149	0x3bca2ed2	0.006170132
150	0x3d5751ef	0.052568372
151	0x3d2f1c42	0.042751558
152	0xbd71f0f6	-0.05906769
153	0xbe17d28d	-0.14826412
154	0xbce5342b	-0.027978977
155	0x3dffc160	0.12488055
156	0x3e243c44	0.16038615
157	0xbd93142b	-0.07181581
158	0xbe0539e4	-0.13010365
159	0xbcd70864	-0.026249118
160	0xbc6fb480	-0.014630437
161	0x3e2ce2be	0.1688337
162	0xbd335376	-0.043780766
163	0x3da2b126	0.07943945
164	0xbdf8e886	-0.12153725
165	0xbdd95acf	-0.106130235
166	0x3d777194	0.06041105
167	0xbd953f64	-0.072874814
168	0xbdbec96b	-0.09315761
169	0x3c5dfe1e	0.013549356
170	0x3e4709bc	0.19437307
171	0xbe056c02	-0.13029483
172	0x3dbdca09	0.09267051
173	0xbd304510	-0.043034613
174	0x3d94c79e	0.072646365
175	0xbce69be8	-0.028150514
176	0xbd1c2dee	-0.03812974
177	0x3d2a3edc	0.041563854
178	0x3e28c21d	0.16480298
179	0x3e190cb3	0.1494625
180	0x3e066bac	0.13127011
181	0x3ce5dbb1	0.028058859
182	0xbda15703	-0.07877924
183	0x3e28edf7	0.16497026
184	0x354d4000	7.6461583e-07
185	0x3d1a4d46	0.03767135
186	0xbe0de508	-0.138569
187	0x3d152f60	0.036422133
188	0xbd749d3c	-0.059720263
189	0x3d3a1d9c	0.045438394
190	0x3c9695c8	0.018381968
191	0xbd64d5ca	-0.055867948
192	0x3d9b6e53	0.07589402
193	0xbd3ec9ea	-0.04657928
194	0x3ce1cfb8	0.027564868
195	0x3c7dcaca	0.015490243
196	0xbdbedf61	-0.0931995
197	0x3d5d26cc	0.053992078
198	0x3d468fb5	0.048476893
199	0x3e016f83	0.12640195
200	0x3da84ef1	0.08218182
201	0x3d47b2de	0.048754565
202	0x3c7d5d16	0.015464088
203	0x3dd5d7bd	0.104415394
204	0x3e110ad9	0.14164294
205	0xbdb11412	-0.08646406
206	0xbceeabe3	-0.029134696
207	0xbc56b6b6	-0.013105085
208	0xbdbb06ac	-0.09132132
209	0xbcaa5770	-0.020793647
210	0xbd6e7c4a	-0.058224
211	0x3d523538	0.051320285
212	0x3de581dc	0.11206409
213	0x3d5a46de	0.05329024
214	0xbe3693f1	-0.17829873
215	0xbd9e813c	-0.07739493
216	0xbd283e47	-0.041075017
217	0xbd666c3c	-0.056255564
218	0x3de4b1b4	0.11166707
219	0x3d9a0101	0.07519723
220	0xbda73971	-0.08165253
221	0xbe2d650e	-0.1693308
222	0x3d9120c1	0.070863254
223	0x3dec3334	0.11533204
224	0xbe32fc85	-0.17479141
225	0x3e177cee	0.1479375
226	0x3dc2771e	0.09495376
227	0xbc441dc8	-0.011969991
228	0xbe22c5c0	-0.15895748
229	0xbc90454d	-0.01761117
230	0x3d844410	0.064582944
231	0xbdd6b9c0	-0.10484648
232	0xbd62d603	-0.05537988
233	0xbdfdb6ff	-0.12388419
234	0xbddfde57	-0.1093108
235	0xbe4bc72e	-0.199002
236	0x3e0d2e62	0.13787225
237	0x3ddb11f1	0.106967814
238	0x3dfa3725	0.12217549
239	0x3d8eb538	0.069681585
240	0x3db416dc	0.087934226
241	0xbd6077a0	-0.054801583
242	0xbdd55f96	-0.10418622
243	0xbdcb2eec	-0.09921059
244	0xbc32dc02	-0.010916712
245	0xbe03f18d	-0.12885113
246	0x3e24cad2	0.16092995
247	0xbe16143a	-0.14656153
248	0x3bf15de2	0.007365928
249	0xbd1843d6	-0.03717407
250	0xbdf09172	-0.117464915
251	0xbd3d1f1c	-0.046172246
252	0x3d8bf838	0.06834453
253	0x3dae2a56	0.08504169
254	0xbe0758e2	-0.132175
255	0xbc611f84	-0.013740424

layer_3.bias f4 [15]
0	0xbe204a24	-0.15653282
1	0xbdb8d9db	-0.09025928
2	0xbe460aaa	-0.19340006
3	0x3d7c54fa	0.061604477
4	0x3e05c6a6	0.1306406
5	0xbdad47eb	-0.08460983
6	0xbd7ffcf8	-0.06249711
7	0xbe06f3f5	-0.13179
8	0xbe03a535	-0.1285599
9	0xbdfc8c4f	-0.12331449
10	0xbd9ecd5c	-0.07754013
11	0x3c212eaa	0.009837786
12	0xbe58b129	-0.21161331
13	0x3da32b4a	0.07967241
14	0xb8884a00	-6.498769e-05
