st_dev_model.pt (torch, 21583 bytes, 8 tensors)

layer_1.weight f4 [33, 30]
00000000: f89f 1e3e d274 09bd e47a 943d 1673 a8bd
00000010: e84b 8fba f4cf 0dbe 0838 3b3e 1f49 babc
00000020: e898 a63d 65f8 f4bd 202e 6abd 1d1e eebd
00000030: 6911 063e 41a4 8bbd d4b0 2c3e 0064 09bd
00000040: 87ba 643c 2c0d 303e 19ee 013e 6367 c9bc
00000050: 9477 053e 738e 253e b4f4 18bd 9364 b2bc
00000060: 2ceb 2f3c b24b e8bd 4c20 81bc d0c4 953c
00000070: b786 85bd 3acb 9c3d ec5c 183d 1d36 a4bd
00000080: 50f6 403e 98ee c23d 22dc 123e a81e 103e
00000090: 70ae 753d 78ee 253e 28a2 cdbc 24e2 afbc
000000a0: b680 473e 7568 2f3e c4ba 0abd c840 8f3b
000000b0: bed1 173d 4cda 38be 962c d9bd 4ee4 32bd
000000c0: 6eca 1d3d eea7 93bd 5227 2abe a5a1 2abe
000000d0: 3223 323d 19f0 d13d 6f91 0f3e 343b 663d
000000e0: 7189 5bbe e8d4 983c 23c4 a7bd 8de5 a13d
000000f0: 0c3e 65bd eb90 a7bd e0f9 acbd 0630 dfbd
00000100: 7618 3c3e b8c3 bc3d ca19 ca3d a23e b03d
00000110: 3ace 103e d6fa 00be 59e0 aebd 86ca 453d
00000120: b4ac 4b3e a1f4 0b3e ea6c 8abb 0ac6 ad3c
00000130: 3e70 44bd c09c 3b3e 820d e5bd 8590 1d3e
00000140: c57c 0c3e 37ad d93d b390 ed3c a49d b83d
00000150: df34 0c3e 75dd 133e 3ea4 adbd 0b3f a13d
00000160: ff7a 1fbe a3ce 1cbe 682b 44bd 61d4 22be
00000170: d142 e6bc 8e1c fd3d 486e 203e e463 4cbd
00000180: e501 ddbd 89d1 903d c0a9 27bc b52b b6bd
00000190: a1a4 b1bd 8523 96bd 0ef6 363d 35ff e7bc
000001a0: bb70 003e 2cda e43d 0c72 243e f8f8 16be
000001b0: b855 4abd aa2a 8b3d f739 a23d 2394 3dbe
000001c0: 99dc c2bd 93bf 73bd e0ff 4cbb 209d abb9
000001d0: e388 3f3e 17e7 0d3e b25b 4d3d c6ad 25bd
000001e0: 4008 7ebb 9802 1cbe 9bd9 edbd ecfb 22be
000001f0: ba0e 51bd b8b3 e13d f790 f93d df90 353c
00000200: 4c9c fabd 267f 063e 97a6 f6bd 16b9 043e
00000210: 987a c0bd c626 94bc e4a4 52be d495 e6bb
00000220: 523e 4d3d 2c44 da3d 86f4 48be 154c 93bd
00000230: 58d4 c0bc e83d 97bd 6f8f cabd 7026 313d
00000240: 17b5 bdbd d06d a03d e7c2 12be 1748 093e
00000250: b774 c33d 98bd 183e ce28 37be 724e 0cbe
00000260: 10fb 9dba 504f e23b cf8a 22bc 2009 393c
00000270: 0baa 853d 034b bd3d 721c 013e 31a0 e93d
00000280: a2d0 103e e205 263d 96ea 44bd faaa 01be
00000290: fbd1 453e d9d8 9ebd f0d3 103e 1871 bd3d
000002a0: c050 22bd 025e 543e aade 2c3d 165b 23be
000002b0: c5d3 85bc caed bbbd 94e6 21bc 5aae 0d3e
000002c0: 7862 9bbd 38d2 70bd a4c3 36bd 8097 ad3d
000002d0: 80ff c23d df7a 7b3c a16e 903d ccac 053d
000002e0: 0e27 9b3d c57d 37be bbb7 da3d eff2 393e
000002f0: 9ab8 173e 625d 0ebe f4fb 49bd 565c 053e
00000300: e994 94bd c4c9 e13c 08ac 46be 1725 823d
00000310: 9738 49be 47ae 143e de2b e93d 336f dbbd
00000320: bffa bc3c 050c cb3d 64ef 88bb 7a33 1f3e
00000330: c76a 8dbd e8b8 79bd 900c e4bd e909 d4bd
00000340: 0c03 e93d 122a a2bd 0c25 17be cd16 483e
00000350: ffcd 85bd 5c20 6dbd 0819 fd3c 953b 18be
00000360: 3bb3 173c 7c2c 5a3d 6e0f 313e b9d4 4abc
00000370: 0a90 8e3d 2ca0 46be 96e2 14bd 0af6 06be
00000380: 82f6 83bd 9532 c8bd 22af b93d eb46 e7bd
00000390: 833e d7bc fadf e93d c2f9 043e f06c fc3b
000003a0: 8317 f7bd 25c0 09be 72c9 ccbd 91bb 7c3c
000003b0: fe6b 513d a8c9 53be d578 19be bcfd 0fbe
000003c0: b8b1 49bd bab1 debb 5273 853d 81b6 3bbe
000003d0: 6b2c f3bd 3852 003e e3dd 2a3e e0d0 103e
000003e0: 1b62 20be 674b d83d a567 cdbc 2382 ecbc
000003f0: 66af 05be 5d4a d93d 68cd 34be de06 3fbe
0.1549071 -0.033558674 0.07250002 -0.08225076 -0.0010932656 -0.13848859 0.18283093 -0.022739945
0.08134633 -0.1196144 -0.057172894 -0.116268374 0.13092579 -0.06818438 0.1686433 -0.033542633
0.013960487 0.17192525 0.12688483 -0.024585431 0.13033897 0.16167621 -0.037342742 -0.021776473
0.010737222 -0.11342563 -0.01576247 0.018282324 -0.065198354 0.0765595 0.037197992 -0.08018134
0.18843961 0.095181644 0.14341787 0.14074194 0.05998081 0.1620425 -0.025101736 -0.021470137
0.19482693 0.17129691 -0.03386952 0.004371736 0.03706526 -0.18052024 -0.10604207 -0.04367476
0.03852313 -0.072097644 -0.16616562 -0.16663225 0.043490596 0.10250873 0.14020322 0.056208804
-0.21439148 0.01865621 -0.08191707 0.079051115 -0.055967376 -0.08181938 -0.084460974 -0.108978316
0.18368706 0.09217018 0.098682 0.08605696 0.14141169 -0.12595686 -0.08538885 0.048288845
0.198901 0.13667537 -0.0042244093 0.021212596 -0.047958605 0.18321514 -0.11184217 0.15387161
0.13719471 0.10628741 0.028999662 0.090144426 0.13692044 0.14439948 -0.08478592 0.078733526
-0.15574263 -0.153132 -0.047892958 -0.15901329 -0.028108032 0.12358962 0.15667069 -0.04989995
-0.10791377 0.07071216 -0.010233343 -0.08895055 -0.086739786 -0.073309936 0.04466825 -0.028319934
0.12543003 0.111744255 0.1605913 -0.14743412 -0.049398154 0.06795247 0.07921212 -0.18513541
-0.09514732 -0.05950887 -0.0031280443 -0.0003273273 0.18704562 0.13857685 0.050136276 -0.040448926
-0.0038762242 -0.15235364 -0.116137706 -0.15916413 -0.051039435 0.11020607 0.12185853 0.011081903
-0.122368425 0.13134441 -0.12043493 0.1296123 -0.09398383 -0.018084895 -0.20570713 -0.007036904
0.05010826 0.10657534 -0.19624528 -0.07192246 -0.023538753 -0.073848546 -0.09890639 0.043249547
-0.09263056 0.07833445 -0.14332162 0.13406406 0.09543746 0.14916074 -0.1788666 -0.137018
-0.0012052972 0.0069064274 -0.00992079 0.0112936795 0.06526574 0.09242823 0.12608507 0.11407507
0.14142087 0.040532954 -0.04807528 -0.12662879 0.19318382 -0.07756204 0.14143348 0.092500865
-0.03962779 0.20738986 0.042204536 -0.15952715 -0.016336331 -0.09176214 -0.009881634 0.13836041
-0.07587141 -0.05879423 -0.04462017 0.08476162 0.09521389 0.015349119 0.07052351 0.032635495
0.075758085 -0.17919071 0.10679575 0.18159078 0.14816514 -0.1390281 -0.049312547 0.13023505
-0.07254965 0.02756203 -0.19401562 0.063547306 -0.19650494 0.14519607 0.1138532 -0.10714569
0.023068784 0.09914402 -0.004178928 0.1554698 -0.06905132 -0.060967356 -0.111352086 -0.10353453
0.11377534 -0.079181805 -0.14760226 0.19539948 -0.06533431 -0.05789219 0.030895725 -0.14866479
0.0092590405 0.05326508 0.17291042 -0.012379819 0.06961067 -0.19397038 -0.0363489 -0.13179794
-0.06443502 -0.09775273 0.09066607 -0.112928234 -0.026274925 0.11419673 0.129859 0.007703416
-0.120650314 -0.13452204 -0.0999936 0.015425579 0.05112838 -0.20682395 -0.149875 -0.14061636
-0.04924175 -0.006796089 0.06516136 -0.18331338 -0.118737064 0.12531364 0.16686206 0.1414218
-0.15662424 0.10561257 -0.025073836 -0.028870648 -0.1305519 0.10609887 -0.17656481 -0.18654963

layer_1.bias f4 [33]
00000000: b792 32be e0b5 1fbe 0b4c 453d 53df d4bd
00000010: 42db 613e dc59 d8bc 59e2 ac3d c0c6 73be
00000020: f967 90bd 5eec 123d f228 0b3d 0b29 fc3d
00000030: 1ea6 4cbe 3906 01be be9e 8bbd 330b cfbd
00000040: 9e11 63bd 1671 143d ac3b 09be 8532 0fbe
00000050: d9ee 33be 3fee 1a3e 9cbe 3abd c302 853d
00000060: 431c 2cbe fd9b cd3d 1542 cfbd b720 bcbc
00000070: fa6d b43d ce76 9f3d aafa 91bd bb88 fa3d
00000080: 07e0 61bc
-0.1743878 -0.15596724 0.048168223 -0.10394158 0.22056296 -0.026410036 0.0844161 -0.23806286
-0.07051081 0.03586995 0.033974595 0.12312516 -0.19985244 -0.1260003 -0.06817387 -0.10109558
-0.055436723 0.03624066 -0.1340167 -0.13984115 -0.17571582 0.15129946 -0.045591936 0.064946674
-0.16807656 0.10039518 -0.10120026 -0.022964818 0.08810039 0.07786332 -0.071278885 0.122331105
-0.013786322

layer_2.weight f4 [34, 33]
00000000: e8f4 5abc f354 0abe cfd8 283e 28ac dbbd
00000010: e111 adbc 99d4 45be 6458 d9bd 40ec 99bc
00000020: fbb4 02be 3232 113e da5a 1c3c 7c89 51bb
00000030: 6eb6 2e3e 8019 bd3c 6897 e9bb 4cd2 dc3d
00000040: 0246 013e 3d6d 03be bda0 153e 9702 bc3d
00000050: 3ac9 45be db83 c03d 768d 1b3e 1ac4 043d
00000060: 38db e93d 667f e23d 38d4 c83d f2e0 e63d
00000070: c8ff c33d 00f9 4abd 579a e83d 49a2 ddbd
00000080: 1986 033e 5206 ba3d 90fb f33d 1869 2fbe
00000090: d122 eabb df72 613c 90fd aa3d d8be a6bd
000000a0: 04ba ad3d f74e 47be cbe9 20be 5d1c 4e3d
000000b0: 5472 0dbc 0905 653e 8ac4 493d cfdb 6dbd
000000c0: 3923 123e fc0e fcbc 6ac1 c63d 1179 ee3d
000000d0: 0fc6 bd3d 7c80 443b 82a1 06be df3e 15be
000000e0: d0bd adba 1559 e83d 938e 653d 54bf c3bd
000000f0: fcfd aabd 93ea e13d a68d 883d bceb 143d
00000100: 5b2e 993d fa37 b6bd 3862 83bd e193 82bd
00000110: 54af 29be b0ec 8f3d dea6 dbbd e8f7 07bd
00000120: 764b 953d 684a 703d 23e1 d93c 0bb9 62be
00000130: 7b14 bebd 2c2d 1cbd 0fb3 913d 4297 51bc
00000140: aad9 8fbd 54df 1d3e cd12 0d3d 0d63 a7bd
00000150: d314 46be 02cd dfbd 7b5b eabd ef5a 33be
00000160: cd56 45be 192e a6bd 0b6f 843d 61cf 9c3d
00000170: a889 65bd 6de5 e23d 98e0 01bd 0670 a03d
00000180: 6c96 0d3e d8d8 60bd 59bb 973d 8cae eb3c
00000190: 6e4c 863b 98a4 393e 7ccd d03c d230 d1bd
000001a0: fb11 01be 1b0f 0bbe 8760 13be f144 5dbe
000001b0: 79bf 083e 6749 9fbd 180b 713d df84 efbc
000001c0: 6e99 14be 1a80 d5bd 5436 3f3e 3c94 233d
000001d0: 2d01 433e 3997 b6bd 99f0 773d f6c2 4c3d
000001e0: 2cb6 b6bd 44cb cdbd 452b 29be 923e 0e3e
000001f0: 936e c83c e951 babc 9b68 e53c 0a94 51bc
00000200: f0c3 07bd c60b dc3d 2b83 00be 5f7c dd3d
00000210: d65e 303d bd87 d8bd 28e5 27bb dc56 7abb
00000220: fe5c 43be d6db b53d 33fc f33d 7695 393d
00000230: 549f e6bd ab6b 0d3e de6c 91bd f60d 3dbd
00000240: 5fa0 4abe e165 b7bd 2d36 8fbd dece c83d
00000250: 4613 5ebd c05d b739 3cbc 25bd f5f2 833d
00000260: 85a2 f03d ec2e 6b3d 8e7c 6cbd e81e 66bd
00000270: f69e 143e 296e c33d 54a2 9bbd eb3b 90bd
00000280: fc0e 1c3c 609e 543d 8d3d ca3d c016 043d
00000290: e57f e9bc 586f 313e 98df e03a 9cdc c83d
000002a0: 5f23 fbbd 6241 9dbd 03e8 023d 5a45 0bbe
000002b0: bd33 2b3e ac5a a63c 3f0a 1c3e c665 243e
000002c0: 4076 7f3b e798 193e 6d3a f13d 7cbb 263d
000002d0: 10f1 d93d 3729 36bd 941a ecbd 4fff 313e
000002e0: 3cda a8bd c492 1d3e 00d5 de3d 5f54 253e
000002f0: ae29 a13d 4f68 563e 5e44 cd3c 1cd1 ce3b
00000300: 0ce7 b23d 887c 09be f668 243e 2459 0cbe
00000310: 6eba 063e 0f62 c5bc 4028 1f3d 383b 05be
00000320: 1b78 edbd f456 103e fcd6 08be f87d 263e
00000330: baf9 e8bd f556 ac3d 398a d6bd 0057 44bb
00000340: 84a2 043d aa0f d43d 9ea8 22bc 6e29 e9bc
00000350: f2b4 56bd 88b4 143e 6c94 5a3d 754f 123e
00000360: 0ed8 8b3d bba6 56be 30e8 803d 9f58 c2bd
00000370: d034 bf3c 469d e5bc 35c3 10be c495 b43c
00000380: df9c 07bd 662a 34bc 651f 003e 8c5c 4a3c
00000390: f26b b93d 03c6 b8bd 3d42 2abe 564d 1dbe
000003a0: 4e86 633c 3744 82bd 808e e83c 7f16 423e
000003b0: 6edc d03c a67a 57bd cc48 e93d 0428 89bd
000003c0: 5b67 0d3e 7a53 453d 8888 b93d e91b 29be
000003d0: 54d1 14be e0ba 043d 5a2d dd3d 1d66 2ebe
000003e0: 9cf0 a53d ec20 49be 7cae bf3d 7a44 27bc
000003f0: 4b7d 92bd f903 0b3d 51e0 00be fbed 2abe
-0.013364054 -0.13508968 0.16488956 -0.107261956 -0.02112669 -0.19319381 -0.10612562 -0.01878941
-0.12764351 0.14179304 0.009543145 -0.0031972816 0.17061779 0.023083448 -0.0071286447 0.107822984
0.12624362 -0.1283464 0.14612098 0.091801815 -0.19315043 0.094001494 0.15190682 0.03241358
0.11418766 0.110594556 0.098061025 0.11273374 0.09570271 -0.04955387 0.11357563 -0.10821969
0.12844123 0.09083237 0.11913216 -0.17129934 -0.0071452637 0.013760298 0.083491445 -0.08141869
0.08482745 -0.19463716 -0.15714185 0.050320018 -0.008633215 0.22365202 0.0492597 -0.058070954
0.14271249 -0.030768864 0.097048596 0.11644185 0.09266292 0.002998381 -0.13147548 -0.14574765
-0.0013255421 0.11345116 0.056044172 -0.09557977 -0.08349225 0.110310696 0.06667642 0.036357626
0.07479545 -0.088973954 -0.06415218 -0.06375862 -0.16570789 0.070275664 -0.10725187 -0.033195406
0.07289784 0.05866471 0.026596611 -0.22140901 -0.0928125 -0.038129017 0.07114231 -0.01279241
-0.07023938 0.15417224 0.034441758 -0.08173189 -0.19343881 -0.10927774 -0.1144323 -0.17515157
-0.19271393 -0.08114261 0.06466492 0.07656742 -0.056039482 0.11078916 -0.03170833 0.07833867
0.13826913 -0.0548943 0.074087806 0.028769754 0.0040984666 0.18129194 0.025488608 -0.1021439
-0.12604515 -0.13579981 -0.14392291 -0.2160833 0.13354291 -0.07777672 0.05884847 -0.029238163
-0.14511654 -0.10424824 0.18673068 0.03993629 0.19043417 -0.08915562 0.060532186 0.049990617
-0.08921465 -0.100485355 -0.16520412 0.13891056 0.024466788 -0.022744136 0.028003981 -0.012791643
-0.033145845 0.10744433 -0.12550037 0.108147375 0.043059193 -0.10572765 -0.0025618766 -0.0038198745
-0.19078442 0.08879821 0.119133376 0.045308553 -0.11260858 0.13810603 -0.07100843 -0.046155892
-0.19787739 -0.08954979 -0.06992755 0.09805082 -0.0542176 0.0003497433 -0.040462717 0.06442825
0.11749748 0.057417795 -0.057735972 -0.05618182 0.14513764 0.09542496 -0.07599321 -0.070426784
0.009525057 0.05190885 0.09875021 0.03224826 -0.028503368 0.1732763 0.001715648 0.09807703
-0.12262606 -0.076784864 0.031959545 -0.13600674 0.16718955 0.020306908 0.15238284 0.16054448
0.0038980395 0.14999734 0.11778722 0.040706143 0.10641682 -0.0444729 -0.11528507 0.17382549
-0.0824475 0.15388018 0.1088047 0.16145466 0.07869278 0.20938228 0.025057014 0.006311549
0.08735475 -0.13426411 0.16055664 -0.1370588 0.13157055 -0.02409461 0.038856745 -0.13010871
-0.11595174 0.1409567 -0.1336326 0.16258991 -0.113757566 0.08415023 -0.10475583 -0.0029959083
0.03238155 0.1035455 -0.009927897 -0.028462138 -0.052418657 0.14521992 0.053364202 0.14288123
0.068283185 -0.2096204 0.06294286 -0.094895594 0.023340613 -0.028029095 -0.14136966 0.02204407
-0.03310859 -0.010996437 0.12511976 0.012351166 0.09053792 -0.09022143 -0.1662683 -0.15361533
0.013887001 -0.06360667 0.028388262 0.18953894 0.025495734 -0.0526072 0.11390838 -0.066970855
0.13808958 0.048175313 0.090592444 -0.16514553 -0.14532977 0.03240478 0.10799666 -0.1703114
0.08102533 -0.19641465 0.09359452 -0.010209197 -0.07152804 0.033939335 -0.1258557 -0.16692345

layer_2.bias f4 [34]
00000000: 6b6a 2abe e232 cabd 62af 8e3d 22b8 283e
00000010: 729c 90bd 7a72 00be 1888 c6bd 7080 0a3e
00000020: 7630 bcbd 9b69 cdbd 53c8 e93d 4298 a3bd
00000030: 8159 efbd b217 463d 3fe9 2c3d 8a56 1c3e
00000040: b359 1dbe c398 803d dfc2 92bd 7969 19be
00000050: b00c e9bd aa88 a83d 2261 aebd 2c18 c5bd
00000060: 5cbf d43c a043 473d d012 563e 7ac3 84bb
00000070: 367c 96bd 119d fdbd 7195 8c3c 9625 77bd
00000080: db96 0bbd 0689 333d
-0.16642158 -0.098729864 0.06967045 0.16476491 -0.070610896 -0.1254367 -0.096939266 0.13525558
-0.09188931 -0.10029908 0.11415162 -0.07988025 -0.116869934 0.04836244 0.04221463 0.15267387
-0.15366249 0.06279137 -0.07166075 -0.14981641 -0.11379373 0.082291916 -0.0851462 -0.09623751
0.025970154 0.048648477 0.20905614 -0.004051623 -0.0734791 -0.12383474 0.017161103 -0.06033858
-0.034079414 0.043831848

layer_3.weight f4 [36, 34]
00000000: e9c4 853d 405b d53b 6868 a1bc cab5 a13d
00000010: bde6 22be fa13 273d 1071 233d 8d91 a03d
00000020: 0ddc a8bd 8246 69bd 9724 df3d 7c85 2cbe
00000030: b02c 283c 8313 b83d 7270 4f3d 2cf0 233e
00000040: ee79 273d 4f22 9fbd e6fb a53d a824 51bd
00000050: 0ad1 843d 1f4f 01be 5687 8f3d f886 b0bd
00000060: 5843 033e 0e6a bfbd 2260 ccbd e4a7 6c3d
00000070: 12a5 5bbd e4e4 0cbd becf 153d 2037 9639
00000080: 0201 2abd bfdc a43d f639 a43d 9b34 21bd
00000090: 9ab7 343e eeb5 143e 20db c83d ee57 7f3d
000000a0: 9efd a73d cd65 793d 02ea 2c3d 50bc 403c
000000b0: 62fa f13d 2112 d0bd 11cf ce3d 2518 c6bd
000000c0: 0046 abbd 663e 69bd 7821 8f3d def4 d53d
000000d0: 4e62 3e3e 0af2 243e eaf3 16be d8de e3bd
000000e0: eb33 033e dfdd 90bd b70c 383d 342b e23d
000000f0: ea06 bbbc 5790 cb3d 5940 a13d 34f8 393e
00000100: 99c1 b7bd 3c23 073b 05b0 f6bd 2f65 323e
00000110: c143 273e 85cf 263d 21fc 5b3d 266c 233e
00000120: f769 293d b0d3 ce3c ecb3 c83b 4ae8 363e
00000130: 315e eb3d 6eec 933d 7ed1 e23d 7618 89bb
00000140: 62e8 b43d 849f 3e3e 1be4 ee3d a0da ea39
00000150: 96a0 d9bd 2755 3e3e 093c 473e 784f 083e
00000160: 572e 2d3e b729 fabc 8131 ac3d 364e 8ebd
00000170: 1d4d 0d3e 7cf5 593b dcdf dbbd 3d20 aabd
00000180: c085 bcbc 96f9 b73d 8e37 9e3d 1b03 24be
00000190: a740 c43c 22c2 3a3e f649 d33d 950c e33d
000001a0: 1562 7f3d aea5 503d e22d 16be 5707 d3bc
000001b0: 9e3b 39bd 77a5 55be e358 803d 0026 0bbd
000001c0: 693b e33d c29d b43d 77af d53b fd12 fb3d
000001d0: 711d 11be a0ed 0dbe 201f 1bbe f02f 00be
000001e0: 208e 0abe abf4 123e 005c 36bb 4038 d3bd
000001f0: 0d2e 97bd 0722 083e aac0 d83d bbdc be3d
00000200: 372c 41be 8fc3 22be d475 c8bc eb6a 15be
00000210: 0e33 3fbd b034 053c 0dac a13b 6a30 d13d
00000220: 0bce e4bd 9933 0dbd d38c 2dbe ab6e f9bc
00000230: c55c e83d 4420 b93d 6d85 9c3d 1458 183d
00000240: b06a 003d 0452 283e 96f3 7ebd 1f86 44be
00000250: d56b fd3c 1060 12bd 3e9c d6bd 9e4e e33d
00000260: f3e7 9dbd 6cc0 713b 5322 053c 098a 013e
00000270: 8080 fe3a b314 c03d ba0e 33be f6e7 9f3d
00000280: 6966 983c 83c7 c7bc 6892 66bd 3232 a93d
00000290: a767 a8bd 1a68 583e 941d 13bd bc0d 823d
000002a0: b0a5 4f3b 5611 af3d 2a21 55be e033 e3bd
000002b0: e8ff 473d 0bbe 033e 0b31 27be 6eb9 e53d
000002c0: 099a ecbd de56 e9bd 3d04 393e 3b84 25be
000002d0: 93bf ad3d 8454 993d 8385 a73d f40d 39bc
000002e0: 05a5 2c3e 4fef fdbd 9581 933d 2e6e acbd
000002f0: 2ce8 173e 5699 ffbd ea5d efbd c872 9cbc
00000300: aa7a 0e3e aaa1 ce3d 2e7c 97bb ff02 36bd
00000310: b3bd 3a3e 2287 033d 83f2 32bd 27a6 0f3e
00000320: 7e08 113d e6f3 fd3c 1ba6 81bd 4837 dabc
00000330: 6d4c e8bd 52dd 1bbd c166 01be f8e9 e93d
00000340: 6e9e b83d d12f 3b3e c5c8 e9bb 3468 18bd
00000350: 7888 17be 3e76 043e cac3 113e 4c54 cbbc
00000360: 9b2f 0dbe 8eb3 183c c5ab 893d 3443 033d
00000370: 7696 443d da6b 363e 7bc7 47be 37af 51bc
00000380: c05b e2bc cac0 fabd ba3f 05be 00e4 5639
00000390: 3cf4 aabb 291f d43d f26b 10be b6cb 9fbd
000003a0: 98c4 20be a15d 4b3e bccf 353e 2152 2bbd
000003b0: 1fba 113e 8fa8 0d3e a55b 063e fdda 973c
000003c0: c2b1 08be ddbd 17be ad82 ac3c f2c3 923c
000003d0: 9e53 4f3d f30c edbc bd1e 02be c0e9 16bc
000003e0: ab79 f93d e10c 0b3e fcf4 1dbd e631 33be
000003f0: 7f2b 06be 187e a23d 08ca 4ebd c637 4e3d
0.06531698 0.006511122 -0.019703105 0.07896002 -0.15908332 0.040790536 0.039902747 0.078402616
-0.08245096 -0.056952007 0.10895651 -0.16847795 0.010264561 0.089880966 0.050644346 0.16009587
0.040887766 -0.07770216 0.081046864 -0.05106035 0.064851835 -0.12627839 0.07008235 -0.08619493
0.12818658 -0.093464 -0.099792734 0.0577773 -0.05362422 -0.034397975 0.03657507 0.000286513
-0.041504867 0.080499165 0.08018868 -0.03935681 0.17648163 0.14522526 0.0980742 0.062339716
0.082026705 0.0608881 0.042215355 0.011763647 0.11815335 -0.10159708 0.100980885 -0.09672574
-0.08362961 -0.056944273 0.069888055 0.10447095 0.18592188 0.16107956 -0.14741483 -0.111264884
0.12812774 -0.070735686 0.044934 0.110433966 -0.022830445 0.0993964 0.078736015 0.18161088
-0.08972473 0.0020620367 -0.12045292 0.17421411 0.1633444 0.04072525 0.053707246 0.15959224
0.04136082 0.025247425 0.006124964 0.17862049 0.11492575 0.0722283 0.11075114 -0.004183824
0.08833386 0.18615538 0.116646014 0.00044794846 -0.106263325 0.1858717 0.19456495 0.13311565
0.16912208 -0.03053747 0.084078796 -0.06948511 0.13798948 0.0033257892 -0.10736057 -0.0830693
-0.023012996 0.089831516 0.0772544 -0.1601681 0.02395661 0.18238118 0.10316841 0.11086384
0.062349398 0.050939254 -0.1466594 -0.025760336 -0.04522287 -0.20863901 0.06266954 -0.033971786
0.11095316 0.088191524 0.006521161 0.12259481 -0.14171387 -0.13860178 -0.15148592 -0.12518287
-0.13530779 0.14351146 -0.0027825832 -0.10313463 -0.0738183 0.1329423 0.10583623 0.09319445
-0.18864523 -0.15894912 -0.024470247 -0.14591567 -0.04667955 0.008130237 0.00493384 0.102143124
-0.11172112 -0.034473035 -0.16948251 -0.030448278 0.113458194 0.09039357 0.076426364 0.037193373
0.031351745 0.16437536 -0.06224402 -0.19191788 0.030935207 -0.035736144 -0.104790196 0.110989794
-0.077102564 0.0036888374 0.008125859 0.12650312 0.0019416958 0.09378948 -0.17486086 0.07807915
0.01860352 -0.024387127 -0.056291968 0.08261527 -0.08222895 0.21133462 -0.03591688 0.06350276
0.003168445 0.085482284 -0.20813432 -0.11093879 0.048828036 0.12865464 -0.16327302 0.112170085
-0.115528174 -0.11393522 0.18068023 -0.16163723 0.084838055 0.07486823 0.08179762 -0.011294831
0.16859825 -0.1239916 0.0720245 -0.084194526 0.1483466 -0.124804184 -0.116878346 -0.0190977
0.1391398 0.10089429 -0.0046229577 -0.04443645 0.18236427 0.032111295 -0.04368831 0.14028226
0.03540849 0.031000089 -0.0633051 -0.026637688 -0.11342702 -0.038052864 -0.12636854 0.11421579
0.09014593 0.1827996 -0.0071345293 -0.03720875 -0.14798152 0.12935731 0.14234844 -0.02482047
-0.13787691 0.009320153 0.067222156 0.03204651 0.047995053 0.1781458 -0.1950969 -0.012798122
-0.02763164 -0.12243803 -0.13012591 0.00020493567 -0.0052171033 0.10357506 -0.14103678 -0.07802527
-0.15699995 0.19859935 0.17755026 -0.04182637 0.14231156 0.13833831 0.13120897 0.018537039
-0.13349059 -0.14818521 0.021058405 0.0179157 0.050616853 -0.028936839 -0.12707038 -0.009211004
0.121814094 0.13579132 -0.038563713 -0.17499503 -0.1310253 0.07934207 -0.05048564 0.05034616

layer_3.bias f4 [36]
00000000: b188 17be f235 10bd 98d2 1c3d 3088 513d
00000010: e974 8a3d dcd9 413e f4f1 343d bd66 b5bd
00000020: 03a1 73bb df8a 2abe 0583 fa3d 3498 3abd
00000030: c0eb 25be 20fe 47bd 38d6 873d 59e7 a8bd
00000040: 76cb b83d 86b3 d93c 77b2 c9bc eb8b 073e
00000050: 41b1 c33d 6a43 67bd ee64 013e 7437 0fbe
00000060: d92e 92bd 1459 89bd 77b9 293e 2c7f 6cbd
00000070: 058e 413e 1d6e b33d a4e0 9dbd fc91 e13d
00000080: 4102 023e ca98 db3d 20c4 1a3e 1bae f8bc
-0.14798237 -0.035207696 0.038286775 0.05115527 0.0676058 0.18930763 0.044176057 -0.088574864
-0.0037174828 -0.16654538 0.12232021 -0.04555531 -0.16203213 -0.048826337 0.06632656 -0.08247251
0.09023182 0.026574861 -0.024621231 0.13236968 0.09555293 -0.056460775 0.12636158 -0.13985997
-0.07137842 -0.067064434 0.16574655 -0.057738468 0.18901832 0.08761237 -0.077088624 0.110141724
0.12696172 0.107225016 0.15113878 -0.030356457

action.weight f4 [36, 36]
00000000: 82bc 3a3d 2d72 933d 78cb cf3a 2e77 c03d
00000010: 0c36 dcbd 4ef4 2abd e59c 0ebe b59f e1bc
00000020: 3ab9 ec3d a55c 003e 9ad5 a63d bd3d c83d
00000030: 3d62 023d 4f28 3cbd f8d3 bbbc 4cb8 40bd
00000040: 0ca2 b53d 9a4a 61be 92b8 333d 9bfa 14bd
00000050: d45f 64bd 58a0 23be ba49 c13d a006 70bd
00000060: e6c3 d03c 80b4 64bd d2d5 a93d d8b3 7b3d
00000070: 406f 0e3a 6aa6 9abb ca25 f53d 00ce 9abc
00000080: be18 57be 7922 97bd 3e8f 85bd b4fc 3cbe
00000090: 0b2e e23d 4cdb b5bd 5ce8 e3bd f4eb 2c3d
000000a0: 0525 77bd 7f0d 00be e042 0fbe 89ff 6fbc
000000b0: 4825 053e 3079 4c3d 3695 f6bd 4ead 863d
000000c0: 22fe acbc 43fa 94bc 785c 1b3d 2bb3 84bd
000000d0: 3be6 ab3d 6088 0fbe be79 e33d c89a e7bd
000000e0: 395a c4bc 310b 143e 0b84 3d3d 0018 583d
000000f0: ec60 eabd 8063 c7bc 21d4 5cbc 9b51 003e
00000100: 7c4b 053e 8e4d 163e 8043 98bc bf58 843c
00000110: d498 58bd accb 933d 0736 cebc 4b4e 353e
00000120: 464d 0f3e 6a4f bdbd ad07 84bd bca1 a0bc
00000130: 109f 6cbd e9b7 41be 2f68 c8bd 8bdc b73c
00000140: 580a 673d ee61 cfbd 85cf 88bd 4bdd f8bd
00000150: b03c 2fbe 0fe7 f7bd b806 06bd d06e 5c3d
00000160: 5e0e 9abc 73d2 09bd 6550 0ebe 5ee9 11bc
00000170: aa6d 1f3d 48e1 963c d115 d0bd 4643 86bd
00000180: c034 033e b80a ecbd 3cbd 78be b44e d43d
00000190: c40a fdbd 4b5b 14bd 83ec 96bd 1aa9 5abc
000001a0: bd31 74be 7818 c7bb 2039 96bd 8226 833d
000001b0: 650e ebbc a12b 493e af1e f53d 2c06 473d
000001c0: 4d9a 883d e739 7cbc e8ee 183b 7216 5a3d
000001d0: 5d77 7fbb a02a 813d fffc 463d 901d 343e
000001e0: 963a e03c 66a8 4d3c 8bb4 c43d 606a 8d3d
000001f0: d3f8 10be 62ff ebbd 715a a7bd 9019 27be
00000200: c521 0d3e 5e79 f13d df75 b23d a2db ba3d
00000210: 1bfb 113e eb88 b5bd 2046 c3bd a023 61ba
00000220: e5df b3bd c87a e0bd 836c 243e 3f2f 813d
00000230: 8e67 b73c 6670 aabc 3aa8 0e3d 8e5c 0fbe
00000240: 113d 05be 9e59 db3d 6063 e9ba 8bfc 90bd
00000250: 6cc1 3d3d 5e47 823d f56a 533c 3ce3 233e
00000260: da27 2f3e e2a6 0dbe d6de a73d f336 ecbd
00000270: aa62 ed3b b465 9c3b 066b 92bd 0ef5 babd
00000280: 047a b03d d3e4 873d 37e8 003e 09a7 f03d
00000290: 3729 ed3c 5aeb c63d 324a 07be 70cb fbbd
000002a0: b6f6 05be 5065 3ebc e045 9ebd dbf5 1e3d
000002b0: 7864 843d 6b60 84bc 2ce2 1ebe 0808 923d
000002c0: a56d 203e 9362 e83c 4dda 003e b5dc 433e
000002d0: 1f46 bfbd 0772 5f3e 547e 543d abd4 ec3c
000002e0: 4aaf 903d 8ede 933d 5188 f93d 3ddd d33c
000002f0: d78b 1bbe 4b20 c9bd bb74 c93d fe11 223e
00000300: 2ed1 563d b8a4 043e 5b97 af3c 65af 1c3e
00000310: c8f9 393d eed6 c6bd 08fa 02bd 3227 1dbe
00000320: 79a2 20be 18b7 c5bd 8e78 d33d 9815 c0bc
00000330: d126 b6bd 3840 9a3c 6f52 cb3d 3ab0 0ebd
00000340: 387d 87bd de3a 0cbe 4a53 f53d 414c 34be
00000350: 6d65 a6bd 5ab2 1f3e 7738 fbbd 0cb2 08bd
00000360: 9b81 893d e24d 5bbd cecc f2bd b286 c4bd
00000370: 8fa6 3abe e087 b83d acd3 eabd e171 3dbe
00000380: e40b 2dbc c690 993d 5bb0 ad3d a32b edbd
00000390: 9ccd 053e 769a 46bc e081 df3d 8078 8d3b
000003a0: d5ab aa3d b5ca 4ebe 747f 0f3e e040 aabc
000003b0: 516e 76bd e8e7 903d 18b4 babc d2a5 9e3d
000003c0: bf36 5dbc 5391 92bd f2b0 a2bc 6248 c4bd
000003d0: 28ab 85ba e503 603d 8853 9d3d a2ac e93d
000003e0: 1a67 18be 11fe e8bd fa3d 0dbe d4f2 fa3c
000003f0: 8915 aa3d 4945 b93d d83a efbc f654 243e
0.04558993 0.07199512 0.0015853485 0.09397732 -0.10752496 -0.041736893 -0.13927038 -0.027541975
0.11558767 0.12535341 0.0814621 0.09777401 0.03183197 -0.04593688 -0.022928223 -0.04705076
0.088687986 -0.22001114 0.04387719 -0.03637181 -0.05575545 -0.15979135 0.0943789 -0.058600068
0.025484037 -0.0558362 0.08292736 0.06145081 0.00054334477 -0.004719545 0.11970098 -0.018897057
-0.21005532 -0.07379622 -0.06521462 -0.18455774 0.11043938 -0.08879718 -0.111283034 0.04221721
-0.06033804 -0.12505148 -0.13990355 -0.014648327 0.13002503 0.04992026 -0.120401785 0.06576024
-0.021117274 -0.01818574 0.037929982 -0.06479486 0.08393522 -0.14016867 0.11107205 -0.11308819
-0.023968803 0.14457394 0.046268504 0.052757263 -0.11444268 -0.024339437 -0.01347831 0.1253113
0.13017076 0.14678022 -0.018586874 0.016155599 -0.052880123 0.07216582 -0.025172247 0.17705648
0.13994321 -0.09243663 -0.064467765 -0.019608371 -0.05776888 -0.18917812 -0.097854964 0.02244403
0.05640635 -0.101261005 -0.06680206 -0.12151583 -0.17112994 -0.12104618 -0.03272125 0.053816617
-0.018805679 -0.033647966 -0.13897856 -0.008905737 0.038922943 0.01841797 -0.10160411 -0.065558
0.12813091 -0.11525482 -0.24290937 0.10366574 -0.12355569 -0.036219876 -0.0736933 -0.013345981
-0.23847099 -0.006075915 -0.073351145 0.06403829 -0.028693387 0.1964555 0.11968743 0.04858987
0.066700555 -0.015394664 0.0023335759 0.05324406 -0.0038981058 0.06306958 0.04858112 0.17589402
0.027371686 0.012552356 0.09604748 0.06905055 -0.14157419 -0.1152332 -0.08171547 -0.16318345
0.13782413 0.11790727 0.087138884 0.09123923 0.14255945 -0.08864006 -0.0953486 -0.00085883774
-0.08782939 -0.10960919 0.16057019 0.063078396 0.022388246 -0.020805549 0.034828402 -0.1400015
-0.13011576 0.107104525 -0.0017806105 -0.07079419 0.04632704 0.063612685 0.0129039185 0.16004652
0.17105046 -0.13833192 0.081967995 -0.11533918 0.0072444277 0.004772866 -0.07149319 -0.09128772
0.08617023 0.06635442 0.12588583 0.117506094 0.028950317 0.097128585 -0.13211897 -0.12294662
-0.13082394 -0.0116208345 -0.07728171 0.038808685 0.064644754 -0.016159257 -0.15515965 0.07130438
0.15666826 0.028367316 0.12583275 0.19127162 -0.093395464 0.21820842 0.05187829 0.028910002
0.07064684 0.07220183 0.121842034 0.02586233 -0.15190063 -0.098206125 0.09836718 0.15827176
0.052445583 0.1295346 0.021434477 0.15301283 0.045404226 -0.09708963 -0.03197673 -0.15346983
-0.15686978 -0.09654063 0.10325728 -0.023447797 -0.088941224 0.01882945 0.09927832 -0.03483603
-0.066156805 -0.13694331 0.11978777 -0.17607214 -0.08124814 0.1559538 -0.12266629 -0.033372924
0.067141734 -0.05354107 -0.1185547 -0.095960036 -0.182276 0.09010291 -0.114661545 -0.18500473
-0.010561917 0.074983165 0.08480903 -0.11580589 0.13066715 -0.012121787 0.109134436 0.0043173432
0.083335556 -0.20194514 0.14013463 -0.020782888 -0.0601638 0.070754826 -0.022790954 0.077464715
-0.013501822 -0.07156625 -0.019859765 -0.095841184 -0.0010198103 0.054691214 0.07681948 0.1140988
-0.1488308 -0.11376584 -0.13793173 0.030633368 0.08304889 0.09046418 -0.029202864 0.16048035

action.bias f4 [36]
00000000: 8e78 023d 8a12 79bc f24c 9abc fc6f 5a3d
00000010: 8eef 78bd 0b35 093c 4936 6cbd 7f9c 993d
00000020: 626f 893d 23e1 113e 03d1 df3d 8d15 5fbc
00000030: 223b 4d3d 4742 833d 8b26 3b3e 8c5c 683d
00000040: e049 85bc b1f4 253e c081 2439 adea 07be
00000050: 0a1b 25be ded6 cfbd 36e3 823d e892 6dbe
00000060: 92c2 c63d caad 993d fcff 39be fd6e 303c
00000070: 68f5 debd 6f9e d63d 8334 02be fa3a dcbd
00000080: a99f c73d 4ee0 f93c 0119 003d a2b2 ab3d
0.03185325 -0.015202174 -0.018835519 0.053329453 -0.060775332 0.008374463 -0.057668958 0.075005524
0.06710698 0.14246039 0.10928538 -0.013615978 0.05010522 0.06409126 0.18276422 0.056728885
-0.016270578 0.16206624 0.00015688594 -0.13273115 -0.16123596 -0.101484045 0.06390993 -0.23200572
0.0970508 0.07503851 -0.18164057 0.010768649 -0.10886651 0.104794376 -0.12715344 -0.107534364
0.0974725 0.030502465 0.031273846 0.08383681
