st_dev_model.pt (torch, 21583 bytes, 8 tensors)

layer_1.weight f4 [33, 30]
00000000: e29d bb3d faf9 003e c034 cd3d a1e3 94bc
00000010: 1e48 d8bb 9ef0 1bbe 8907 eebd d525 9d3d
00000020: a8f5 99bc 6eab e53d cfab d43d d412 12be
00000030: b057 103e f210 3dbe b765 a53d 2b75 323e
00000040: 2cb3 5dbc 7c04 3abd d708 42bd f48a 9d3a
00000050: 8a16 143e bacf 0cbe e184 06be 943a 28be
00000060: 1802 c8bd 1b67 bfbd e29a 37bd 93cb 23bb
00000070: 8f78 f43a 73c6 6d3c 6eea 35bd 32a3 f43d
00000080: db5f 0a3e 1495 efbd 8cb9 bf3d 9e36 0fbe
00000090: f726 17be eb2e 033e 472a 8a3b 7f50 ca3b
000000a0: f6f2 893d 421b e4bd a020 85bd e903 3a3e
000000b0: f015 13be 245b d1bd f7e2 2dbe 8cd2 243e
000000c0: 50c4 31bd d941 e83d 00c8 2bbe c361 663d
000000d0: 0f10 7f3d 9a01 f73d 72b8 173d ca4d 1e3e
000000e0: 8bf0 053e 1de4 6abc 52c8 b23d 1c87 a0bd
000000f0: f3dd a13c fb7d f33d 2278 2bbc 9989 ed3c
00000100: 0d42 fdbd dda2 d2bd 6085 883c fc44 16be
00000110: e9af e2bd ba4d 6dbd fb0f f0bd 272a 6f3d
00000120: e332 9b3c f914 a03d c861 28be 77af 8fbd
00000130: 5d35 e43d 72c4 e9bc d18a 2ebe 2650 2ebc
00000140: 6de2 3fbe 1348 523d fda3 0abe 1931 fb3d
00000150: 151d 3d3e ad47 fcbd c120 27bd 6775 a4bd
00000160: bc77 31be 9561 313e d3c0 5f3c 9869 0bbe
00000170: 8b4d 2939 f8a0 9a3d bc45 78bc d7a6 05be
00000180: bf9d b53d 2a3d e53d 4fb6 20be 5808 00bd
00000190: a84a cd3c 2736 803d 2e58 3cbd 17a8 4a3b
000001a0: 028f 363d a3f8 f43d ddc4 293d 6830 293d
000001b0: d2bb 06be dab1 30bd e93e 0abe e7ac 14bd
000001c0: 34a7 32be 96a9 83bd e3e7 ec3d b32b 6dbd
000001d0: 3052 e4bd d1c2 18be af46 45be b941 003e
000001e0: fbc0 07be 3577 393e ca6f 21be dcb9 15bd
000001f0: a5d6 213e 9809 1e3e 02a3 e53d 381f c6bd
00000200: 6155 2a3e b017 d63b 07bc 9fbd 6587 35be
00000210: 78bc fa3c 6ee8 9f3d b965 dd3d d598 b73d
00000220: 7dbf 16b8 b6c9 21be 578c 253b 0956 18bd
00000230: 2d99 013e 56e2 233e b272 fe3d 8793 e5bd
00000240: e7c4 473c 0dd9 c0bd e02d 0ebe 281c e03d
00000250: 958b 1f3c b374 ea3d 4336 8a3d a354 bbbd
00000260: 5bee 743d 7fe7 953d df78 e03d d66f 7d3d
00000270: d238 dcbd 680b 7e3c 8895 513d 88c0 3a3d
00000280: ad85 7a3d 7876 d23c 4cc1 1cbd 1b66 a63b
00000290: c677 01be 1e76 e23c de0f 253e 13cf 1a3c
000002a0: 2c5b 3cbe b2f9 093e 6654 3dbe e3af db3d
000002b0: d762 17be 8365 e13d 2a6b 0b3d 52c4 f0bd
000002c0: e3bf b4bc 8f4b 263e efcb 063e c0a5 883d
000002d0: 3039 d93d faa9 123e 725b 493e 803f 873b
000002e0: 3153 e03c c701 103e c47e 2cbe 762e 013e
000002f0: af0b b03d e356 1a3e e4e1 1f3e 21e5 39be
00000300: d2af 103e 2c52 893c d017 d6bd c2d3 483d
00000310: e86f 773d 5986 1ebe 7cd7 833d 4cc8 d839
00000320: 188e 863d d57e fa3c 6381 a0bd 74f3 f43d
00000330: 19ba 3ebd 176c f6bd b452 803d eb35 593d
00000340: 3eb4 fc3d 0b59 073e 18f0 72bd 9160 1ebe
00000350: 26c8 f03d 9265 4c3d 19d8 8d3c 1f5e 2c3e
00000360: 62c9 9f3b ea3e 223d 637a 33be e802 1e3e
00000370: f325 48be 4d2f d9bd 10ae a83d 487d ad3b
00000380: f0af b9bd 5dbb 1dbe 5151 b1bd c2c8 fb3c
00000390: 0521 a13d cd05 fd3b 7ce9 1fbe 50e0 9e3d
000003a0: a07b 003e 3431 74bd 85ea eebd 0dd9 25bd
000003b0: 734f d83c 8c51 7c3d 897c ab3d 994e 663d
000003c0: 7bf2 adbc afd6 3bbd 82bc 303e e9e7 44be
000003d0: 5ca0 153e d9b7 053e 861a 293e ab74 433d
000003e0: b6e4 a63d 715a 2c3c c77b a73d 8b16 123e
000003f0: e1d4 82bc 0d54 40bd 14ab 80bd a532 1dbd
0.09160973 0.12595358 0.10019827 -0.018174948 -0.006600394 -0.15228507 -0.11622531 0.076732315
-0.018793896 0.11214338 0.103843324 -0.14264995 0.1409595 -0.18463495 0.08076041 0.17427509
-0.013531487 -0.045414433 -0.04737171 0.0012019561 0.14461723 -0.13751116 -0.13136627 -0.16428596
-0.09766024 -0.09345838 -0.044825442 -0.0024993166 0.0018651652 0.014512646 -0.044413023 0.119451895
0.13513128 -0.11698356 0.09361562 -0.13985679 -0.14760958 0.12810867 0.0042164656 0.0061741467
0.06735794 -0.111380115 -0.06500363 0.18165554 -0.14363837 -0.10222462 -0.16981111 0.16095942
-0.04340011 0.113406844 -0.16775513 0.056245577 0.062271174 0.12060852 0.037041135 0.15459362
0.13080041 -0.014336613 0.08729614 -0.0783827 0.019759154 0.11889263 -0.010465654 0.028996276
-0.12366114 -0.1028497 0.01666516 -0.14674753 -0.110687084 -0.057935454 -0.11721798 0.05838981
0.018945163 0.078165 -0.1644355 -0.07015889 0.11142991 -0.028536055 -0.17045142 -0.010639226
-0.18738718 0.051338267 -0.13539119 0.12265224 0.18468125 -0.123183586 -0.04080272 -0.08030205
-0.17330831 0.17322381 0.013656813 -0.136145 0.00016145983 0.075502336 -0.015153345 -0.13051926
0.08867978 0.11193307 -0.15694545 -0.031257957 0.025060013 0.06260329 -0.045982532 0.0030922943
0.044569977 0.11961486 0.04144751 0.04130593 -0.13157585 -0.043138362 -0.13500561 -0.036297705
-0.17446595 -0.0642883 0.115676664 -0.057903003 -0.111484885 -0.14918067 -0.19265245 0.12525071
-0.1325721 0.1811188 -0.157653 -0.036554202 0.15804537 0.15433347 0.11212732 -0.09673923
0.16634132 0.0065335855 -0.07799535 -0.1772743 0.030607447 0.07808004 0.10810418 0.08964697
-3.5941124e-05 -0.15799603 0.002526065 -0.037191425 0.12656088 0.16004309 0.1242422 -0.11209779
0.012192941 -0.09416399 -0.13884687 0.109428704 0.009737869 0.1144804 0.06748631 -0.091470025
0.059797626 0.07319545 0.10960554 0.061874233 -0.10753025 0.015505649 0.051167995 0.04559377
0.06116264 0.025691256 -0.03827028 0.00507809 -0.12643346 0.027644213 0.16119334 0.009448784
-0.18394154 0.13474157 -0.18489227 0.10726907 -0.14783798 0.1100569 0.034037746 -0.11756195
-0.022064155 0.16239761 0.13163732 0.06672239 0.10606611 0.14322653 0.1966379 0.004127443
0.027383419 0.14063178 -0.16845232 0.1261538 0.085959785 0.15072207 0.15613514 -0.18153812
0.1412957 0.016762815 -0.104537606 0.049030073 0.060409456 -0.15480937 0.06437585 0.00041347963
0.06570071 0.030578056 -0.078371786 0.119604975 -0.046564195 -0.12032335 0.06265774 0.053029936
0.12339066 0.13217561 -0.059311002 -0.15466525 0.11756925 0.049901552 0.017314957 0.1683278
0.0048763016 0.03961078 -0.17527156 0.15430796 -0.19545726 -0.10604725 0.08236325 0.0052944757
-0.090667605 -0.15403505 -0.08658088 0.030735377 0.07867626 0.007721639 -0.15616411 0.07757628
0.12547159 -0.059617236 -0.11665825 -0.0404902 0.026405072 0.061601207 0.083733626 0.0562273
-0.021233788 -0.045859035 0.1725941 -0.19229092 0.14611953 0.13058414 0.16514024 0.047718685
0.08149092 0.01051961 0.081779055 0.14266412 -0.01597065 -0.046955157 -0.062826306 -0.038378377

layer_1.bias f4 [33]
00000000: a8bf e43d d2ab 033e 06ab 0e3c 6af6 20be
00000010: 4129 6b3d 0575 babc a4df 12be d292 db3c
00000020: a404 b73d da05 d93d 21db bfbc 6285 4dbd
00000030: 9ba2 4d3d 0116 fbbd cae3 26be 4821 cdbd
00000040: d842 b73d c3dc ea3d 7322 1db9 4773 553d
00000050: 90a1 abbd 2c98 a4bd 07d1 22bc 58db f6bd
00000060: 40e0 f73d da17 2dbe 43d5 a43d 93e9 25bc
00000070: 9840 683d d02f f13d 885b 233e 994e e5bd
00000080: b7ef c53d
0.11169368 0.12858513 0.008707767 -0.15719 0.05741239 -0.022760877 -0.14343125 0.026803408
0.08936432 0.10596819 -0.023419918 -0.050176032 0.0502039 -0.12260056 -0.16297832 -0.100161135
0.08948296 0.11467888 -0.0001498552 0.05211189 -0.08380425 -0.08036837 -0.009937531 -0.12053555
0.12103319 -0.1690363 0.08048489 -0.010126489 0.056702226 0.11776698 0.15952885 -0.11196632
0.096648626

layer_2.weight f4 [34, 33]
00000000: 88c2 2cbe 632d f93d e7af 313d 7efe be3c
00000010: 19d2 1a3e 0fc4 69bd 0b48 463e ed9d 463d
00000020: 8b14 5d3d 3797 bfbb 2097 09be 3c93 f33d
00000030: 49e1 d8bd dd94 103e 3723 813d 3393 a13d
00000040: 3bd9 2fbe 578e 803d c949 c93d 9f72 903d
00000050: aa28 033e 294c 54bb bab5 033e 3e0e ee3d
00000060: c277 36be d158 51bd 4b32 96bd c54c 2abd
00000070: 85a7 22be fd0e 1bbe 2425 16be eb1a 9fbd
00000080: 8ff9 03be 5983 a4bd 73ae f13d 0fb2 b83c
00000090: f914 8e3d e69f 303e 15fc 823d 4141 dabc
000000a0: a2e1 113e 2207 99ba d9e0 f7bd 9357 583d
000000b0: b356 423e 23c9 33be 187a 16bd e28c aa3d
000000c0: 1670 e7bd 54d7 443e 3781 023e ec48 b03c
000000d0: 297b 94bd a95f 76bd 722d 883c 882d 2c3e
000000e0: b271 813c e958 0ebe 902a 123e 7126 d7bd
000000f0: 0460 c8bd 909c 8c3d 28b1 2d3e c0f7 bf3d
00000100: 8975 093e 7d3e 8a3c e02d 063e 3c40 323d
00000110: 0372 e03d 6e71 dcbc 1c34 b23d e3fa d1bd
00000120: d547 18be 5f6e 4e3d f1ee 033e 25b6 313e
00000130: 8ad2 72bd 466e 03bc 8895 26bd 2f5e cfbd
00000140: 6812 01be 1e99 753d f968 08be 1f45 b5bc
00000150: 5b88 04be 8bca 15be 8cf5 a43d 4507 abbd
00000160: 4234 0b3e ba6e b23d 2f16 023d fb66 4abd
00000170: 5d52 8e3b 7917 85bc e95f ca3d 68d2 72bc
00000180: 6747 d2bd 87c1 153d f165 153e e81c 67bc
00000190: b4d8 22bd ef61 193e 162f e63d 12bd 7fbd
000001a0: 2a95 39be 90d2 e8bd 3454 8fbd c4fb c53d
000001b0: aa0a 06be 154e d3bc 05e6 29be e2d3 39be
000001c0: 6824 ec3b c9ac 263e 8ec8 10be 3aeb 5dbd
000001d0: 7223 3abd 168d 37bd 191c 6cbd 2a19 87bd
000001e0: 0668 33be b04b b23d 8735 1abe 4623 383d
000001f0: 7473 ddbd d400 58bd a718 bb3c 5085 8cbd
00000200: fc01 09be 3e98 213e c504 d23a 20e4 23be
00000210: ec1e 013c 93d2 b23c c128 1dbd 7f21 cdbd
00000220: 2032 ecbc e3b1 413d 421d 993d 9f55 04bc
00000230: f3cd 34bd 0163 c1bd b40c b73d c1f7 22be
00000240: fc9e 04be b317 853c df78 73bd 0b28 2abe
00000250: 6d89 debd a915 7c3d 62e5 e83d da52 1bbc
00000260: 52c4 d43c 82bf 9abd e1e4 c5bd 693d 47bd
00000270: f524 57bd 7e72 ce3c 4736 2cbe 8c58 edbd
00000280: 3089 103d ec2c f2bd 51b9 d6bc f951 78bc
00000290: 58de e43d 9e87 c93c 6b35 da3d 1e5f cc3b
000002a0: 48f5 1abe 5d9a dcbd d9a9 a7bd e3a5 1dbe
000002b0: 2933 ae3d 7b13 34bd 53e2 903b 1267 04be
000002c0: cf8b 6ebd f750 293e 7695 82bd ca8d 9a3b
000002d0: 07b4 863d d5b5 0dbd ca51 003e ff48 21be
000002e0: 515d 633c f494 c53c 6f97 8ebd 7a21 4c3d
000002f0: 17d3 043e ab4f 1abe 6119 b43d d860 7d3d
00000300: 7e97 71bd d530 293e 2377 283d 4823 c73d
00000310: 6536 16be 8420 223e a0aa 9e3c 00d3 f13d
00000320: 9a1e f13d 92ab f23d 056a 46be ea7a 803d
00000330: 297b 053e cab1 b03d c1a6 463d b6e5 a8bc
00000340: d478 d33b f90f 11be c478 bb3d d4b8 923d
00000350: 1c39 f1bd 82d4 e2bc 9895 15bd 778f ad3d
00000360: 9502 a4bd 4417 e3bd 4d08 26be a7f3 383d
00000370: e4b4 1c3e bc28 86bd 45ea a43d 76c7 b9bd
00000380: 6528 8bbd 5760 d93d ab8e d8bc ae9b 033e
00000390: 972b 26be 82cd 453d 057e 0ebe e559 8c3b
000003a0: 8661 1e3e eb95 2cbd 58e9 173e 438f 8a3d
000003b0: 4c51 23bc 7005 1dbe f6e8 1abe c89c a6bc
000003c0: 9cce 503d 68d3 4bbd 6e25 3d3d 4bb6 d4bc
000003d0: c5ef 0ebe 3e54 e83d 1fc4 a0bd 70b7 2ebe
000003e0: 76b0 a23d be34 2ebe cc1d 253d b2c2 9e3d
000003f0: 4163 b4bc fe00 03bc 9351 babd 6be6 07be
-0.16871083 0.1216686 0.043380644 0.02331471 0.15119208 -0.05707174 0.1936342 0.048490454
0.05397467 -0.0058468836 -0.13436556 0.11893317 -0.10589845 0.14119287 0.06305545 0.07889404
-0.1717271 0.06277149 0.098285265 0.07053112 0.12808481 -0.0032394028 0.12862292 0.1162381
-0.17819121 -0.051110093 -0.07333811 -0.04157712 -0.15884216 -0.15142436 -0.14662606 -0.07768806
-0.12888168 -0.08032865 0.11800852 0.022545842 0.06937594 0.17248496 0.06395737 -0.026642444
0.14246228 -0.0011675099 -0.12103433 0.052817892 0.18978386 -0.17557196 -0.03673753 0.083276525
-0.113006756 0.19222766 0.12744604 0.021519147 -0.072500534 -0.060149822 0.016623233 0.16814244
0.015801284 -0.13901104 0.14274049 -0.10505379 -0.097839385 0.068657994 0.16962111 0.093734264
0.13423742 0.0168755 0.13103437 0.04351829 0.10959246 -0.026909556 0.08701345 -0.10252931
-0.14871152 0.050398227 0.12884118 0.17354639 -0.059282817 -0.008021897 -0.040669948 -0.10125386
-0.12604678 0.059960477 -0.13321294 -0.022127686 -0.1294264 -0.14628045 0.08054647 -0.08350996
0.13594154 0.08712526 0.031759437 -0.049414616 0.0043433146 -0.016246544 0.09881575 -0.014820673
-0.10267525 0.036561515 0.14589669 -0.014106013 -0.039757445 0.14978765 0.1123945 -0.06243617
-0.18123308 -0.113682866 -0.06998482 0.09667161 -0.13090006 -0.025794068 -0.16591652 -0.18147233
0.0072064884 0.1627685 -0.14139006 -0.054179408 -0.04544396 -0.044812284 -0.057643984 -0.065965965
-0.1752015 0.087058425 -0.15059482 0.044955514 -0.108130366 -0.052735165 0.022838904 -0.06861365
-0.13379663 0.15780732 0.001602315 -0.16004992 0.0078809075 0.021828925 -0.038368944 -0.100161545
-0.028832495 0.047288787 0.074762836 -0.008077054 -0.04414172 -0.094427116 0.0893797 -0.15914823
-0.12951273 0.016246652 -0.059441444 -0.16616838 -0.10866056 0.061544094 0.11371876 -0.009480203
0.02597252 -0.075560585 -0.09662796 -0.04864255 -0.05252548 0.025201079 -0.1681758 -0.115891546
0.035287082 -0.118249744 -0.026211413 -0.015156263 0.11175221 0.0246008 0.1065472 0.006236925
-0.1513263 -0.1077163 -0.08186693 -0.15395312 0.08505852 -0.04396389 0.004421511 -0.12929943
-0.0582388 0.16534792 -0.06376164 0.0047166096 0.06577306 -0.034597237 0.125312 -0.15750502
0.013877229 0.024118878 -0.069624774 0.049836613 0.1297115 -0.15069453 0.08793903 0.061859936
-0.058982365 0.16522534 0.041129243 0.09723526 -0.14669187 0.15832716 0.01936847 0.11807823
0.11773415 0.11849131 -0.1937638 0.06273444 0.13035263 0.086276606 0.048498873 -0.020617347
0.006453613 -0.1416625 0.091538936 0.071641594 -0.11778471 -0.027689222 -0.036519617 0.08474629
-0.08008305 -0.11088422 -0.16214104 0.04515424 0.1530338 -0.06550738 0.08052496 -0.09071247
-0.06794814 0.106140785 -0.026435217 0.12852356 -0.16227566 0.04829169 -0.1391526 0.004283177
0.1546689 -0.04213516 0.14835107 0.06765606 -0.009968113 -0.15334105 -0.1512793 -0.020338431
0.050978288 -0.04976216 0.046178274 -0.02596583 -0.13958652 0.11344193 -0.07849907 -0.17062163
0.079438135 -0.17012307 0.04031162 0.07751979 -0.022019984 -0.007995842 -0.0909759 -0.13271491

layer_2.bias f4 [34]
00000000: f4eb d9bd 862f 593d 855c c6ba cc82 e7bb
00000010: a5f9 793d efed 05be f846 093e c784 8dbd
00000020: dd11 15bd 45be e83c d111 d03d 813f 7ebc
00000030: a616 11be 3419 f9bd f99e cf3d 15e9 5cbd
00000040: 198f 85bd 1948 113e c3f3 d4bc 0347 19be
00000050: d868 1f3d 2191 b63d 5cf7 66bb 7f69 553d
00000060: c2b5 343c c74d 753c 81eb c5bd d49f 00be
00000070: f673 90bd f6e1 1cbe 8b09 063d bb1f c53c
00000080: 59c7 2a3e 4411 05be
-0.106407076 0.053023838 -0.0015133774 -0.0070651527 0.061029095 -0.13079046 0.13405979 -0.06910091
-0.03639399 0.02841104 0.10159648 -0.01551807 -0.14168796 -0.1216301 0.101377435 -0.05393322
-0.06521434 0.1418766 -0.02599514 -0.14968495 0.038918346 0.089144 -0.0035242653 0.052102562
0.011029663 0.014972157 -0.096640594 -0.1256097 -0.07053368 -0.15320572 0.032723945 0.024062982
0.16677608 -0.12994868

layer_3.weight f4 [36, 34]
00000000: ae86 283e a8dc 58bc 9077 60bd 35dc cf3c
00000010: 973b 283e f146 783d f2b8 913c 4117 cdbc
00000020: c53f 9e3c b4ed 843c 4b6d 75bc c946 2dbc
00000030: 6823 e33b 708d 953d c518 063e c1a4 01be
00000040: 7bae b9bb a445 cabc 9a5c 03be 8caf 9c3d
00000050: 514b fa3d 3046 3a3e 7051 413c 43b0 a93d
00000060: ecb9 e23c 79dc d83d 9f32 c7bc 0995 163e
00000070: 7cfb fcbd b259 cdbd ebf7 77bb b7d6 2abd
00000080: 5070 833d 660e a03c 3230 f13d cfb5 433d
00000090: 2ff8 00be 1f56 153c 07dd b4bd 577b 753c
000000a0: 97bb 4bbd ef5f e93d 82ba 4d3d 9570 f83d
000000b0: a137 2dbe ef9d 9ebc 3d18 debb 6c0c cfbc
000000c0: 7ea4 013c 1ab2 73bd e218 68bc 9c62 05be
000000d0: c284 0a3e ba25 8e3c 97bf 6fbd 9965 823c
000000e0: fc10 d33d 1e71 543c bf63 69bd af0e 3e3d
000000f0: 4bc3 933d 49dd 113d 9e72 123b 2e96 2ebe
00000100: 968c 00bd 8f16 fb3d 3378 1dbd f3c2 34bc
00000110: c9af 25be 775a 05bd e23a 123c cf30 903d
00000120: 9477 2b3e 3761 1d3e 63a8 0fbe 9090 83bc
00000130: eb42 4f3c 13f9 193e 8cc2 573b 188c b5bd
00000140: ddd0 803c b817 24bc 29d7 0dbd ba99 f2bd
00000150: 911c 113c 94e3 a23d 3b2e 9bbc c479 0f3c
00000160: 8d8c 453d 327e afbc a6bd 28be 2d36 19be
00000170: c413 883d 308f a1bd fbf0 e03c bf70 c9bd
00000180: 7ef8 cabd 712d 4b3d de3d a43d 2a8a a23d
00000190: 3897 35bd 72d2 9c3d 8b7c d4bd fc1b 303e
000001a0: 9d56 fbbd abaf 1e3d 8b58 e1bd 67a0 0d3c
000001b0: 29ab 693d 30a9 14be ff33 09be 834c cabd
000001c0: 0f3b 2bbe fa39 013e 8ec0 453d 4873 183e
000001d0: 5e32 253e 1b11 823c a76e 0f3e f4b9 dd3d
000001e0: 61ec 233d 788c e8bd 8828 6fbd 842c b93d
000001f0: f30b e63d 571d 05be 0c86 e5bd 4ac6 12bd
00000200: d37f 043e b66b 5bbd e9a8 3f3e e4f9 7bbd
00000210: ec1b 023e 0f3f e63d 78b5 f83c 3b87 18be
00000220: 0d49 9dbd ae5d ccba a146 0e3e 206d b9bc
00000230: 98a4 843d 5fc9 8abc d84b fbbd 82f9 07be
00000240: 0c89 0cbd e239 04bd 2e49 133e 13f8 5f3b
00000250: a9af b33d 2507 a9bd 6008 b73d 8a3b 6ebd
00000260: 52e7 0b3d 5af5 793d bb75 0dbe 100f 323e
00000270: 3ebd 40bd ba68 9d3d 3e3f d93d 9a22 d2bd
00000280: 6c00 c83d b991 a63b 8711 b5bd e0bc 94bd
00000290: 713d 03be 22c0 df3d e0b7 a23d 12b6 ad3d
000002a0: afc5 bfbd 158d 223e ebdb 123e 9c83 9bbd
000002b0: 149c 7fbd 3d12 f2bd cfb4 d83c 706c 633d
000002c0: f076 133e 649d abbd 7647 11be 5d7b 25be
000002d0: 293f 553d 7c90 a23d 7f80 023d 6ee3 983d
000002e0: ad41 9a3c 946c 863d 2ddd bf3d 3439 9abd
000002f0: 5710 fabd ad97 0dbe 1bc7 40be 9686 bf3d
00000300: 24fd b63d 0327 23be c5be 3dbe cefd eb3c
00000310: d3f9 eabd c520 dabd b9b5 8d3c b1a5 b43d
00000320: f38b 053e f84e b93b 1d42 c9bd 5082 80bd
00000330: 3314 153e bb11 07be 0315 183e 47b0 5abd
00000340: bac0 c03d 28e9 153e fa07 edbd 22e5 f1bd
00000350: 8d46 43be 894d d03c 20a2 f43d 3dbf c43d
00000360: e058 3abd a8db 14be e637 ec3c 8c1e f63c
00000370: 3c19 1bbd 780e 473a fc72 03be c961 ebbd
00000380: cbc1 2c3d 08fc 7dbc 9f29 063e d774 d83d
00000390: e47f 2cbd abdb 21be efba 06bb da8c 833c
000003a0: 66dd 94bd 1b5a 063e a8eb 01be e752 d5bd
000003b0: c0d5 233e d788 e43d b96a c53d a7cf abbd
000003c0: b362 653d 7dfe 283d 2242 14be 4035 0f3e
000003d0: 631d f2bc f0be 2abe 9d12 a83d 3f8d f43d
000003e0: ec8e 06be 04e8 d63c 34e3 b7bd cf3e 093e
000003f0: 98e5 f0bd 2582 1d3e ae9d c23d b373 27bd
0.16457626 -0.013236202 -0.054801524 0.025373558 0.16428982 0.06061453 0.017788384 -0.025035502
0.019317517 0.016226627 -0.014979671 -0.0105759585 0.006931711 0.07302368 0.13095386 -0.12660505
-0.0056665516 -0.02469141 -0.12828293 0.076506704 0.12221397 0.18190837 0.011799201 0.082855724
0.027676545 0.10588927 -0.02431613 0.1470529 -0.12352654 -0.10026874 -0.003783698 -0.041708674
0.06417906 0.019538116 0.11776771 0.047780808 -0.12594675 0.009114771 -0.0883122 0.01498302
-0.049739446 0.11395251 0.050226696 0.12130848 -0.16915752 -0.019362418 -0.006777792 -0.025274478
0.007912753 -0.059496023 -0.014166089 -0.13025898 0.13527206 0.017351974 -0.058532324 0.015917586
0.10305974 0.012966422 -0.05697989 0.046400722 0.072149836 0.035611425 0.002234615 -0.17049477
-0.031384073 0.12260162 -0.03844471 -0.011032808 -0.16180338 -0.032556977 0.008925172 0.070405595
0.16744834 0.15369116 -0.14029078 -0.016060144 0.012650232 0.1503642 0.0032922355 -0.088646114
0.015724594 -0.010015421 -0.03462902 -0.11845727 0.008856908 0.07953563 -0.018942943 0.0087570585
0.048229743 -0.02142248 -0.16478595 -0.14962073 0.06644395 -0.07888639 0.027458658 -0.09835958
-0.099106774 0.049603883 0.08019613 0.07936509 -0.044333667 0.07657327 -0.10375317 0.17198175
-0.122723795 0.03874175 -0.11003216 0.0086442 0.057047997 -0.14517665 -0.13398741 -0.09877875
-0.16721748 0.12619773 0.048279338 0.14887726 0.16132495 0.015877297 0.14007054 0.10826483
0.04002035 -0.11354917 -0.058388263 0.09041694 0.11232748 -0.12999474 -0.11207208 -0.035833634
0.12939386 -0.053569518 0.18716778 -0.06151761 0.12705964 0.11242496 0.030359969 -0.14895336
-0.07679949 -0.0015591884 0.1389413 -0.022635043 0.06476706 -0.016941724 -0.122703254 -0.13278773
-0.034310386 -0.032281764 0.14383385 0.0034174963 0.08773739 -0.08253316 0.08937144 -0.05816225
0.03415615 0.061025 -0.13814442 0.17388558 -0.047055475 0.07685991 0.106077656 -0.10260506
0.097657055 0.0050832895 -0.08841234 -0.072625875 -0.12816407 0.10925318 0.079452276 0.08481993
-0.09363877 0.15874131 0.14341705 -0.07593462 -0.062404707 -0.11819885 0.026453404 0.055523336
0.1440084 -0.08379629 -0.14187416 -0.1616034 0.052062187 0.079377145 0.031860825 0.07465254
0.018830145 0.065636784 0.09368358 -0.07530442 -0.12210148 -0.13827391 -0.18825953 0.09351842
0.089350015 -0.1593285 -0.18529804 0.028807547 -0.114734314 -0.106507815 0.017298566 0.08820666
0.13041668 0.0056551658 -0.09827063 -0.06274855 0.14558487 -0.13190357 0.14851765 -0.053390767
0.0941176 0.14639723 -0.11573787 -0.11811282 -0.19069882 0.025427597 0.119449854 0.09606788
-0.045494914 -0.14536917 0.028835248 0.030043863 -0.037865862 0.00075934036 -0.12836832 -0.114932604
0.042177003 -0.015501983 0.13101815 0.105691604 -0.042114154 -0.15806453 -0.0020558198 0.016058374
-0.07268791 0.1312031 -0.12687552 -0.10416203 0.15999508 0.11158913 0.09639496 -0.08389216
0.05600233 0.041258324 -0.14478353 0.13985157 -0.029555028 -0.166744 0.08206675 0.11941003
-0.13140458 0.02623368 -0.089788824 0.13402866 -0.117625415 0.15381677 0.09502731 -0.040881824

layer_3.bias f4 [36]
00000000: 949e 113e af0f cdbd 0fa7 0dbe 5ed6 123e
00000010: ddce 2b3e c80e 3e3d d6e8 333d bfbf f7bd
00000020: 5c63 21bd 2e6a 0a3d 02b4 713d bd69 2dbe
00000030: d5c0 00bd 7b82 953d bf4f 0fbe 7e5f a43d
00000040: e2c3 1a3c b5e2 1e3d bd30 1d3d 93fc 8f3d
00000050: 355a e93d 8774 3b3c a16f 113d 51a4 00bd
00000060: fdbf 02be 7dd2 b4bd 8381 18be 3cbb 44bd
00000070: 29fa 06bc 4379 cbbd 4c62 6a3c a2b9 03be
00000080: 8f64 0cbe 9099 04be 4d1a 1cbd 246b 063d
0.14220649 -0.10012757 -0.13833259 0.14339587 0.16778131 0.046400815 0.04392322 -0.120971195
-0.039401397 0.033792667 0.05900956 -0.16934867 -0.0314339 0.07300278 -0.13995264 0.08026026
0.009446116 0.038790423 0.03837656 0.070305966 0.11394159 0.0114413565 0.03550685 -0.031406704
-0.1276855 -0.0882921 -0.14893155 -0.048030123 -0.008238354 -0.09935238 0.014305662 -0.12863782
-0.13710235 -0.12949204 -0.03811102 0.03281702

action.weight f4 [36, 36]
00000000: 5328 ecbb b031 04bd 00a2 7e3d 4732 83bc
00000010: be0e d53d 2940 03be c46c d03d 908d 343d
00000020: f530 243c ee0a d8bd f8a9 fcbc 66f4 f6bd
00000030: 5473 21bc 0f61 943c aa6c 7cbc bd40 abbd
00000040: 2738 463d 2d2c 3a3e fd7a 2e3d 4ca1 d2bc
00000050: 1d27 02be afea 743c 4743 3c3e 285f 84bd
00000060: 9c25 b4bd db4d 89bd fefb d8bd b306 f3bc
00000070: 7690 8d3d e3b1 1fbe 18b9 ee3d d39a 16be
00000080: 0c31 de3d bdc9 c43d fe02 a3bd 0af7 1f3e
00000090: 02ae 9dbd 967a c3bc c0b8 22bc 24ba 54bd
000000a0: e57a ec3c a240 8bbd fd17 2d3e 58fc eb3d
000000b0: cd80 263e 83c1 b83d ed2b 133d 0b3b e43d
000000c0: 3e1c cebd 4295 183e 73f6 0d3e 10ba 64bd
000000d0: 464a c83d daa6 5cbd ebd2 11be daa0 4ebd
000000e0: aba1 46bd 761c 3a3d a23d 463d d44e 693d
000000f0: 1e7a 23be 507d c43d 1672 1f3d 022c 59bd
00000100: 8e3a 4e3d df3c da3d e71e 7d3d cefb b43d
00000110: 71dd 37bd 2695 663d 0074 793b 5165 223c
00000120: f643 e33d 126d 03be 6e05 ee3d dd7e 80bb
00000130: 64be 8c3d 9393 223e c647 863d 9b3c a63d
00000140: 7915 973a d67a 24bd a5e1 11be fb78 063d
00000150: 2b25 873d 72ff 72bd 51db e23d 26d2 2a3e
00000160: c231 55bd 0f90 3fbd 1e16 c53c df09 b5bd
00000170: 8017 123e ef24 d5bb 4d26 3b3d e164 da3c
00000180: 3131 e13b ac18 04be 13ef 903d 3615 83bc
00000190: 6eb9 bfbd 30e3 a23d 4fc4 3c3e 4eb9 a53d
000001a0: 3fa8 49bd 0a84 0bbe 56fc 86bc 41f6 083e
000001b0: eba5 1ebe 57a2 1f3e 2a13 01be 3830 ea3c
000001c0: bb1d b03d 1abc b63d c86d 223e d680 edbd
000001d0: 18e6 f7bd f067 24be 878d 0dbe 308e 573d
000001e0: e869 9dbc 283a b8bc 86a3 edbd 6c6c d33d
000001f0: f965 cb3d 4b4f 483d 5a76 c6bd 4af0 943d
00000200: d186 4abd b1c3 19be f22a 25be a48f e93c
00000210: db27 1e3e 5b30 17be 26ac 02be 94e1 96bd
00000220: a76e 86bb c21e d03d d2d6 343d 9668 293d
00000230: e7b7 ecbc 2220 e3bc d608 08be 1128 0a3e
00000240: c0a9 96bc 20a7 e43d cb38 febd 15d9 27be
00000250: a4bd 563c 2d9e bc3d 7c20 74bd 2ebe aabd
00000260: 950d 04be f19e cd3c 20ed 8a3d 544e 103e
00000270: f957 b93d 348c fa3d 0b55 a1bc 1e41 babd
00000280: f144 5c3d 09c2 8c3d 110b 713d 2436 b5bd
00000290: ea61 2d3d 18ad 2c3d 4e9e ebbd ca0f c33d
000002a0: ca19 dfbd 5e3b a43d 102c 4ebd 9372 0f3e
000002b0: f6d4 3f3b 31e1 6fbd cf0e 053e 668e b2bd
000002c0: 00bc 33bd 226b b03c 6004 b53c c7cf 003e
000002d0: 71cc 823d 530d f93d 1e79 d6bd cb18 1ebe
000002e0: ec46 103e c58e 243e b71f 9e3d a729 1c3e
000002f0: 72bb 77bd 6b01 fd3d a29d 33bd cb52 e93c
00000300: 4387 de3d 4303 46bc 703c 27be 183f e9bd
00000310: d7f5 c7bd 4db9 bdbd d8db 343e a228 aa3d
00000320: f03e 0d3e 19a1 1f3e 1348 0cbd e575 9f3c
00000330: f77c 0f3e 307a 17be 4b6e ed3c f53d b43c
00000340: 0949 de3d e6e0 b9bd 4e1d 133e 2be0 58bc
00000350: 41fc f33d b81b 00be a333 f53d b1e0 8d3c
00000360: b6ff c53d 8611 0ebd 63b4 c13d 9db0 8dbd
00000370: a07d 6bbd 963b dcbd 8e18 973d acd1 29be
00000380: c077 9d3d 44cb 99bd 17ef 7a3d 7632 1c3d
00000390: 3b35 e93c bc44 a23d 480e df3d 5628 8c3d
000003a0: aeb1 653b b53b 103d f229 233e 9326 85bd
000003b0: 8026 483d 097c b4ba 4e69 25bc d2ed 6a3d
000003c0: 0937 17be 2b25 843c 6365 80bd 9ef3 a8bd
000003d0: 7bd8 c9bd 8a6f c8bd 1d57 e7bd 6b1c 083e
000003e0: da87 06be c75e 903d 2baa 463d bfa2 b2bd
000003f0: 568d bc3d bf2d 1e3e 2f31 113e 34a7 3c3e
-0.0072069555 -0.03227395 0.062166214 -0.016015185 0.104032025 -0.12817444 0.101769954 0.044080317
0.010021438 -0.1054896 -0.030842766 -0.12058334 -0.0098541565 0.018112687 -0.015406767 -0.08361957
0.048393395 0.18180914 0.04259776 -0.025711678 -0.12710233 0.014948531 0.1838504 -0.06463462
-0.08796236 -0.06704303 -0.10594939 -0.02966628 0.06912319 -0.15595202 0.116563976 -0.14707498
0.10849199 0.09608791 -0.07959555 0.15621582 -0.07699205 -0.023862164 -0.009931743 -0.05193533
0.028867194 -0.06799437 0.16903682 0.1152274 0.16260071 0.090212844 0.035930563 0.11144074
-0.100639805 0.14900687 0.13863544 -0.055841506 0.097797915 -0.05387006 -0.14240615 -0.05044637
-0.048494022 0.0454373 0.04839862 0.056959942 -0.15964553 0.09594214 0.03892716 -0.053020485
0.05034881 0.106561415 0.06179705 0.088370904 -0.044888917 0.056294583 0.0038063526 0.009911851
0.11096947 -0.12834576 0.116221294 -0.0039213733 0.06872252 0.15876608 0.065566584 0.08117028
0.0011526785 -0.040156208 -0.14246233 0.03283022 0.06598886 -0.059325643 0.110769875 0.16681728
-0.052049406 -0.046768244 0.024058398 -0.088397734 0.14266777 -0.006504647 0.045690823 0.026659431
0.006872319 -0.12900037 0.0707685 -0.016001325 -0.0936154 0.07953489 0.18434261 0.08091985
-0.049232718 -0.13624588 -0.016477745 0.13375188 -0.1549298 0.15589271 -0.12604967 0.028587446
0.08599421 0.08922596 0.1586219 -0.11596839 -0.12104434 -0.16055274 -0.1382352 0.052625835
-0.01921554 -0.022488669 -0.11603455 0.10323414 0.09931559 0.048903745 -0.096905425 0.07272394
-0.049444977 -0.15016057 -0.16129664 0.028510876 0.15444891 -0.1476454 -0.12760982 -0.07367244
-0.0041025463 0.101621166 0.04415018 0.041359507 -0.028896285 -0.027725283 -0.1328462 0.13491847
-0.01839149 0.11164689 -0.12413176 -0.16391404 0.013106737 0.09209857 -0.059601292 -0.08337055
-0.12895806 0.025100203 0.06783509 0.1409238 0.090499826 0.12233773 -0.019693872 -0.09094451
0.053776685 0.06872947 0.058848444 -0.08848217 0.042329706 0.042157263 -0.115048036 0.09524496
-0.10893591 0.08019136 -0.05033499 0.1400855 0.0029271222 -0.05856437 0.1299393 -0.087185666
-0.043880463 0.02153546 0.022096813 0.12579261 0.0638665 0.121607445 -0.1047232 -0.15439145
0.14089555 0.16070087 0.07720893 0.15250264 -0.060481496 0.12353786 -0.043851502 0.028481862
0.10865643 -0.012085739 -0.16331649 -0.11388987 -0.09763687 -0.09263859 0.17661989 0.08308531
0.1379354 0.15588798 -0.034248423 0.019465396 0.14012514 -0.14792705 0.028983256 0.0220022
0.10853774 -0.09076099 0.14366648 -0.01323704 0.11913348 -0.12510574 0.119727395 0.017319055
0.096679136 -0.03468468 0.09458234 -0.06918452 -0.057492852 -0.107535526 0.0737773 -0.1658389
0.07688856 -0.07509473 0.06126317 0.03813406 0.028467765 0.07923266 0.10891396 0.06843631
0.0035048532 0.03521319 0.1593397 -0.06501498 0.04886484 -0.0013769876 -0.010095907 0.05735571
-0.14767088 0.016131004 -0.06269338 -0.08249591 -0.098557435 -0.097868994 -0.112959124 0.1329209
-0.13137761 0.07049327 0.04850213 -0.087224476 0.09206645 0.15447138 0.14178918 0.18423158

action.bias f4 [36]
00000000: dbdc 153e 4779 fd3d 2694 01bd 3700 28be
00000010: 4dd3 093e 0446 c23c a628 ddbd 94d1 e1bd
00000020: e586 813d 4009 a0bd 8609 b53d 5bde 85bd
00000030: e792 3a3d efc3 1d3e b67d 51bd da22 113e
00000040: 0187 043e ad13 143e efd0 a6bd 259a b5bd
00000050: 1cd8 92bb 62c4 ef3d 50e2 e23d aaed 20be
00000060: ba28 5ebd 290c 873c 383c 973c 53bf 9e3d
00000070: dc43 233d e9d8 a5bc 5296 fd3d 5f48 afbd
00000080: 6322 e2bd b078 bcbd 6dd8 ce3d c716 2a3e
0.14635031 0.123766474 -0.031635426 -0.16406332 0.13459511 0.023715027 -0.10798769 -0.11026302
0.06324557 -0.07814264 0.08839707 -0.065365516 0.045550253 0.15406774 -0.051145278 0.14173451
0.12942125 0.1446063 -0.0814532 -0.08867291 -0.0044813287 0.11707379 0.11078322 -0.15715662
-0.05423806 0.01648529 0.018461332 0.07751336 0.039859638 -0.020245032 0.12382187 -0.085587256
-0.11041715 -0.09202707 0.10099874 0.16610251
