st_dev_model.pt (torch, 21583 bytes, 8 tensors)

layer_1.weight f4 [33, 30]
000000 f8 9f 1e 3e 95 6a 32 bd c5 f5 a8 3d 35 f8 93 bd
       0.1549071 -0.043558676 0.08250002 -0.07225076
000010 87 c0 35 bc f4 cf 0d be 97 fa 30 3e 52 1a 06 bd
       -0.011093265 -0.13848859 0.17283092 -0.032739945
000020 e8 98 a6 3d 84 7d e0 bd 5e 38 41 bd 3c a3 d9 bd
       0.08134633 -0.1096144 -0.047172897 -0.106268376
000030 da 4e 10 3e bf 52 6e bd 45 ee 36 3e c2 59 32 bd
       0.1409258 -0.05818438 0.1786433 -0.04354263
000040 fc c6 81 3b bb cf 25 3e 51 61 ef 3d 74 a9 0d bd
       0.0039604884 0.16192524 0.116884835 -0.03458543
000050 05 b5 0f 3e 02 51 1b 3e 76 ea 41 bd 0c 28 02 bd
       0.14033897 0.15167621 -0.04734274 -0.031776473
000060 20 42 41 3a b2 4b e8 bd d1 0b d3 bc 96 b2 07 3c
       0.0007372219 -0.11342563 -0.02576247 0.008282324
000070 98 01 9a bd 59 50 88 3d ec 5c 18 3d 3c bb 8f bd
       -0.07519835 0.0665595 0.037197992 -0.07018134
000080 df b8 36 3e 79 69 d7 3d b1 9e 08 3e a8 1e 10 3e
       0.1784396 0.10518164 0.13341786 0.14074194
000090 19 52 8f 3d 07 b1 1b 3e 28 a2 cd bc 3f ed 3b bc
       0.06998081 0.1520425 -0.025101736 -0.011470138
0000a0 27 be 51 3e e6 a5 39 3e 03 8a c3 bc 6e 77 6b 3c
       0.20482694 0.18129691 -0.02386952 0.014371736
0000b0 80 c7 40 3d db 9c 2e be 96 2c d9 bd 10 da 5b bd
       0.047065258 -0.17052023 -0.10604207 -0.053674757
0000c0 30 c0 46 3d ee a7 93 bd 52 27 2a be a5 a1 2a be
       0.048523128 -0.072097644 -0.16616562 -0.16663225
0000d0 70 2d 09 3d 38 75 bd 3d e0 ce 19 3e 34 3b 66 3d
       0.0334906 0.09250873 0.15020323 0.056208804
0000e0 71 89 5b be e8 d4 98 3c 23 c4 a7 bd ac 6a 8d 3d
       -0.21439148 0.01865621 -0.08191707 0.06905112
0000f0 0c 3e 65 bd cc 0b bc bd ff 7e 98 bd e7 aa f3 bd
       -0.055967376 -0.091819376 -0.074460976 -0.118978314
000100 e7 55 46 3e b8 c3 bc 3d e9 9e b5 3d 83 b9 c4 3d
       0.19368707 0.09217018 0.088682 0.09605696
000110 3a ce 10 3e 47 38 0b be 3a 5b c3 bd c4 d4 1c 3d
       0.14141169 -0.13595687 -0.095388845 0.038288847
000120 43 6f 41 3e 30 b7 01 3e 7f 0d 69 bc 0c b5 37 3c
       0.18890099 0.12667537 -0.014224409 0.0112125985
000130 00 66 6d bd 31 da 45 3e 63 88 f9 bd 14 53 13 3e
       -0.057958603 0.19321515 -0.12184217 0.1438716
000140 36 ba 16 3e 56 32 c5 3d 1c be 1f 3d 85 18 cd 3d
       0.14719471 0.096287414 0.03899966 0.10014442
000150 6e f7 01 3e 04 a0 09 3e 5d 29 99 bd ec b9 b5 3d
       0.12692043 0.13439947 -0.074785925 0.088733524
000160 70 b8 29 be 32 91 12 be 68 2b 44 bd d2 11 2d be
       -0.16574264 -0.143132 -0.047892958 -0.16901329
000170 4c 57 94 bc ad a1 e8 3d d7 30 16 3e e4 63 4c bd
       -0.018108033 0.11358962 0.14667068 -0.04989995
000180 04 87 c8 bd 50 ad 78 3d c0 a9 27 bc d4 b0 a1 bd
       -0.09791377 0.06071216 -0.010233343 -0.078950554
000190 c0 29 9d bd 66 9e aa bd 4b 00 0e 3d b0 13 96 bc
       -0.07673979 -0.08330993 0.03466825 -0.018319935
0001a0 2c ae 0a 3e 4b 5f d0 3d 9b 34 1a 3e 69 36 21 be
       0.13543004 0.10174426 0.1505913 -0.15743412
0001b0 7a 4b 73 bd 92 5f 6d 3d d8 b4 b6 3d 94 d1 47 be
       -0.059398152 0.05795247 0.08921212 -0.19513541
0001c0 7a 57 d7 bd d0 c9 4a bd 03 17 57 bc f2 33 29 bc
       -0.10514732 -0.04950887 -0.013128045 -0.010327326
0001d0 72 4b 35 3e a6 a9 03 3e f0 65 24 3d 88 a3 4e bd
       0.17704561 0.12857684 0.040136278 -0.050448924
0001e0 40 08 7e bb 27 c5 11 be 3e 2a 01 be 7b be 18 be
       -0.0038762242 -0.14235364 -0.1261377 -0.14916413
0001f0 7c 04 7a bd b8 b3 e1 3d ec 05 07 3e b0 ce 8d 3a
       -0.061039433 0.11020607 0.13185853 0.0010819044
000200 4c 9c fa bd 97 bc 10 3e b6 2b e2 bd 87 f6 0e 3e
       -0.122368425 0.14134441 -0.110434934 0.1396123
000210 b7 ff ab bd 82 76 04 bc 73 67 48 be fa 90 8b bc
       -0.08398383 -0.008084895 -0.19570713 -0.017036904
000220 90 48 24 3d 0d bf ee 3d 15 b7 3e be f6 c6 a7 bd
       0.040108263 0.11657534 -0.18624528 -0.08192246
000230 ee 5f 09 bd c9 b8 ab bd 50 0a df bd ae 30 08 3d
       -0.03353875 -0.08384854 -0.10890639 0.03324955
000240 f8 2f d2 bd ef f2 8b 3d 58 00 1d be 88 85 13 3e
       -0.102630556 0.06833445 -0.15332162 0.14406407
000250 98 ef d7 3d 09 fb 22 3e ce 28 37 be e3 8b 16 be
       0.10543746 0.15916075 -0.1788666 -0.147018
000260 a8 17 10 3c 88 bd 4a bb 00 1d a6 38 20 09 39 3c
       0.008794703 -0.0030935723 7.9208985e-05 0.0112936795
000270 ec 24 9a 3d e4 c5 d1 3d 72 1c 01 3e 50 25 d5 3d
       0.075265735 0.10242823 0.12608507 0.104075074
000280 31 93 06 3e 40 20 fa 3c 58 e0 6d bd 6b e8 0b be
       0.13142087 0.030532956 -0.05807528 -0.13662879
000290 8a 94 3b 3e ba 53 b3 bd 7f 96 06 3e f9 eb d1 3d
       0.18318382 -0.08756204 0.13143347 0.10250086
0002a0 82 46 4b bd 73 9b 5e 3e e7 e8 03 3d 87 98 2d be
       -0.04962779 0.21738987 0.032204535 -0.16952716
0002b0 4a bf d7 bc e9 72 a7 bd 00 3b f8 38 e9 70 03 3e
       -0.02633633 -0.08176214 0.00011836551 0.1283604
0002c0 59 dd af bd fd e3 8c bd e2 cd 0d bd 9f 1c 99 3d
       -0.085871406 -0.06879423 -0.034620173 0.07476162
0002d0 80 ff c2 3d f4 a8 cf 3c 80 e7 77 3d 8e a2 2e 3d
       0.09521389 0.025349118 0.06052351 0.042635493
0002e0 2d ac 86 3d c5 7d 37 be da 3c c6 3d 7e b5 2f 3e
       0.06575809 -0.17919071 0.09679575 0.17159078
0002f0 9a b8 17 3e f1 1f 04 be 32 06 21 bd c7 99 0f 3e
       0.14816514 -0.1290281 -0.03931255 0.14023505
000300 ca 0f a9 bd a4 da 19 3d 97 6e 3c be 6c 54 5b 3d
       -0.08254965 0.037562028 -0.18401562 0.053547308
000310 08 76 53 be d6 70 0a 3e bf a6 fd 3d 52 f4 c6 bd
       -0.20650494 0.13519606 0.1238532 -0.09714569
000320 22 73 07 3d 24 91 b6 3d bc 4e 68 bc 09 f6 14 3e
       0.033068784 0.08914402 -0.014178928 0.1454698
000330 a8 e5 a1 bd 55 57 91 bd 71 87 f8 bd 08 8f bf bd
       -0.079051316 -0.070967354 -0.121352084 -0.09353453
000340 2b 88 d4 3d f3 a4 b6 bd 0c 25 17 be 3e 54 52 3e
       0.103775345 -0.0891818 -0.14760226 0.20539948
000350 e0 48 9a bd 9a 2a 44 bd 46 82 27 3d 95 3b 18 be
       -0.07533431 -0.04789219 0.040895723 -0.14866479
000360 e0 3c 42 ba 1f 91 81 3d 6e 0f 31 3e e1 55 b7 bc
       -0.0007409584 0.06326508 0.17291042 -0.022379817
000370 51 2a 74 3d bb 62 3c be 58 d8 3d bd 7b 33 11 be
       0.05961067 -0.18397038 -0.0463489 -0.14179794
000380 63 71 98 bd 95 32 c8 bd 03 2a ce 3d cc c1 fb bd
       -0.07443502 -0.09775273 0.10066607 -0.12292823
000390 04 95 14 bd db 5a fe 3d a3 78 f5 3d c1 06 91 3c
       -0.036274925 0.12419673 0.119859 0.017703416
0003a0 83 17 f7 bd 25 c0 09 be 72 c9 cc bd 0e c9 b1 3b
       -0.120650314 -0.13452204 -0.0999936 0.005425579
0003b0 c0 61 7a 3d a8 c9 53 be d5 78 19 be 2d 3b 1a be
       0.061128378 -0.20682395 -0.149875 -0.15061636
0003c0 b8 b1 49 bd b0 f8 51 3b 33 ee 99 3d 10 79 31 be
       -0.04924175 0.0032039098 0.07516136 -0.17331338
0003d0 a6 d3 03 be 38 52 00 3e 72 a0 20 3e 6f 93 06 3e
       -0.12873706 0.12531364 0.15686205 0.13142179
0003e0 1b 62 20 be 48 c6 ec 3d 41 f8 76 bc d4 36 1f bd
       -0.15662424 0.11561257 -0.015073837 -0.038870648
0003f0 ea e3 f6 bd 3e c5 ed 3d f7 8f 2a be 6d c9 34 be
       -0.1205519 0.116098866 -0.1665648 -0.17654963

layer_1.bias f4 [33]
000000 28 d0 3c be 51 f3 29 be cd 41 6e 3d 34 5a e9 bd
       -0.1843878 -0.16596724 0.05816822 -0.11394158
000010 d1 9d 57 3e 57 6e 86 bc 78 67 98 3d 4f 89 69 be
       0.21056296 -0.016410036 0.0744161 -0.22806285
000020 da e2 a4 bd 20 e2 3b 3d b4 1e 34 3d f6 51 08 3e
       -0.08051081 0.045869946 0.043974593 0.13312516
000030 8f e3 56 be aa 43 0b be 9f 19 a0 bd 14 86 e3 bd
       -0.20985244 -0.1360003 -0.07817387 -0.11109558
000040 dc 1b 3a bd a8 f6 d6 3c 1d 79 13 be f6 6f 19 be
       -0.045436725 0.026240662 -0.1440167 -0.14984116
000050 68 b1 29 be ce b0 10 3e da c8 11 bd a4 7d 99 3d
       -0.16571581 0.14129946 -0.035591938 0.07494667
000060 b4 59 36 be de 16 e2 3d f6 bc e3 bd 1e 06 07 bd
       -0.17807657 0.11039518 -0.11120026 -0.03296482
000070 19 f3 9f 3d ed fb 8a 3d 92 ff 7a bd ce 81 07 3e
       0.07810039 0.06786332 -0.061278887 0.1323311
000080 88 db c2 bc
       -0.023786321

layer_2.weight f4 [34, 33]
000000 7e 77 5c bb f3 54 0a be 5e 9b 1e 3e 09 27 f0 bd
       -0.0033640559 -0.13508968 0.15488955 -0.11726195
000010 66 fd fe bc 0a 12 50 be 83 dd c4 bd c4 d7 eb bc
       -0.03112669 -0.20319381 -0.096125625 -0.028789409
000020 fb b4 02 be a3 6f 1b 3e f2 18 a0 3c 68 39 58 bc
       -0.12764351 0.15179305 0.019543145 -0.0131972805
000030 6e b6 2e 3e 82 82 07 3d 5f 51 8c bc 6b 57 c8 3d
       0.17061779 0.033083446 -0.017128645 0.09782299
000040 23 11 ee 3d 98 5f f2 bd bd a0 15 3e b6 87 a7 3d
       0.11624362 -0.11834639 0.14612098 0.08180182
000050 3a c9 45 be fa 08 ac 3d 05 50 11 3e af 9c b7 3c
       -0.19315043 0.0840015 0.14190681 0.02241358
000060 57 60 d5 3d 85 04 ce 3d 19 4f dd 3d 11 66 d2 3d
       0.10418766 0.10059456 0.10806102 0.10273374
000070 e7 84 af 3d c2 ee 73 bd 76 1f d4 3d 2a 1d f2 bd
       0.08570271 -0.05955387 0.10357563 -0.11821969
000080 51 91 f2 3d 52 06 ba 3d 90 fb f3 3d 18 69 2f be
       0.11844123 0.09083237 0.11913216 -0.17129934
000090 d1 22 ea bb df 72 61 3c 90 fd aa 3d d8 be a6 bd
       -0.0071452637 0.013760298 0.083491445 -0.08141869
0000a0 04 ba ad 3d f7 4e 47 be cb e9 20 be 5d 1c 4e 3d
       0.08482745 -0.19463716 -0.15714185 0.050320018
0000b0 54 72 0d bc 09 05 65 3e 8a c4 49 3d cf db 6d bd
       -0.008633215 0.22365202 0.0492597 -0.058070954
0000c0 39 23 12 3e fc 0e fc bc 6a c1 c6 3d 11 79 ee 3d
       0.14271249 -0.030768864 0.097048596 0.11644185
0000d0 0f c6 bd 3d 7c 80 44 3b 82 a1 06 be df 3e 15 be
       0.09266292 0.002998381 -0.13147548 -0.14574765
0000e0 d0 bd ad ba 15 59 e8 3d 93 8e 65 3d 54 bf c3 bd
       -0.0013255421 0.11345116 0.056044172 -0.09557977
0000f0 fc fd aa bd 93 ea e1 3d a6 8d 88 3d bc eb 14 3d
       -0.08349225 0.110310696 0.06667642 0.036357626
000100 5b 2e 99 3d fa 37 b6 bd 19 dd 97 bd 00 32 5c bd
       0.07479545 -0.088973954 -0.07415218 -0.05375862
000110 c5 ec 33 be 9e e3 76 3d bf 21 f0 bd 4a 04 be bc
       -0.17570789 0.060275666 -0.117251866 -0.023195405
000120 57 c6 a9 3d 15 a0 8c 3d 54 e6 15 3d 7c f6 6c be
       0.082897834 0.06866471 0.03659661 -0.23140901
000130 5c 8f d2 bd ee 22 45 bd 0f b3 91 3d e0 00 37 bb
       -0.1028125 -0.048129015 0.07114231 -0.0027924106
000140 91 bd 76 bd 54 df 1d 3e 15 3a c8 3c ee dd bb bd
       -0.06023938 0.15417224 0.024441758 -0.09173189
000150 62 d7 3b be 21 52 cb bd 5c d6 fe bd 7e 1d 29 be
       -0.18343881 -0.09927774 -0.124432296 -0.16515157
000160 3e 94 4f be 38 b3 91 bd 0b 6f 84 3d 80 54 88 3d
       -0.20271394 -0.071142614 0.06466492 0.06656742
000170 e6 93 3c bd 8c 6a ce 3d aa d5 b1 bc 25 f5 8b 3d
       -0.046039484 0.10078916 -0.021708328 0.06833867
000180 dd d3 17 3e 16 e3 37 bd 3a 36 ac 3d 08 c3 99 3c
       0.14826913 -0.0448943 0.084087804 0.018769756
000190 40 fd 66 3c 27 67 2f 3e ef c3 7d 3c f1 b5 bc bd
       0.014098465 0.17129193 0.015488609 -0.0921439
0001a0 6c 4f 0b be aa d1 00 be f8 9d 1d be 80 07 53 be
       -0.13604516 -0.1257998 -0.15392292 -0.2060833
0001b0 11 04 fd 3d 86 ce 8a bd 6d 00 8d 3d 32 b8 20 bd
       0.12354291 -0.067776725 0.06884847 -0.039238162
0001c0 df d6 1e be 39 05 c1 bd e3 f8 34 3e fe 89 4c 3d
       -0.15511654 -0.09424824 0.17673068 0.049936287
0001d0 bc c3 38 3e 58 1c a2 bd 2e 73 90 3d 34 cd 23 3d
       0.18043417 -0.079155624 0.07053219 0.03999062
0001e0 0d 31 cb bd 63 50 b9 bd d4 ed 1e be 21 01 04 3e
       -0.09921465 -0.09048536 -0.15520412 0.12891056
0001f0 0c 2d 0d 3d b7 1e 06 bd 10 aa 1b 3d 8a b5 ba bc
       0.03446679 -0.032744136 0.03800398 -0.022791643
000200 5a 9c bd bc e5 90 c7 3d 9c c0 0a be 7e 01 c9 3d
       -0.023145843 0.09744433 -0.13550037 0.09814738
000210 14 69 07 3d dc 0c c4 bd 80 bb f3 3b a6 82 ca 3b
       0.033059195 -0.09572765 0.007438123 0.0061801253
000220 8d 1f 39 be f5 60 a1 3d 8a 3b 04 3e b4 9f 10 3d
       -0.18078442 0.07879821 0.12913337 0.035308555
000230 35 1a fb bd 1c a9 17 3e f9 e3 79 bd 34 18 14 bd
       -0.12260858 0.14810604 -0.061008427 -0.036155894
000240 5f a0 4a be 00 eb a2 bd 98 76 75 bd fd 53 b4 3d
       -0.19787739 -0.07954979 -0.059927553 0.08805082
000250 84 1d 35 bd f8 91 29 3c fe b1 4e bd 28 f0 5e 3d
       -0.0442176 0.010349743 -0.050462715 0.05442825
000260 b3 8e 02 3e 57 12 8a 3d cc 86 43 bd 55 8a 87 bd
       0.12749748 0.06741779 -0.047735974 -0.066181816
000270 67 dc 1e 3e 0a e9 d7 3d 35 1d b0 bd eb 3b 90 bd
       0.15513764 0.105424955 -0.08599321 -0.070426784
000280 c0 01 f9 b9 9e a8 2b 3d ac c2 b5 3d 82 0c 2d 3d
       -0.00047494285 0.041908853 0.08875021 0.042248257
000290 b5 b5 1d bd e7 31 27 3e fe f2 3f 3c 7d 57 dd 3d
       -0.038503367 0.1632763 0.011715649 0.10807703
0002a0 7e a8 e6 bd 81 c6 88 bd 81 e4 b3 3c e9 07 01 be
       -0.11262606 -0.066784866 0.021959545 -0.12600674
0002b0 2e 71 35 3e 31 46 f8 3c ce cc 11 3e 37 a3 2e 3e
       0.17718956 0.030306907 0.14238283 0.17054449
0002c0 9a b4 63 3c 58 d6 23 3e a7 da 02 3e 3f b1 4f 3d
       0.013898039 0.15999734 0.12778722 0.050706144
0002d0 f1 6b ee 3d 75 33 0d bd b3 9f d7 bd c0 3c 3c 3e
       0.11641682 -0.0344729 -0.10528507 0.1838255
0002e0 5b 5f 94 bd 53 55 13 3e e1 4f f3 3d d0 91 2f 3e
       -0.0724475 0.14388017 0.1188047 0.17145467
0002f0 8f a4 b5 3d de 2a 4c 3e f2 97 0f 3d cc 9f 85 3c
       0.08869278 0.19938228 0.035057016 0.016311549
000300 ed 61 c7 3d f9 b9 13 be 67 a6 2e 3e b3 1b 02 be
       0.09735475 -0.14426412 0.17055665 -0.12705879
000310 df f7 10 3e ca a6 0b bd 40 28 1f 3d 38 3b 05 be
       0.14157055 -0.03409461 0.038856745 -0.13010871
000320 1b 78 ed bd f4 56 10 3e fc d6 08 be f8 7d 26 3e
       -0.11595174 0.1409567 -0.1336326 0.16258991
000330 ba f9 e8 bd f5 56 ac 3d 39 8a d6 bd 00 57 44 bb
       -0.113757566 0.08415023 -0.10475583 -0.0029959083
000340 84 a2 04 3d aa 0f d4 3d 9e a8 22 bc 6e 29 e9 bc
       0.03238155 0.1035455 -0.009927897 -0.028462138
000350 f2 b4 56 bd 88 b4 14 3e 6c 94 5a 3d 75 4f 12 3e
       -0.052418657 0.14521992 0.053364202 0.14288123
000360 0e d8 8b 3d bb a6 56 be 30 e8 80 3d 9f 58 c2 bd
       0.068283185 -0.2096204 0.06294286 -0.094895594
000370 d0 34 bf 3c 46 9d e5 bc 35 c3 10 be c4 95 b4 3c
       0.023340613 -0.028029095 -0.14136966 0.02204407
000380 df 9c 07 bd 66 2a 34 bc 65 1f 00 3e 8c 5c 4a 3c
       -0.03310859 -0.010996437 0.12511976 0.012351166
000390 f2 6b b9 3d 03 c6 b8 bd 3d 42 2a be e5 0f 13 be
       0.09053792 -0.09022143 -0.1662683 -0.14361532
0003a0 ac ae c3 3c ac 92 5b bd fb a2 96 3c 0e d9 37 3e
       0.023887001 -0.053606674 0.018388262 0.17953894
0003b0 d2 e1 7d 3c e4 84 2e bd eb cd d4 3d e5 a2 9d bd
       0.015495734 -0.042607203 0.10390838 -0.07697085
0003c0 ea 29 03 3e 3c 49 6e 3d 69 03 ce 3d 78 de 1e be
       0.12808958 0.05817531 0.10059244 -0.15514553
0003d0 e3 93 0a be a2 b0 2d 3d 79 b2 c8 3d ac 28 24 be
       -0.13532977 0.04240478 0.09799666 -0.1603114
0003e0 bb 75 91 3d 7b e3 3e be 9b 33 ab 3d 40 5c 5b b9
       0.071025334 -0.18641464 0.08359452 -0.00020919833
0003f0 d3 04 7c bd 6d 1c c4 3c c2 1d 0b be 6c 2b 35 be
       -0.06152804 0.023939336 -0.1358557 -0.17692345

layer_2.bias f4 [34]
000000 dc a7 34 be e2 32 ca bd 43 2a a3 3d b1 7a 1e 3e
       -0.17642158 -0.098729864 0.07967045 0.1547649
000010 22 43 78 bd 13 6a ec bd 18 88 c6 bd ff 42 00 3e
       -0.060610898 -0.115436696 -0.096939266 0.12525557
000020 95 b5 a7 bd 9b 69 cd bd 72 4d d5 3d 42 98 a3 bd
       -0.08188931 -0.10029908 0.10415162 -0.07988025
000030 81 59 ef bd f0 21 1d 3d 7c f3 03 3d fb 93 26 3e
       -0.116869934 0.038362443 0.032214627 0.16267388
000040 24 97 27 be c4 3b 58 3d df c2 92 bd 08 2c 0f be
       -0.1636625 0.052791372 -0.07166075 -0.1398164
000050 b0 0c e9 bd 8b 03 bd 3d 22 61 ae bd 2c 18 c5 bd
       -0.11379373 0.092291914 -0.0851462 -0.09623751
000060 70 55 13 3d de 4d 1e 3d 5f d5 4b 3e c8 38 66 bc
       0.03597015 0.03864848 0.19905613 -0.014051624
000070 36 7c 96 bd f9 0b 09 be f6 80 de 3c ac 0d 90 bd
       -0.0734791 -0.13383473 0.027161103 -0.07033858
000080 9d 8c 34 bd c9 7e 5c 3d
       -0.04407941 0.05383185

layer_3.weight f4 [36, 34]
000000 10 94 62 3d 40 5b d5 3b 68 68 a1 bc ca b5 a1 3d
       0.055316985 0.006511122 -0.019703105 0.07896002
000010 bd e6 22 be 70 3c fc 3c 10 71 23 3d ac 16 8c 3d
       -0.15908332 0.030790538 0.039902747 0.06840262
000020 0d dc a8 bd 82 46 69 bd b6 a9 ca 3d 7c 85 2c be
       -0.08245096 -0.056952007 0.09895651 -0.16847795
000030 b0 2c 28 3c a2 98 a3 3d b0 7a 26 3d bb b2 19 3e
       0.010264561 0.07988097 0.040644348 0.15009587
000040 58 08 fd 3c 4f 22 9f bd e6 fb a5 3d a8 24 51 bd
       0.030887768 -0.07770216 0.081046864 -0.05106035
000050 0a d1 84 3d 90 8c 0b be 56 87 8f 3d f8 86 b0 bd
       0.064851835 -0.13627839 0.07008235 -0.08619493
000060 ce 0b f2 3d 0e 6a bf bd 22 60 cc bd e4 a7 6c 3d
       0.11818658 -0.093464 -0.099792734 0.0577773
000070 12 a5 5b bd e4 e4 0c bd f8 b3 d9 3c 50 25 1f bc
       -0.05362422 -0.034397975 0.026575074 -0.009713486
000080 c4 f6 52 bd de 61 90 3d 15 bf 8f 3d 9b 34 21 bd
       -0.051504865 0.07049917 0.07018868 -0.03935681
000090 0b f5 3e 3e 7d 78 0a 3e 01 56 dd 3d 2c 62 56 3d
       0.18648164 0.13522525 0.108074196 0.052339718
0000a0 9e fd a7 3d 0a 70 50 3d c4 df 55 3d 50 bc 40 3c
       0.082026705 0.0508881 0.052215353 0.011763647
0000b0 81 7f dd 3d 21 12 d0 bd 11 cf ce 3d 06 93 da bd
       0.10815335 -0.10159708 0.100980885 -0.10672574
0000c0 1f cb 96 bd 14 1a 89 bd 78 21 8f 3d bf 6f ea 3d
       -0.07362961 -0.06694427 0.069888055 0.11447095
0000d0 4e 62 3e 3e 0a f2 24 3e ea f3 16 be f7 63 cf bd
       0.18592188 0.16107956 -0.14741483 -0.10126489
0000e0 eb 33 03 3e df dd 90 bd f4 16 0f 3d 53 b0 cd 3d
       0.12812774 -0.070735686 0.034934 0.10043397
0000f0 c9 36 52 bc 38 0b e0 3d 59 40 a1 3d c3 ba 2f 3e
       -0.012830445 0.1093964 0.078736015 0.17161088
000100 7a 3c cc bd d9 9f 45 3c 24 35 e2 bd be 27 28 3e
       -0.099724725 0.012062036 -0.11045292 0.1642141
000110 32 81 31 3e 85 cf 26 3d 5e 06 33 3d 97 a9 2d 3e
       0.1733444 0.04072525 0.043707244 0.16959225
000120 35 74 00 3d 57 d0 79 3c ec b3 c8 3b bb 25 41 3e
       0.031360824 0.015247426 0.006124964 0.1886205
000130 12 d9 ff 3d 6e ec 93 3d 5f 4c f7 3d 76 18 89 bb
       0.12492575 0.0722283 0.120751135 -0.004183824
000140 62 e8 b4 3d 13 62 34 3e 7e af 01 3e df 2d 2b 3c
       0.08833386 0.17615537 0.12664601 0.010447948
000150 b5 25 c5 bd 98 92 48 3e 09 3c 47 3e 0f 24 fc 3d
       -0.09626333 0.19587171 0.19456495 0.12311565
000160 57 2e 2d 3e 32 3e a8 bc 81 31 ac 3d 36 4e 8e bd
       0.16912208 -0.02053747 0.084078796 -0.06948511
000170 ac 0f 03 3e 68 54 5a 3c fb 64 c7 bd 5c a5 95 bd
       0.12798947 0.013325788 -0.09736057 -0.073069304
000180 c0 85 bc bc b5 7e a3 3d 6f b2 b2 3d aa c5 19 be
       -0.023012996 0.07983152 0.0872544 -0.15016809
000190 16 16 0b 3d 93 ff 44 3e f6 49 d3 3d 95 0c e3 3d
       0.03395661 0.19238119 0.10316841 0.11086384
0001a0 53 6c 56 3d ec af 27 3d e2 2d 16 be 57 07 d3 bc
       0.0523494 0.040939257 -0.1466594 -0.025760336
0001b0 9e 3b 39 bd e8 e2 5f be e3 58 80 3d 00 26 0b bd
       -0.04522287 -0.21863902 0.06266954 -0.033971786
0001c0 88 c0 ce 3d c2 9d b4 3d 77 af d5 3b fd 12 fb 3d
       0.10095316 0.088191524 0.006521161 0.12259481
0001d0 e2 5a 1b be 11 2b 18 be 20 1f 1b be 61 6d 0a be
       -0.15171388 -0.14860179 -0.15148592 -0.13518287
0001e0 20 8e 0a be 3a b7 08 3e 00 5c 36 bb 21 b3 e7 bd
       -0.13530779 0.13351145 -0.0027825832 -0.11313463
0001f0 0d 2e 97 bd 07 22 08 3e c9 45 c4 3d bb dc be 3d
       -0.0738183 0.1329423 0.09583623 0.09319445
000200 37 2c 41 be 8f c3 22 be d4 75 c8 bc eb 6a 15 be
       -0.18864523 -0.15894912 -0.024470247 -0.14591567
000210 d0 28 68 bd b0 34 05 3c 05 02 a6 bb 89 b5 bc 3d
       -0.056679547 0.008130237 -0.0050661587 0.092143126
000220 2a 53 d0 bd 99 33 0d bd 44 ca 37 be 18 ad 25 bd
       -0.10172112 -0.034473035 -0.17948252 -0.04044828
000230 e4 e1 d3 3d 25 9b cd 3d 6d 85 9c 3d d7 4d 41 3d
       0.103458196 0.10039357 0.076426364 0.047193374
000240 72 60 29 3d 04 52 28 3e d3 fd 55 bd 1f 86 44 be
       0.041351743 0.16437536 -0.05224402 -0.19191788
000250 d5 6b fd 3c 9b d4 d2 bc 5d 21 c2 bd 7f c9 f7 3d
       0.030935207 -0.025736144 -0.0947902 0.12098979
000260 12 6d 89 bd 25 47 60 3c 53 22 05 3c 7a c7 0b 3e
       -0.06710257 0.013688837 0.008125859 0.13650313
000270 80 80 fe 3a 94 8f d4 3d ba 0e 33 be f6 e7 9f 3d
       0.0019416958 0.10378948 -0.17486086 0.07807915
000280 ee 51 ea 3c 84 d9 0c bd a6 9c 3d bd 51 b7 94 3d
       0.02860352 -0.034387127 -0.04629197 0.07261527
000290 a7 67 a8 bd 8b a5 62 3e a3 4f d4 bc 9d 88 96 3d
       -0.08222895 0.22133462 -0.02591688 0.07350276
0002a0 76 c0 57 3c 75 96 9a 3d b9 e3 4a be e0 33 e3 bd
       0.013168445 0.07548229 -0.19813432 -0.11093879
0002b0 aa f5 70 3d 35 01 f3 3d 7c 6e 31 be 4f 34 fa 3d
       0.058828034 0.118654646 -0.17327303 0.12217008
0002c0 09 9a ec bd fd db d4 bd ae 41 43 3e 3b 84 25 be
       -0.115528174 -0.10393522 0.19068024 -0.16163723
0002d0 74 3a c2 3d 84 54 99 3d 83 85 a7 3d 48 b7 a9 ba
       0.09483805 0.07486823 0.08179762 -0.0012948299
0002e0 76 e2 36 3e 6e 74 e9 bd 68 0d 7e 3d 4d f3 97 bd
       0.17859825 -0.1139916 0.062024504 -0.07419453
0002f0 2c e8 17 3e 75 1e eb bd ea 5d ef bd 86 0e 15 bc
       0.1483466 -0.114804186 -0.116878346 -0.009097701
000300 aa 7a 0e 3e aa a1 ce 3d 21 95 6f bc 3c 0d 0d bd
       0.1391398 0.10089429 -0.014622957 -0.03443645
000310 24 fb 44 3e e4 7c 2c 3d 83 f2 32 bd 98 e3 19 3e
       0.19236428 0.042111292 -0.04368831 0.15028226
000320 41 fe 39 3d b6 ef 27 3d 74 56 5a bd 66 11 16 bd
       0.04540849 0.04100009 -0.053305104 -0.036637686
000330 8c d1 d3 bd 52 dd 1b bd 32 a4 0b be 17 6f d5 3d
       -0.10342702 -0.038052864 -0.13636854 0.10421579
000340 4f 19 cd 3d 42 6d 45 3e c5 c8 e9 bb f6 5d 41 bd
       0.10014593 0.1927996 -0.0071345293 -0.04720875
000350 e9 c5 21 be 3e 76 04 3e 3b 01 1c 3e 4c 54 cb bc
       -0.15798153 0.12935731 0.15234844 -0.02482047
000360 9b 2f 0d be 4c 45 9e 3c c7 61 6a 3d f7 38 2c 3d
       -0.13787691 0.019320153 0.057222154 0.042046513
000370 38 8c 6d 3d 69 2e 2c 3e 7b c7 47 be b4 60 37 bb
       0.05799505 0.16814579 -0.1950969 -0.0027981224
000380 c0 5b e2 bc e9 45 e6 bd ba 3f 05 be 00 e4 56 39
       -0.02763164 -0.11243803 -0.13012591 0.00020493567
000390 da b9 9c 3b 48 a4 bf 3d 63 a9 1a be 97 46 b4 bd
       0.0047828974 0.09357506 -0.15103678 -0.088025264
0003a0 98 c4 20 be 30 20 41 3e 2d 0d 40 3e e4 47 54 bd
       -0.15699995 0.18859935 0.18755026 -0.051826373
0003b0 90 f7 1b 3e 1e 6b 03 3e a5 5b 06 3e fd da 97 3c
       0.15231156 0.1283383 0.13120897 0.018537039
0003c0 c2 b1 08 be dd bd 17 be ad 82 ac 3c f2 c3 92 3c
       -0.13349059 -0.14818521 0.021058405 0.0179157
0003d0 9e 53 4f 3d f3 0c ed bc bd 1e 02 be c0 e9 16 bc
       0.050616853 -0.028936839 -0.12707038 -0.009211004
0003e0 ab 79 f9 3d e1 0c 0b 3e fc f4 1d bd e6 31 33 be
       0.121814094 0.13579132 -0.038563713 -0.17499503
0003f0 7f 2b 06 be 18 7e a2 3d 08 ca 4e bd c6 37 4e 3d
       -0.1310253 0.07934207 -0.05048564 0.05034616

layer_3.bias f4 [36]
000000 22 c6 21 be b4 2b 39 bd 5a c8 45 3d 6e 92 28 3d
       -0.15798238 -0.045207694 0.048286773 0.04115527
000010 ca ef 9e 3d 4d 17 4c 3e 32 fc 0b 3d bd 66 b5 bd
       0.0776058 0.19930764 0.03417606 -0.088574864
000020 03 a1 73 bb df 8a 2a be f3 7e 07 3e 72 a2 11 bd
       -0.0037174828 -0.16654538 0.13232021 -0.03555531
000030 4f ae 1b be e2 f3 70 bd 19 51 9c 3d 59 e7 a8 bd
       -0.15203212 -0.058826335 0.07632656 -0.08247251
000040 95 50 a4 3d 02 c8 87 3c 77 b2 c9 bc f4 9c fa 3d
       0.08023182 0.016574863 -0.024621231 0.12236968
000050 22 2c d8 3d 6a 43 67 bd 5f a2 0b 3e 74 37 0f be
       0.10555293 -0.056460775 0.13636158 -0.13985997
000060 f0 67 7b bd 14 59 89 bd e8 f6 33 3e 77 ba 8a bd
       -0.06137842 -0.067064434 0.17574656 -0.067738466
000070 94 50 37 3e fe e8 c7 3d a4 e0 9d bd dd 0c f6 3d
       0.17901832 0.097612366 -0.077088624 0.12014172
000080 a0 89 ef 3d ab 13 f0 3d 91 01 25 3e d0 4c 25 bd
       0.11696172 0.11722501 0.16113879 -0.040356457

action.weight f4 [36, 36]
000000 c0 c6 11 3d 0e ed a7 3d 79 d0 3d 3c 4d fc ab 3d
       0.035589933 0.081995115 0.011585348 0.08397732
000010 2b bb c7 bd 8c fe 01 bd 56 da 18 be b5 9f e1 bc
       -0.09752496 -0.031736895 -0.14927039 -0.027541975
000020 3a b9 ec 3d a5 5c 00 3e 7b 50 bb 3d dc c2 b3 3d
       0.11558767 0.12535341 0.0914621 0.08777401
000030 ff 57 2b 3d 8c 32 13 bd e7 d0 53 bc 4c b8 40 bd
       0.041831966 -0.035936877 -0.012928224 -0.04705076
000040 ed 1c ca 3d 29 0d 57 be 92 b8 33 3d b1 09 d8 bc
       0.098687984 -0.21001114 0.04387719 -0.026371809
000050 12 6a 3b bd 58 a0 23 be 9b c4 d5 3d a0 06 70 bd
       -0.045755453 -0.15979135 0.1043789 -0.058600068
000060 c1 b0 7d 3c 80 b4 64 bd b3 50 be 3d cd 54 92 3d
       0.015484036 -0.0558362 0.09292736 0.07145081
000070 fd bd 2c 3c a8 07 ad 3b ca 25 f5 3d f5 c4 11 bc
       0.010543344 0.0052804537 0.11970098 -0.008897056
000080 4d db 4c be 98 a7 82 bd b9 28 62 bd 43 bf 32 be
       -0.20005532 -0.06379622 -0.055214617 -0.17455773
000090 2a b3 cd 3d 2d 56 ca bd 7b 6d cf bd b7 e1 55 3d
       0.100439385 -0.09879718 -0.101283036 0.05221721
0000a0 43 2f 4e bd 1d a0 eb bd 6f 05 05 be 89 ff 6f bc
       -0.05033804 -0.115051486 -0.12990354 -0.014648327
0000b0 48 25 05 3e 30 79 4c 3d 55 1a e2 bd d9 64 64 3d
       0.13002503 0.04992026 -0.11040179 0.05576024
0000c0 a7 e9 fe bc c8 e5 e6 bc 3b 52 44 3d 2b b3 84 bd
       -0.031117273 -0.02818574 0.047929984 -0.06479486
0000d0 5a 6b 97 3d ef 4a 05 be be 79 e3 3d e7 1f d3 bd
       0.073935226 -0.13016866 0.11107205 -0.10308819
0000e0 67 dd 64 bc 31 0b 14 3e cd 79 66 3d 00 18 58 3d
       -0.013968802 0.14457394 0.056268502 0.052757263
0000f0 cd db fe bd 80 63 c7 bc 5c f4 63 bb 0c 8f 0a 3e
       -0.124442674 -0.024339437 -0.00347831 0.1353113
000100 ed 88 0f 3e ff 8a 20 3e 80 43 98 bc 44 44 d6 3c
       0.14017077 0.15678023 -0.018586874 0.026155598
000110 12 a3 2f bd 8d 46 a8 3d 04 95 78 bc bc 8b 3f 3e
       -0.042880125 0.082165815 -0.015172247 0.18705648
000120 d5 0f 05 3e 4b ca d1 bd 98 19 5f bd 40 8d f2 bc
       0.1299432 -0.102436624 -0.054467767 -0.029608369
000130 4e a9 43 bd 78 7a 37 be 10 e3 dc bd 8b dc b7 3c
       -0.047768883 -0.17917812 -0.10785496 0.02244403
000140 58 0a 67 3d ee 61 cf bd 48 a9 68 bd 16 ac 06 be
       0.05640635 -0.101261005 -0.056802064 -0.13151583
000150 21 7a 39 be f8 30 06 be eb 21 ba bc d0 6e 5c 3d
       -0.18112995 -0.13104618 -0.022721251 0.053816617
000160 e3 f9 eb bc 35 c8 32 bd 65 50 0e be 58 6d 8f 3a
       -0.028805679 -0.043647964 -0.13897856 0.0010942621
000170 6d 63 48 3d 48 e1 96 3c f0 9a bb bd 46 43 86 bd
       0.048922945 0.01841797 -0.09160411 -0.065558
000180 9f ee f1 3d b8 0a ec bd cb 7f 6e be d3 d3 bf 3d
       0.118130915 -0.11525482 -0.23290937 0.09366574
000190 e3 8f e8 bd 12 cb d6 bc 83 ec 96 bd 3e 48 5b bb
       -0.11355569 -0.026219878 -0.0736933 -0.0033459808
0001a0 4c f4 69 be 9e 95 80 3b 3f be 81 bd 63 a1 97 3d
       -0.22847098 0.0039240858 -0.06335115 0.07403829
0001b0 e0 22 99 bc 12 69 53 3e c8 cc 04 3e 6a 10 1e 3d
       -0.018693388 0.2064555 0.12968743 0.038589872
0001c0 2e 15 9d 3d ba c5 b0 bb c4 12 4a 3c 72 16 5a 3d
       0.07670055 -0.0053946646 0.012333576 0.05324406
0001d0 5d 77 7f bb a0 2a 81 3d c2 f2 6f 3d 01 5b 3e 3e
       -0.0038981058 0.06306958 0.05858112 0.18589403
0001e0 12 4f 8e 3c b8 bf b8 3c 6c 2f d9 3d 60 6a 8d 3d
       0.017371688 0.022552356 0.10604748 0.06905055
0001f0 62 bb 06 be 81 84 d7 bd 71 5a a7 bd 1f dc 1c be
       -0.13157418 -0.1052332 -0.08171547 -0.15318345
000200 36 5f 17 3e 5e 79 f1 3d c0 f0 c6 3d a2 db ba 3d
       0.14782414 0.11790727 0.09713888 0.09123923
000210 8c 38 1c 3e eb 88 b5 bd 3f cb ae bd 43 e9 31 bc
       0.15255946 -0.08864006 -0.0853486 -0.010858837
000220 04 65 9f bd e7 ff cb bd 83 6c 24 3e 20 aa 95 3d
       -0.07782939 -0.09960919 0.16057019 0.073078394
000230 89 a9 04 3d c2 09 31 bc fc 9d 37 3d 1d 1f 05 be
       0.032388244 -0.010805549 0.0448284 -0.1300015
000240 82 7a 0f be bd de c6 3d 76 03 41 bc 6c 77 a5 bd
       -0.14011577 0.09710453 -0.01178061 -0.080794185
000250 aa cb 14 3d fa 98 5b 3d ac 4f 3e 3b 3c e3 23 3e
       0.03632704 0.053612687 0.0029039187 0.16004652
000260 da 27 2f 3e e2 a6 0d be f5 63 93 3d ea 58 00 be
       0.17105046 -0.13833192 0.071968 -0.12533918
000270 d0 96 34 bb 60 48 ab bb e7 e5 a6 bd 0e f5 ba bd
       -0.0027555712 -0.0052271336 -0.08149319 -0.09128772
000280 23 ff 9b 3d e4 d3 66 3d 37 e8 00 3e 28 2c dc 3d
       0.07617023 0.05635442 0.12588583 0.1075061
000290 b2 3d 9b 3c 5a eb c6 3d a3 87 11 be 70 cb fb bd
       0.018950317 0.097128585 -0.14211898 -0.12294662
0002a0 8b 72 f7 bd 50 65 3e bc c1 c0 b2 bd 31 00 ec 3c
       -0.12082394 -0.0116208345 -0.08728171 0.028808685
0002b0 2e d3 5f 3d f0 4b d6 bc 2c e2 1e be 4e 1a 7b 3d
       0.054644756 -0.026159257 -0.15515965 0.061304383
0002c0 34 30 16 3e 0e 77 96 3c b9 39 ed 3d 44 9f 39 3e
       0.14666826 0.018367317 0.11583275 0.18127161
0002d0 00 c1 d3 bd 96 34 55 3e 16 74 7d 3d 26 e9 9a 3c
       -0.10339546 0.20820841 0.061878286 0.018910002
0002e0 2b 2a a5 3d 6f 59 a8 3d 99 01 07 3e 3d dd d3 3c
       0.080646835 0.08220183 0.13184203 0.02586233
0002f0 d7 8b 1b be 4b 20 c9 bd 9c ef dd 3d 8d d4 17 3e
       -0.15190063 -0.098206125 0.108367175 0.14827175
000300 f0 c6 7f 3d 29 e2 0e 3e 70 c1 00 3d 65 af 1c 3e
       0.06244558 0.13953461 0.031434476 0.15301283
000310 8a ef 62 3d 0d 5c b2 bd 08 fa 02 bd c1 e9 12 be
       0.055404224 -0.087089635 -0.03197673 -0.14346983
000320 08 65 16 be 18 b7 c5 bd 6f f3 e7 3d 98 15 c0 bc
       -0.14686978 -0.09654063 0.11325728 -0.023447797
000330 f0 ab a1 bd 38 40 9a 3c 50 cd df 3d f0 74 cb bc
       -0.078941226 0.01882945 0.10927832 -0.024836034
000340 ae 04 66 bd 6d fd 01 be 4a 53 f5 3d d0 0e 2a be
       -0.056156807 -0.1269433 0.11978777 -0.16607213
000350 8c ea 91 bd cb ef 29 3e 96 bd e6 bd 94 78 bf bc
       -0.071248144 0.1659538 -0.112666294 -0.023372926
000360 74 0d 6a 3d 20 58 32 bd ed 51 de bd 93 01 d9 bd
       0.057141736 -0.043541074 -0.1085547 -0.105960034
000370 1e 69 30 be c1 02 cd 3d cb 58 d6 bd e1 71 3d be
       -0.17227599 0.10010291 -0.10466155 -0.18500473
000380 e4 0b 2d bc c6 90 99 3d 3c 2b c2 3d 42 d3 00 be
       -0.010561917 0.074983165 0.094809026 -0.12580588
000390 0d 0b 10 3e c0 38 b5 bc c1 fc f3 3d 80 78 8d 3b
       0.14066716 -0.022121787 0.11913443 0.0043173432
0003a0 f4 30 96 3d 44 8d 44 be 74 7f 0f 3e b6 aa 30 bc
       0.07333556 -0.19194514 0.14013463 -0.010782888
0003b0 8e 78 4d bd e8 e7 90 3d 26 91 51 bc d2 a5 9e 3d
       -0.050163798 0.070754826 -0.012790954 0.077464715
0003c0 d8 7e 65 bb 53 91 92 bd db 8a 21 bc 81 cd af bd
       -0.0035018232 -0.07156625 -0.009859766 -0.08584119
0003d0 a5 21 13 3c d4 7c 84 3d 88 53 9d 3d 83 27 fe 3d
       0.008980189 0.064691216 0.07681948 0.1240988
0003e0 a9 29 0e be 30 83 d4 bd 89 00 03 be 2c 6f 26 3d
       -0.1388308 -0.103765845 -0.12793173 0.040633366
0003f0 6a 90 be 3d 68 ca a4 3d 2e 93 20 bd 67 92 2e 3e
       0.093048885 0.080464184 -0.03920286 0.17048036

action.bias f4 [36]
000000 50 6e 2b 3d 02 77 aa bb da c2 10 bc df b2 81 3d
       0.04185325 -0.005202175 -0.008835519 0.06332945
000010 a8 f2 90 bd 0a 86 96 3c 86 40 43 bd 9e 21 85 3d
       -0.07077533 0.018374462 -0.047668956 0.065005526
000020 43 ea 9d 3d b2 a3 07 3e e4 4b f4 3d 08 fa 6c bb
       0.077106975 0.13246039 0.119285375 -0.0036159772
000030 e4 30 76 3d 28 bd 97 3d 1a e9 30 3e 27 a9 88 3d
       0.06010522 0.074091256 0.17276421 0.06672888
000040 64 35 d7 bc 40 b7 1b 3e 10 69 26 3c 1e 28 12 be
       -0.026270576 0.15206623 0.010156885 -0.14273116
000050 99 dd 1a be fd 5b bb bd aa d0 5c 3d 77 55 63 be
       -0.15123595 -0.09148405 0.053909935 -0.22200571
000060 73 3d db 3d ab 28 ae 3d 8b c2 2f be 40 7f 49 3a
       0.1070508 0.085038505 -0.17164056 0.0007686503
000070 87 7a ca bd 8e 23 c2 3d f4 71 0c be db b5 f0 bd
       -0.098866515 0.09479438 -0.13715345 -0.11753436
000080 c8 24 b3 3d ca f4 a7 3c 7c 46 ae 3c 83 2d c0 3d
       0.0874725 0.020502467 0.021273844 0.09383681
