st_dev_model.pt (torch, 21583 bytes, 8 tensors)

layer_1.weight f4 [33, 30]
000000 e2 9d bb 3d dd 2a ed 3d 6b 45 e2 3d b2 c7 0c bc
       0.09160973 0.11580441 0.11048397 -0.008592533
000010 fa 17 88 bc 9e f0 1b be e2 45 d9 bd a3 07 89 3d
       -0.016612995 -0.15228507 -0.10609032 0.0669091
000020 a8 f5 99 bc 4a 0b d1 3d ed 44 e9 3d 87 31 1c be
       -0.018793896 0.10207231 0.113901 -0.15253268
000030 f4 14 06 3e f3 d5 32 be 7b c8 90 3d 7f 0f 28 3e
       0.1309393 -0.17464428 0.070694886 0.16412161
000040 a2 c9 c2 bc db fd 10 bd 82 4d 6b bd 1b a0 11 bc
       -0.023777787 -0.035398345 -0.057446964 -0.00888827
000050 9f f2 09 3e 32 ab 02 be 82 ad f8 bd bf 46 1e be
       0.13471459 -0.12760618 -0.12142469 -0.15456675
000060 06 6f dc bd e7 9c ab bd b8 a1 60 bd c4 3c f2 3b
       -0.107633635 -0.08379536 -0.054841727 0.0073924977
000070 9f e9 41 3c f4 cd 9a 3b 6e ea 35 bd a7 e9 04 3e
       0.011835485 0.0047242586 -0.044413023 0.12979756
000080 b3 58 14 3e f2 f7 da bd 99 4a d3 3d 9e 36 0f be
       0.14486961 -0.10691823 0.10316963 -0.13985679
000090 49 32 0d be f0 06 0d 3e 47 2a 8a 3b da ad 86 3c
       -0.13788714 0.13772178 0.0042164656 0.01644032
0000a0 6a 97 6c 3d dc 91 d0 bd c0 ff 5f bd 61 47 30 3e
       0.057761587 -0.101840705 -0.05468726 0.17214729
0000b0 55 ab 1d be e3 75 bc bd 36 26 38 be be 89 2e 3e
       -0.15397389 -0.092021726 -0.17983326 0.17044732
0000c0 7e c9 09 bd a4 df d3 3d c1 45 21 be 66 73 87 3d
       -0.033639424 0.103453904 -0.15749265 0.066138074
0000d0 69 08 94 3d 80 85 05 3e 6b 59 41 3d ab 40 28 3e
       0.072281666 0.13039207 0.047204416 0.16430919
0000e0 eb 83 f6 3d 64 6b c7 bc 59 69 9e 3d 01 43 8c bd
       0.1203688 -0.0243432 0.07734937 -0.068487175
0000f0 f3 dd a1 3c 89 52 04 3e ae 07 a5 bc 20 34 9a 3c
       0.019759154 0.1292211 -0.020145264 0.018823683
000100 fd 93 e9 bd dd a2 d2 bd 02 19 dd 3c 05 0a 21 be
       -0.1140518 -0.1028497 0.026989464 -0.15726478
000110 e9 af e2 bd 0b 75 8a bd 20 bc 01 be 84 e1 46 3d
       -0.110687084 -0.067606054 -0.1266942 0.048554912
000120 84 43 13 3c e3 6c b5 3d e5 fd 31 be 8d 84 a4 bd
       0.008988265 0.08858659 -0.1738201 -0.080330946
000130 82 d2 cf 3d da 82 1e bd 27 02 39 be 03 34 2c bc
       0.10147573 -0.03869901 -0.18067227 -0.010510447
000140 22 19 40 be 8e cf 28 3d 5e fd 14 be 91 4c e6 3d
       -0.18759587 0.041213565 -0.14549777 0.11245073
000150 fd 4f 32 3e f6 53 08 be 3c f8 fa bc ee 83 a4 bd
       0.17413326 -0.13313279 -0.030635945 -0.08032976
000160 5d 42 27 be a2 cd 3b 3e d3 c0 5f 3c 7d f3 00 be
       -0.1633391 0.18340161 0.013656813 -0.12592883
000170 90 a1 24 bc c5 59 86 3d 4d 64 b6 bb d7 a6 05 be
       -0.010048285 0.06560091 -0.005566156 -0.13051926
000180 0b 43 a1 3d dd da f8 3d 4f b6 20 be a2 02 a9 bc
       0.078741156 0.1215112 -0.15694545 -0.020631138
000190 9b 00 7d 3c fe 7c 94 3d c5 5f 12 bd de 75 d7 bb
       0.015442039 0.07250403 -0.035735864 -0.00657533
0001a0 fb c2 5f 3d 0c 5d 04 3e c2 8c 52 3d be fb 51 3d
       0.054629307 0.1292612 0.05140377 0.05126547
0001b0 41 3a f8 bd 4a 88 30 bd 32 1a 0a be be 96 d7 bc
       -0.12120486 -0.043098725 -0.13486555 -0.026316997
0001c0 66 35 28 be 9f fe 97 bd 9f b6 00 3e b0 bf 43 bd
       -0.1642662 -0.07421612 0.12569664 -0.04779023
0001d0 db 92 cf bd 59 8b 18 be 5b cd 3a be 3e 6c 0a 3e
       -0.10135432 -0.14896907 -0.182424 0.13517854
0001e0 fb c0 07 be 34 54 2f 3e cc 0c 17 be f8 78 3e bd
       -0.1325721 0.17121965 -0.14750975 -0.046502084
0001f0 3a a7 17 3e 98 09 1e 3e 98 3a d2 3d 51 32 da bd
       0.14809886 0.15433347 0.10265082 -0.10654128
000200 61 55 2a 3e fc e0 72 bb ee 6b 8b bd ca 95 3f be
       0.16634132 -0.003706037 -0.06807695 -0.18709484
000210 64 fb a8 3c 1b 09 b4 3d 19 64 f1 3d 53 a4 a2 3d
       0.020627685 0.08790799 0.1178667 0.079414986
000220 b6 67 2a bc 9f 0e 2c be 36 57 f3 bb bc f8 dd bc
       -0.010400703 -0.16802453 -0.007426168 -0.027096145
000230 49 aa ee 3d 7d d8 19 3e 67 89 e9 3d a1 7e fa bd
       0.11653573 0.1502399 0.114031605 -0.12231184
000240 cb bd b4 3c 7b 65 d5 bd b0 96 18 be b1 21 cb 3d
       0.022063157 -0.104197465 -0.14901233 0.099185355
000250 7e 2c a2 3c 7e 48 d6 3d 43 36 8a 3d 05 c2 a6 bd
       0.019796606 0.104630455 0.06748631 -0.08142475
000260 4b 9c 8e 3d 43 82 aa 3d ff 3a cb 3d d6 6f 7d 3d
       0.06963404 0.08325627 0.09923362 0.061874233
000270 5b 8e c7 bd 82 47 a7 3b 88 95 51 3d 8c 4a 65 3d
       -0.09743949 0.00510496 0.051167995 0.055979297
000280 3a 99 52 3d 17 52 7e 3c 80 c0 e5 bc 4c cb 7b 3c
       0.05141566 0.015522501 -0.028045893 0.015368294
000290 90 46 0b be a4 4c 1b 3d 14 85 2f 3e 00 ea a0 b9
       -0.13601136 0.037914887 0.17140609 -0.00030691922
0002a0 cb 11 32 be 2d a7 ff 3d 64 ca 32 be 0c 34 c7 3d
       -0.173896 0.12483058 -0.17460018 0.09726724
0002b0 73 b3 0c be 57 da f6 3d 84 8b c4 3c 15 2b dc bd
       -0.1374033 0.12053364 0.023992307 -0.10750405
0002c0 15 99 03 bd 08 00 31 3e 30 31 11 3e 2e 34 9d 3d
       -0.032128412 0.17285168 0.1417892 0.07675968
0002d0 30 39 d9 3d e6 4f 1d 3e bd 25 3f 3e e2 f0 c7 bb
       0.10606611 0.1536251 0.1866674 -0.0061017135
0002e0 9f 8c 1a 3d c7 01 10 3e d0 0c 37 be c5 bc 0b 3e
       0.037731763 0.14063178 -0.17875981 0.13646229
0002f0 af 0b b0 3d 2a 80 24 3e 71 42 15 3e 05 0e 30 be
       0.085959785 0.16064516 0.14576127 -0.17192848
000300 27 1b 1b 3e 94 72 d5 3b 9a f8 c1 bd 4a 9a 72 3d
       0.15147077 0.006513903 -0.09471245 0.059229173
000310 ff 4f 90 3d cf 88 28 be 4a ff 97 3d dd a5 1b bc
       0.07046508 -0.16458438 0.074217394 -0.009499994
000320 79 02 9b 3d 4f ee a7 3c cb 5a 8c bd 92 a9 04 3e
       0.07568831 0.020499377 -0.06853255 0.12955311
000330 78 fe 15 bd 0d cd 05 be fe fa 94 3d ef 1a 30 3d
       -0.036619633 -0.13066502 0.072744355 0.042994436
000340 6c 1c e8 3d 25 fd f9 3d 18 f0 72 bd 4f 74 28 be
       0.11333546 0.122064866 -0.059311002 -0.16450618
000350 ea 82 02 3e 2e ae 22 3d 66 fc e7 3b 1f 5e 2c 3e
       0.12745252 0.039716892 0.007079649 0.1683278
000360 31 a7 72 3c 68 a8 f1 3c 63 7a 33 be 78 72 13 3e
       0.014810369 0.029499248 -0.17527156 0.14399135
000370 1b c3 3d be 3b 7e ee bd 78 25 94 3d 05 01 7e 3c
       -0.18531458 -0.1164517 0.07233709 0.015503173
000380 c0 f9 ce bd c0 18 28 be 93 e4 c5 bd 06 86 25 3d
       -0.1010623 -0.16415691 -0.09662738 0.040411018
000390 9f 7b b5 3d c2 1a 91 3c 0c f4 29 be db 95 8a 3d
       0.088614695 0.017712954 -0.16597003 0.06766864
0003a0 bb 66 ec 3d e7 64 8f bd f6 6d db bd da 76 fa bc
       0.11543032 -0.070016675 -0.10714333 -0.030574251
0003b0 23 35 14 3d 04 84 52 3d 00 ef bf 3d 11 a5 3d 3d
       0.036183488 0.05139543 0.093717575 0.046299998
0003c0 7b f2 ad bc 60 8e 65 bd b5 d0 26 3e 24 09 3b be
       -0.021233788 -0.056043983 0.16290553 -0.18265206
0003d0 1b 0e 20 3e d9 b7 05 3e d9 ab 33 3e 72 98 6d 3d
       0.15630381 0.13058414 0.17546023 0.05800671
0003e0 b6 e4 a6 3d 40 f2 ef 39 67 b8 92 3d 24 51 1c 3e
       0.08149092 0.00045766123 0.07164078 0.15265328
0003f0 66 21 d6 bc 5d 3b 6a bd 5a cd 94 bd 26 85 45 bd
       -0.026138972 -0.05718552 -0.0726573 -0.048222683

layer_1.bias f4 [33]
000000 1d 45 d0 3d 40 7e 0d 3e c8 96 de ba 78 2d 17 be
       0.10169432 0.13817692 -0.0016982192 -0.14763439
000010 ba a8 42 3d 51 51 07 bd 9a 4d 08 be f8 32 88 3c
       0.04752419 -0.033036534 -0.13310853 0.016625866
000020 db df cb 3d 4e db ed 3d af e5 5d bc c8 85 24 bd
       0.099548064 0.11614095 -0.01354353 -0.040166646
000030 4c a5 76 3d 02 3d e7 bd 03 0f 1d be 73 f2 b7 bd
       0.060216233 -0.11290933 -0.15337758 -0.089817904
000040 2a fa ca 3d cd 71 ff 3d 27 bc 1c 3c 64 ae 7e 3d
       0.09910996 0.12472878 0.009566343 0.06217803
000050 6f ec 96 bd e2 b3 90 bd c0 fb 67 39 eb 93 e2 bd
       -0.07369315 -0.0706556 0.00022123661 -0.11063369
000060 26 1f 06 3e 34 d6 22 be 27 5b 91 3d 78 82 a2 bc
       0.1309782 -0.15902025 0.07097464 -0.019837603
000070 ce 24 3f 3d 0a 93 dc 3d a5 6a 19 3e 5c d5 f9 bd
       0.04666596 0.10770233 0.14982088 -0.12198898
000080 4b 34 da 3d
       0.10654505

layer_2.weight f4 [34, 33]
000000 2f b2 22 be d5 ff 06 3e 9e 55 59 3d af 96 bd 3c
       -0.15888284 0.1318353 0.053060167 0.02314314
000010 59 4e 25 3e 08 e1 3f bd 1e 09 3c 3e 54 02 1e 3d
       0.16143169 -0.046845466 0.18362853 0.03857644
000020 5a 39 83 3d 90 d0 92 3b ff 67 fe bd 71 f7 03 3e
       0.06407423 0.004480429 -0.124221794 0.1288736
000030 7c 9d d9 bd 78 f0 1a 3e bd 03 96 3d fc 6e b5 3d
       -0.10625741 0.15130794 0.07324932 0.08859059
000040 6b f6 25 be 13 e4 94 3d 76 6d dd 3d 3f 07 90 3d
       -0.16207282 0.07270064 0.10811894 0.07032632
000050 05 6a 0d 3e 9e 30 dc 3b 47 22 0e 3e 56 b7 d9 3d
       0.13809974 0.006719663 0.13880263 0.10630672
000060 3a 77 2c be 27 07 28 bd b4 c6 81 bd 27 f6 00 bd
       -0.16842356 -0.041022446 -0.06336728 -0.03148475
000070 e7 19 18 be 50 af 10 be 02 ac 0b be 5e fc 8a bd
       -0.14853631 -0.14129376 -0.13639835 -0.067864165
000080 6d 14 f3 bd ee 36 91 bd e9 bb dc 3d 35 7e 04 3d
       -0.1186913 -0.07090555 0.107780285 0.032346923
000090 ce 1b a3 3d 23 dc 3a 3e 12 ff 5b 3d 64 f9 8c bc
       0.07964288 0.18248038 0.05371005 -0.017208762
0000a0 86 bb 1b 3e 66 09 08 3c 11 7f 06 be 78 4e 2e 3d
       0.15208253 0.008303022 -0.1313441 0.042555302
0000b0 c1 c8 37 3e 9c 9d 29 be 41 f4 db bc 7c 28 96 3d
       0.17947675 -0.1656403 -0.026849868 0.073319405
0000c0 78 7e d3 bd c1 1b 3a 3e 45 3e 0c 3e b3 69 3d 3c
       -0.103268564 0.1817465 0.13695629 0.011560845
0000d0 d5 7f 80 bd 0b ca 8f bd 4e ee c5 3b a2 db 21 3e
       -0.06274382 -0.070209585 0.006040371 0.1580644
0000e0 88 ae b9 3b 44 98 04 be e2 2d 08 3e dc 66 c3 bd
       0.0056665577 -0.1294871 0.13298753 -0.09541103
0000f0 ad 03 b4 bd 96 bb 6f 3d 86 30 23 3e 89 44 d4 3d
       -0.087897636 0.058528505 0.15936479 0.103646345
000100 1e 57 13 3e 65 21 da 3c e4 0b f8 3d 4a ca 5b 3d
       0.14388701 0.026627252 0.12111643 0.053659715
000110 93 57 cc 3d 6d 14 89 bc 4b b2 c6 3d 0a 70 e6 bd
       0.09977641 -0.016733373 0.097019754 -0.112518385
000120 3d c9 0d be 28 e4 25 3d 36 77 0e 3e 7d 13 3c 3e
       -0.13846298 0.04050079 0.13912663 0.18366809
000130 bd 44 49 bd f4 07 94 bc 7c a8 fc bc 64 8d ba bd
       -0.04913782 -0.018070199 -0.030842058 -0.09108999
000140 49 02 ed bd 6a a1 8f 3d 01 1b fc bd 78 79 43 bc
       -0.115727015 0.07013209 -0.12309838 -0.011930816
000150 28 c0 f3 bd eb 81 0b be 6f 5d b9 3d d1 40 96 bd
       -0.11901885 -0.13623779 0.09051024 -0.073365815
000160 e0 81 15 3e df 69 c7 3d c6 96 b2 3c b2 a6 73 bd
       0.14600325 0.0973699 0.02180041 -0.059485145
000170 00 47 6c 3c 69 7a d6 bc 44 55 df 3d 7a 66 95 bb
       0.014421225 -0.026181417 0.10904935 -0.0045593353
000180 0a 93 bd bd f6 86 da 3c c8 8c 1f 3e 51 49 c4 bc
       -0.09256561 0.026675683 0.15581048 -0.023960741
000190 c2 92 f1 bc fd 96 23 3e a4 dd fa 3d 00 58 58 bd
       -0.029488925 0.15975566 0.12249306 -0.0528183
0001a0 44 72 2f be 59 95 e9 bd 09 29 8f bd 8c ec da 3d
       -0.17133433 -0.11405439 -0.06990249 0.10689649
0001b0 6e 86 f7 bd 15 8f 81 bc 61 a7 1f be 9a bf 2f be
       -0.12086187 -0.015815297 -0.15591194 -0.17162934
0001c0 17 53 8b 3c 04 82 30 3e 21 0a 06 be a7 6d 5e bd
       0.017007394 0.17237097 -0.13089801 -0.05430379
0001d0 dd e6 10 bd 97 12 38 bd 4d a9 41 bd f4 d7 65 bd
       -0.03537642 -0.044939604 -0.0472806 -0.056114152
0001e0 d9 99 28 be 29 c3 b2 3d 14 f9 19 be f1 ad 61 3d
       -0.16464938 0.0872863 -0.15036422 0.055097524
0001f0 3a 95 dd bd fd 64 2f bd 22 65 06 3d 50 85 8c bd
       -0.10819478 -0.04282092 0.03281129 -0.06861365
000200 04 fa fd bd cb e3 2b 3e 8e 58 40 3c 5a 6b 19 be
       -0.12401202 0.16786115 0.011739863 -0.14982358
000210 80 24 8f 3c c8 7e 00 3d 36 9a e6 bc f5 ea e1 bd
       0.01747346 0.031370908 -0.028149705 -0.110311426
000220 0c 12 9d bc f1 84 19 3d a9 e3 84 3d f8 11 da 3a
       -0.019173644 0.0374803 0.06488735 0.0016637435
000230 fe a3 5f bd dd 7c ad bd 2e fd a1 3d 04 b2 2d be
       -0.054599755 -0.084710814 0.07909618 -0.16962439
000240 c9 07 f5 bd cc 96 cd 3b ea 06 8e bd d1 72 34 be
       -0.119643755 0.00627408 -0.069349125 -0.17621924
000250 24 33 cb bd 66 51 91 3d 9f 10 d4 3d 93 15 a2 bc
       -0.09921864 0.07095604 0.10354733 -0.019785678
000260 e4 23 14 3d 3b db af bd 96 bd b1 bd 29 70 1e bd
       0.03616704 -0.08586737 -0.08678739 -0.038681183
000270 6f 40 81 bd 63 cb 7a 3c 69 29 22 be c8 0b 01 be
       -0.06311118 0.01530728 -0.15836109 -0.1260215
000280 5f d9 37 3d 62 c7 dd bd 02 31 15 bd ec 4d cd bc
       0.044885036 -0.10829045 -0.03642369 -0.02506157
000290 09 68 f8 3d 7d be 0d 3d d7 c0 ed 3d 9e fc 82 3c
       0.12129218 0.034605492 0.11609047 0.015989598
0002a0 b4 19 1b be b6 d4 c7 bd bb f6 93 bd 18 fa 27 be
       -0.15146524 -0.09757368 -0.072247945 -0.16403997
0002b0 bb bc c2 3d 36 7b 0c bd 5b 09 68 3c a7 fb f4 bd
       0.09508654 -0.03429719 0.014162387 -0.119620614
0002c0 d3 02 45 bd a8 7c 33 3e 86 5f 5c bd 9e fc 68 3c
       -0.048098397 0.17528021 -0.053802036 0.014220385
0002d0 ed 1c 9b 3d 7a 5a c9 bc d4 34 0a 3e 32 86 2b be
       0.075738765 -0.024579275 0.13496715 -0.1675041
0002e0 47 4c c2 3c 01 e3 0b 3d a3 5f a3 bd 0a 3d 75 3d
       0.023718012 0.034152035 -0.07977226 0.059872665
0002f0 e1 ef f3 3d 66 b4 24 be 13 23 c8 3d 22 4f 54 3d
       0.11910988 -0.16084442 0.09772315 0.05183328
000300 a1 28 8e bd 13 1a 1f 3e ea c2 4f 3d ed 47 db 3d
       -0.06941343 0.1553729 0.050722994 0.10707078
000310 55 f6 0b be dd 73 2c 3e fd 27 f1 3c ba d2 02 3e
       -0.13668187 0.16841073 0.029438013 0.12775698
000320 0e a8 dc 3d 5c 00 de 3d 68 68 3c be 15 47 94 3d
       0.107742414 0.10839912 -0.18399203 0.0724012
000330 b6 b4 f6 3d be d9 c4 3d b0 b1 6d 3d 64 32 34 bc
       0.120461866 0.096118435 0.058030784 -0.010998342
000340 9e 8f 83 3c a4 09 07 be 50 db d0 3d 70 a6 7a 3d
       0.016059693 -0.13187271 0.101980805 0.061193883
000350 81 f7 02 be e0 86 1a bd f5 42 da bc 29 d4 c1 3d
       -0.12789728 -0.037726283 -0.026643256 0.094642945
000360 22 9d 8f bd c3 06 f7 bd 97 42 1c be 99 2e 60 3d
       -0.070123926 -0.120618366 -0.15259777 0.05473194
000370 a2 8e 12 3e 8a d4 9a bd 6c 07 b9 3d e3 b5 ce bd
       0.14312223 -0.0756007 0.09034619 -0.10093286
000380 fe 33 6f bd d7 a5 c4 3d 80 d0 8a bc 73 13 f2 3d
       -0.058399193 0.09601944 -0.016945124 0.11820116
000390 21 57 30 be 64 5d 1c 3d 01 41 04 be cd 0e bd bb
       -0.17220737 0.038175 -0.12915422 -0.0057695867
0003a0 d8 ef 13 3e 13 7f 54 bd 30 c8 0d 3e 93 60 9e 3d
       0.14446962 -0.051879 0.13845897 0.07733264
0003b0 9f 5b a4 bc 16 50 27 be 24 01 11 be 89 06 2b bc
       -0.02006322 -0.16339144 -0.14160591 -0.01043857
0003c0 f0 85 79 3d d6 61 74 bd 48 14 14 3d 32 fe 80 bc
       0.06091875 -0.059663616 0.036152154 -0.01574621
0003d0 2c 10 19 be 98 61 d3 3d e5 19 b5 bd f9 b7 24 be
       -0.14947575 0.10321349 -0.088428296 -0.16085805
0003e0 cf 0f 8e 3d c2 de 23 be db f3 4e 3d bc 4a b3 3d
       0.06936609 -0.16002944 0.050525527 0.08754489
0003f0 22 38 03 bd d3 ba 95 bc 9e ed a5 bd 34 db fb bd
       -0.032035954 -0.018277561 -0.081019625 -0.12297669

layer_2.bias f4 [34]
000000 4d 16 c5 bd 35 34 80 3d de 6b 0d 3c d6 c5 47 3b
       -0.09623394 0.06259958 0.008631675 0.003048291
000010 89 94 90 3d b7 ba f7 bd b2 23 13 3e 35 b7 72 bd
       0.07059581 -0.1209616 0.14369085 -0.05925675
000020 fe f6 3c bd 11 3c 9a 3c e0 b0 e4 3d de 76 d1 bc
       -0.046133988 0.01882747 0.11166549 -0.025569376
000030 19 ae 06 be 6b 91 e5 bd 95 12 bb 3d 36 ac 82 bd
       -0.1315235 -0.11209377 0.091344036 -0.06380503
000040 3f d5 99 bd 71 39 1b 3e 70 16 12 bd 07 e9 23 be
       -0.075113766 0.15158631 -0.03566593 -0.16006862
000050 20 9f ee 3c 77 75 ca 3d fa 5c c3 3b a4 fe 2c 3d
       0.029128611 0.09885686 0.0059620114 0.04223503
000060 28 76 b1 3a 50 25 a4 3b 71 16 c5 bd 22 58 0b be
       0.0013539242 0.005009331 -0.09623421 -0.13607839
000070 ce 50 a5 bd 4d cd 1c be 64 4b 2e 3d c0 02 09 3d
       -0.08072053 -0.15312691 0.042552367 0.03344989
000080 a2 e4 20 3e 9a ec 04 be
       0.15712216 -0.12980881

layer_3.weight f4 [36, 34]
000000 b7 35 1e 3e 2d e8 bd bc b5 f1 84 bd ce 94 7b 3c
       0.15450178 -0.023182 -0.064914145 0.015355302
000010 a9 2b 1e 3e e4 1e 91 3d a4 c3 fd 3b 60 e1 0d bd
       0.15446343 0.0708597 0.0077442694 -0.034638762
000020 45 3d f1 3c 28 36 c6 3b dc 05 cb bc a4 9a a7 bc
       0.02944816 0.0060489364 -0.024783067 -0.02045948
000030 61 7b 8f 3c 4e 36 aa 3d 33 13 f8 3d b6 7e 0c be
       0.017514886 0.08311139 0.12113037 -0.13720211
000040 44 5c 7f bc a2 26 0e bd 29 a5 0d be b9 02 88 3d
       -0.015585963 -0.034704812 -0.13832535 0.06641144
000050 ad 10 e6 3d 72 20 30 3e 08 84 e1 3a eb ee 94 3d
       0.112336494 0.17199877 0.0017205486 0.072721325
000060 c6 35 91 3c 0d 01 c5 3d c0 2c c9 bc 51 5d 0c 3e
       0.017725836 0.09619341 -0.024557471 0.13707472
000070 34 72 08 be fb 04 cd bd 6a 7f 61 bc 1e 24 54 bd
       -0.13324815 -0.100107156 -0.013763288 -0.051792257
000080 6c 1e 5e 3d 42 80 9e 3c 32 30 f1 3d cf b5 43 3d
       0.05422823 0.019348267 0.11776771 0.047780808
000090 2f f8 00 be 1f 56 15 3c 07 dd b4 bd 57 7b 75 3c
       -0.12594675 0.009114771 -0.0883122 0.01498302
0000a0 97 bb 4b bd ef 5f e9 3d 82 ba 4d 3d 95 70 f8 3d
       -0.049739446 0.11395251 0.050226696 0.12130848
0000b0 a1 37 2d be ef 9d 9e bc 3d 18 de bb 6c 0c cf bc
       -0.16915752 -0.019362418 -0.006777792 -0.025274478
0000c0 7e a4 01 3c 1a b2 73 bd e2 18 68 bc 9c 62 05 be
       0.007912753 -0.059496023 -0.014166089 -0.13025898
0000d0 c2 84 0a 3e ba 25 8e 3c 97 bf 6f bd 99 65 82 3c
       0.13527206 0.017351974 -0.058532324 0.015917586
0000e0 fc 10 d3 3d 1e 71 54 3c bf 63 69 bd af 0e 3e 3d
       0.10305974 0.012966422 -0.05697989 0.046400722
0000f0 4b c3 93 3d 49 dd 11 3d 9e 72 12 3b 2e 96 2e be
       0.072149836 0.035611425 0.002234615 -0.17049477
000100 96 8c 00 bd 8f 16 fb 3d 33 78 1d bd f3 c2 34 bc
       -0.031384073 0.12260162 -0.03844471 -0.011032808
000110 c9 af 25 be 77 5a 05 bd e2 3a 12 3c cf 30 90 3d
       -0.16180338 -0.032556977 0.008925172 0.070405595
000120 94 77 2b 3e 37 61 1d 3e 63 a8 0f be 90 90 83 bc
       0.16744834 0.15369116 -0.14029078 -0.016060144
000130 eb 42 4f 3c 13 f9 19 3e 8c c2 57 3b 18 8c b5 bd
       0.012650232 0.1503642 0.0032922355 -0.088646114
000140 dd d0 80 3c b8 17 24 bc 29 d7 0d bd ba 99 f2 bd
       0.015724594 -0.010015421 -0.03462902 -0.11845727
000150 91 1c 11 3c 94 e3 a2 3d 3b 2e 9b bc c4 79 0f 3c
       0.008856908 0.07953563 -0.018942943 0.0087570585
000160 8d 8c 45 3d 32 7e af bc a6 bd 28 be 2d 36 19 be
       0.048229743 -0.02142248 -0.16478595 -0.14962073
000170 c4 13 88 3d 30 8f a1 bd fb f0 e0 3c bf 70 c9 bd
       0.06644395 -0.07888639 0.027458658 -0.09835958
000180 7e f8 ca bd 71 2d 4b 3d de 3d a4 3d 2a 8a a2 3d
       -0.099106774 0.049603883 0.08019613 0.07936509
000190 38 97 35 bd 72 d2 9c 3d 41 6e c0 bd d4 6d 25 3e
       -0.044333667 0.07657327 -0.09396029 0.16155177
0001a0 2d c9 e7 bd 30 68 47 3d ab 98 f5 bd 92 db 99 3c
       -0.11317668 0.048683345 -0.1199201 0.018781457
0001b0 73 07 88 3d de 2e 0a be 87 4f fe bd b5 c7 df bd
       0.06642046 -0.13494441 -0.124175124 -0.10926763
0001c0 01 31 21 be f5 fb 0a 3e 5e 5d 6f 3d 84 ee 0d 3e
       -0.1574135 0.13572676 0.05843865 0.13860518
0001d0 8d 16 2f 3e c8 89 d2 3c 91 69 05 3e 6d 2b f1 3d
       0.17098446 0.025700465 0.13028552 0.11775861
0001e0 49 c0 f2 3c b1 b1 d3 bd c2 03 8d bd 9a e1 a3 3d
       0.029632704 -0.10336626 -0.06885482 0.080020145
0001f0 71 d3 fa 3d 5e d8 0f be fe 18 d2 bd 08 ff d3 bc
       0.122473605 -0.14047381 -0.10258673 -0.025878444
000200 e5 71 04 3e 1a e9 30 bd f6 1d 35 3e 85 52 7b bd
       0.12934072 -0.043191053 0.1768721 -0.061357994
000210 95 d7 0b 3e 33 a4 f9 3d c2 a2 24 3d 8c f8 18 be
       0.13656457 0.12189522 0.04019428 -0.14938563
000220 50 b7 89 bd 9e 87 04 3c cf 8b 18 3e 36 92 4c bc
       -0.06724417 0.008088974 0.14897083 -0.012486031
000230 bb e0 98 3d c4 fd da bc c9 7f e7 bd c0 70 12 be
       0.07464739 -0.026732333 -0.1130367 -0.14300823
000240 c0 d3 34 bd 93 11 b8 bc 01 5d 1d 3e 5a 68 58 3c
       -0.044147253 -0.022469318 0.1536751 0.013208473
000250 a2 9c 9f 3d ee a4 bd bd 31 53 cb 3d 88 87 43 bd
       0.07793547 -0.092599735 0.09927977 -0.047736675
000260 da e2 c5 3c bb dd 90 3d de cf 03 be a3 aa 27 3e
       0.024156023 0.07073542 -0.12872264 0.16373686
000270 03 41 19 bd 86 34 b1 3d 8d 44 c4 3d f1 2e be bd
       -0.037415516 0.08652596 0.095833875 -0.09286297
000280 7c a5 db 3d c4 9d 72 3c 9e 4c b6 bd 3e 8d 80 bd
       0.10724923 0.014808122 -0.08901332 -0.0627694
000290 4b 2e 0d be bf 71 df 3d 14 16 b6 3d 43 5d c1 3d
       -0.1378719 0.10910367 0.0889093 0.094416164
0002a0 d9 a9 ab bd ec db 22 3e 14 25 1d 3e d4 a4 87 bd
       -0.08382005 0.15904206 0.15346175 -0.06623235
0002b0 7a 78 58 bd ae 40 03 be c7 2d 15 3d f4 f5 39 3d
       -0.05284927 -0.12817642 0.03642061 0.045400575
0002c0 de 6f 1d 3e a4 7b c0 bd fa 57 07 be df c3 1b be
       0.15374705 -0.093985826 -0.13217154 -0.15211438
0002d0 ba 5a 7d 3d 74 57 b7 3d fd ef b3 3c b4 0e ac 3d
       0.0618541 0.08952227 0.021965021 0.08401242
0002e0 9e 79 ea 3c 65 62 86 3d 2e cf aa 3d 6c 5f 86 bd
       0.028622445 0.06561736 0.08340298 -0.06561169
0002f0 f0 0a e6 bd 0d a9 03 be 0f c1 36 be eb 67 d3 3d
       -0.11232555 -0.12857457 -0.17847084 0.10322555
000300 82 fd a1 3d c2 6e 19 be 8d af 33 be 76 8e 1d 3d
       0.07909681 -0.14983657 -0.17547436 0.03846594
000310 24 cc eb bd 4e 13 c6 bd 6e 4f f8 3b be a0 b4 3d
       -0.11513546 -0.09671651 0.007577828 0.08819722
000320 2d 86 0f 3e 8c 3c 7b 3c 0c d5 b5 bd 68 59 80 bd
       0.14016028 0.01533426 -0.08878526 -0.06267053
000330 98 8f 1f 3e 63 bf f9 bd fc 52 22 3e 67 be 81 bd
       0.1558212 -0.12194707 0.15851969 -0.063351445
000340 b8 2f d5 3d 3a 22 0b 3e 50 4a d8 bd 82 05 de bd
       0.10409492 0.13587275 -0.10561049 -0.10840894
000350 56 29 39 be 54 37 12 3d b8 71 04 3e 98 b0 d8 3d
       -0.18082175 0.035697296 0.12934005 0.105805576
000360 55 86 12 bd d7 33 1f be 3f 4e 1f 3d d9 d8 24 3d
       -0.03577264 -0.15547119 0.03889298 0.040245865
000370 88 fb e2 bc 92 3a 31 3c bf 18 f3 bd 39 63 00 be
       -0.02770783 0.010817187 -0.11869954 -0.1253785
000380 ea d4 55 3d 78 2c b6 bb b3 ce 10 3e a9 40 ed 3d
       0.052205004 -0.0055595003 0.1414135 0.115845986
000390 96 75 03 bd aa 87 17 be 08 52 eb ba f3 de d6 3c
       -0.03209456 -0.14797845 -0.0017953524 0.026229357
0003a0 2f dc a9 bd 2a 0a 06 3e ef 66 ef bd b1 60 c0 bd
       -0.0829395 0.13089815 -0.11689555 -0.093934424
0003b0 d8 4b 2e 3e 38 26 e4 3d b9 6a c5 3d a7 cf ab bd
       0.1702112 0.11140102 0.09639496 -0.08389216
0003c0 b3 62 65 3d 7d fe 28 3d 22 42 14 be 40 35 0f 3e
       0.05600233 0.041258324 -0.14478353 0.13985157
0003d0 63 1d f2 bc f0 be 2a be 9d 12 a8 3d 3f 8d f4 3d
       -0.029555028 -0.166744 0.08206675 0.11941003
0003e0 ec 8e 06 be 04 e8 d6 3c 34 e3 b7 bd cf 3e 09 3e
       -0.13140458 0.02623368 -0.089788824 0.13402866
0003f0 98 e5 f0 bd 25 82 1d 3e ae 9d c2 3d b3 73 27 bd
       -0.117625415 0.15381677 0.09502731 -0.040881824

layer_3.bias f4 [36]
000000 0d 6b 07 3e af 0f cd bd 0f a7 0d be b5 91 1c 3e
       0.1322443 -0.10012757 -0.13833259 0.15289958
000010 b1 b1 35 3e b4 9b 65 3d f4 30 5d 3d bf bf f7 bd
       0.17743565 0.056056693 0.054001763 -0.120971195
000020 fc d2 49 bd 8f 74 c1 3c 0c da 8d 3d bd 69 2d be
       -0.049273476 0.02361515 0.06926355 -0.16934867
000030 6b 84 ad bc 1f cc 80 3d b5 43 0f be 1a a4 b8 3d
       -0.021181306 0.06288933 -0.13990672 0.09015675
000040 20 c5 0c ba 8d d9 ed 3c 02 f7 46 3d eb 7e 76 3d
       -0.000536995 0.0290344 0.04857541 0.060179632
000050 65 1d fe 3d 7e 3a ad 3c 01 f2 cf 3c 3f 53 af bc
       0.1240795 0.021146055 0.025383951 -0.021402
000060 fd bf 02 be 7d d2 b4 bd 83 81 18 be cb 70 1b bd
       -0.1276855 -0.0882921 -0.14893155 -0.037949365
000070 da cb 14 3b c2 90 cc bd 3c f5 98 3b a2 b9 03 be
       0.0022704513 -0.09988548 0.004667906 -0.12863782
000080 8f 64 0c be 4f 68 04 be 4d 1a 1c bd f6 b4 b8 3c
       -0.13710235 -0.12930416 -0.03811102 0.022547226

action.weight f4 [36, 36]
000000 a8 24 8c bc b0 31 04 bd 00 a2 7e 3d e2 46 d4 bc
       -0.017107323 -0.03227395 0.062166214 -0.025912706
000010 98 ce c0 3d 03 51 0d be 4e 33 bc 3d 90 8d 34 3d
       0.09414405 -0.13800435 0.09189473 0.044080317
000020 80 87 95 38 a3 80 ec bd 7a e1 26 bd 66 f4 f6 bd
       7.1301125e-05 -0.11547973 -0.040742375 -0.12058334
000030 b6 9e a0 bc ea ae 06 3c 31 15 7e bc 43 1f bf bd
       -0.01960693 0.008220414 -0.015507982 -0.093321346
000040 ae 1c 1e 3d 16 ef 2f 3e 45 94 03 3d 08 dd 11 bd
       0.03860157 0.17181048 0.032123823 -0.035611182
000050 f9 45 0c be 2e c4 a5 3b d2 22 32 3e 3e 31 99 bd
       -0.13698567 0.005058787 0.17396095 -0.07480095
000060 9c 25 b4 bd db 4d 89 bd fe fb d8 bd 8a f3 a2 bc
       -0.08796236 -0.06704303 -0.10594939 -0.01989152
000070 6c 55 72 3d db 5c 1f be ff 60 da 3d d3 9a 16 be
       0.059163496 -0.15562765 0.10663032 -0.14707498
000080 0c 31 de 3d 0a 29 c4 3d fe 02 a3 bd 3d df 15 3e
       0.10849199 0.0957814 -0.07959555 0.1463594
000090 d4 ef b1 bd 96 7a c3 bc c0 b8 22 bc eb 51 7d bd
       -0.08688322 -0.023862164 -0.009931743 -0.0618457
0000a0 bc a9 9b 3c a2 26 9f bd 87 0e 23 3e 58 fc eb 3d
       0.019001834 -0.077710405 0.1592351 0.1152274
0000b0 51 5a 1c 3e b4 5e a4 3d 34 fe d6 3c 0b 3b e4 3d
       0.15268828 0.08025876 0.02624426 0.11144074
0000c0 0b 25 e3 bd 12 6b 0e 3e 73 de 0d 3e 2c 73 39 bd
       -0.1109105 0.13908032 0.13854389 -0.045275852
0000d0 10 d0 b3 3d c5 a1 82 bd 09 3f 1c be 26 c6 25 bd
       0.08779919 -0.06378511 -0.15258421 -0.040472172
0000e0 7a 22 6f bd a8 ab 11 3d 01 91 1d 3d c4 fa 88 3d
       -0.05838249 0.035564095 0.038468365 0.06688455
0000f0 1e 7a 23 be 50 7d c4 3d 16 72 1f 3d 25 75 81 bd
       -0.15964553 0.09594214 0.03892716 -0.06321172
000100 d9 ea 25 3d bd d1 d9 3d 5e 72 54 3d ce fb b4 3d
       0.04050717 0.106357075 0.05186688 0.088370904
000110 71 dd 37 bd 5e 9c 67 3d 00 74 79 3b 00 8a f9 b7
       -0.044888917 0.056545608 0.0038063526 -2.9747374e-05
000120 57 09 cf 3d 12 6d 03 be 6e 05 ee 3d 69 03 62 bc
       0.10109203 -0.12834576 0.116221294 -0.013794758
000130 fa 13 71 3d fd 1f 18 3e 30 0c 64 3d 9b 3c a6 3d
       0.05885694 0.14855953 0.055675685 0.08117028
000140 4d 4b 13 bc 84 8e 4c bd d1 19 1c be fb 78 06 3d
       -0.008990121 -0.0499406 -0.15244223 0.03283022
000150 ea 72 64 3d 89 00 8e bd d2 a6 e2 3d 51 75 20 3e
       0.055773653 -0.06933696 0.11066975 0.15669753
000160 fe fa 7c bd 92 e8 67 bd ee e6 61 3c 95 88 c9 bd
       -0.061762802 -0.05661828 0.013787968 -0.09840504
000170 d4 01 08 3e 59 a6 85 bc 9b ad 12 3d c1 cb 86 3c
       0.13281947 -0.016314672 0.035810094 0.01645458
000180 31 31 e1 3b ac 18 04 be 13 ef 90 3d 98 10 d4 bc
       0.006872319 -0.12900037 0.0707685 -0.025886819
000190 49 70 d3 bd 90 3e a2 3d 9d b1 32 3e 4e b9 a5 3d
       -0.10324151 0.07922089 0.17450567 0.08091985
0001a0 3f a8 49 bd 91 8e 0b be 56 fc 86 bc 89 df fd 3d
       -0.049232718 -0.13628604 -0.016477745 0.123961516
0001b0 2e f9 28 be 57 a2 1f 3e 2a 13 01 be 6c 71 97 3c
       -0.16501305 0.15589271 -0.12604967 0.018486701
0001c0 9b 8d 9b 3d 22 89 ca 3d 7e 3c 18 3e d6 80 ed bd
       0.075953685 0.09889437 0.14866826 -0.11596839
0001d0 11 05 e3 bd c4 c7 2e be d0 5e 03 be 30 8e 57 3d
       -0.11084951 -0.17068392 -0.12829137 0.052625835
0001e0 a0 22 f2 bc e4 24 4d bc 11 d8 ed bd 09 76 be 3d
       -0.029557526 -0.012521002 -0.11613477 0.09299857
0001f0 09 df b6 3d 26 de 70 3d 64 a3 b2 bd 66 28 80 3d
       0.08929259 0.058805607 -0.087225705 0.062577054
000200 f1 b8 73 bd 28 0d 24 be e7 81 2f be 61 6b 93 3c
       -0.059502546 -0.16020644 -0.17139398 0.017995538
000210 db 27 1e 3e 5b 30 17 be 26 ac 02 be 95 1a ab bd
       0.15444891 -0.1476454 -0.12760982 -0.083546795
000220 76 bb 6d bc ee 09 d0 3d f7 39 0b 3d 96 68 29 3d
       -0.014510026 0.10158144 0.033990826 0.041359507
000230 e7 b7 ec bc 69 4b e3 bc d6 08 08 be f9 b6 ff 3d
       -0.028896285 -0.02774592 -0.1328462 0.12486071
000240 98 68 09 bc 20 a7 e4 3d cb 38 fe bd 68 94 1d be
       -0.0083867535 0.11164689 -0.12413176 -0.15388644
000250 69 9f bd 3c f1 7e a8 3d 0e 9d 8e bd 2e be aa bd
       0.023147302 0.08227337 -0.069635496 -0.08337055
000260 2f 09 0e be de 4e 0f 3d b9 25 6e 3d 54 4e 10 3e
       -0.13870691 0.034987323 0.058141444 0.1409238
000270 61 a5 cd 3d a8 7c e6 3d 5b ad a0 bc 6e 21 a5 bd
       0.10041309 0.11254245 -0.019613912 -0.08063017
000280 be ae 32 3d a7 53 a1 3d 9a 25 49 3d 29 72 a0 bd
       0.04362368 0.078772835 0.049108125 -0.07834274
000290 dd 75 56 3d 02 c2 55 3d bf 4a d7 bd 95 bc ad 3d
       0.052358497 0.052186973 -0.105123036 0.08483235
0002a0 ca 19 df bd 5e 3b a4 3d 10 2c 4e bd 9c 66 05 3e
       -0.10893591 0.08019136 -0.05033499 0.13027424
0002b0 3c 38 53 3c ea b0 70 bd 56 39 0f 3e 66 8e b2 bd
       0.012891825 -0.05876247 0.13986716 -0.087185666
0002c0 00 bc 33 bd ad 1f ae 3c 60 04 b5 3c 0a 11 0b 3e
       -0.043880463 0.021255339 0.022096813 0.13580719
0002d0 24 26 98 3d 53 0d f9 3d 1e 79 d6 bd 54 64 13 be
       0.0742915 0.121607445 -0.1047232 -0.14393741
0002e0 a8 f2 1a 3e 0b 0a 2f 3e 01 10 b3 3d a7 29 1c 3e
       0.15131629 0.17093675 0.08743287 0.15250264
0002f0 ef 7d 90 bd ec 46 09 3e ee 8a 5b bd cb 52 e9 3c
       -0.0705527 0.13405961 -0.05359929 0.028481862
000300 44 21 f3 3d e0 e2 e7 ba be 1c 27 be 8c 12 d4 bd
       0.11871579 -0.0017691515 -0.16319558 -0.103551
000310 22 a7 b2 bd e9 33 a8 bd 25 da 2a 3e 7e a7 bf 3d
       -0.08723284 -0.08213026 0.16684778 0.093581185
000320 70 f5 17 3e be 5f 2a 3e fc 3e c3 bc fd 51 1e 3c
       0.1483972 0.16638085 -0.023833744 0.009663102
000330 f7 7c 0f 3e 30 7a 17 be 4b 6e ed 3c 34 73 02 3d
       0.14012514 -0.14792705 0.028983256 0.031848148
000340 7c cc c9 3d f7 20 ba bd e6 d2 1d 3e 2b e0 58 bc
       0.098534554 -0.09088319 0.15412483 -0.01323704
000350 41 fc f3 3d d1 6c 00 be a3 33 f5 3d 7e ce e3 3c
       0.11913348 -0.1254151 0.119727395 0.027808424
000360 8c 6c b1 3d 86 11 0e bd 63 b4 c1 3d 93 50 a2 bd
       0.08663282 -0.03468468 0.09458234 -0.079255246
000370 f5 5a 8a bd a9 35 f1 bd b1 a2 82 3d ac d1 29 be
       -0.0675563 -0.11777813 0.06378687 -0.1658389
000380 d1 a9 88 3d 3c 74 ae bd 02 d8 51 3d 76 32 1c 3d
       0.06673015 -0.08518264 0.05123139 0.03813406
000390 c2 1e 9a 3c 45 a2 8d 3d 18 d2 de 3d ad cd 6e 3d
       0.018813495 0.06915716 0.10879916 0.058301616
0003a0 27 6d d1 bb 04 83 cd 3c dc 33 19 3e 55 d5 99 bd
       -0.006391186 0.025086887 0.14961189 -0.07511393
0003b0 06 f8 1e 3d b0 c5 3b bc 3a ee a4 bc 44 d5 89 3d
       0.038810752 -0.011460707 -0.020133127 0.0673013
0003c0 09 37 17 be 2b 25 84 3c 63 65 80 bd 4c de bc bd
       -0.14767088 0.016131004 -0.06269338 -0.09222087
0003d0 5c 2d df bd 08 00 c9 bd ed 04 fc bd 6b 1c 08 3e
       -0.108973235 -0.09814459 -0.12305627 0.1329209
0003e0 da 87 06 be a0 45 90 3d 2b aa 46 3d f5 1b c7 bd
       -0.13137761 0.0704453 0.04850213 -0.09722129
0003f0 0c 1d a7 3d bf 2d 1e 3e 2f 31 11 3e 34 ee 31 3e
       0.08159837 0.15447138 0.14178918 0.17376024

action.bias f4 [36]
000000 a4 ba 0b 3e c5 3a e9 3d 3e 05 2a bd 89 4f 32 be
       0.13645416 0.113881625 -0.041508906 -0.17413153
000010 36 17 14 3e 67 df 0b 3d 9f c2 f1 bd 41 47 f7 bd
       0.1446198 0.0341486 -0.11804699 -0.120741375
000020 68 79 5a 3d 66 36 b4 bd 86 48 a0 3d 0e d6 9a bd
       0.05333844 -0.08799438 0.07826333 -0.07560359
000030 c6 4b 12 3d 1e 73 13 3e 22 70 27 bd f8 d8 06 3e
       0.035716794 0.14399382 -0.040878423 0.13168705
000040 1f 20 f4 3d 50 b6 09 3e 03 09 ba bd e4 3f ca bd
       0.11920189 0.13448453 -0.0908375 -0.098754674
000050 c6 15 73 bc 02 a9 da 3d 35 68 f7 3d 3d 1d 2b be
       -0.014836734 0.10676767 0.12080423 -0.16710372
000060 43 c3 34 bd 0a db dc 3b db b1 e9 3c 97 c8 b3 3d
       -0.04413153 0.0067399787 0.02852719 0.08778494
000070 c8 de 4a 3d e6 eb f5 bc f8 fc 08 3e 3d 9a 9a bd
       0.049528867 -0.030019712 0.1337775 -0.0754895
000080 7f 40 f6 bd 77 ab d0 bd 0b c4 ba 3d 2c ff 1f 3e
       -0.120240204 -0.10188954 0.091194235 0.15624684
