second_implementation/st_dev_model.pt (torch, 12823 bytes, 6 tensors)

layer_1.weight f4 [33, 30]
00000000: ae62 ddbc 0286 3bbe b50d eabd 22e3 273c
00000010: 3997 d43d 6948 afbd 537d a0bd 242e 34bd
00000020: 8b08 593d 2194 893d ca1d 18be 5264 f4bb
00000030: b8ad 16bd 7838 4f3e 8432 22be 05da 4b3e
00000040: 90b4 af3d d1f8 ae3c 7a33 103e b923 ba3d
00000050: 75ac a13e 4070 f33d 44b7 3d3e fbea 433d
00000060: 0dbd 44bc 9388 073d a1ad 3c3d 1a54 ccbd
00000070: 9ab2 b9bd 73a5 653e daad 143e 7900 4ebe
00000080: 217c 443d 66bc 7dbd ce20 3ebd 3980 be3d
00000090: 864d 9b3e ee61 bf3d 17e6 1f3e e965 923d
000000a0: ef10 db3c 4d35 99be c9a2 3ebe 76f0 b03c
000000b0: cff1 283d bb37 603e 9cf7 44be 3236 f3bd
000000c0: b92a c23e a965 acbd 48da 473e 887c 49bd
000000d0: ebfd a43e 458a 393e f019 f8bd 9740 8abd
000000e0: 4a59 9f3e 315a 063f 266c 803e ba0f 34bc
000000f0: 10a1 10be 6f46 4bbe 7cce e33c 8705 c13d
00000100: 0d2d 3ebd 6523 9a3d 0be6 a1bd e3dc cabd
00000110: da6e 88bc 7630 db3d 822e a13d bcfc 5a3d
00000120: 3b02 c73d 837e e33d 9f3e 21bb 76dd 06be
00000130: 9122 c0bd a473 d9bd 7c80 a3bd 1cf0 1ebe
00000140: 6e4b 863d 5e2c 5bbe d5e9 c2bd 644f 023d
00000150: 6110 b3bd 3483 d1bc a896 07bb 3560 503d
00000160: 5abf 943c e687 023e c5bd 753d 59c6 eb3c
00000170: a5bd 07bd 52b7 183e 0716 6ebe d17a 233e
00000180: af95 a3bd fabe 69be 10be 21be 72a4 81bd
00000190: 44e0 6e3e 15c8 83bd b49a ec3d 5c56 09bd
000001a0: ef12 3fbe 55c8 393d 4451 19be 6afd 5bbd
000001b0: 0667 073e 1de6 103d 43bf 24be 4b70 893c
000001c0: 3fd1 9ebc 6a3f 1ebe d491 2e3e c228 153e
000001d0: b85e 233e 589f 8bbe f7e1 543c 55f6 cbbd
000001e0: 1a34 49bc f5d8 93bd 906b 763e 436f c0bd
000001f0: 03b1 2e3d fc0b d1bd dc64 003e 7bf7 c33d
00000200: e634 f6bc dedb 1c3e b064 293d ee39 28be
00000210: 05a0 903d 9410 4d3e c9c4 77bc 3cb0 dbbc
00000220: f7f1 083e 6c09 49bd 01b6 e1bd fe75 5d3e
00000230: 8304 ffbd e751 acbd 7cf8 12be 7419 0bbe
00000240: 3566 a9bd 9410 91bb fdd1 183e 2612 c8be
00000250: 5261 91be ddc7 aebc 5081 b23c b33d 9fbd
00000260: 1c04 043e 1016 c2bd 1ab2 003e 709f 35bd
00000270: 8ef2 afbd edcc 1cbe d6e9 9c3d 0aeb 43be
00000280: ea53 33bd 8ca0 98bd e575 77bd 281f fc3d
00000290: 24f0 77be 7169 1abe a978 ffbd f00f 69be
000002a0: 4608 babe 3a95 8bbd 024f d13d c2a7 60be
000002b0: ed84 9cbd 2ad6 f03d d924 76bd 1464 d0bd
000002c0: 91b0 aabd ff26 f1bd a5e1 3cbe 6360 73be
000002d0: 3c02 003e 716b 6bbb 9d16 943d 050e 9a3d
000002e0: e5e5 41be 903b e13d 3906 3ebd 69ef 60be
000002f0: 882c 403c 6c03 48bc 8ae2 b33e 013f 39be
00000300: 488b c3bd a765 c33e a074 1fbe 073c 073d
00000310: 9713 6fbe 7e93 dbbd 0624 693d 9471 3d3e
00000320: 6626 213e 963c fbbd 8a25 e43d 5634 08be
00000330: e26d 133d f9af 533e c70b 963d 205c 9ebc
00000340: 580e 043c 39ed 443c be7b b8bc 921f 92bd
00000350: 3885 d83d 35b0 2c3d a848 f5bd a41e bb3d
00000360: f6fb 70be 43fa 2abe 4de7 a63d 07ab 45be
00000370: f27e 8c3e c1f4 133a 4731 c9bd d47e 613e
00000380: 81a3 7e3c 8275 553e ff45 3f3c 7829 a43d
00000390: 906c ebbc 52ba 71bc e5a4 973b 16e3 0bbe
000003a0: 1b69 40be 0c18 0cbe 7705 12be 90d8 b93d
000003b0: eeb6 e1bc 2a4f 9ebd 5cd9 3e3d 3186 4dbe
000003c0: 0203 41bd 49c6 debb bb9c 8f3d 0759 fd3d
000003d0: fe04 4cbe 7231 8ebd ec4f 0abd 9cf8 c3bd
000003e0: 4983 0ebe 5a35 d2bd f3ef ea3d df64 04be
000003f0: 421a 233d 1904 e53d fdf5 4cbe 6c66 33be
-0.027024593 -0.18312839 -0.11428396 0.010247024 0.10380406 -0.08558733 -0.07836404 -0.043989316
0.052986663 0.067177065 -0.14855114 -0.007458248 -0.036786765 0.20236385 -0.15839583 0.19907387
0.085793614 0.02135888 0.14082137 0.09088845 0.31576887 0.11886644 0.18526942 0.047831517
-0.012007964 0.03308923 0.046064023 -0.099769786 -0.09067269 0.22426395 0.14519444 -0.20117368
0.04796994 -0.06194725 -0.046418004 0.093018 0.30332583 0.093448505 0.15615116 0.07148344
0.026741473 -0.29923478 -0.18616785 0.021599036 0.04124623 0.2189626 -0.1923508 -0.11875571
0.3792322 -0.08417828 0.19516861 -0.049191028 0.32224974 0.18119152 -0.12114322 -0.06750601
0.3112281 0.5248137 0.2508251 -0.010990078 -0.1412394 -0.19851087 0.02780842 0.094248824
-0.046429683 0.07526282 -0.07905205 -0.09905412 -0.01665442 0.107026026 0.07870199 0.053463683
0.09717222 0.111081146 -0.0024603975 -0.13170418 -0.09381593 -0.1061776 -0.07983491 -0.15521282
0.06557356 -0.21403643 -0.09517256 0.031813994 -0.087433584 -0.025575258 -0.0020689163 0.050873
0.01815765 0.12747154 0.05999543 0.028781103 -0.033139843 0.14913681 -0.2325059 0.1596482
-0.07987534 -0.22826758 -0.1579516 -0.063301936 0.23327738 -0.06434647 0.11552945 -0.033529624
-0.18659566 0.045357067 -0.14972407 -0.05370847 0.13222894 0.035375703 -0.16088586 0.016777178
-0.019386886 -0.15453878 0.17047817 0.14566329 0.15954101 -0.27270007 0.012993327 -0.099590935
-0.012280488 -0.07219116 0.2406447 -0.093962215 0.04264928 -0.10207364 0.12538475 0.095686875
-0.03005452 0.15318248 0.04135579 -0.16428348 0.07061771 0.20025855 -0.015122601 -0.026817434
0.13373552 -0.04908125 -0.110210426 0.21627042 -0.124520324 -0.08414059 -0.14352602 -0.13583928
-0.082714476 -0.004427025 0.14923854 -0.39076346 -0.28394562 -0.021335537 0.021790177 -0.0777544
0.12892193 -0.09476864 0.1256794 -0.044341505 -0.085911855 -0.15312548 0.07661788 -0.19132629
-0.0437812 -0.07452497 -0.060415167 0.1231063 -0.242127 -0.15079285 -0.12474186 -0.22759986
-0.36334437 -0.06815572 0.10220148 -0.21938995 -0.07642541 0.117595986 -0.060093734 -0.101753384
-0.083344586 -0.11775016 -0.18445452 -0.23767237 0.12500852 -0.0035922194 0.07230876 0.07522205
-0.18935354 0.10997689 -0.046392653 -0.21966328 0.011729367 -0.012207847 0.35133773 -0.1809044
-0.0954805 0.38163492 -0.15571833 0.03301623 -0.23347317 -0.10721491 0.05691912 0.18500358
0.15737304 -0.12267415 0.111399725 -0.13301215 0.035993464 0.20672597 0.07326465 -0.019331038
0.00806006 0.012019449 -0.022519942 -0.07134928 0.105722845 0.04216023 -0.11976749 0.091367036
-0.23533615 -0.1669703 0.08149586 -0.19303523 0.27440602 0.0005644076 -0.09823852 0.22021037
0.015541912 0.20845607 0.011674403 0.08015722 -0.02873829 -0.014753895 0.0046278113 -0.13660845
-0.18790095 -0.13681048 -0.14259897 0.09074509 -0.027553048 -0.07729943 0.04659401 -0.20070721
-0.04712201 -0.00679854 0.07012316 0.12370496 -0.1992378 -0.06943025 -0.033767626 -0.09568903
-0.13917269 -0.10264082 0.11471548 -0.12929104 0.039819963 0.11182422 -0.20015712 -0.1751954

layer_1.bias f4 [33]
00000000: 1875 1bbe a2dd 08be 3bb5 97bd 568e a93c
00000010: b2e1 09be 2b70 33be dabe a4bc 987b 12bd
00000020: 25b1 d5bc 8ccd 10be ad69 bc3d 2742 c33d
00000030: 26eb b03d abe9 9abc 164e 813d 85f8 2f3d
00000040: ea40 03be 8d5d 57bb a601 253c 1cda 71be
00000050: 6396 6bbe 6572 adbd c091 b8bc d735 74be
00000060: 7b43 c53d ada1 16be 7afe 8bbe 2139 ea3d
00000070: 7a78 6f3c a906 afbd 8a0d 4cbe e278 f0bd
00000080: 245f 98bc
-0.15181386 -0.13365796 -0.07407614 0.020697754 -0.13465002 -0.17523257 -0.020110536 -0.0357624
-0.026085446 -0.1414091 0.091998436 0.09534102 0.08638601 -0.01891025 0.06313722 0.042961616
-0.12817731 -0.0032862157 0.010071194 -0.23618358 -0.23006587 -0.08469085 -0.022530437 -0.23848663
0.096320115 -0.14710112 -0.27342588 0.11436678 0.014616126 -0.08546192 -0.1992704 -0.117418066
-0.018600054

layer_2.weight f4 [34, 33]
00000000: 0f41 d0bd e1ad 31be 29f6 21be 0ded 9ebd
00000010: d7ae b1bd 458e 5e3d 4d8a 543d 802a 0d3d
00000020: afcc 03be e710 203e 2fe9 423c a220 e6bd
00000030: f426 57bd 8c0c 3dbc f439 83bd 0301 08bc
00000040: ef03 a8bd 555c d4bd c05a b83d 7f4b f63d
00000050: 8a0d fcbb d314 47bd 0cb8 1c3d 944f 043e
00000060: 1e94 4ebd 7c7f 0f3e 99d2 0dbe f018 20be
00000070: 8c39 533d d93b a13d cef1 26bb d1e2 e9bd
00000080: 70a4 fa3d 9b67 30bd ab3b 603d 97e7 2bbe
00000090: 3f86 293e 68af d1bc dc28 6abc 1611 11bd
000000a0: d118 3c3e 0252 45bd a18b 903d ffc8 d9bd
000000b0: 89d3 28bd 7a7b 2ebe d332 34be 39c2 dcbd
000000c0: 4208 ceba 506b e93c 2363 f2bd 3cd2 663d
000000d0: 5a27 8b3b b728 c83d e981 d9bd 76bc efbd
000000e0: f855 283e cdcf 2fbd ab16 5a3d 0dc2 583d
000000f0: ad2f d2bd 7f11 dd3d ba63 953d ce26 213d
00000100: 6fa0 f9bd b201 aebd 7e93 d9bd 82f3 61be
00000110: bd2a 1fbb c3bd 77bd d912 e4bd 5a28 0dbe
00000120: 48aa 90bd 9caa adbd 0f06 72be e749 203e
00000130: d6ad 88bd 0839 dbbd cbab 203e 0c9c 7cbd
00000140: fc78 26be e1b8 733d a3d5 e23c d1a0 873d
00000150: a0e4 313e 459b cdbd 4e50 4cbe ffed 50be
00000160: a7ee 86bd 6ec0 d0bc a46c d33d 028c b5bd
00000170: 56a7 193e b2f5 29be f222 a63d eeeb 83bd
00000180: 8efb f1bd 2806 54be 76d6 ac3c a4e4 4dbe
00000190: bf10 9bbe edd9 d03d ae64 82bc 49a0 c83c
000001a0: 964f 5c3c a03a 6f3d 38cc 8c3d f64e ab3d
000001b0: 9bac 353e 24e2 1c3e bf5d da3c 1980 2cbe
000001c0: 40a0 38be 5e87 2b3d a50b 533d 526a a0bc
000001d0: 9af5 9b3d 1be1 033d 3de8 55be 0dcf d43d
000001e0: 4d90 0dbd b6a0 78bc 9119 363e 8f32 7ebd
000001f0: c37b bbbd 3515 db3d 4d7c 6bbe 54ee 3bbd
00000200: 7942 143e a17d c63d 7b71 f2bd d61f 04be
00000210: 488f 77bd 6f7e 35bd a73b 1bbd 5a5b c1bd
00000220: cc21 85bd 79ba a0bd 28fc 8ebe ab22 89be
00000230: 953a ffbd e830 f43c 7963 853e 24e0 3b3e
00000240: 3adb c2bd c261 ee3d 9755 05be fb3f 823c
00000250: 23bc b83c dbad 6ebd bcd0 18bc 56e8 90bd
00000260: a084 bc3c e0e5 3b3a 9c98 ae3d 4963 a4bb
00000270: b4ca 69bc c65f 9fb8 13d4 043e dc13 5b3e
00000280: 3223 95bd b391 de3c 5860 573d eeaa 33be
00000290: 2cb8 68bd 39a7 efbd 11c6 90be 9c51 663d
000002a0: 57b1 cb3c 0067 9dbd 6acd 123e ba0a 2fbd
000002b0: fff5 4f3e 2c8d db3d 90b7 b8ba 64fa a9bd
000002c0: 612d fcbd 52e5 d73d dd6c 2fbe 618c 2dbe
000002d0: 865c 083e bf7c aa3d 78cc 23be 07e4 323e
000002e0: 8ae9 2e3d 9d0d 8dbe 66dd af3c e8d3 3c3d
000002f0: e185 90bc 569e 33bd e396 4b3d b76d 853e
00000300: e91e 69be dece e7bc d9a5 47bc 6f05 583d
00000310: ff7e 2c3c a9a1 083e 7967 8bbc cad9 f2bd
00000320: bcdb 8c3d be07 693c 4c7d 973c eb34 ed3d
00000330: 7254 7fbd 628c ca3d 0b6a f23d 546b f7ba
00000340: 28e7 25be 691e c4bd 5e1b 183d a897 c4bd
00000350: 8944 6d3d 5cb9 e73d 0a6b 2ebe b56c ae3d
00000360: a8eb 39be ac3c d0bd dc39 c23d f046 98be
00000370: 0add b0bd cbb6 24be f254 143e 0cda 83bd
00000380: 0d92 67bd 73c9 b8bc 2286 d63d 1d8c 533e
00000390: f851 653e 057b 163d 041b 753b 2f36 44be
000003a0: 431d 8f3d a71e febd b7f5 6c3d dc69 19bc
000003b0: ddfd 18bd 84b8 703d aebb 4fbc a610 ccbd
000003c0: 7cdd 26be b2d3 5abd 19c2 53be 0199 203d
000003d0: 5224 1a3e 6429 9bbe 2b38 91be 2dad 73bd
000003e0: c5a3 203e 24db 04be 1842 b3bd bd83 9bbe
000003f0: f53f b73c 10c1 e83c ba5e 403e 766b ea3d
-0.10168659 -0.17351486 -0.15816559 -0.077600576 -0.08675926 0.054334898 0.051889706 0.03446436
-0.1287105 0.15631448 0.011896416 -0.11236693 -0.052527383 -0.011538636 -0.06407538 -0.008301022
-0.08203875 -0.103691734 0.09001684 0.120261185 -0.0076920437 -0.048603844 0.03826146 0.12920982
-0.050434224 0.14013475 -0.13849868 -0.15634513 0.051568553 0.07872743 -0.0025473717 -0.11420215
0.12238395 -0.043067556 0.054744404 -0.16787563 0.16555117 -0.025596336 -0.014291968 -0.035416685
0.18368842 -0.048173912 0.07057882 -0.1063404 -0.04121736 -0.1703929 -0.17597513 -0.107792325
-0.0015719014 0.028493553 -0.11835315 0.05635284 0.0042466344 0.09773391 -0.106204815 -0.11705868
0.16439044 -0.042922784 0.053244274 0.052919436 -0.10263 0.10794353 0.07294412 0.039343648
-0.121888034 -0.08496417 -0.10623835 -0.22065547 -0.0024286949 -0.060483705 -0.111364074 -0.13784924
-0.070637286 -0.08479807 -0.23635124 0.15653192 -0.066737816 -0.10704237 0.15690534 -0.061672255
-0.1625709 0.059502486 0.02768976 0.0662247 0.1737237 -0.10039381 -0.19952509 -0.20403288
-0.06588488 -0.025482383 0.10323456 -0.08864595 0.1500524 -0.16597632 0.08112134 -0.064414844
-0.118155584 -0.20705473 0.021098357 -0.2010675 -0.30286214 0.10197816 -0.015917148 0.024490492
0.013446709 0.05840552 0.06874889 0.0836467 0.17741625 0.15320641 0.02665603 -0.1684574
-0.1802988 0.041877143 0.051524777 -0.019581947 0.07615204 0.0321971 -0.20889373 0.10391054
-0.034561444 -0.015175035 0.1778319 -0.062059935 -0.09154465 0.10697404 -0.22996636 -0.045881584
0.14478482 0.096919306 -0.11838051 -0.1290277 -0.060439378 -0.04431003 -0.037898686 -0.09441252
-0.06500587 -0.07848067 -0.27926755 -0.26784262 -0.124623455 0.029808477 0.26052454 0.18347222
-0.095144704 0.116397396 -0.13020931 0.015899649 0.022550648 -0.05827127 -0.00932711 -0.070755646
0.02301246 0.0007167738 0.08525202 -0.0050167185 -0.01426952 -7.59955e-05 0.12971525 0.21394295
-0.072821036 0.027169084 0.052582115 -0.17545673 -0.056816265 -0.11701817 -0.28276113 0.056230173
0.024864836 -0.07685661 0.14336172 -0.04273484 0.20308684 0.10720286 -0.0014092792 -0.08299711
-0.12313343 0.10541786 -0.17131372 -0.16948082 0.13316545 0.08324575 -0.15995967 0.17469798
0.04270319 -0.2754945 0.021467876 0.046100527 -0.017641963 -0.043852173 0.049704444 0.26060268
-0.22765698 -0.028296884 -0.012185537 0.052739557 0.010528325 0.13342918 -0.017017113 -0.11857946
0.068778485 0.014223037 0.018492363 0.11582359 -0.062336393 0.09890057 0.11836632 -0.0018876591
-0.1620146 -0.09576113 0.037135474 -0.09599239 0.05792669 0.11314651 -0.1703302 0.08516828
-0.18156302 -0.10167822 0.09483692 -0.2974162 -0.0863591 -0.16085355 0.14485529 -0.064380735
-0.05653577 -0.022556996 0.104748026 0.20658918 0.2239455 0.036738414 0.0037400136 -0.19161294
0.06988003 -0.1240819 0.05785152 -0.009363618 -0.037351478 0.058769718 -0.012679024 -0.09964113
-0.16295427 -0.053424545 -0.20679511 0.039208416 0.15052918 -0.30305016 -0.28363165 -0.059491325
0.15687473 -0.1297422 -0.08752841 -0.30373946 0.022369364 0.028412372 0.18786135 0.11446278

layer_2.bias f4 [34]
00000000: 92cd abbd 6529 3abe 009c 263d 80a5 93bd
00000010: cf44 583e 9158 c03c 4dfe f2bc 0e03 edbd
00000020: a6fc 57be ab15 843d fc54 9bbd 3d09 85be
00000030: c5f4 51be a34b 973b ac1a 82be 7fda c7bd
00000040: d182 2e39 597d a8bd 5794 083b 8960 56bd
00000050: a79e 64be feb2 bcbd eac0 4abd 3475 29bd
00000060: 18d1 48be e3b7 643e c9d9 67be 2efc ffbd
00000070: cb41 58bd e922 7ebe df16 31be 970e fe3d
00000080: 4faf d1bd ca6e cf3c
-0.08388819 -0.18179853 0.040676117 -0.07209301 0.21119998 0.023479732 -0.029662276 -0.11572848
-0.21092471 0.06449445 -0.07584569 -0.2598361 -0.20503528 0.004617171 -0.25410974 -0.09758472
0.00016642666 -0.08227033 0.002084037 -0.052338157 -0.22326146 -0.092138276 -0.049500383 -0.04137154
-0.19611013 0.22335772 -0.22641672 -0.12499271 -0.05279712 -0.24818005 -0.17293881 0.124051265
-0.102385156 0.025321383

layer_3.weight f4 [15, 34]
00000000: b231 c63d 86a1 293d 925f 3cbd 0267 833e
00000010: 11f2 7d3e b87a 17be e312 60be 52d3 ed3c
00000020: a5e4 ea3d 90fa 06be ce46 c3bd 82aa adbd
00000030: 1b80 743d 9b83 d4bd 2791 f9bd d8db b43b
00000040: f8cc 0f3e cbd6 e9bd 483a 363e 2a83 2ebe
00000050: 43be 5dbc f649 35be 194b 593e a5e2 243e
00000060: f385 243e 5a81 793d 5b51 5ebd 2a76 3abe
00000070: 61d3 23be 4fd1 8e3c bd13 873d 3c9d d33c
00000080: 7ce1 9e3d 7af6 353d 63e1 103e 7317 e0bd
00000090: 7659 e1bd 8cdd 743d 0472 543e a4dd c73d
000000a0: c4dd 3bbe 7e6b 39bc 57a9 553e c923 493d
000000b0: 8c30 9e3d e59c 73be ac5b bd3d af6b 09bc
000000c0: 5a0f 14be 513a debd ef23 1abb 7b0e 103e
000000d0: 71a2 573d d284 133e 5f8d 593d c605 93bd
000000e0: 82a8 a1bc 0088 a13d 1e7b 3d3e 268e 3a3e
000000f0: b302 52be 9237 08bc dc3c f4bd d1b3 b0bc
00000100: ed0b 9ebe 98ca 303e f3f2 433e 897b cebc
00000110: 0d10 cebd adbf 153e a709 653d 24cf 743d
00000120: 2829 8a3d 2f02 c5bd 8cbf d2bd b51e 013e
00000130: fb3c 0abe 49c2 483d d654 fbbd e5bb 20bd
00000140: a6de 963e 2be5 49bb 72fd bbbd 9383 583c
00000150: 602d b0bd 2406 863d 1a53 c53d adc3 d1bd
00000160: ece9 1cbd 57de 113e 4079 4abd 3889 a3bd
00000170: 2a31 ab3d 16f1 86be 922a e6bc 09c0 9fbd
00000180: c5ee 83bd 7943 e5bd 6e90 0439 d6da 29bd
00000190: 8600 193c 8944 46bd bd8f 01be 6a1a 88bd
000001a0: c6f3 59bd 0c87 083d 21ea 673e 5e3c 1c3d
000001b0: bf85 37bd 41ac 5cbd e931 7fbd e857 00be
000001c0: 1a52 e93c bd11 a0bd 309d af3d a9b1 79be
000001d0: 20f2 73be 9322 943d 01d5 6c3e 1ebc 17bd
000001e0: 9b35 c33c fc00 e73c 58b6 883d b804 bfbd
000001f0: fa69 e8bc 0b61 92bc 3d83 ae3d 5d2d 043e
00000200: 57f2 0c3d 898e 63bc 51fd ccbb ce86 3c3e
00000210: 51e8 65bd de77 313e 5afb 863b 7931 e3bd
00000220: 636c c83d 1187 dbbc b298 9d3d afd1 383e
00000230: 5fb5 b13c 0887 343d 9a1a 093d 9927 443d
00000240: c781 303d e65e bc3d b87e 70bd 337d 153d
00000250: 757d 68be d541 44bd 6368 a73d c2f9 6b3e
00000260: f16f 373e f7a0 f2bd 5f8e 843a 20fb 923c
00000270: 1e12 35bd 07a9 1e3e 1c78 053d 10af b13d
00000280: cfe3 d2bd 4a60 a53e 022d 92bc 8804 cf3d
00000290: fb86 fb3d 69bc b7bd 7e74 dfbc 7ed1 1a3d
000002a0: 8364 303e ed3e 9ebd 19d5 373d 1531 b6bd
000002b0: 7253 673d c7bf be3d 610f 8bbe 918e eabd
000002c0: fe34 d4bd 4d07 26be 5e18 34bd d18c 743e
000002d0: 49a5 d23b 5a82 143e fbf3 c8bd 4f9c 103d
000002e0: e430 bbbc f478 ccbc 0f94 1a3d ee5d 3fbe
000002f0: 66ac 0f3e b201 d73d fb7d ae3d 498d 0e3d
00000300: ceac ebbd efca 963d 709f 36bd 8b67 01be
00000310: 460e 683e 35af 7ebd d40f 99be 57c9 52be
00000320: df94 933e eaf9 c3bd df4d 0dbe 6d1c 89bc
00000330: ea92 3a3d 005f 92bd f5c8 24bd 0632 86be
00000340: d06d 36be 9a29 adbd 3320 4abe d01f 47be
00000350: 2924 a03d 862a 2b3e 0ef4 6dbb cce7 64be
00000360: 5477 0bbc 2e51 1b3e 33b8 6d3e 20f6 d4bd
00000370: 02df 843e bb54 12bd 54c5 7dbd 9a1d 9abd
00000380: fb04 553e 6ce8 a4bd 0c85 1abd 5dcc 873d
00000390: 6422 a6bd 2232 df3d f9b5 b1bc 255d 923e
000003a0: 98cb b23d 4368 09bb cdfb ecbe e87d 52be
000003b0: 554f ccbd 4fcc 053d 4881 9b3d 85a2 cf3c
000003c0: 8769 8b3d 3be4 a9bd 3846 84be 903e 7a3e
000003d0: 302e 94bd ad6a 443d 93ec b4bd cbf9 82be
000003e0: 4e1c 60bd 3d83 1dbe 9cea ab3e b5ba 72be
000003f0: febd 203b 9b4c 5d3c bd3e 103e 68d5 733b
0.096774474 0.041413806 -0.04598958 0.25664526 0.24799372 -0.14792907 -0.21882205 0.02903143
0.11469392 -0.1318152 -0.09534989 -0.084797874 0.059692483 -0.10376664 -0.12185889 0.0055193715
0.14043033 -0.11417922 0.1779567 -0.17042223 -0.013534131 -0.17703995 0.21220054 0.16102083
0.16066723 0.060914375 -0.054276805 -0.18209139 -0.15998603 0.01743379 0.06595562 0.025831811
0.077578515 0.04442451 0.14148478 -0.109419726 -0.110033914 0.059781596 0.20746619 0.097590715
-0.18346316 -0.011317132 0.2086538 0.049106393 0.07724103 -0.2379032 0.09246001 -0.00838749
-0.14458981 -0.10850967 -0.0023519953 0.14068024 0.05264515 0.14406136 0.053113338 -0.071788356
-0.019733671 0.07887268 0.18503997 0.18218288 -0.20508842 -0.00831403 -0.119256705 -0.021570118
-0.30868474 0.17264783 0.19135647 -0.02520539 -0.10061655 0.146239 0.05591741 0.059767857
0.06746131 -0.09619557 -0.10290441 0.1260937 -0.13499825 0.04901341 -0.122720405 -0.03924169
0.29466742 -0.003080676 -0.091792 0.0132149635 -0.086024046 0.0654414 0.09634991 -0.102424
-0.038309023 0.14244972 -0.04943204 -0.07985157 0.08358987 -0.2635581 -0.028096471 -0.078003
-0.06442026 -0.1119451 0.00012642305 -0.041468464 0.009338504 -0.048405204 -0.12652488 -0.06645663
-0.053210996 0.033331916 0.22647907 0.038143508 -0.044805285 -0.05387521 -0.062303457 -0.12533534
0.028481532 -0.07815883 0.08574903 -0.24384178 -0.23822832 0.07233157 0.2312813 -0.037044637
0.023829272 0.028198712 0.06675404 -0.09327072 -0.028370846 -0.01786854 0.085211255 0.1290793
0.0344108 -0.0138889635 -0.0062557836 0.18410799 -0.056129757 0.17330882 0.004119319 -0.110934205
0.09786298 -0.026797803 0.0769514 0.18048738 0.02169293 0.04407409 0.033472635 0.047889326
0.043092515 0.09197788 -0.0587146 0.036496352 -0.22704108 -0.047914345 0.08174207 0.23044494
0.17913796 -0.11847108 0.0010113231 0.017942011 -0.04420673 0.15494166 0.03258525 0.08675969
-0.10297357 0.32300025 -0.017843727 0.10108286 0.12281605 -0.08971483 -0.027277227 0.037797444
0.17225842 -0.07726846 0.04488096 -0.088960804 0.056476064 0.093139224 -0.2716017 -0.11452974
-0.1036167 -0.16213723 -0.04396855 0.23881842 0.006428395 0.1450285 -0.098121606 0.035305317
-0.022850461 -0.024960019 0.037738856 -0.18688175 0.14030609 0.1049837 0.085201226 0.03480271
-0.11507569 0.07362925 -0.044585645 -0.12637155 0.22661695 -0.06217881 -0.29894888 -0.20584618
0.28824517 -0.09569152 -0.13799237 -0.016737187 0.045550264 -0.07147026 -0.04023071 -0.2621004
-0.17815328 -0.084552005 -0.19738846 -0.1944573 0.07819397 0.1671544 -0.0036308798 -0.22354048
-0.008512337 0.15167686 0.23214798 -0.10398507 0.2595139 -0.035725337 -0.061955765 -0.07525177
0.20802681 -0.080521435 -0.03772454 0.06630776 -0.08112028 0.10898234 -0.021693217 0.2858669
0.08730239 -0.0020966686 -0.4628586 -0.20555842 -0.09976069 0.032665547 0.07593018 0.02534605
0.06807237 -0.08295485 -0.25834823 0.24437928 -0.07235372 0.047953296 -0.088341855 -0.25581202
-0.054714493 -0.15382095 0.3357743 -0.23704036 0.0024527307 0.013507034 0.14086433 0.0037206057

layer_3.bias f4 [15]
00000000: 4ecd 453e a4fb 9f3e 57bb 453d 49d7 c7bc
00000010: c091 a2bd cf47 843d c88f db3c f772 99be
00000020: 3043 c5be 77ff b7bd 7e12 63be 6a8d 89be
00000030: 8b35 8abc c4b2 893e c4e2 6f3d
0.19316599 0.31246674 0.048274364 -0.024394648 -0.07937956 0.06459009 0.026801959 -0.29970524
-0.38527822 -0.08984273 -0.22175023 -0.26865703 -0.016871234 0.268942 0.05856587
