first_implementation/new_parameters.pt (torch, 3991 bytes, 5 tensors)

dense_1.weight f4 [19, 15]
00000000: 035f b73d 2cf1 51be 1d7f 983e e84e 85be
00000010: a45b 93be 867f 8cbe b758 853e 9c89 013e
00000020: db15 0bbc c858 e83d ecf3 a03c 2e79 183d
00000030: fbe9 08be b198 ac3e f585 35be 95bb 1abe
00000040: 98c0 d43d 907d 593d 65fe 773d dd4a 47be
00000050: beb0 78be c1bc 293e 8024 3f3c dc3b 923d
00000060: 1288 10bd 5231 363e 1633 e8bd c93d 883d
00000070: 46d8 af3e 48c0 a8bd bcff 72bd 03ba 35be
00000080: e523 243e bead 223e 487b 3e3e 0691 2c3e
00000090: d423 d53d 2427 5cbe 8d85 033e 0542 b43c
000000a0: 689e 8e3e 8764 80be 73fa 6c3e 38cc 72bc
000000b0: eb93 51be 0a78 8cbd a64d b53d 7159 3abc
000000c0: 641e 67be a528 2a3e be7a 23be 3e66 abbc
000000d0: a3f8 1ebe 96c0 84bd f65d 72bb 2ec0 21bd
000000e0: eecb d3bd cf40 68be e441 853d 680f 053e
000000f0: d212 043e f000 8fbd 22f7 273e f085 09be
00000100: ec61 0b3e 2047 3cbc 7631 eabd 8fe5 60be
00000110: 2267 21be cd0a 68be 802b 3f3c ca70 1a3e
00000120: 3028 1c3d 166c 4a3e 8050 dbbc 2c13 5d3e
00000130: 9906 3dbe 7613 bc3d 3ab5 393e 2683 ba3c
00000140: d8a6 51be 0185 23bd 96e1 28be 39e5 6cbe
00000150: 6b4e 01bc d9aa 5d3e ba25 d5bd 856d a63d
00000160: 2825 3fbe 08db 523b 0776 6a3e 0cda 2a3d
00000170: ddaf 0e3d fdbf 47be ff63 e6bd 705d 333e
00000180: 729e b03c 9663 83bb 01b0 cebd f407 293e
00000190: 3fe6 2dbe 1eb5 cbbd 7a04 88bd 42c0 483e
000001a0: 4297 e1bd a2a2 f7bd d768 dc3d 5c03 66bc
000001b0: 77e6 563e e54e 053d b0fa 0d3e c7c0 343e
000001c0: 3087 ccb9 81f5 26bd 0a86 f1bd e009 0e3a
000001d0: 8aec 0b3e 298f fabc f313 613e a8b1 f93c
000001e0: cca3 68be 6e1b 523e 624e 0fbe 1410 a8bd
000001f0: 7104 8ebe 6970 72be f2cd 513e babc 16be
00000200: 7e72 943c f2e2 48be 8a2a f5bc 1910 b3bd
00000210: 3654 7a3d f38a aabd 8364 83be c6da 2bbe
00000220: 64f2 39bd f020 0a3d 106a 81be 46ca 44be
00000230: e0b5 5c3d 5578 64be 8c1a 05bd 50f1 a33c
00000240: 403d a23c fd19 2bbe cbb6 60be d07e 343d
00000250: 9287 3a3e 5e0a cebd a4fd 593e 142a 0cbe
00000260: f48c c63d 88a8 573e 702b 223e 948a 3ebe
00000270: 93e2 9c3d 8fe8 25be f6f4 65be 541d 74be
00000280: ede3 c03d 4871 4abd 564d 13be 4496 cc3d
00000290: bf51 483e 220a 9ebd f92c 04be 50d3 cd3d
000002a0: 4e08 b7bd a43e fcbd 0030 e1b9 5c70 0dbe
000002b0: 60f6 d7bc 90af 143d 582e e73d a7ce 833e
000002c0: 4f4f 33be c074 62bd 5041 32be ce75 39be
000002d0: b0b0 4abd c9c5 5ebe 8236 3d3e 8082 dc3b
000002e0: 4058 e53c 1e10 28be 59df 04be 78ec 74bd
000002f0: f817 313d 4e25 0f3e dcde 1b3e 4871 c83d
00000300: c231 373e 6c01 bcbd bf4f 75be b768 6bbe
00000310: d7ae e23b 937b 523e f648 793e 0c02 9bbd
00000320: 4810 0a3e 5ff0 dc3d 7809 44be 0f1c 7b3d
00000330: f097 77be ef27 25be 976f ffbd f16c 643e
00000340: fc09 dbbd 5aa3 4d3e f8f2 133d 387f 1b3e
00000350: a8fa 433e a5b4 d43d c417 1cbc 5999 0e3d
00000360: bed5 813d c2c4 12be 6818 33bd 17d2 50bd
00000370: 7a3c 1f3e b660 d33d a4ff 39be 0c72 f1bd
00000380: 9bbc 16be 9370 edbd 6889 243e 2533 ce3c
00000390: a133 63be 8a13 b03d 6e5e 613e 2ef6 8fbc
000003a0: 80ad 77be 928b 01be cc7f bf3d d161 e2bd
000003b0: 31de 86bd 6402 4d3e 574e 273e 7e39 83bd
000003c0: 5028 3a3d 2e2c 59be d7c3 aebd ed7b 47be
000003d0: bcfd 273e 6d49 eb3d b623 70bd cc41 94bc
000003e0: dfeb 82be 1fea 4abe 3645 1ebe 6253 fdbc
000003f0: 424b f93d 56ff 03be bd50 0abe 21f6 78be
0.08953669 -0.20502156 0.2978448 -0.26036763 -0.28780854 -0.27441043 0.26044247 0.1265015
-0.0084890975 0.11345059 0.019647561 0.03722494 -0.13370506 0.33710244 -0.17726882 -0.1511062
0.10388297 0.05309826 0.060545344 -0.19462152 -0.24286172 0.1657591 0.011666417 0.071403235
-0.035286017 0.17792252 -0.11337869 0.066524096 0.3434469 -0.082398 -0.05932592 -0.17746739
0.16029318 0.1588659 0.18601716 0.16852197 0.10407224 -0.21499306 0.12843914 0.022004137
0.2785523 -0.25076696 0.23142414 -0.014819197 -0.20466582 -0.06858833 0.08852701 -0.011373864
-0.22570187 0.16617067 -0.15964791 -0.020922776 -0.15524535 -0.06482045 -0.0036982275 -0.039489917
-0.10341631 -0.22680973 0.06506708 0.12994158 0.12897804 -0.06982601 0.16402867 -0.1343
0.13611573 -0.011491567 -0.11435215 -0.2196257 -0.15761998 -0.2266037 0.011668086 0.15082088
0.038124263 0.19767794 -0.026771784 0.21589345 -0.18459548 0.091833994 0.18135539 0.022767615
-0.20473802 -0.039921764 -0.16492304 -0.23134317 -0.007892231 0.21647204 -0.104075864 0.08126358
-0.18666518 0.003217401 0.22896586 0.041711852 0.034835685 -0.19506831 -0.112495415 0.17516112
0.021559928 -0.0040096743 -0.10092164 0.1650694 -0.16982363 -0.09946655 -0.06641479 0.1960459
-0.11015178 -0.120915666 0.10762184 -0.014038887 0.20986353 0.032545943 0.13865161 0.17651664
-0.00039010635 -0.040761475 -0.11793144 0.00054183416 0.13664451 -0.030585842 0.21980266 0.03048022
-0.22718734 0.20518276 -0.13994744 -0.08206192 -0.27737764 -0.23675694 0.20488718 -0.14720431
0.018121 -0.19617823 -0.02992751 -0.08743305 0.061115466 -0.08327284 -0.25662622 -0.16782674
-0.045397177 0.033722818 -0.25276232 -0.19217786 0.053884387 -0.22311528 -0.03249602 0.020012528
0.019804597 -0.16709132 -0.2194473 0.04406625 0.18215778 -0.10060571 0.21288162 -0.13687927
0.096948534 0.21060383 0.15836883 -0.18607551 0.07660403 -0.16201995 -0.22456726 -0.23839313
0.094184734 -0.04942444 -0.1438497 0.099895984 0.19562434 -0.077167764 -0.1290778 0.1005007
-0.08937131 -0.12316635 -0.00042951107 -0.13812393 -0.026362598 0.036300242 0.11288136 0.257436
-0.17510723 -0.055287123 -0.17407727 -0.18111345 -0.04948491 -0.21755137 0.18477824 0.006729424
0.027996182 -0.16412398 -0.12975825 -0.059795827 0.04323575 0.13979074 0.15221733 0.09787232
0.17890075 -0.09179959 -0.23956202 -0.22989164 0.006917815 0.20554952 0.24344239 -0.0756875
0.13482773 0.10788035 -0.19144237 0.061306056 -0.24179053 -0.16128515 -0.12472456 0.22307183
-0.10695264 0.20081845 0.036120385 0.15185249 0.19138587 0.10386018 -0.009527151 0.034814212
0.06339596 -0.1433287 -0.043724447 -0.050981607 0.15550414 0.103211805 -0.18163925 -0.11789331
-0.14720385 -0.115937375 0.16068041 0.025170872 -0.22187664 0.08597477 0.22008678 -0.017573442
-0.24187279 -0.12650898 0.09350547 -0.11053813 -0.065853484 0.20020443 0.16338478 -0.0640745
0.0454486 -0.2120826 -0.08533447 -0.19480868 0.16405386 0.11488614 -0.058627807 -0.01809778
-0.2557058 -0.19815873 -0.1545609 -0.03092355 0.121725574 -0.12890372 -0.13507362 -0.2431264

dense_1.bias f4 [19]
00000000: 2faa 353e 9fca 4c3e bdb9 9abe 0257 3a3d
00000010: 9b12 53be 4f98 c2bd d03c 70be e198 eebd
00000020: e25d 5e3e 205a 463e 37ad 913d 8078 99bb
00000030: 801e a4bc e088 fd3d 8296 63be e8d5 193d
00000040: 40fb 66be 7ba6 cf3c 556d 48be
0.17740701 0.19999169 -0.30219832 0.045493133 -0.20612566 -0.09501707 -0.23460698 -0.11650253
0.21715501 0.19370317 0.07113116 -0.004683554 -0.020034075 0.123796225 -0.22225383 0.037557513
-0.22556782 0.025347939 -0.19572957

dense_2.weight f4 [9, 19]
00000000: 266c a13d f49d 9e3d f0fa 1fbe c2e2 4f3e
00000010: c8af b03c 7462 afbd e25d 353e 4265 f2bd
00000020: 981d 033d fda2 ca3d 5f53 513e 484e 09bd
00000030: 43c5 5f3e 205f 53bd e40c 633d 282d 53bd
00000040: 2620 fb3c bd6d 2ebe 21c1 32be 0e52 543d
00000050: 00ad 09bc 9c55 aa3d 53ce c7bd ce0b afbd
00000060: 712a 39bb a6a8 3ebe d9bf 00be 9629 303e
00000070: 12f2 c8bc 1e06 253e 64b3 07be 9a07 ed3d
00000080: 963d 25be f7f5 6abe ed1f f43d fe35 99be
00000090: 8805 163c aaea 863d 3c98 3e3d 4a1a d73d
000000a0: 9c0b 09be f559 9f3d f4fb 4fbd 18ee 833d
000000b0: 0f50 4d3e 1c48 0c3d ad29 a2bd a35b 203e
000000c0: 2c99 95bd 9008 75bd fbc6 533e 0707 2fbd
000000d0: 3ca4 4a3d d1e2 4bbe a405 933d bb54 4b3e
000000e0: 6e1b 64be a2ef 083e 19dd 6d3e 1032 c53d
000000f0: 2040 273e 42bd e63d f76e 06be 188f aa3c
00000100: 87f8 493d 2d8d 7bbe c37c bdbc fa4a 073e
00000110: 4945 253e 785a e7bc aaa6 f7bd a018 613c
00000120: 0b8f 433d 4807 adbd 75cd 30be a859 da3c
00000130: 33a2 a63e ee3a 1c3e 2e79 833d 42cd a6bd
00000140: c72a fcbd 9b96 45be 6e9f c8bd 051b 263e
00000150: a925 293d 4970 58be 08fe 2d3d ec19 793d
00000160: 34c7 443d 0f33 bfbd f3cb da3c e89a 70bc
00000170: e674 b9be 2036 2e3c 0805 2c3e c292 91bd
00000180: 304d 5f3e ef0f a43d 14ce 053e 3cf2 b5bd
00000190: 12d9 67bd abde a1bd 04c2 923d 75fd 6a3d
000001a0: 43eb 663e 7c47 433d 86c5 c13d 545b 673d
000001b0: e492 fa3d 8340 4ebc fe71 44be 5a90 563d
000001c0: 717a 6cbe cb73 75bd 7637 71be de17 e2bd
000001d0: 9057 11bd dbd0 373e 8068 5ebc 237b 39be
000001e0: 4a40 db3d 279f b1bd 6a27 e63d 5987 663e
000001f0: 23a4 3ebc ddd4 323e 2261 4abe 8c3b 26be
00000200: f818 b33c 127f b1bd 7973 18be b361 9bbd
00000210: 2e2c 52be 8057 3e3d a092 20be 3fc4 02be
00000220: 82ed 4cbe fd47 60be 72b4 5f3d 52d5 afbc
00000230: 8788 84be 28a0 753c 52e4 0b3e 9bac 543e
00000240: a4a4 3fbd 70dc 52be ba40 22be b92b bb3d
00000250: c585 d1bd 5b73 56bd 3ebf f53d 76f3 2ebd
00000260: 4626 66be 32ca 56be 24ce 1a3d d56c 523e
00000270: 7c9b 7f3d 35ce 21be 829a d63d aec9 b23d
00000280: ac86 3c3d ee85 ea3d 35ef 68be b8c9 3dbe
00000290: 4091 8cbb 1a03 923d 449b 68bd 1d58 24be
000002a0: 1c7d 103d aa81 2ebe 4a4a 42be
0.07881956 0.07744971 -0.15623069 0.20301345 0.021568194 -0.085637 0.17711595 -0.1183572
0.032010645 0.09894369 0.2044196 -0.03352192 0.21852593 -0.05160439 0.055432215 -0.051556736
0.030654978 -0.1703405 -0.17456485 0.051836066 -0.008403063 0.0831711 -0.0975615 -0.085471734
-0.0028254057 -0.18619022 -0.12573184 0.17203364 -0.02452949 0.16115615 -0.13252026 0.115737155
-0.16136774 -0.2294539 0.11920152 -0.29924005 0.009156592 0.06587727 0.0465319 0.10503061
-0.13383335 0.0778083 -0.05077739 0.06441897 0.20050071 0.034248456 -0.07918105 0.15659957
-0.07304606 -0.05982262 0.20681374 -0.04273131 0.049473032 -0.19910742 0.0717881 0.19856541
-0.22276089 0.13372663 0.23228873 0.09628689 0.16333055 0.11266567 -0.13128267 0.020820186
0.04930928 -0.24565573 -0.02313078 0.13212195 0.16139711 -0.028241381 -0.120923355 0.013738781
0.04774384 -0.084486544 -0.17265876 0.02665408 0.32545623 0.15256855 0.064195976 -0.081446186
-0.12312847 -0.19295733 -0.09796034 0.16221245 0.04129568 -0.21136583 0.04247859 0.060815737
0.048041537 -0.093359105 0.026708579 -0.01468537 -0.36222 0.010633022 0.16798794 -0.0710807
0.21806788 0.080108516 0.13066894 -0.08884093 -0.0566035 -0.07903799 0.07165912 0.05737062
0.22550683 0.047675595 0.09461503 0.05648358 0.122350484 -0.012588623 -0.1918411 0.052383758
-0.23093583 -0.059924882 -0.23556313 -0.110397086 -0.035483897 0.17950766 -0.013574719 -0.18113379
0.107056215 -0.08672934 0.112379864 0.22512569 -0.011635813 0.17464013 -0.19763616 -0.16233653
0.021862492 -0.08666815 -0.148878 -0.07586994 -0.20524666 0.046470165 -0.15680933 -0.12770174
-0.20012477 -0.21902461 0.054615445 -0.021464024 -0.25885412 0.0149917975 0.13661316 0.20768969
-0.046787873 -0.20591903 -0.15845004 0.09139199 -0.10230593 -0.052356105 0.11999367 -0.04271265
-0.22475538 -0.20975569 0.037794247 0.20549329 0.06240414 -0.15801318 0.10478689 0.087298736
0.04602687 0.11451326 -0.227475 -0.18533981 -0.004289776 0.07129498 -0.056788698 -0.16049238
0.035275564 -0.1704165 -0.18973652

dense_2.bias f4 [9]
00000000: d524 803d 7e55 1a3d 16fa 50bd 5cef 153e
00000010: 1c90 cfbc 54c0 a4bc 4d78 f53d 2f58 2b3e
00000020: acd9 05be
0.06257025 0.037679188 -0.05101975 0.1464209 -0.025337271 -0.02011124 0.11985836 0.16732858
-0.13071316

final_dense.weight f4 [1, 9]
00000000: 383c 7d3b 9aaa 343e 73f2 adbd f137 373d
00000010: 6be9 843e 1282 733d dbc9 09be 63d9 c83c
00000020: 806e 073c
0.003864063 0.17643204 -0.08493509 0.044731084 0.25959334 0.059450217 -0.13455908 0.02451772
0.008266091
